gigala/topology/topology_optimiz/hierarchical_rl/draft/HRL_jax_mps/preTrained/T0-h-v1/2level/HAC_T0-h-v1_solved_level_1_actor.pth (torch, 22285 bytes, 30 tensors)

actor.0.weight f4 [12, 32]
-0.016324548 0.15467608 -0.037933573 0.009146013 -0.1128862 -0.101648144 -0.05114067 -0.16166364
-0.023635847 0.03718275 -0.12191751 -0.14765202 0.15668009 -0.077058196 -0.1302456 -0.044397954
-0.0831249 -0.16872591 -0.023593826 -0.0804672 -0.054582592 0.07882025 0.008388445 0.14765485
-0.17616455 0.15476163 0.09702788 -0.04867731 0.12227964 0.16553447 0.01753745 0.049114987
-0.13188088 -0.013123049 -0.09037913 -0.089567065 0.030549029 -0.075401425 0.090207614 -0.05477328
-0.13700642 0.15859218 -0.029025283 0.0023197085 -0.2569937 0.1517657 -0.028465595 -0.09577717
-0.19758545 0.034472205 -0.014451958 0.05361699 0.1283472 -0.16113909 -0.13766296 0.08901337
0.14926414 -0.015869403 0.016175292 0.04447505 0.045618072 -0.08404119 -0.14711285 -0.17428872
-0.04839756 0.16623966 -0.0035870536 -0.1412839 0.13366427 0.06959876 0.028622622 -0.09269782
0.1277872 -0.1438751 0.08777578 -0.021273999 -0.0643561 -0.15914398 0.024227342 -0.08326414
-0.07008739 0.1003133 -0.11343089 0.16724549 0.14333382 0.12870659 0.018340537 -0.13528168
-0.040709347 -0.08541527 -0.024848707 -0.16476339 -0.07939944 -0.030580826 9.7780685e-06 -0.0455984
0.15826373 -0.09633772 0.00082159264 -0.12876159 0.16354124 0.10486585 -0.15597992 -0.028212799
-0.007008345 -0.09484392 0.18117544 0.05825003 0.13825896 -0.04475599 -0.016170593 0.10460572
0.2822323 0.1358594 0.0006865412 0.0525134 0.15357764 0.010500009 -0.017097684 0.27242324
0.002565549 -0.03197868 0.28441545 0.1956151 0.009136498 0.13043392 0.26706323 0.2627293
-0.08363098 -0.066743724 0.11337236 0.1317954 -0.14506982 0.14727834 0.08811281 0.052943584
-0.051218368 -0.0231237 0.10779231 0.028880116 0.14016972 -0.109417535 -0.06234364 -0.020366032
0.07162298 0.061578885 0.0937933 -0.09796324 -0.031388823 0.06881685 -0.07811653 0.12635903
0.12459839 0.09795332 0.09430288 0.10670726 -0.1497403 -0.05396322 0.13248362 -0.073351085
0.21663159 -0.06007462 0.1948761 -0.030380458 -0.050717957 0.031410992 0.16239518 0.20526637
-0.05073509 0.14448462 0.12122129 0.24770509 0.20508991 0.05198662 0.30529058 0.24863885
0.18932228 0.07359203 0.22752854 -0.030394906 0.038175505 -0.08962819 0.01587656 0.09696151
0.07965694 0.1716137 0.14431441 0.04372509 0.34748948 -0.091164276 0.31893405 0.3244055
-0.062228154 0.0044786083 -0.07486796 0.14781566 -0.12726277 0.019686371 -0.09940821 0.1392774
0.08586006 0.15273893 -0.08113009 0.059773207 -0.15071803 0.10503812 -0.05868485 0.058934044
0.085864484 -0.1108594 0.09933129 -0.07229185 0.06816211 -0.06036752 0.007804311 0.017970426
0.15238436 0.050500773 0.030749476 -0.032664943 -0.17608748 -0.07857487 -0.06016389 0.06622326
-0.01281214 0.055380158 -0.09170292 -0.17596075 0.064767085 0.095426366 0.093413934 0.14657019
-0.17241278 0.05258002 0.14037378 -0.09031389 0.0985577 0.09139304 0.037639704 -0.16907166
0.08288212 0.15900937 -0.024243604 0.07048382 0.13470173 -0.13198528 -0.1644751 0.06893123
-0.0074164965 -0.083103746 -0.16516595 -0.10968481 0.047769807 -0.032523774 -0.15361805 -0.017884003
00000000: 0fbb 85bc 6863 1e3e 3c60 1bbd 29d9 153c
00000010: e130 e7bd e72c d0bd e178 51bd 278b 25be
00000020: f79f c1bc f04c 183d e3af f9bd 1732 17be
00000030: bf70 203e b0d0 9dbd 1a5f 05be a1da 35bd
00000040: 633d aabd 7cc6 2cbe d747 c1bc fdcb a4bd
00000050: ff91 5fbd 836c a13d b06f 093c d532 173e
00000060: 7b64 34be d579 1e3e 8eb6 c63d dc61 47bd
00000070: bf6d fa3d de81 293e b3aa 8f3c cc2c 493d
00000080: c80b 07be 0f02 57bc b118 b9bd f06e b7bd
00000090: f541 fa3c 106c 9abd c5be b83d f259 60bd
000000a0: 694b 0cbe fd65 223e 6ec6 edbc 4006 183b
000000b0: ae94 83be 7868 1b3e ae30 e9bc d226 c4bd
000000c0: d753 4abe ba32 0d3d e8c7 6cbc 7d9d 5b3d
000000d0: 736d 033e a501 25be 85f7 0cbe a44c b63d
000000e0: b3d8 183e 8d00 82bc 0c82 843c 782b 363d
000000f0: 04da 3a3d ca1d acbd c0a4 16be be78 32be
00000100: 853c 46bd bb3a 2a3e c614 6bbb baac 10be
00000110: 49df 083e cb89 8e3d fd79 ea3c 5bd8 bdbd
00000120: a6da 023e ff53 13be cac3 b33d cf46 aebc
00000130: 22cd 83bd a4f6 22be 6b78 c63c 6486 aabd
00000140: fa89 8fbd 0f71 cd3d 744e e8bd 6742 2b3e
00000150: 1ac6 123e a9cb 033e e53e 963c 4887 0abe
00000160: d8be 26bd 33ee aebd 848f cbbc bcb7 28be
00000170: 2c9c a2bd a484 fabc 7c0c 2437 63c5 3abd
00000180: e30f 223e b64c c5bd 2660 573a 14da 03be
00000190: 5b77 273e e8c3 d63d 33b9 1fbe 871e e7bc
000001a0: 42a6 e5bb 873d c2bd 0e86 393e 9597 6e3d
000001b0: c293 0d3e 0f52 37bd 3178 84bc 863b d63d
000001c0: c180 903e ba1e 0b3e 00f9 333a 4a18 573d
000001d0: 7543 1d3e 3b08 2c3c 7110 8cbc 0f7b 8b3e
000001e0: c522 283b 14fc 02bd e79e 913e 534f 483e
000001f0: 40b1 153c 7890 053e 83bc 883e 7484 863e
00000200: b846 abbd efb0 88bd c52f e83d 60f5 063e
00000210: 2f8d 14be 22d0 163e 7d74 b43d 5fdb 583d
00000220: 5aca 51bd ea6d bdbc 37c2 dc3d fe95 ec3c
00000230: a788 0f3e 4d16 e0bd 0b5c 7fbd aad6 a6bc
00000240: 12af 923d 243a 7c3d b416 c03d f4a0 c8bd
00000250: 9191 00bd d9ef 8c3d 8ffb 9fbd 4364 013e
00000260: 712d ff3d c09b c83d de21 c13d 5689 da3d
00000270: 8555 19be 8a08 5dbd c9a9 073e 1839 96bd
00000280: acd4 5d3e ce10 76bd 9a8d 473e 70e0 f8bc
00000290: a2bd 4fbd d0a8 003d ec4a 263e 5931 523e
000002a0: 99cf 4fbd c7f3 133e de42 f83d 67a6 7d3e
000002b0: 1703 523e ecef 543d 0c4f 9c3e 2f9b 7e3e
000002c0: b3dd 413e 6bb7 963d 3efd 683e bdfe f8bc
000002d0: eb5d 1c3d fc8e b7bd 8f0f 823c c293 c63d
000002e0: 2e23 a33d 80bb 2f3e 28c7 133e 1419 333d
000002f0: 24ea b13e 56b4 babd 534b a33e 7a18 a63e
00000300: f3e2 7ebd 4ac1 923b 5f54 99bd fd5c 173e
00000310: 2c51 02be 5045 a13c 8896 cbbd bc9e 0e3e
00000320: 66d7 af3d 9867 1c3e 8827 a6bd c0d4 743d
00000330: d455 1abe 3a1e d73d 865f 70bd d364 713d
00000340: b8d9 af3d 410a e3bd 346e cb3d c00d 94bd
00000350: 9498 8b3d ef43 77bd 4ebb ff3b b736 933c
00000360: a50a 1c3e e6d9 4e3d 53e6 fb3c adcb 05bd
00000370: 4750 34be ddeb a0bd 696e 76bd 0fa0 873d
00000380: 03ea 51bc 4ed6 623d bece bbbd 0e2f 34be
00000390: 9ba4 843d e66e c33d ce4f bf3d 7f16 163e
000003a0: fa8c 30be 265e 573d 25be 0f3e 7df6 b8bd
000003b0: 9fd8 c93d 462c bb3d 172c 1a3d 1f21 2dbe
000003c0: 1abe a93d 5ad3 223e 869a c6bc d259 903d
000003d0: 40ef 093e 2627 07be 296c 28be d12b 8d3d
000003e0: 1506 f3bb 4c32 aabd 4321 29be 6ea2 e0bd
000003f0: 46aa 433d a637 05bd 0d4e 1dbe 7981 92bc

actor.0.bias f4 [12]
-0.16997515 -0.0384274 -0.16128567 0.19219688 0.16796558 0.18054217 0.086686246 -0.14034492
0.05562107 0.05839381 -0.016494282 0.17604421
00000000: f70d 2ebe 0d66 1dbd 1228 25be 42cf 443e
00000010: 2bff 2b3e 0ce0 383e 8f88 b13d 94b6 0fbe
00000020: ebd2 633d 592e 6f3d 041f 87bc ef44 343e

actor.3.weight f4 [12, 12]
-0.20955071 0.035066742 -0.17407471 0.18817976 0.25903317 0.0031997538 0.25847468 0.1985116
-0.038387287 0.22115119 0.38967556 0.020418013 -0.2427426 0.12813355 -0.25839558 0.061927855
-0.19291905 0.29756635 -0.1671311 -0.13421516 0.18997453 -0.14626214 0.3839559 0.04589399
0.15146682 -0.06055318 -0.010685839 0.23656777 0.14491925 0.047582906 0.25313053 0.124835186
-0.08236378 -0.1873111 0.43028638 0.21578746 -0.1569888 0.09413166 0.1347406 0.293478
-0.11278826 0.17717434 -0.16438861 0.024415439 -0.060780123 0.12482866 0.31457075 -0.007324824
0.22033143 -0.111739084 -0.16437285 0.23783448 0.0072742375 -0.08051797 0.07255479 0.06911764
-0.04529383 -0.14947519 -0.14656968 -0.053467754 0.0330762 -0.26606208 0.22379698 -0.00013598778
-0.0001993531 0.066644125 0.044823613 0.0700491 -0.0007565226 -0.033138696 -0.19224752 0.13618326
0.26577806 0.18803471 -0.27017283 0.19482675 0.095395945 -0.26116344 0.26861554 0.23429474
0.25677857 -0.2539769 -0.08508427 0.022091167 -0.1566427 -0.010474039 -0.05532292 0.09168238
-0.19046116 -0.028963437 0.2415602 0.19040923 0.06652575 -0.153389 -0.16969357 0.25529504
0.032159377 -0.020742083 -0.23971714 -0.09702538 -0.27705166 0.13038886 0.031596486 -0.057503533
0.093320146 0.04879625 0.06311351 0.2197311 -0.15861218 0.21535437 0.2443805 0.20652486
0.007759939 0.35466516 0.025705539 -0.022906939 0.15486875 0.31551862 0.046952814 0.11129446
-0.054724097 0.114543095 0.018539382 0.25054416 -0.25089338 0.15814541 0.15218233 -0.21284294
-0.03153209 0.20486191 0.17186001 0.18950422 0.23257077 0.2482874 0.28474912 0.27809867
-0.04126843 -0.06250763 -0.20905206 -0.06310429 0.08216869 0.14924 0.021283086 0.17695346
00000000: 7694 56be 25a2 0f3d a440 32be 32b2 403e
00000010: ff9f 843e f6b2 513b cb56 843e a046 4b3e
00000020: fd3b 1dbd 7575 623e 8e83 c73e ad43 a73c
00000030: 8491 78be 7135 033e 6d4c 84be 10a8 7d3d
00000040: 928c 45be 9e5a 983e 6a24 2bbe b36f 09be
00000050: af88 423e bec5 15be de95 c43e 56fb 3b3d
00000060: 1e1a 1b3e 9c06 78bd a813 2fbc d23e 723e
00000070: b665 143e 4be6 423d 539a 813e 97a9 ff3d
00000080: 57ae a8bd 7bce 3fbe 7f4e dc3e 63f7 5c3e
00000090: acc1 20be 1ac8 c03d 71f9 093e c042 963e
000000a0: 88fd e6bd 316d 353e 7d55 28be e302 c83c
000000b0: 94f4 78bd 2ba6 ff3d 6b0f a13e 1405 f0bb
000000c0: 909e 613e 76d7 e4bd 5b51 28be e28a 733e
000000d0: ba5c ee3b 9be6 a4bd 9b97 943d 8d8d 8d3d
000000e0: 0686 39bd 0610 19be 5d16 16be 0101 5bbd
000000f0: e97a 073d 4a39 88be 092b 653e f197 0eb9
00000100: 7109 51b9 b77c 883d f798 373d e775 8f3d
00000110: 5f51 46ba 71bc 07bd 89dc 44be a073 0b3e
00000120: 1014 883e 2c8c 403e 1854 8abe aa80 473e
00000130: f35e c33d 37b7 85be fa87 893e f6ea 6f3e
00000140: 7b78 833e 4309 82be a940 aebd 89f8 b43c
00000150: f266 20be 4e9b 2bbc 499a 62bd f9c3 bb3d
00000160: 4008 43be bb44 edbc 8f5b 773e a3fa 423e
00000170: a73e 883d 0212 1dbe 27c4 2dbe 08b6 823e
00000180: 8db9 033d 4deb a9bc 6978 75be 3eb5 c6bd
00000190: b7d9 8dbe a884 053e 516b 013d d388 6bbd
000001a0: a21e bf3d 94de 473d a841 813d 3101 613e
000001b0: 3b6b 22be db85 5c3e e23e 7a3e 417b 533e
000001c0: 1647 fe3b ac96 b53e 6c94 d23c 55a7 bbbc
000001d0: ea95 1e3e a88b a13e 9851 403d 5aee e33d
000001e0: 6026 60bd 9295 ea3d e7df 973c 5347 803e
000001f0: 1975 80be dff0 213e afd5 1b3e 80f3 59be
00000200: cb27 01bd 52c7 513e 12fc 2f3e 650d 423e
00000210: 0827 6e3e 0d3f 7e3e a3ca 913e f362 8e3e
00000220: 1609 29bd 0004 80bd be11 56be d23c 81bd
00000230: 0f48 a83d 5fd2 183e de59 ae3c 4a33 353e

actor.3.bias f4 [12]
0.40535095 0.29389906 0.26163393 0.141687 -0.19066234 0.16805294 -0.12455085 -0.0060429503
0.22397673 0.6164321 0.09734046 0.20496263
00000000: 298a cf3e f079 963e e2f4 853e 6616 113e
00000010: fd3c 43be 1216 2c3e 8414 ffbd f103 c6bb
00000020: 285a 653e 7ece 1d3f 6f5a c73d b9e1 513e

actor.6.weight f4 [12, 12]
0.23338298 -0.18200694 -0.04130405 0.09879083 0.18715072 -0.21471885 -0.10660628 0.21206614
0.22319987 -0.12390182 0.17171942 0.025081394 -0.12812176 0.13164128 0.22374882 -0.2108194
-0.19274427 0.21731305 0.014318391 0.15037897 -0.23353148 -0.22752073 0.20610058 0.006731789
0.01769663 -0.11678781 0.1714393 0.0689452 -0.2797813 0.14464834 0.0350676 -0.11433162
0.20806299 0.10836598 0.11932776 -0.21880507 0.15890178 -0.24542387 -0.11671344 0.088146076
-0.15141906 0.16873425 0.16162014 0.051890086 0.20872527 -0.01148553 -0.09161131 0.19377962
-0.00048587372 -0.17046683 -0.119091645 0.08939653 -0.02648189 -0.053639576 0.10448625 -0.2720098
-0.10529006 -0.276102 0.013520084 0.08378563 0.42990348 0.4040079 0.3631416 0.38389122
0.06732522 -0.10528399 0.250546 -0.093444444 0.1397736 0.4607085 0.33116457 -0.1606152
-0.07027963 -0.26089695 -0.19929378 0.029711906 0.24312583 -0.049075965 -0.015828285 0.021209545
-0.15161751 -0.13959469 -0.21764913 -0.017221624 0.08292363 0.2060799 -0.28418985 0.14694656
-0.2393007 0.13938443 -0.20052895 -0.18499176 -0.23865604 0.24435559 -0.23969576 0.19678344
0.24851276 -0.18774347 0.20942204 0.26496217 -0.27802762 -0.18716662 0.21823923 -0.17565289
0.18972602 -0.16701078 -0.044630595 -0.18527901 0.043806065 -0.17583917 -0.16161297 0.053274527
-0.010063701 -0.018567197 -0.14070977 0.16743696 0.26478568 0.17215645 -0.22497956 -0.23706773
-0.18380006 0.014947629 -0.01897695 0.040784795 0.09421033 0.17416134 0.14323302 0.074120775
-0.090954535 -0.026025955 -0.09362617 -0.20876919 -0.035913415 -0.26862139 0.21595998 0.20370491
0.017240481 -0.19241308 -0.086335756 0.06992982 0.23075424 0.23873322 0.089316875 0.12917191
00000000: f3fb 6e3e 0760 3abe 6f2e 29bd d952 ca3d
00000010: 70a4 3f3e 42df 5bbe 6554 dabd de27 593e
00000020: 828e 643e 3dc0 fdbd 37d7 2f3e 7f77 cd3c
00000030: 5a32 03be f9cc 063e 691e 653e 0ae1 57be
00000040: c15e 45be 5087 5e3e af97 6a3c f2fc 193e
00000050: e022 6fbe 32fb 68be 080c 533e 5796 dc3b
00000060: 86f8 903c 732e efbd c98d 2f3e 2433 8d3d
00000070: 7f3f 8fbe b21e 143e 0ba3 0f3d b226 eabd
00000080: 770e 553e fcee dd3d 1d62 f43d 700e 60be
00000090: 26b7 223e 6550 7bbe 7507 efbd ee85 b43d
000000a0: 990d 1bbe acc8 2c3e c07f 253e b38a 543d
000000b0: 14bc 553e ce2d 3cbc b69e bbbd 2a6e 463e
000000c0: debc feb9 db8e 2ebe 52e6 f3bd 8715 b73d
000000d0: 8cf0 d8bc 2cb5 5bbd e3fc d53d de44 8bbe
000000e0: 51a2 d7bd 3e5d 8dbe 5883 5d3c cd97 ab3d
000000f0: 4f1c dc3e 20da ce3e b2ed b93e 648d c43e
00000100: cee1 893d 229f d7bd 9147 803e cd5f bfbd
00000110: d020 0f3e fce1 eb3e 678e a93e 5078 24be
00000120: c4ee 8fbd 4994 85be ab13 4cbe 6266 f33c
00000130: faf5 783e e103 49bd 52aa 81bc a4bf ad3c
00000140: 9f41 1bbe e9f1 0ebe 6adf 5ebe 5d14 8dbc
00000150: ddd3 a93d 9c06 533e 5581 91be 2979 163e
00000160: 3e0b 75be cbba 0e3e 7657 4dbe 7b6e 3dbe
00000170: 4062 74be 5a38 7a3e ce72 75be 9981 493e
00000180: 217a 7e3e d33f 40be bb72 563e 1fa9 873e
00000190: a359 8ebe 9ba8 3fbe 1b7a 5f3e 5ade 33be
000001a0: 8a47 423e e004 2bbe 92ce 36bd c8b9 3dbe
000001b0: fd6d 333d 2f0f 34be df7d 25be 6436 5a3d
000001c0: 39e2 24bc 3c1a 98bc 3916 10be 9874 2b3e
000001d0: fd91 873e c849 303e 0b61 66be e2c1 72be
000001e0: 1536 3cbe e6e6 743c 8c75 9bbc f50d 273d
000001f0: 58f1 c03d 5a57 323e adab 123e a2cc 973d
00000200: 5f46 babd 6234 d5bc 14bf bfbd 97c7 55be
00000210: f219 13bd be88 89be 9d24 5d3e 0598 503e
00000220: e93b 8d3c ef07 45be cdd0 b0bd 5e37 8f3d
00000230: d74a 6c3e 7b76 743e c4eb b63d a445 043e

actor.6.bias f4 [12]
-0.073174804 -0.19403513 -0.14658873 -0.10279903 0.03790751 0.4019187 0.19103244 0.25316626
-0.20374034 0.121546306 -0.10296342 0.13993019
00000000: acdc 95bd 25b1 46be 5b1b 16be 4c88 d2bd
00000010: e844 1b3d 4ac8 cd3e 029e 433e 029f 813e
00000020: 4fa1 50be 45ed f83d 7cde d2bd dc49 0f3e

actor.9.weight f4 [12, 12]
-0.27224746 -0.088474095 0.16154553 -0.06344647 -0.14531612 0.2102304 -0.18181711 -0.1941098
-0.016943913 0.15015115 -0.18879245 0.19372967 -0.27944562 0.22277817 -0.21448167 0.015557457
-0.1940088 -0.67668223 0.28393173 0.12001789 -0.24247931 -0.25339153 -0.015410446 0.18568288
0.16053173 0.012707564 0.037195597 -0.21389812 0.1760229 -0.03278603 -0.23246461 -0.21242042
-0.059467517 -0.18182975 -0.09304886 0.28081852 0.012410513 -0.15667795 0.22477509 0.2675777
0.028050767 -0.009232926 0.034216776 -0.05818337 0.053592775 0.0899578 0.21788937 0.1349124
0.056720346 -0.021737713 0.22045335 0.11711394 0.091492094 -0.24414659 0.059602242 -0.080666736
0.07372341 -0.1434652 0.17695439 -0.092062145 0.06582121 0.08091165 -0.21613841 -0.2410203
0.19840644 -0.7200632 -0.101043426 0.16484202 0.07174984 0.27658483 -0.2832018 0.10030802
-0.10957617 0.12048299 0.21137196 0.19551322 -0.2861771 -0.10216903 0.20209315 0.10804112
-0.23466375 0.17751119 0.20068842 -0.14012131 -0.086140156 -0.20797163 -0.21854052 -0.1333865
-0.06752279 0.0069507575 0.17545585 0.25878164 0.03158998 0.17119408 0.17208102 0.056496147
-0.13669656 0.11596373 0.045024376 -0.22908862 -0.09082267 -0.11316491 0.10112323 -0.1335888
0.12110265 -0.016014183 -0.049310453 0.11140136 0.17635073 0.08880525 0.04931854 -0.017715516
-0.051551204 -0.2284743 -0.058947437 0.21881324 0.18230754 -0.2791256 0.05414455 -0.048051633
0.09205065 0.22517999 0.0130419005 -0.14529924 -0.047109034 -0.12481094 0.15877867 0.15582998
0.009352252 -0.24079058 0.0010317977 0.28115842 -0.013950106 0.090968266 -0.21797141 0.07194569
0.20016861 0.01802712 -0.041173935 0.08318902 -0.25788504 -0.00029722298 -0.08546914 0.2749632
00000000: 0564 8bbe e831 b5bd 316c 253e 39f0 81bd
00000010: c0cd 14be a346 573e 442e 3abe b8c4 46be
00000020: f6cd 8abc 39c1 193e cf52 41be 1261 463e
00000030: 7f13 8fbe f61f 643e 15a1 5bbe b4e4 7e3c
00000040: 3eaa 46be 0c3b 2dbf 805f 913e f1cb f53d
00000050: 7f4c 78be 89bc 81be 187c 7cbc a723 3e3e
00000060: 6e62 243e 6333 503c 695a 183d 1c08 5bbe
00000070: 593f 343e a54a 06bd 340b 6ebe bd84 59be
00000080: 3694 73bd 9431 3abe 6790 bebd 72c7 8f3e
00000090: 7755 4b3c 2f70 20be 712b 663e f2ff 883e
000000a0: b9ca e53c b345 17bc e426 0c3d af51 6ebd
000000b0: 1984 5b3d cc3b b83d 641e 5f3e 7a26 0a3e
000000c0: 9853 683d 4a13 b2bc 86be 613e 6fd9 ef3d
000000d0: 3560 bb3d 9001 7abe 7b21 743d 9a34 a5bd
000000e0: 4dfc 963d 8be8 12be 8833 353e 148b bcbd
000000f0: 45cd 863d 02b5 a53d 6353 5dbe 07ce 76be
00000100: 0f2b 4b3e 1056 38bf dbef cebd 59cc 283e
00000110: 95f1 923d 879c 8d3e d4ff 90be 4b6e cd3d
00000120: 7969 e0bd c9bf f63d e471 583e 9e34 483e
00000130: ce85 92be ff3d d1bd 82f1 4e3e aa44 dd3d
00000140: b24b 70be 7ec5 353e 4481 4d3e f67b 0fbe
00000150: 406a b0bd 84f6 54be 16c9 5fbe 7896 08be
00000160: 6349 8abd 2ec3 e33b b3aa 333e 077f 843e
00000170: 7f64 013d 804d 2f3e 0236 303e 8168 673d
00000180: 2ffa 0bbe 647e ed3d 7b6b 383d 3596 6abe
00000190: 3c01 babd 01c3 e7bd b219 cf3d 81cb 08be
000001a0: ab04 f83d 2d30 83bc c2f9 49bd 6526 e43d
000001b0: 4995 343e 87df b53d 3d02 4a3d 2120 91bc
000001c0: 5b27 53bd 2bf5 69be de72 71bd 9410 603e
000001d0: d4ae 3a3e 8de9 8ebe adc6 5d3d cad1 44bd
000001e0: 0d85 bc3d 9595 663e b2ad 553c 53c9 14be
000001f0: 67f5 40bd e19c ffbd e096 223e e591 1f3e
00000200: 303a 193c ce91 76be 633d 873a fff3 8f3e
00000210: fc8e 64bc 924d ba3d e633 5fbe 4358 933d
00000220: 00f9 4c3e 9cad 933c 00a6 28bd 015f aa3d
00000230: 8209 84be 98d4 9bb9 720a afbd fac7 8c3e

actor.9.bias f4 [12]
-0.04722148 -0.21852624 -0.091724984 -0.13942254 -0.3294489 -0.35602048 -0.26736546 -0.14323674
-0.053885765 -0.26921448 0.16095369 -0.15425871
00000000: 506b 41bd 58c5 5fbe 4fda bbbd c8c4 0ebe
00000010: 87ad a8be 5148 b6be 20e4 88be a7ac 12be
00000020: 52b7 5cbd 7bd6 89be 0bd1 243e fff5 1dbe

actor.12.weight f4 [12, 12]
-0.2602418 0.25348672 -0.10699979 0.13266489 -0.2510527 -0.031068077 0.07232509 0.22531804
-0.17934139 -0.20946065 -0.122842945 0.20032682 -0.14337783 0.1615847 -0.11137981 0.2522718
0.16853803 0.5089011 0.24003156 0.17564172 0.26001632 0.3532393 0.19600278 -0.24534671
0.14616352 -0.3162449 0.1703557 0.18565269 -0.23482363 -0.22451238 -0.24106467 0.06042925
-0.25415254 -0.34941548 -0.11716786 -0.13611692 -0.0027554983 -0.40361032 -0.18017364 -0.2640342
-0.19203356 -0.35670868 0.27875623 0.080039464 0.18176863 -0.6978837 0.0008804848 0.27254704
-0.0023417056 0.32535514 0.05225861 -0.20535411 0.2546754 0.26498836 0.06206953 -0.24244393
0.15160644 0.3007623 -0.24685138 -0.19172826 0.019745696 0.14649105 -0.04602978 -0.27755088
-0.0012384119 0.26739207 -0.15753575 0.042491976 0.079339646 -0.1710919 -0.2172945 0.13914967
-0.14827293 0.023201287 0.24912614 0.11948684 0.16205744 0.21212237 -0.13816553 0.09042933
0.22443005 -0.20991421 0.08354829 -0.1046122 -0.24484439 -0.6152507 0.041277483 -0.20002256
-0.20955497 -0.29062533 -0.06447065 -0.22335796 0.12719661 -0.54528856 0.2075941 -0.009671258
-0.20799938 0.22004457 0.22056165 -0.2510697 -0.16666962 -0.12630442 -0.20036484 0.02994347
-0.2109545 0.15169615 -0.23761472 -0.25840932 0.0075826445 -0.0051881704 0.06203089 -0.23779517
0.25650766 -0.23374972 0.21917361 0.26286218 0.07517484 0.06544181 -0.15769677 0.08925795
0.23697704 -0.6886822 0.24672225 -0.13337547 -0.37298694 -0.2826561 0.014068107 -0.17125629
-0.17129686 -0.42694008 -0.15880579 -0.22036412 -0.27153012 0.28430086 -0.26317325 -0.2005403
0.11826515 0.18628693 0.2772084 0.11568089 0.25723866 -0.16149105 0.10077184 0.042128235
00000000: 6a3e 85be 03c9 813e b522 dbbd 4ed9 073e
00000010: fb89 80be 7b82 febc 2d1f 943d c6b9 663e
00000020: 45a5 37be da7c 56be 1595 fbbd 7922 4d3e
00000030: a3d1 12be 7676 253e 191b e4bd c529 813e
00000040: 3c95 2c3e 5847 023f d5ca 753e 6cdb 333e
00000050: dc20 853e c8db b43e f4b4 483e 2b3c 7bbe
00000060: e4ab 153e daea a1be ba71 2e3e bd1b 3e3e
00000070: 9b75 70be 93e6 65be a8d9 76be a984 773d
00000080: 4820 82be 96e6 b2be b4f5 efbd 3c62 0bbe
00000090: 9795 34bb 03a6 cebe 707f 38be 7e2f 87be
000000a0: 72a4 44be 85a2 b6be 23b9 8e3e bbeb a33d
000000b0: 8e21 3a3e 82a8 32bf 56d0 663a 498b 8b3e
000000c0: 4d77 19bb f394 a63e 200d 563d 5948 52be
000000d0: d064 823e 8eac 873e 9f3c 7e3d 3943 78be
000000e0: b83e 1b3e 84fd 993e 9cc6 7cbe 6a54 44be
000000f0: bac1 a13c c001 163e b989 3cbd 261b 8ebe
00000100: 3552 a2ba 9de7 883e 0d51 21be 110c 2e3d
00000110: d37c a23d b732 2fbe 7382 5ebe 407d 0e3e
00000120: dcd4 17be a010 be3c ec1a 7f3e 84b5 f43d
00000130: 63f2 253e 9b36 593e 447b 0dbe 0333 b93d
00000140: fed0 653e c0f3 56be 5e1b ab3d ec3e d6bd
00000150: 7db8 7abe 1281 1dbf 9412 293d b7d2 4cbe
00000160: 9495 56be d8cc 94be 3009 84bd f3b7 64be
00000170: d43f 023e 0898 0bbf 8c93 543e 3274 1ebc
00000180: cafd 54be 5d53 613e eada 613e 358c 80be
00000190: 71ab 2abe f255 01be 712c 4dbe 024c f53c
000001a0: 7504 58be 3c56 1b3e 4651 73be 3a4e 84be
000001b0: d577 f83b 8701 aabb 1a14 7e3d 9480 73be
000001c0: f954 833e 165c 6fbe 0c6f 603e df95 863e
000001d0: 44f5 993d 5b06 863d 437b 21be dfcc b63d
000001e0: 1caa 723e 7a4d 30bf c2a4 7c3e 9493 08be
000001f0: 25f8 bebe 4db8 90be eb7d 663c cf5d 2fbe
00000200: 7268 2fbe e497 dabe fc9d 22be 22a7 61be
00000210: ff05 8bbe e28f 913e a5be 86be 705a 4dbe
00000220: 0035 f23d 00c2 3e3e 42ee 8d3e 1aea ec3d
00000230: c9b4 833e e95d 25be 7761 ce3d a88e 2c3d

actor.12.bias f4 [12]
-0.26174226 0.7020656 -0.34944493 -0.30215788 0.6043779 0.092005774 -0.15013312 -0.25356674
0.021645555 -0.14261448 -0.28149474 -0.010261196
00000000: 1503 86be 92ba 333f 72ea b2be 70b4 9abe
00000010: 83b8 1a3f 866d bc3d 7fbc 19be 80d3 81be
00000020: 0552 b13c 8809 12be 1420 90be 931e 28bc

actor.15.weight f4 [12, 12]
0.05145347 0.1907732 0.22058412 -0.022343583 0.009382604 0.019175028 0.13905314 0.109110326
0.18201104 -0.087140605 -0.13488208 -0.06711967 0.1680207 0.23404598 -0.12312048 0.14798057
0.27876094 0.2046886 0.024753164 -0.054070458 0.2823912 0.097365975 -0.108032346 0.06388312
-0.16135044 -0.59891367 -0.20000076 -0.28997278 -0.64029384 -0.05005456 -0.029470775 -0.5863991
-0.1592895 0.17145833 -0.255836 -0.101944834 -0.27799678 0.21371338 -0.17866509 -0.021253113
-0.14742236 -0.11427854 0.18908086 0.23494904 -0.13956091 0.21591379 -0.17302927 -0.23771156
0.077141635 -0.01884859 0.14888465 0.20764437 -0.10716797 0.05795129 0.10258309 0.011003273
-0.04446758 0.07960638 -0.24264556 -0.021533577 -0.17823038 -0.2724995 0.23995328 -0.18973377
-0.11899515 0.24272212 -0.17554516 -0.04193112 0.24025121 0.12717183 0.15221316 0.09271864
-0.02891587 0.22277738 0.24452591 -0.028661525 -0.096566536 -0.123340175 0.03106443 -0.22270192
-0.25274286 -0.2834462 0.13122365 0.054770656 0.12548862 -0.01490685 -0.17183656 0.035142206
-0.033923957 -0.08625193 0.18039395 -0.112607524 0.03324245 -0.14170928 -0.008043432 0.013914179
-0.17182527 0.12963386 -0.05270355 -0.20384131 0.19198336 -0.13437425 0.26544276 -0.060623407
0.25860316 -0.19956088 -0.09037108 0.27365172 -0.042939205 -0.12416064 0.10527048 -0.20104921
0.17647386 -0.09965312 0.24645653 0.2005382 0.24593407 -0.052344453 -0.04751094 -0.025618302
0.14034803 -0.7320969 -0.28732163 -0.2077298 -0.56799775 0.21128999 0.21427248 -0.30539912
0.018646415 0.2226905 -0.32551485 -0.03745006 0.22805075 -0.2405927 -0.1128142 -0.26812816
0.17391653 0.19269268 0.27713364 -0.28249893 0.08163549 -0.14727087 -0.14252271 -0.18234418
00000000: e0c0 523d 0d5a 433e cee0 613e e409 b7bc
00000010: 7eb9 193c f314 9d3c f263 0e3e 3c75 df3d
00000020: 1a61 3a3e c676 b2bd 871e 0abe 0a76 89bd
00000030: 9e0d 2c3e c0a9 6f3e 9726 fcbd 3888 173e
00000040: c1b9 8e3e e399 513e 26c7 ca3c fc78 5dbd
00000050: 9495 903e d067 c73d 1040 ddbd 27d5 823d
00000060: 0d39 25be 6852 19bf 00cd 4cbe 5077 94be
00000070: 4cea 23bf 0306 4dbd b26c f1bc 401e 16bf
00000080: c91c 23be c692 2f3e f0fc 82be 74c8 d0bd
00000090: 9855 8ebe aed7 5a3e fbf3 36be 021b aebc
000000a0: e3f5 16be de0a eabd 6a9e 413e 7b96 703e
000000b0: 0ee9 0ebe 8118 5d3e 962e 31be a96a 73be
000000c0: 6ffc 9d3d 5c68 9abc 3875 183e baa0 543e
000000d0: e17a dbbd 555e 6d3d 1517 d23d 1247 343c
000000e0: a323 36bd ab08 a33d 1478 78be 2f67 b0bc
000000f0: 0682 36be 0e85 8bbe 50b6 753e 9249 42be
00000100: bbb3 f3bd 268c 783e 1cc2 33be f7bf 2bbd
00000110: 6a04 763e 5539 023e c4dd 1b3e 45e3 bd3d
00000120: f9e0 ecbc c11f 643e 0065 7a3e 93cb eabc
00000130: adc4 c5bd c699 fcbd d57a fe3c f90b 64be
00000140: 8367 81be dc1f 91be 7e5f 063e 3257 603d
00000150: 1780 003e dc3b 74bc ecf5 2fbe 46f1 0f3d
00000160: d9f3 0abd daa4 b0bd 31b9 383e c69e e6bd
00000170: 3c29 083d 3d1c 11be 99c8 03bc 4cf8 633c
00000180: f7f2 2fbe bdbe 043e addf 57bd c7bb 50be
00000190: 4997 443e 6799 09be 1de8 873e 4050 78bd
000001a0: a267 843e b059 4cbe 7914 b9bd 141c 8c3e
000001b0: 05e1 2fbd ef47 febd 0d98 d73d d8df 4dbe
000001c0: 90b5 343e ef16 ccbd 1a5f 7c3e e359 4d3e
000001d0: 24d6 7b3e 2367 56bd d59a 42bd 79dd d1bc
000001e0: 65b7 0f3e b46a 3bbf d21b 93be 1fb7 54be
000001f0: 4d68 11bf 675c 583e 3f6a 5b3e 465d 9cbe
00000200: 5ec0 983c fa08 643e e2a9 a6be 3c65 19bd
00000210: 2386 693e ef5d 76be 220b e7bd 1848 89be
00000220: 2d17 323e 3b51 453e 76e4 8d3e b3a3 90be
00000230: 8230 a73d 2dce 16be 79f1 11be 6fb8 3abe

actor.15.bias f4 [12]
-0.28295496 -0.086294875 -0.28748137 0.004257099 -0.13411711 -0.046196707 -0.15631413 -0.11713122
0.24634297 -0.22000894 -0.33324796 -0.25423795
00000000: 79df 90be 5ebb b0bd c230 93be 227f 8b3b
00000010: ff55 09be c238 3dbd d010 20be 7ee2 efbd
00000020: 5541 7c3e 064a 61be 7a9f aabe 7a2b 82be

actor.18.weight f4 [12, 12]
0.0016172619 0.096873015 -0.016350292 0.23185599 0.07022195 -0.05470089 -0.24894777 -0.18653747
0.14368117 0.1893372 0.20268533 -0.07096289 -0.20214194 0.2575629 0.20283379 0.10854424
0.14903106 0.11286152 0.24184446 0.015517435 -0.23595116 -0.036345895 0.46831656 -0.055369817
0.112081625 0.14150254 -0.12518983 -0.06928816 -0.08927726 -0.11779001 -0.2477916 -0.10531305
-0.037117805 -0.23414244 -0.22623965 0.24327534 0.18892518 -0.23119733 0.25841957 0.10683337
0.073397905 -0.19323042 -0.035164125 -0.21453708 -0.014312413 -0.19840413 0.39855164 -0.015503188
-0.17213842 0.23907895 -0.054450653 0.14816754 0.041784488 -0.12706697 0.15751036 -0.025976745
-0.13353117 -0.036650654 -0.22725163 -0.050701384 0.07147853 0.19702043 -0.13186486 -0.2713489
-0.15151906 -0.13900343 0.007244608 -0.10788337 0.2538183 -0.09195501 -0.06584334 -0.24567467
0.22445604 0.20045105 -0.26112914 -0.019449057 0.1323504 0.14406666 -0.15914269 0.0069533386
0.04356225 -0.22253688 -0.27123147 0.093778685 -0.23167725 0.081575304 -0.5144504 0.010102071
0.034883488 -0.027626216 -0.076970465 -0.042051114 -0.068450555 0.030618854 -0.17770505 0.21483685
-0.050258316 0.19407266 0.5829502 0.15829735 -0.06338871 -0.15811212 0.16578421 0.09771988
-0.26055193 0.12937614 0.3326984 -0.039509494 0.056193314 0.13887489 0.07605316 -0.16394207
-0.08193368 -0.027288629 0.22162955 0.087020226 0.2776181 0.1983233 -0.093285516 -0.082062654
-0.08884049 0.24717228 0.46180102 0.2686102 0.1383633 0.16822486 0.13227776 -0.13653946
0.101682946 -0.13207285 0.28166288 0.23796739 -0.23024629 0.15093139 -0.29356748 -0.035810087
-0.006844112 0.10016174 -0.04249246 -0.2615103 0.18514934 0.067256324 -0.32554215 0.1609382
00000000: 4efa d33a 5c65 c63d 0cf1 85bc a86b 6d3e
00000010: 87d0 8f3d 0a0e 60bd 2aec 7ebe ae03 3fbe
00000020: 2821 133e 9ce1 413e be8c 4f3e fe54 91bd
00000030: 4cfe 4ebe 49df 833e a9b3 4f3e 714c de3d
00000040: 999b 183e f123 e73d 13a6 773e d73c 7e3c
00000050: 2e9d 71be 6fdf 14bd 30c7 ef3e 76cb 62bd
00000060: 0d8b e53d 0be6 103e c331 00be f3e6 8dbd
00000070: ffd6 b6bd e43b f1bd 15bd 7dbe 5eae d7bd
00000080: d708 18bd 09c3 6fbe 5eab 67be 2c1d 793e
00000090: 9a75 413e febe 6cbe 924f 843e 74cb da3d
000000a0: a451 963d 32de 45be 4208 10bd 9caf 5bbe
000000b0: 9c7e 6abc 742a 4bbe f60e cc3e 1501 7ebc
000000c0: 0e45 30be 1dd1 743e a607 5fbd 3bb9 173e
000000d0: 3626 2b3d d81d 02be 654a 213e 2fcd d4bc
000000e0: 65bc 08be ff1e 16bd a7b4 68be 41ac 4fbd
000000f0: 5663 923d b9bf 493e 9507 07be 3eee 8abe
00000100: d027 1bbe ea56 0ebe 2d64 ed3b f5f1 dcbd
00000110: 79f4 813e e952 bcbd dfd8 86bd 2492 7bbe
00000120: ced7 653e 0a43 4d3e b8b2 85be a153 9fbc
00000130: dd86 073e 3686 133e 4df6 22be d5d8 e33b
00000140: 546e 323d b5e0 63be dade 8abe 0a0f c03d
00000150: cd3c 6dbe f410 a73d 05b3 03bf 2883 253c
00000160: fde1 0e3d 6050 e2bc b1a2 9dbd ca3d 2cbd
00000170: ce2f 8cbd 64d4 fa3c 50f8 35be 31fe 5b3e
00000180: aadb 4dbd fcba 463e 393c 153f b318 223e
00000190: f1d1 81bd 25e8 21be 56c3 293e 5c21 c83d
000001a0: 1067 85be 2e7b 043e 7257 aa3e b5d4 21bd
000001b0: f62a 663d 3835 0e3e c2c1 9b3d 6ee0 27be
000001c0: d8cc a7bd 678c dfbc dbf2 623e a937 b23d
000001d0: f623 8e3e 4315 4b3e 7a0c bfbd 7710 a8bd
000001e0: 01f2 b5bd bb1a 7d3e 2f71 ec3e 4787 893e
000001f0: 1caf 0d3e 2343 2c3e d273 073e 00d1 0bbe
00000200: 263f d03d 1b3e 07be 1e36 903e b9ad 733e
00000210: afc5 6bbe c28d 1a3e 7a4e 96be 99ad 12bd
00000220: 9344 e0bb 9921 cd3d 930c 2ebd aee4 85be
00000230: ca97 3d3e afbd 893d 76ad a6be fccc 243e

actor.18.bias f4 [12]
0.19924873 0.52112585 -0.19923197 0.72961605 -0.21926612 0.043714594 -0.08860353 -0.21683165
0.6251917 -0.12734324 0.69206375 -0.26146996
00000000: dc07 4c3e 8168 053f 7703 4cbe 1ec8 3a3f
00000010: 4c87 60be 130e 333d c475 b5bd 1e09 5ebe
00000020: 900c 203f 4466 02be 172b 313f 64df 85be

actor.21.weight f4 [12, 12]
-0.27569798 0.16439132 -0.05058204 -0.18189777 0.28392825 0.28328592 0.008933517 -0.25798494
0.0037496828 0.15306973 0.048656266 -0.2796418 0.2727849 -0.41149357 -0.080070086 -0.6931896
0.15321578 0.12581924 0.17479816 -0.2549891 -0.36477652 -0.2272933 -0.6486294 -0.17484024
0.114706665 -0.6974869 -0.19479716 -0.21001124 -0.13863865 0.10067514 -0.064812645 -0.33104146
-0.5112935 0.081527226 -0.61673975 -0.2444415 -0.13210478 -0.28541124 0.07049725 0.1031846
-0.16387829 -0.08899368 0.23542751 -0.051941514 0.16565606 0.26554054 0.13444215 0.17626747
-0.21090525 -0.5664531 -0.055609364 -0.5164916 -0.01589343 0.18012738 -0.28001165 -0.2632823
-0.18205446 0.18181653 -0.23706196 -0.2070566 -0.049192794 -0.520168 -0.23474328 -0.23855844
0.063037805 0.002070065 -0.15825222 -0.40706778 -0.6287944 -0.2816274 -0.5469097 -0.37295273
-0.25083148 0.2584864 0.07821834 -0.13729963 0.010720916 -0.097440414 0.20274393 -0.2203868
0.24173881 -0.15527532 0.2513643 -0.1866731 -0.22637548 -0.11851034 -0.022995878 -0.11038859
-0.2611693 -0.24369249 0.26589406 -0.2724139 0.048410937 -0.25527284 0.26298428 -0.18538645
0.2638892 0.22282267 -0.25652954 -0.13175133 -0.11693709 0.15828553 -0.053279035 0.03718956
-0.13616484 -0.074450076 0.20813641 -0.23476052 0.0129457 0.56148237 -0.032996465 0.5487278
-0.13482715 -0.15014137 0.20608138 0.45627916 0.58488226 -0.1939812 0.15954514 0.32403252
0.26587313 0.53557783 0.24383834 0.16184768 0.1819645 -0.17656112 0.19478323 0.37742358
0.7006408 -0.17242315 0.24968518 0.3170388 0.006160832 0.39393714 0.20446019 0.648372
-0.07691441 0.09133427 0.13354799 0.5478198 0.42874306 -0.16858879 0.6391599 0.71644473
00000000: 4928 8dbe 3356 283e 1d2f 4fbd 6943 3abe
00000010: 0b5f 913e da0a 913e e35d 123c 9a16 84be
00000020: 3dbd 753b 50be 1c3e cb4b 473d 362d 8fbe
00000030: 76aa 8b3e 49af d2be c9fb a3bd e074 31bf
00000040: 99e4 1c3e c2d6 003e 4afe 323e ee8d 82be
00000050: fdc3 babe 93bf 68be 940c 26bf 5209 33be
00000060: 54eb ea3d 808e 32bf e878 47be 300d 57be
00000070: 4af7 0dbe c52e ce3d 7ebc 84bd 447e a9be
00000080: 21e4 02bf bff7 a63d a8e2 1dbf df4e 7abe
00000090: 7a46 07be 6c21 92be dd60 903d 7352 d33d
000000a0: b6cf 27be 5242 b6bd e913 713e a0c0 54bd
000000b0: bea1 293e eef4 873e 34ab 093e 767f 343e
000000c0: 8cf7 57be 1203 11bf a5c6 63bd cb38 04bf
000000d0: f032 82bc 5073 383e b05d 8fbe f0cc 86be
000000e0: 7c6c 3abe 1d2e 3a3e 5fc0 72be a506 54be
000000f0: 627e 49bd bb29 05bf 8b60 70be aa48 74be
00000100: f719 813d eda9 073b df0c 22be 306b d0be
00000110: abf8 20bf 7731 90be 4602 0cbf a9f3 bebe
00000120: fc6c 80be 5458 843e f030 a03d 4698 0cbe
00000130: c8a6 2f3c d78e c7bd 1b9c 4f3e 14ad 61be
00000140: 618a 773e 7e00 1fbe d2b2 803e 3c27 3fbe
00000150: f9ce 67be 8db5 f2bd da61 bcbc 6a13 e2bd
00000160: fcb7 85be 868a 79be 4423 883e d679 8bbe
00000170: 8c4a 463d 1fb3 82be e0a5 863e f2d5 3dbe
00000180: 7c1c 873e a02b 643e d757 83be d2e9 06be
00000190: b77c efbd 9a15 223e 1e3b 5abd 1454 183d
000001a0: cc6e 0bbe 4879 98bd b621 553e 1065 70be
000001b0: 341a 543c 4fbd 0f3f 4d27 07bd 6d79 0c3f
000001c0: 2110 0abe a9be 19be ff06 533e 6c9d e93e
000001d0: d8ba 153f 02a3 46be cd5f 233e 97e7 a53e
000001e0: 8620 883e a11b 093f c2b0 793e 66bb 253e
000001f0: e754 3a3e 70cc 34be 4175 473e aa3d c13e
00000200: 325d 333f b28f 30be 79ad 7f3e e952 a23e
00000210: cee0 c93b 21b2 c93e 035e 513e b5fb 253f
00000220: 4d85 9dbd 760d bb3d cec0 083e eb3d 0c3f
00000230: 3684 db3e 8aa2 2cbe fc9f 233f ec68 373f

actor.21.bias f4 [12]
-0.14845061 -0.20605129 -0.4699988 0.04570194 -0.4994426 -0.43989968 0.03600957 -0.15820102
0.08813679 0.56990004 0.66090244 0.61793345
00000000: 7003 18be 1cff 52be afa3 f0be f531 3b3d
00000010: f1b6 ffbe 883a e1be c57e 133d 73ff 21be
00000020: 1081 b43d f8e4 113f e730 293f e330 1e3f

actor.24.weight f4 [12, 12]
-0.11216804 -0.28851256 0.043572746 -0.04689829 0.24767518 0.2588364 0.21901263 0.2640471
0.06017177 0.0343875 -0.21799731 -0.04047821 0.08258714 -0.2808619 0.16548434 0.14993498
-0.23441891 0.052219294 0.1482109 0.26629564 0.0816911 -0.11826226 0.19096045 -0.21315207
-0.13752756 0.06347385 -0.13979095 0.17516337 0.12587784 -0.11280839 -0.26621386 -0.2411698
0.020838851 0.023568196 0.040630076 -0.24574037 0.11723783 0.21676292 0.4987345 -0.05664491
0.2925539 0.32790744 -0.07473922 -0.06357158 -0.14764914 0.18439782 0.2556614 0.5532021
0.17858995 -0.21053256 -0.17844732 -0.102247015 -0.093789905 0.010776217 0.09669049 0.19472225
-0.04310084 -0.18926613 -0.19025667 0.07249811 0.048201982 -0.13411787 -0.0018198498 0.24071644
0.25972965 -0.03798862 0.20064305 -0.0066999574 -0.20498252 0.05429937 -0.0057874816 0.04065245
-0.1926217 0.45480436 0.25508255 0.27580902 0.24218388 0.19234627 0.1108547 0.011711624
-0.06370524 0.5963716 0.6712391 0.69667566 -0.014341069 -0.012839193 0.17853345 0.28675535
-0.051572405 -0.055919975 -0.018660659 0.048662186 -0.17761996 0.2754676 -0.025561795 0.122814395
0.2614204 0.12889911 -0.09898193 0.24319354 0.07355135 -0.11401566 0.24497451 -0.2566976
0.14822972 -0.20273755 0.23004453 -0.25149307 -0.09592614 -0.23118153 -0.37409016 -0.28338867
-0.71066463 -0.6634655 0.1651548 -0.23459283 -0.012639118 -0.6127445 -0.22187129 -0.272128
-0.10894951 -0.11008503 -0.15461221 -0.13773647 -0.12640615 -0.040395897 0.19514711 -0.24265124
0.09887154 -0.28535584 -0.10564778 -0.14041984 0.15285665 0.09582638 -0.09151907 -0.2447565
-0.17700095 -0.2866157 0.009962046 0.16541235 -0.040208004 0.15607537 -0.09856072 0.0749141
00000000: 5bb8 e5bd ebb7 93be 5679 323d 6c18 40bd
00000010: 909e 7d3e 3486 843e d944 603e 2e31 873e
00000020: ad76 763d e8d9 0c3d b03a 5fbe 7bcc 25bd
00000030: 7223 a93d 22cd 8fbe ba74 293e 8e88 193e
00000040: 830b 70be e6e3 553d 99c4 173e e757 883e
00000050: aa4d a73d 7c33 f2bd 238b 433e 8944 5abe
00000060: 06d4 0cbe 94fe 813d 5c25 0fbe 075e 333e
00000070: 1fe6 003e 1608 e7bd 2f4d 88be 37f5 76be
00000080: 3db6 aa3c 1712 c13c b96b 263d 5da3 7bbe
00000090: 631a f03d 19f7 5d3e 215a ff3e 7e04 68bd
000000a0: a0c9 953e 7ce3 a73e e010 99bd d131 82bd
000000b0: 5631 17be c8d2 3c3e 0de6 823e a79e 0d3f
000000c0: 49e0 363e d995 57be e5ba 36be e266 d1bd
000000d0: ec14 c0bd bb8e 303c aa05 c63d 4565 473e
000000e0: 828a 30bd fbce 41be a5d2 42be e479 943d
000000f0: 716f 453d 3256 09be 0788 eeba 5f7e 763e
00000100: 49fb 843e f599 1bbd 5f75 4d3e 518b dbbb
00000110: f0e6 51be 0469 5e3d eaa4 bdbb 2f83 263d
00000120: 9f3e 45be 1edc e83e 2e9a 823e d736 8d3e
00000130: 0dff 773e 6cf6 443e ca07 e33d 1de2 3f3c
00000140: e577 82bd cfab 183f 53d6 2b3f 5659 323f
00000150: cef6 6abc 7b5b 52bc 79d1 363e 99d1 923e
00000160: 963d 53bd 580c 65bd 3dde 98bc 0052 473d
00000170: 02e2 35be 170a 8d3e f866 d1bc 1d86 fb3d
00000180: e5d8 853e 21fe 033e 0ab7 cabd ba07 793e
00000190: 17a2 963d 0b81 e9bd 99da 7a3e de6d 83be
000001a0: 88c9 173e 6f9a 4fbe cb90 6b3e b3c3 80be
000001b0: ed74 c4bd daba 6cbe bf88 bfbe 5218 91be
000001c0: 1eee 35bf e0d8 29bf 571e 293e 1a39 70be
000001d0: 4e14 4fbc d3dc 1cbf 3a32 63be 5c54 8bbe
000001e0: ec20 dfbd 4374 e1bd aa52 1ebe ca0a 0dbe
000001f0: 9d70 01be 2b76 25bd a5d4 473e 9179 78be
00000200: 297d ca3d 291a 92be dd5d d8bd 38ca 0fbe
00000210: 7486 1c3e 9f40 c43d 5a6e bbbd 73a1 7abe
00000220: bd3f 35be 4bbf 92be d937 233c db61 293e
00000230: 26b1 24bd 39d2 1f3e 34da c9bd 906c 993d

actor.24.bias f4 [12]
-0.16179973 -0.089003846 0.19956543 0.6914181 0.086867884 -0.04479385 0.40861666 -0.24409011
-0.036667515 -0.5498508 0.1508393 -0.2345139
00000000: d4ae 25be a647 b6bd e15a 4c3e c700 313f
00000010: cae7 b13d c279 37bd 3436 d13e c2f2 79be
00000020: ad30 16bd 06c3 0cbf 9e75 1a3e 6924 70be

actor.27.weight f4 [12, 12]
0.11072686 0.04645495 -0.2800323 -0.11276848 0.18693243 -0.06719065 0.15953256 0.2521215
-0.19497424 0.09816122 0.17847905 -0.14059132 -0.17949745 0.13350807 -0.07353851 -0.031816576
-0.07823933 -0.26622856 0.06337472 0.058156427 0.1813661 -0.06560964 0.2674132 -0.22464979
0.10813562 0.26686192 0.12703091 0.4923769 -0.08251347 -0.015222695 0.72157264 -0.07528391
0.20451282 0.23195721 0.09461904 -0.1582425 -0.22753003 0.2568755 -0.07306998 -0.045155216
-0.014456283 0.2047687 -0.17015849 -0.10574916 0.009903062 0.026512552 -0.22718638 0.12902977
-0.25931293 0.2816405 0.20971395 0.49702683 0.22505192 -0.27194345 0.6010941 -0.2531407
0.24924712 0.3175382 0.17482871 0.027831627 -0.1584628 -0.101189405 0.25572637 -0.14090733
0.09864368 0.22581641 -0.049943786 -0.014236214 0.081519105 0.18701468 0.081249826 0.017405456
-0.21683186 -0.21543752 -0.08414032 -0.63634396 -0.062317338 0.17006929 -0.5880724 0.1930833
-0.23614082 -0.26252365 -0.13482453 0.27284545 -0.21205251 -0.22503442 0.24506629 -0.30781588
-0.25180832 -0.22655143 -0.16450205 0.14144851 -0.28782573 -0.5286337 -0.033161163 -0.14948173
0.03368978 -0.139518 -0.048286777 0.49598178 0.25990036 -0.14480783 0.49165976 -0.26867184
-0.063357085 0.48159018 -0.11392725 0.015884068 0.1946196 0.19016135 -0.09859744 -0.16477475
0.20164578 0.0144652305 -0.26249653 -0.15511337 0.10455129 0.14912657 -0.0073350794 0.16778146
0.26390088 0.024750618 0.21277831 0.27213955 0.24678111 0.28593257 -0.21355745 -0.14953737
-0.119574524 0.081361465 0.013018312 -0.005916654 0.08431404 -0.15494446 0.28785214 0.1748289
0.16798532 0.21746406 0.54180086 0.2509928 0.23800991 0.47440907 0.13202307 -0.092226155
00000000: c4c4 e23d 8c47 3e3d 6560 8fbe 29f3 e6bd
00000010: 376b 3f3e 409b 89bd 815c 233e 1216 813e
00000020: 54a7 47be c008 c93d 36c3 363e 2cf7 0fbe
00000030: 2ece 37be 57b6 083e 5c9b 96bd 1952 02bd
00000040: f13b a0bd 1c4f 88be 9bca 813d 6f35 6e3d
00000050: 09b8 393e 595e 86bd 62ea 883e 980a 66be
00000060: 3576 dd3d 20a2 883e 6414 023e d318 fc3e
00000070: d2fc a8bd 9c68 79bc fcb8 383f 732e 9abd
00000080: cf6b 513e 3186 6d3e a1c7 c13d 520a 22be
00000090: a2fd 68be 2f85 833e b7a5 95bd adf4 38bd
000000a0: 0cda 6cbc e3ae 513e 073e 2ebe 0493 d8bd
000000b0: 7440 223c da30 d93c 8ca3 68be 6120 043e
000000c0: aac4 84be 2f33 903e 41bf 563e 4d7a fe3e
000000d0: 0374 663e 2c3c 8bbe 4ee1 193f a89b 81be
000000e0: a33a 7f3e 5e94 a23e 4c06 333e 27ff e33c
000000f0: 1244 22be 643c cfbd 91ee 823e 034a 10be
00000100: b305 ca3d 6b3c 673e db91 4cbd 023f 69bc
00000110: 7df3 a63d c780 3f3e 4f66 a63d e395 8e3c
00000120: 2c09 5ebe a79b 5cbe c351 acbd 70e7 22bf
00000130: 7740 7fbd a526 2e3e ea8b 16bf a1b7 453e
00000140: e6ce 71be 8069 86be 710f 0abe 66b2 8b3e
00000150: 4b24 59be 6c6f 66be a8f2 7a3e 0b9a 9dbe
00000160: 05ed 80be 19fd 67be 3a73 28be e1d7 103e
00000170: e55d 93be 8a54 07bf 00d4 07bd bd11 19be
00000180: 4bfe 093d cedd 0ebe 5bc8 45bd 53f1 fd3e
00000190: a911 853e 8148 14be d4ba fb3e 5b8f 89be
000001a0: 5cc1 81bd fd92 f63e b152 e9bd 4e1f 823c
000001b0: 5c4a 473e a8b9 423e 74ed c9bd b6ba 28be
000001c0: 3b7c 4e3e 93ff 6c3c f265 86be 0ad6 1ebe
000001d0: fd1e d63d a3b4 183e 1b5b f0bb e7ce 2b3e
000001e0: 041e 873e cfc1 ca3c 8fe2 593e e055 8b3e
000001f0: 30b4 7c3e c165 923e ceae 5abe 5320 19be
00000200: 7de3 f4bd d7a0 a63d c24a 553c 7ee0 c1bb
00000210: d7ac ac3d c3a9 1ebe 5b61 933e 5906 333e
00000220: 5804 2c3e e6ae 5e3e 76b3 0a3f 2182 803e
00000230: dfb8 733e bfe5 f23e 0e31 073e 11e1 bcbd

actor.27.bias f4 [12]
0.117014326 0.1620387 0.6383649 -0.19849186 0.6515891 -0.033416715 -0.24320957 -0.20210743
0.4381252 -0.14826362 -0.049520876 0.5807971
00000000: 35a5 ef3d 79ed 253e e26b 233f 7341 4bbe
00000010: 8bce 263f f7df 08bd ee0b 79be 40f5 4ebe
00000020: f251 e03e 6bd2 17be 67d6 4abd 1eaf 143f

actor.30.weight f4 [12, 12]
0.18738796 -0.1868909 -0.25065655 -0.23964263 0.11193726 0.17435835 0.24585606 -0.039537024
0.096074946 0.043153115 -0.045918457 -0.22089961 0.031966355 -0.10622148 0.6800793 0.21927764
0.6480774 0.2129307 0.42224476 0.43217507 0.6180461 -0.24348825 0.13933857 0.63890576
-0.016954679 0.070742995 -0.22562961 0.25125918 -0.0518478 -0.2238184 -0.191927 -0.05349858
-0.015982661 -0.1683076 -0.12152758 0.18889885 -0.098927625 -0.23035349 0.13876012 0.007259268
0.04620315 -0.21389446 -0.24258956 0.0035101012 -0.0032145644 -0.23246711 -0.18610656 0.035927847
0.06817432 0.022635734 0.5312267 -0.28221387 0.41230252 0.22574341 0.29174155 0.5119304
0.52284026 -0.17917831 0.18629219 0.62223625 0.28152454 0.23512368 0.008001855 0.2702959
0.056038413 -0.17751229 -0.13940278 -0.13037974 -0.03333977 -0.28323013 -0.117030144 -0.2857315
0.1313792 -0.27531123 0.026991956 -0.13831069 -0.015576212 0.15905443 0.07656722 -0.28684172
-0.20567377 -0.16170672 0.0825721 -0.020893602 -0.010722533 0.21075219 -0.6152782 -0.15858434
-0.24904643 0.23064435 -0.22322407 -0.19094124 -0.43963987 -0.021999318 0.2795394 -0.2267562
-0.15530254 -0.22206841 0.17860201 0.16258737 -0.2292859 -0.19204558 0.18340878 -0.27245823
0.044319123 0.15428501 0.016996874 0.0052590263 0.14623915 0.116264604 -0.47215968 -0.11431078
-0.58932513 0.13468203 -0.31176347 -0.26634866 -0.3590254 -0.17909198 0.10656237 -0.51360434
-0.102235585 0.2013204 0.012508053 0.0010826254 0.12543373 -0.22711983 0.09289896 -0.1329338
0.1534131 0.24289067 0.014126678 -0.19498737 -0.032827985 -0.21065183 0.5478961 0.14492574
0.52628934 -0.27434552 0.31033295 0.41775 0.6405817 -0.0002511443 0.12850907 0.42003036
00000000: a1e2 3f3e 5460 3fbe 0e56 80be e164 75be
00000010: 5d3f e53d ff8a 323e b1c1 7b3e 93f1 21bd
00000020: f1c2 c43d 52c1 303d fe14 3cbd 8233 62be
00000030: 27ef 023d a68a d9bd ad19 2e3f 518a 603e
00000040: 67e8 253f 810a 5a3e 7730 d83e 0d46 dd3e
00000050: 4538 1e3f fc54 79be c5ae 0e3e 548f 233f
00000060: 8ae4 8abc b4e1 903d 730b 67be 0ba5 803e
00000070: 5c5e 54bd a730 65be 8388 44be 5421 5bbd
00000080: 12ee 82bc d458 2cbe 74e3 f8bd b36e 413e
00000090: 919a cabd c9e1 6bbe 2217 0e3e 27df ed3b
000000a0: 843f 3d3d 2607 5bbe 6669 78be ba09 663b
000000b0: 71ab 52bb dc0b 6ebe b892 3ebe 1429 133d
000000c0: fa9e 8b3d 936e b93c 79fe 073f 567e 90be
000000d0: 5119 d33e 4829 673e 265f 953e df0d 033f
000000e0: dcd8 053f 857a 37be 61c3 3e3e e04a 1f3f
000000f0: fc23 903e 43c4 703e 361a 033c 3964 8a3e
00000100: 8988 653d c8c5 35be 9abf 0ebe 4482 05be
00000110: 488f 08bd 8a03 91be 80ad efbd 664b 92be
00000120: 4588 063e 98f5 8cbe 3c1e dd3c 51a1 0dbe
00000130: 5e33 7fbc 2adf 223e 46cf 9c3d ebdc 92be
00000140: 259c 52be 7296 25be 901b a93d 0f29 abbc
00000150: 90ad 2fbc 6ccf 573e df82 1dbf ef63 22be
00000160: 0706 7fbe 082e 6c3e da94 64be 1a86 43be
00000170: 7a18 e1be ea37 b4bc ca1f 8f3e c732 68be
00000180: a107 1fbe e765 63be 72e3 363e 4e7d 263e
00000190: ecc9 6abe 99a7 44be 83cf 3b3e a57f 8bbe
000001a0: f887 353d e4fc 1d3e 073d 8b3c e953 ac3b
000001b0: b7bf 153e 231c ee3d eabe f1be c51b eabd
000001c0: 03de 16bf 16ea 093e 769f 9fbe da5e 88be
000001d0: 2dd2 b7be e363 37be 5f3d da3d 937b 03bf
000001e0: e460 d1bd ef26 4e3e 94ee 4c3c e1e6 8d3a
000001f0: b371 003e 1a92 68be cf41 be3d cc1f 08be
00000200: 5318 1d3e 55b8 783e 9573 673c c5aa 47be
00000210: a376 06bd 1db5 57be eb42 0c3f 6a67 143e
00000220: e6ba 063f 0477 8cbe f6e3 9e3e 54e3 d53e
00000230: 2afd 233f 04ac 83b9 e297 033e 380e d73e

actor.30.bias f4 [12]
-0.04521561 0.35857064 0.14811684 -0.2593112 0.45258752 0.25063437 -0.2632109 -0.2696436
-0.24759549 -0.23226623 -0.23147887 0.6643752
00000000: 0134 39bd 9296 b73e f1ab 173e 70c4 84be
00000010: 8db9 e73e 2653 803e 94c3 86be ba0e 8abe
00000020: ac89 7dbe 33d7 6dbe cc08 6dbe 7e14 2a3f

actor.33.weight f4 [12, 12]
0.22757521 -0.24721804 -0.28000447 0.10996724 -0.07881061 0.15235563 -0.15315746 0.059913848
0.0507731 -0.122698516 0.00089935254 0.21584213 0.0778219 -0.16486901 -0.28299072 0.05176336
0.21623284 0.14661252 -0.22792628 -0.055565316 -0.18095759 -0.018861288 0.1604526 -0.2103628
-0.013148392 -0.4654079 0.080499075 -0.04828275 -0.5631124 0.22626863 -0.13042194 -0.6072183
-0.04867206 -0.3048388 -0.16149221 -0.20428127 -0.062346626 0.5792536 0.22729437 -0.25562543
0.6756364 -0.07321752 0.17562805 0.529716 -0.056449655 0.287184 0.044625323 0.59954524
0.19259839 0.22460514 0.21657279 -0.27363878 0.32452118 0.06307161 -0.18204163 -0.24504967
0.28674826 -0.13822716 0.077914804 -0.10174885 -0.28606424 0.6114609 -0.22700562 0.034142412
0.73432887 0.24240927 0.07637058 0.31231272 -0.25797603 0.31173402 -0.12303834 0.7238515
-0.10342768 -0.28390202 -0.009943773 -0.22979373 -0.027537296 -0.16301946 0.22376293 -0.11385629
-0.11812293 0.2814088 0.20673814 -0.0051740613 -0.24642979 0.08762042 0.22353089 0.20544767
-0.18523943 -0.2712694 -0.1627805 -0.25379175 0.18137378 -0.17388994 0.036154237 0.22210324
0.09074534 -0.23460615 -0.0056288945 0.26609978 0.04378094 -0.0352749 0.23335817 -0.2558587
-0.13451761 0.040482514 0.22271293 -0.09689332 -0.17194055 -0.27348238 -0.2657145 0.14920714
-0.165482 0.036077198 0.09349079 0.11053973 -0.28172952 0.13043168 -0.09409088 -0.10311573
-0.05427174 0.17436597 -0.04371745 0.07649815 0.1661849 -0.1404779 -0.20368229 0.25923696
-0.16053538 0.66872203 0.07803214 0.5775708 -0.2366384 -0.13718401 -0.22842142 0.1745168
-0.2831124 -0.26323044 -0.016358173 0.06972971 0.09357562 -0.04669388 0.03527442 0.042966425
00000000: 7a09 693e ba26 7dbe bf5c 8fbe 8136 e13d
00000010: 7567 a1bd 1d03 1c3e 4fd5 1cbe 3968 753d
00000020: 74f7 4f3d 5c49 fbbd 87c2 6b3a b805 5d3e
00000030: 1761 9f3d 6cd3 28be 29e4 90be d105 543d
00000040: 246c 5d3e 9821 163e 8265 69be 7598 63bd
00000050: f24c 39be fd82 9abc b04d 243e 5969 57be
00000060: 5a6c 57bc f249 eebe b3dc a43d 22c4 45bd
00000070: 2228 10bf f7b2 673e 548d 05be a972 1bbf
00000080: 5b5c 47bd d513 9cbe 375e 25be 1c2f 51be
00000090: 2d5f 7fbd f749 143f dbbf 683e 56e1 82be
000000a0: 82f6 2c3f 11f3 95bd d7d7 333e 789b 073f
000000b0: c137 67bd c809 933e 0bc9 363d cc7b 193f
000000c0: 8338 453e e4fe 653e 42c5 5d3e 621a 8cbe
000000d0: a427 a63e b02b 813d 1f69 3abe 4dee 7abe
000000e0: abd0 923e 6c8b 0dbe cc91 9f3d b361 d0bd
000000f0: 0377 92be b488 1c3f 2974 68be ead8 0b3d
00000100: fafc 3b3f 233a 783e 2e68 9c3d 74e7 9f3e
00000110: 6f15 84be 9a9b 9f3e 86fb fbbd 554e 393f
00000120: e4d1 d3bd 9b5b 91be 35eb 22bc 0c4f 6bbe
00000130: e595 e1bc 93ee 26be 1c22 653e 7d2d e9bd
00000140: 6fea f1bd d014 903e 2ab3 533e 2c8b a9bb
00000150: 1758 7cbe 5672 b33d 48e5 643e e060 523e
00000160: 68af 3dbe d3e3 8abe eeaf 26be fef0 81be
00000170: 0cba 393e 3410 32be 7716 143d 086f 633e
00000180: b1d8 b93d 983c 70be 9772 b8bb 3b3e 883e
00000190: a553 333d 6a7c 10bd 72f5 6e3e e9ff 82be
000001a0: fcbe 09be fed0 253d dc0e 643e 0170 c6bd
000001b0: 2f11 30be e205 8cbe bb0b 88be c2c9 183e
000001c0: 1d74 29be afc5 133d 1978 bf3d a762 e23d
000001d0: da3e 90be e28f 053e b8b2 c0bd 572e d3bd
000001e0: 0b4c 5ebd fe8c 323e 1211 33bd 10ab 9c3d
000001f0: 602c 2a3e 70d9 0fbe 1792 50be b5ba 843e
00000200: 6363 24be 5e31 2b3f 51cf 9f3d aedb 133f
00000210: 5651 72be f779 0cbe 4ee7 69be 88b4 323e
00000220: 1cf4 90be 24c6 86be 9301 86bc 73ce 8e3d
00000230: 93a4 bf3d 1542 3fbd e97b 103d 90fd 2f3d

actor.33.bias f4 [12]
0.06984027 -0.08392738 -0.25381368 0.4591538 0.1510949 0.52393305 -0.16697548 -0.13838659
-0.17654563 -0.04295438 0.46810067 -0.012161159
00000000: 6a08 8f3d 1ee2 abbd def3 81be 3516 eb3e
00000010: 9fb8 1a3e 7a20 063f 9ffb 2abe 37b5 0dbe
00000020: 61c8 34be eff0 2fbd e4aa ef3e 993f 47bc
