gigala/topology/topology_optimiz/hierarchical_rl/hrl_draft/HRL_jax_mps/preTrained/T0-h-v1/2level/HAC_T0-h-v1_level_0_actor.pth (torch, 21969 bytes, 30 tensors)

actor.0.weight f4 [12, 32]
0.09108652 -0.078025386 -0.034270193 0.08297349 -0.1664241 0.10601603 -0.03636744 0.08993406
0.024574963 -0.021645272 0.049030945 0.00872071 0.064563826 -0.06889006 -0.012888569 -0.015914734
0.025622712 -0.0007061915 0.1545323 0.05501116 -0.06583274 -0.10676629 -0.02963054 -0.07625098
-0.05664783 0.008464351 0.10538149 0.09608462 -0.17280822 0.10958749 0.049385022 0.1676825
0.11668319 -0.1610679 -0.16808076 -0.08526508 0.15522969 -0.029445516 0.075653255 -0.08215015
0.17345648 -0.07479394 0.13256922 0.0020933286 -0.093129046 0.09086584 -0.09383663 0.051990855
-0.051045544 -0.019380806 -0.169951 -0.084283896 0.09592505 -0.042970397 0.17607833 0.14170215
-0.008277325 -0.117995456 0.10765032 0.0548639 -0.114271946 0.11482435 0.10732145 0.15678236
-0.09909388 -0.0290985 -0.0034244945 0.025819559 -0.13415906 -0.1254447 0.096167326 -0.04145271
0.08635072 0.010078028 0.05804371 0.038871195 0.064275905 0.0876301 -0.16371502 0.0889808
-0.12429579 -0.1333796 0.010750565 -0.030124016 0.1038252 -0.10237768 -0.15715128 0.12865256
-0.026212769 0.099429324 0.05683098 -0.13256048 0.035514135 0.042461157 -0.11836236 -0.08387564
0.060276546 0.031664696 -0.07519596 -0.053513113 0.16190672 -0.03270745 0.09966522 0.07654487
-0.11426971 -0.15033612 0.16968594 0.009230708 0.12117301 0.03663368 0.056855403 0.13204487
0.16762225 -0.11730566 0.022102207 0.1319209 0.12806323 0.109820485 -0.12793663 -0.12729764
-0.10690953 0.022208165 0.17618713 -0.111665525 0.094200924 -0.0978438 -0.16620822 -0.03757206
0.10185359 0.16411504 -0.109785184 0.038362525 0.15253358 0.11714171 0.11017131 0.12562327
0.111814156 0.04566078 -0.12088346 -0.14844973 -0.08100272 -0.02058492 -0.10835567 0.0646744
0.05471023 -0.040028483 0.067942485 0.05713153 0.10792906 0.11904915 -0.05986591 0.17271537
-0.020436754 -0.00607334 -0.166856 -0.11377634 -0.103273556 -0.07561144 0.12568285 -0.057767272
-0.1321019 0.068014815 0.056598518 0.11449661 -0.091477014 0.03832784 -0.064355664 -0.03971725
-0.14087659 -0.08056791 -0.054139227 0.07559595 0.032295235 0.043666746 0.17644173 0.17229143
0.120570034 0.0056291963 -0.1222926 0.13815269 -0.044205382 -0.014291574 -0.15229294 -0.034918454
-0.11401881 0.16244116 -0.15282717 -0.13779438 -0.0060026804 -0.09558589 0.06325277 -0.06804588
-0.083029814 0.010012216 0.12796828 -0.12434892 0.08301544 0.11356866 0.17292246 -0.12373147
0.04281353 -0.13071343 0.15092315 -0.0685728 0.106481925 0.005262898 -0.013767837 -0.0056405547
0.03005106 0.08333184 0.028351426 0.0539266 -0.159015 0.12878844 0.15412523 0.14612463
0.13067733 -0.12756762 -0.06553112 0.15586849 -0.13464348 0.16037557 -0.13903417 -0.12452301
0.086422235 -0.12701212 -0.040499665 0.1286036 0.14002284 0.16718757 -0.035871077 -0.1374016
0.17405626 -0.03765806 -0.07273214 0.04309353 -0.12362427 0.11619182 0.110791735 -0.14026898
-0.1451995 -0.0154850045 0.07425071 -0.0051198304 -0.0896395 0.0040415456 -0.16615811 -0.124938875
-0.11767836 0.14558096 0.15582968 -0.06004516 0.007928496 0.078838505 0.02118092 -0.08852138
00000000: 928b ba3d c6cb 9fbd e75e 0cbd 01ee a93d
00000010: 146b 2abe ef1e d93d 06f6 14bd 592f b83d
00000020: 6f51 c93c 6d51 b1bc acd4 483d 4fe1 0e3c
00000030: 0a3a 843d 3b16 8dbd 942a 53bc 9e5f 82bc
00000040: b9e6 d13c b61f 39ba b73d 1e3e 6253 613d
00000050: 51d3 86bd 49a8 dabd bfbb f2bc 7929 9cbd
00000060: 8e07 68bd 10ae 0a3c 40d2 d73d 03c8 c43d
00000070: a3f4 30be 686f e03d f347 4a3d f6b4 2b3e
00000080: 99f7 ee3d fcee 24be 5d1d 2cbe 759f aebd
00000090: 88f4 1e3e b937 f1bc 18f0 9a3d 563e a8bd
000000a0: 939e 313e 912d 99bd 3ac0 073e 3a30 093b
000000b0: 71ba bebd df17 ba3d 6b2d c0bd 5df4 543d
000000c0: 2215 51bd 7fc4 9ebc a307 2ebe 099d acbd
000000d0: 5a74 c43d ba01 30bd e14d 343e 5e1a 113e
000000e0: 9e9d 07bc 9aa7 f1bd c577 dc3d f8b8 603d
000000f0: 6907 eabd 0729 eb3d 59cb db3d 8e8b 203e
00000100: bbf1 cabd fa5f eebc 7c6d 60bb 8a83 d33c
00000110: fe60 09be 9374 00be 60f3 c43d 51ca 29bd
00000120: a5d8 b03d 501e 253c 3ebf 6d3d 6737 1f3d
00000130: 16a3 833d 6977 b33d e9a4 27be 913b b63d
00000140: cb8e febd a994 08be 2323 303c a4c6 f6bc
00000150: 4ea2 d43d 64ab d1bd 44ec 20be 7fbd 033e
00000160: 29bc d6bc 9aa1 cb3d 9ac7 683d efbd 07be
00000170: 4577 113d c0eb 2d3d f767 f2bd fec6 abbd
00000180: 8ae4 763d d7b2 013d 5700 9abd 9130 5bbd
00000190: e0ca 253e 3ff8 05bd 471d cc3d 8fc3 9c3d
000001a0: 3d06 eabd b6f1 19be 27c2 2d3e 653c 173c
000001b0: 8e29 f83d 330d 163d 36e1 683d c536 073e
000001c0: 2ba5 2b3e f33d f0bd b00f b53c 4616 073e
000001d0: 0223 033e 90e9 e03d d201 03be 505a 02be
000001e0: 62f3 dabd e6ed b53c 666a 343e e5b0 e4bd
000001f0: 6aec c03d 5562 c8bd 7d32 2abe 29e5 19bd
00000200: 9d98 d03d c60d 283e 0ed7 e0bd 0622 1d3d
00000210: c331 1c3e fee7 ef3d 7fa1 e13d 63a3 003e
00000220: d2fe e43d cc06 3b3d bf91 f7bd 3503 18be
00000230: c1e4 a5bd b5a1 a8bc 94e9 ddbd 0374 843d
00000240: d617 603d e8f4 23bd 6e25 8b3d c002 6a3d
00000250: e909 dd3d 0ad0 f33d f535 75bd 4cdc 303e
00000260: fb6a a7bc de02 c7bb 4ddc 2abe 9203 e9bd
00000270: 1681 d3bd 2cda 9abd 01b3 003e 609d 6cbd
00000280: b845 07be 5a4b 8b3d d9d3 673d 337d ea3d
00000290: 4d58 bbbd a7fd 1c3d e7cc 83bd 8eae 22bd
000002a0: f441 10be ca00 a5bd 18c1 5dbd 0dd2 9a3d
000002b0: 0248 043d e7db 323d 24ad 343e 2a6d 303e
000002c0: 6ced f63d 1f75 b83b 8b74 fabd e677 0d3e
000002d0: b410 35bd 3527 6abc aef2 1bbe a706 0fbd
000002e0: b282 e9bd fa56 263e ba7e 1cbe f819 0dbe
000002f0: 22b2 c4bb 89c2 c3bd ab8a 813d a35b 8bbd
00000300: 890b aabd 470a 243c 1e0a 033e a6aa febd
00000310: 0004 aa3d b096 e83d 9612 313e ed66 fdbd
00000320: 3d5d 2f3d bed9 05be 998b 1a3e e56f 8cbd
00000330: 3213 da3d 6374 ac3b 7e92 61bc 67d4 b8bb
00000340: a42d f63c e2a9 aa3d 4041 e83c 23e2 5c3d
00000350: d4d4 22be 1ee1 033e 01d3 1d3e b2a1 153e
00000360: 47d0 053e 16a1 02be 2e35 86bd fd9b 1f3e
00000370: fbdf 09be 7e39 243e f95e 0ebe eb05 ffbd
00000380: 24fe b03d 770f 02be fae2 25bd aab0 033e
00000390: 2662 0f3e 3833 2b3e 8ded 12bd 01b3 0cbe
000003a0: ce3b 323e 573f 1abd 97f4 94bd d782 303d
000003b0: b92e fdbd faf5 ed3d c7e6 e23d aca2 0fbe
000003c0: 2daf 14be d1b4 7dbc c210 983d 40c4 a7bb
000003d0: ea94 b7bd f16e 843b 5a25 2abe f4df ffbd
000003e0: 5a01 f1bd 2d13 153e d191 1f3e eaf1 75bd
000003f0: 86e6 013c 1576 a13d 9c83 ad3c b34a b5bd

actor.0.bias f4 [12]
-0.11423762 0.11334071 0.06278243 0.0437467 -0.035051364 -0.055166747 0.029998735 0.13679847
0.025315145 -0.083588496 0.17560787 0.0037807408
00000000: 6af5 e9bd 2d1f e83d 1394 803d bd2f 333d
00000010: 0592 0fbd 87f6 61bd e8bf f53c e614 0c3e
00000020: b561 cf3c 7230 abbd 8dd2 333e 4ec6 773b

actor.3.weight f4 [12, 12]
0.22820276 0.07035585 0.25875583 0.16655798 -0.14717442 0.20278136 0.0018570845 -0.23172453
-0.06049071 -0.26056167 -0.14956321 -0.20450783 0.19743982 -0.06064722 -0.049876403 0.13833757
0.1174823 -0.19051632 0.106386796 0.12263571 -0.22952831 0.25098482 -0.17565331 -0.112886645
-0.23777756 0.2638427 0.054968804 0.2430745 0.018850723 0.15690754 -0.092169784 -0.23029798
0.04634032 -0.025743634 -0.029147262 -0.14177264 0.005976085 0.08290281 0.104138955 -0.23254637
0.13946478 0.029685305 0.19910434 0.20401073 -0.2273359 0.27722055 -0.2838978 0.16594946
0.020318152 0.13660361 -0.1561058 0.17355046 -0.14284591 -0.25515878 0.09671575 0.15800907
0.28615206 -0.030170215 0.27769932 0.18545581 -0.14317249 -0.22266795 0.1619074 -0.15815814
0.13241379 -0.24723205 0.21060869 0.08652107 -0.033186905 0.13239451 -0.20552129 -0.06310639
0.002830002 -0.16680421 -0.073762886 -0.124492556 0.27511784 0.24523982 0.24897665 0.23594467
-0.27646616 0.096562505 0.10640239 -0.21173705 0.11701181 -0.15663995 0.045904174 0.09561767
0.24909633 -0.15144321 -0.22712234 0.26709905 0.12117654 0.14030975 0.10391283 -0.10217967
0.17365211 -0.2520233 0.040173315 0.13049263 0.19723575 -0.14415593 -0.19511253 0.10820396
-0.22925545 -0.23990726 -0.25961083 -0.13998859 -0.055101674 -0.1709515 -0.1220594 -0.25561807
0.17743231 -0.06608636 -0.18213826 0.075158015 -0.21584469 0.20206979 0.16599269 -0.28368437
-0.22659442 -0.1903456 -0.15626885 0.03604451 -0.28545836 -0.21401417 0.13183363 -0.094544716
-0.1148703 -0.23881552 0.11700334 0.02038512 -0.111581646 -0.17677999 0.06139322 0.07854612
0.12813163 0.08578849 -0.044036042 -0.22346592 0.183773 -0.0024745525 -0.19184981 0.24895053
00000000: fcad 693e ba16 903d a57b 843e 2d8e 2a3e
00000010: e4b4 16be eba5 4f3e 6a69 f33a 3249 6dbe
00000020: 1bc5 77bd 5768 85be 1927 19be 806a 51be
00000030: aa2d 4a3e 3869 78bd 334b 4cbd 5da8 0d3e
00000040: 8f9a f03d b616 43be 52e1 d93d 6e28 fb3d
00000050: 7809 6bbe 1581 803e 76de 33be 1d31 e7bd
00000060: f67b 73be 6416 873e f826 613d 86e8 783e
00000070: d56c 9a3c 5fac 203e 83c3 bcbd 3cd3 6bbe
00000080: 59cf 3d3d 50e4 d2bc 3dc6 eebc d92c 11be
00000090: 09d3 c33b f3c8 a93d ce46 d53d a320 6ebe
000000a0: dbcf 0e3e 992e f33c 02e2 4b3e 30e8 503e
000000b0: beca 68be daef 8d3e 0d5b 91be a8ee 293e
000000c0: 4172 a63c d1e1 0b3e 33da 1fbe 36b7 313e
000000d0: 3346 12be 2ca4 82be e812 c63d 21cd 213e
000000e0: 8682 923e 8727 f7bc 9b2e 8e3e 21e8 3d3e
000000f0: cf9b 12be 1103 64be 0ecb 253e 35f4 21be
00000100: 7b97 073e 662a 7dbe cea9 573e f531 b13d
00000110: feee 07bd 6d92 073e 2c74 52be ec3d 81bd
00000120: 8e77 393b b9ce 2abe ff10 97bd f4f5 febd
00000130: 3fdc 8c3e 2620 7b3e bcf3 7e3e 7b9b 713e
00000140: f98c 8dbe 90c2 c53d 7fe9 d93d 99d1 58be
00000150: e3a3 ef3d 3966 20be 0406 3c3d 32d3 c33d
00000160: 1c13 7f3e ee13 1bbe c292 68be 35c1 883e
00000170: 682b f83d 5cad 0f3e 40d0 d43d 9343 d1bd
00000180: dcd1 313e 3309 81be c68c 243d dc9f 053e
00000190: 2bf8 493e 9d9d 13be 94cb 47be 0a9a dd3d
000001a0: f1c1 6abe 40aa 75be b6eb 84be 2b59 0fbe
000001b0: 4bb2 61bd e90d 2fbe 47fa f9bd 5fe0 82be
000001c0: d1b0 353e 4958 87bd 7482 3abe 72ec 993d
000001d0: 6406 5dbe 62eb 4e3e fdf9 293e 143f 91be
000001e0: 5e08 68be f5e9 42be f104 20be 68a3 133d
000001f0: 9927 92be 8826 5bbe 65ff 063e a9a0 c1bd
00000200: 1f41 ebbd 0e8c 74be 729f ef3d b2fe a63c
00000210: eb84 e4bd d005 35be 7577 7b3d cadc a03d
00000220: f034 033e e0b1 af3d 235f 34bd 40d4 64be
00000230: fd2e 3c3e 1a2c 22bb 4774 44be e3ec 7e3e

actor.3.bias f4 [12]
0.16095018 -0.22687829 -0.14416929 -0.09823741 -0.16664732 0.1348075 -0.20593919 0.26828572
-0.11931935 0.17039783 0.009830795 -0.12695675
00000000: 20d0 243e c852 68be 1da1 13be b230 c9bd
00000010: 98a5 2abe fa0a 0a3e b9e1 52be bf5c 893e
00000020: b45d f4bd c57c 2e3e 5811 213c f300 02be

actor.6.weight f4 [12, 12]
0.19277228 -0.22026883 -0.1527328 0.03460072 0.22899866 -0.12368441 -0.17578319 -0.18429476
-0.12727025 -0.09971843 -0.06723857 -0.16422322 0.09022402 0.0023444723 -0.18861116 -0.16485214
0.06112755 -0.004123818 0.20430917 -0.043762013 -0.23385623 -0.21350773 -0.08473336 -0.06393491
0.032944366 -0.064741306 0.10651423 -0.096008666 0.21187425 0.066305056 -0.08874906 0.2572675
0.073697016 -0.19618073 -0.1606603 0.18100363 0.13184398 0.22539584 -0.022174789 0.20190533
0.14352305 0.089274846 -0.06681268 0.2782795 0.058417376 -0.07448214 -0.004104272 0.28378165
0.1938889 -0.021392621 0.28300714 0.12676747 -0.15369557 -0.2627143 0.16776027 0.27072898
-0.16818932 0.11856547 0.012289277 -0.061723787 -0.07849378 0.080309875 0.06364024 0.1949737
0.10567652 0.13136372 0.2546568 0.08988918 0.04285166 -0.105096355 0.21171127 0.042631935
0.18607087 0.27875814 -0.06456304 0.2032564 -0.0586243 0.260509 0.22721484 -0.10347145
0.010353009 -0.1260667 -0.11675385 -0.058447316 -0.0019681 -0.100630164 -0.27250883 -0.17459863
-0.02466844 -0.092153855 0.21441498 0.23465158 0.18390411 0.12776229 -0.2288511 0.27273005
-0.25438344 -0.094903916 -0.20317402 0.1038076 -0.24021105 -0.14231522 -0.18336976 -0.1774445
-0.1347589 0.28377298 -0.023578452 0.08799638 -0.2865632 0.25666538 -0.06286082 -0.2649298
0.19894318 -0.07805598 0.26215512 -0.19607742 -0.26801538 -0.21686827 0.1250478 -0.03237401
-0.2674342 0.053525258 -0.018400673 0.10428955 -0.14684325 -0.20608187 0.19675621 -0.13891067
0.20306414 0.23405947 -0.20188 -0.13309085 0.034750897 -0.272182 0.088654354 -0.12027995
-0.12799212 -0.22316514 0.13504757 -0.18395738 -0.23073857 -0.07591451 -0.160706 -0.28064936
00000000: 1966 453e 278e 61be fd65 1cbe 7cb9 0d3d
00000010: a07e 6a3e 404e fdbd 8200 34be c4b7 3cbe
00000020: 2253 02be 2d39 ccbd 60b4 89bd 222a 28be
00000030: 5fc7 b83d b8a5 193b 4923 41be 00cf 28be
00000040: e260 7a3d 1821 87bb 6c36 513e cc3f 33bd
00000050: 0278 6fbe c5a1 5abe af88 adbd 4ef0 82bd
00000060: acf0 063d 1797 84bd 2224 da3d 31a0 c4bd
00000070: 90f5 583e f2ca 873d 11c2 b5bd 91b8 833e
00000080: 76ee 963d 9ae3 48be 2284 24be 0459 393e
00000090: 1c02 073e 2bce 663e e7a7 b5bc 45c0 4e3e
000000a0: b5f7 123e bbd5 b63d 16d5 88bd a77a 8e3e
000000b0: 0f47 6f3d 188a 98bd 217d 86bb d44b 913e
000000c0: d08a 463e 943f afbc 50e6 903e 55cf 013e
000000d0: 5f62 1dbe 7d82 86be 59c9 2b3e fd9c 8a3e
000000e0: d239 2cbe 74d2 f23d f758 493c 15d2 7cbd
000000f0: 59c1 a0bd 8179 a43d d055 823d 30a7 473e
00000100: ee6c d83d 3684 063e 6062 823e d217 b83d
00000110: 3985 2f3d c23c d7bd d7ca 583e d39e 2e3d
00000120: 5d89 3e3e 63b9 8e3e a139 84bd 7222 503e
00000130: 0920 70bd 7061 853e 02ab 683e d7e8 d3bd
00000140: ab9f 293c a117 01be a41c efbd 7466 6fbd
00000150: 3dfb 00bb 3017 cebd 4786 8bbe fcc9 32be
00000160: 7815 cabc 29bb bcbd 9a8f 5b3e 8148 703e
00000170: 5c51 3c3e 1ed4 023e f157 6abe 46a3 8b3e
00000180: 8c3e 82be fc5c c2bd da0c 50be 1499 d43d
00000190: e3f9 75be 15bb 11be 48c5 3bbe 03b4 35be
000001a0: 3dfe 09be b14a 913e 9927 c1bc 7237 b43d
000001b0: 69b8 92be a569 833e 2cbd 80bd e1a4 87be
000001c0: c3b7 4b3e d0db 9fbd 3239 863e 85c8 48be
000001d0: 5039 89be b712 5ebe 880c 003e 9c9a 04bd
000001e0: 23ed 88be 4d3d 5b3d 02bd 96bc c295 d53d
000001f0: 145e 16be 2007 53be 767a 493e 993e 0ebe
00000200: 0cf0 4f3e 49ad 6f3e a1b9 4ebe f848 08be
00000210: f556 0e3d 705b 8bbe 6a90 b53d 5655 f6bd
00000220: 5e10 03be 6785 64be e949 0a3e 535f 3cbe
00000230: bb46 6cbe 1179 9bbd 1d90 24be 46b1 8fbe

actor.6.bias f4 [12]
0.11634024 -0.109831 0.20220698 0.20320338 -0.18410853 -0.16828968 -0.102467254 0.1690929
-0.009937062 -0.103127666 0.17882869 0.27376398
00000000: cb43 ee3d 13ef e0bd 590f 4f3e 8c14 503e
00000010: f286 3cbe 2154 2cbe 5ada d1bd b026 2d3e
00000020: 0fcf 22bc 9934 d3bd de1e 373e cb2a 8c3e

actor.9.weight f4 [12, 12]
0.21341684 -0.22075146 -0.059957657 -0.0553714 0.24635614 -0.14930518 -0.16544844 0.004516537
-0.06705887 0.10926859 0.035089 -0.1723544 0.20990977 0.17969409 0.06321593 -0.26128688
0.13565399 0.19181381 0.080367446 -0.11158543 0.019360514 -0.11089728 0.2717744 0.27874932
-0.03364057 -0.19421989 0.16981389 0.14733464 0.15301983 -0.21721442 0.09788578 -0.1231922
-0.25373176 -0.20157517 0.12237128 0.108073816 -0.2533606 0.16370094 0.22119443 0.2191414
0.16299829 -0.04531592 0.19343132 0.2259979 0.150481 -0.20762968 -0.10074968 0.22869377
0.22007908 0.18419749 -0.12065474 -0.057171598 -0.21506573 -0.16451624 0.22159679 -0.23693845
-0.07133892 0.06127673 -0.17320862 0.06729036 -0.04640581 0.11544802 -0.22152455 0.03983834
-0.26319242 0.17909187 0.28041038 -0.103034586 0.042686444 -0.14872843 -0.1846612 -0.14620122
-0.13752395 0.05479688 -0.03309 0.020240827 -0.22122072 -0.1813636 -0.24991198 -0.20748346
0.24174143 0.10724994 -0.27530918 -0.048181094 0.023167873 0.15421736 0.26773334 0.06970803
0.2033528 -0.10272335 -0.009432193 -0.17426348 0.066502206 0.26646322 0.18128186 0.28725523
-0.13007379 -0.036119733 0.059546012 0.2320869 -0.26536202 -0.14177154 0.04187537 -0.16685528
0.10783768 -0.019680414 -0.0748038 0.15481889 0.20630795 0.28079098 0.13072398 -0.007894493
0.23602271 0.22974001 -0.14467718 0.13149084 0.033826157 -0.12475733 -0.06874688 -0.06816565
-0.20200722 -0.088090874 0.097141296 0.21192147 0.021927843 -0.27955344 0.15288597 -0.08734873
0.25780165 -0.278941 -0.06754037 0.22387405 0.12488111 -0.14402238 -0.24996588 -0.0031005207
0.11151839 -0.23965725 -0.24156433 -0.0036339527 -0.059203707 0.1855434 -0.27970728 -0.04591522
00000000: f289 5a3e ac0c 62be 2996 75bd 1fcd 62bd
00000010: c944 7c3e 75e3 18be 516b 29be 75ff 933b
00000020: 2956 89bd 36c8 df3d 7cb9 0f3d ac7d 30be
00000030: 96f2 563e ba01 383e 5a77 813d 65c7 85be
00000040: e1e8 0a3e d76a 443e b097 a43d e786 e4bd
00000050: f199 9e3c 1d1e e3bd 0426 8b3e 3bb8 8e3e
00000060: b2ca 09bd 94e1 46be b1e3 2d3e e4de 163e
00000070: 3bb1 1c3e 756d 5ebe 5778 c83d 314c fcbd
00000080: 21e9 81be b969 4ebe cb9d fa3d ce55 dd3d
00000090: 7bb8 81be 38a1 273e cb80 623e 9a66 603e
000000a0: 06e9 263e 309d 39bd dc12 463e fe6b 673e
000000b0: b117 1a3e e09c 54be d955 cebd b32e 6a3e
000000c0: 695c 613e 449e 3c3e d519 f7bd c42c 6abd
000000d0: 313a 5cbe f276 28be 45ea 623e fe9f 72be
000000e0: 241a 92bd 4ffd 7a3d 9a5d 31be 87cf 893d
000000f0: 0514 3ebd 0370 ec3d 55d7 62be 872d 233d
00000100: 28c1 86be dc63 373e f391 8f3e cc03 d3bd
00000110: fbd7 2e3d 444c 18be d317 3dbe c6b5 15be
00000120: 14d3 0cbe b172 603d 6189 07bd 17d0 a53c
00000130: af87 62be 61b7 39be ede8 7fbe 8b76 54be
00000140: 118b 773e dba5 db3d 53f5 8cbe 8a59 45bd
00000150: 8dca bd3c 28eb 1d3e 5814 893e 15c3 8e3d
00000160: b73b 503e 9f60 d2bd 7c89 1abc 2072 32be
00000170: 4f32 883d de6d 883e f4a1 393e 1e13 933e
00000180: 1032 05be 49f2 13bd 85e6 733d 30a8 6d3e
00000190: 88dd 87be 8f2c 11be 8285 2b3d 1cdc 2abe
000001a0: 00da dc3d d238 a1bc bc32 99bd d888 1e3e
000001b0: 6442 533e d6c3 8f3e 82dc 053e e757 01bc
000001c0: f0af 713e f740 6b3e 4126 14be 89a5 063e
000001d0: 4c8d 0a3d c580 ffbd 2acb 8cbd 6f9a 8bbd
000001e0: fbda 4ebe fd68 b4bd 04f2 c63d f101 593e
000001f0: 05a2 b33c a121 8fbe 248e 1c3e e4e3 b2bd
00000200: 94fe 833e 5bd1 8ebe 9b52 8abd 3d3f 653e
00000210: abc1 ff3d 9a7a 13be 0ef7 7fbe 1b32 4bbb
00000220: c163 e43d b668 75be a45c 77be 9c27 6ebb
00000230: 967f 72bd 17ff 3d3e cb35 8fbe 9911 3cbd

actor.9.bias f4 [12]
-0.22370267 -0.0420453 -0.1474907 0.09085202 -0.24149266 -0.22708951 -0.16382049 -0.25283238
0.18223128 -0.04131255 -0.160384 0.2022829
00000000: 5012 65be b137 2cbd cd07 17be a010 ba3d
00000010: da49 77be 278a 68be 8fc0 27be 3f73 81be
00000020: d69a 3a3e 5937 29bd b43b 24be 4023 4f3e

actor.12.weight f4 [12, 12]
-0.06549367 0.14930002 -0.08948625 -0.24151984 0.06340096 0.17975548 -0.28146744 0.030050011
0.05753617 0.03313281 -0.0071435035 -0.08973326 -0.22410884 0.04708443 -0.19387858 -0.23851712
-0.09267999 -0.19761436 0.08847902 0.20562373 0.22434956 -0.17892717 0.1573846 0.20513637
0.003238275 0.12178874 0.16334431 0.22087911 0.15446231 0.12321956 -0.1095664 -0.16094732
-0.13688537 0.23751709 -0.06991898 0.010324962 -0.26921412 -0.012822881 -0.08143524 -0.18626425
0.22356822 -0.23371471 -0.04126599 -0.020468123 -0.2613387 0.17453703 -0.09185291 0.12968671
0.16111505 0.2545504 0.07140365 0.21671875 0.26660508 0.05721389 -0.05881873 -0.07903925
0.046767864 0.10388585 -0.27233088 0.2162916 0.04552209 -0.26890954 0.092465185 0.18319717
0.10786555 0.23563781 0.005967929 -0.23948829 -0.0006548404 0.20982353 -0.13884832 0.12312885
0.066543706 -0.04683769 0.002051551 0.122816965 -0.19754271 0.1822639 0.19543338 0.16198866
0.2884653 -0.012605428 -0.20384473 0.0131816 -0.08375136 0.1019057 0.24418741 -0.1580016
0.01208841 0.28077587 -0.23044854 -0.0498147 0.2803206 0.20170806 0.083785184 -0.12450591
-0.02690995 -0.25886208 -0.27177852 -0.27046975 0.27726445 0.22832187 0.114509106 -0.07250772
0.24854693 -0.07625162 0.20040666 -0.009395406 -0.13579562 -0.080568284 -0.061640233 -0.26423484
0.08632533 -0.087953605 0.13262796 0.18405484 -0.045896363 0.14000162 0.057676055 0.1938653
-0.18616909 -0.025344376 -0.09619518 0.25294644 -0.2591126 -0.16225657 0.032588538 0.25626722
0.19532052 -0.2701301 -0.20295736 0.27990207 0.042070284 -0.24725215 -0.0909472 0.1262046
-0.060364105 -0.22173963 -0.17823261 -0.14954376 -0.011307344 0.113129325 0.13860117 -0.14023595
00000000: 8c21 86bd 1be2 183e 9144 b7bd fa50 77be
00000010: 5dd8 813d d211 383e 801c 90be 712b f63c
00000020: 0cab 6b3d 45b6 073d 0d14 eabb 12c6 b7bd
00000030: ca7c 65be 9adb 403d 1b88 46be d53d 74be
00000040: 02cf bdbd 6b5b 4abe 7d34 b53d 078f 523e
00000050: e4bb 653e af38 37be 6e29 213e 450f 523e
00000060: 3d39 543b 606c f93d bb43 273e 222e 623e
00000070: 5e2b 1e3e 895a fc3d 5964 e0bd 60cf 24be
00000080: ae2b 0cbe ae37 733e af31 8fbd 082a 293c
00000090: 6fd6 89be 1017 52bc 85c7 a6bd 0ebc 3ebe
000000a0: 11ef 643e e952 6fbe 8706 29bd c4ac a7bc
000000b0: 30ce 85be d6b9 323e 611d bcbd 98cc 043e
000000c0: 58fb 243e 6e54 823e 143c 923d 85eb 5d3e
000000d0: 7680 883e 1d59 6a3d e9eb 70bd 55df a1bd
000000e0: a98f 3f3d 1bc2 d43d f46e 8bbe 8c7b 5d3e
000000f0: 5f75 3a3d 83ae 89be 635e bd3d 0a98 3b3e
00000100: 9de8 dc3d 0a4b 713e 9e8e c33b 6b3c 75be
00000110: 98a9 2bba fbdb 563e 412e 0ebe fa2a fc3d
00000120: 1148 883d e1d8 3fbd 5073 063b 7687 fb3d
00000130: a348 4abe 63a3 3a3e b01f 483e 5be0 253e
00000140: b9b1 933e ff86 4ebc acbc 50be a3f7 573c
00000150: d585 abbd f0b3 d03d 440c 7a3e 2ccb 21be
00000160: 770e 463c dbc1 8f3e b4fa 6bbe 800a 4cbd
00000170: 2f86 8f3e 8f8c 4e3e 9197 ab3d f4fc febd
00000180: 4172 dcbc 9289 84be 8e26 8bbe 037b 8abe
00000190: 9bf5 8d3e 35cd 693e c083 ea3d ed7e 94bd
000001a0: 1683 7e3e cf29 9cbd 6737 4d3e 30ef 19bc
000001b0: 020e 0bbe fc00 a5bd 787a 7cbd ca49 87be
000001c0: 56cb b03d 0521 b4bd a0cf 073e df78 3c3e
000001d0: d3fd 3bbd 965c 0f3e ba3d 6c3d a084 463e
000001e0: 1ca3 3ebe 029f cfbc fb01 c5bd 3282 813e
000001f0: 68aa 84be 9626 26be 8f7b 053d 7535 833e
00000200: 1a02 483e 7e4e 8abe 0ed4 4fbe 534f 8f3e
00000210: e451 2c3d ab2f 7dbe 8742 babd c73b 013e
00000220: 5a40 77bd b70f 63be 9c82 36be 0022 19be
00000230: 7042 39bc 59b0 e73d 77ed 0d3e 039a 0fbe

actor.12.bias f4 [12]
-0.048435714 -0.222882 0.21830864 0.28808454 0.28058457 0.11797433 -0.06155623 -0.007196224
0.10414935 -0.2502262 0.017919997 -0.23465098
00000000: 8764 46bd 2e3b 64be 4d8c 5f3e d17f 933e
00000010: c8a8 8f3e 879c f13d 6322 7cbd 4dce ebbb
00000020: 414c d53d a61d 80be f5cc 923c 5948 70be

actor.15.weight f4 [12, 12]
-0.28862527 -0.009648546 -0.09190006 -0.18286423 0.047854897 0.011759458 0.044051975 -0.16156793
-0.28275397 0.0063178036 -0.117766306 -0.09732286 0.21251856 0.047145892 0.13184229 -0.080676645
-0.22905977 0.057560842 -0.19117415 0.035767794 -0.22528856 0.21762969 -0.19664949 0.25061566
0.20392105 0.21822186 0.17321748 0.06681667 -0.014069587 -0.0046079024 -0.114812315 -0.26534918
0.26311997 0.014956954 0.13576944 0.010595206 0.08295715 -0.17786162 -0.22440614 0.2201559
0.10947025 0.14253709 -0.28652614 0.019516747 -0.2692628 -0.03303511 -0.015260613 -0.20308875
-0.2858534 0.0018999628 0.25960532 0.26016116 -0.1757516 -0.05128065 -0.24140267 -0.22544193
-0.07915079 0.2802628 -0.07531101 0.016702197 0.27157536 0.05144401 0.23287371 0.19182208
0.2706938 0.04950492 -0.23344648 -0.2483366 -0.14915201 0.23826553 0.16599753 0.08448838
-0.2198345 -0.21261059 0.2355154 -0.029965563 -0.2874254 -0.03568658 -0.06930358 0.004354384
0.12081304 0.11107839 -0.22088805 -0.0031639778 -0.14305948 0.19526803 0.14294694 0.15844849
0.2624471 0.14179794 -0.28847072 0.072841376 -0.19808468 0.038549926 0.0030855855 0.2863141
-0.19722936 -0.2828327 -0.07738779 0.046518374 0.21146725 0.23405826 0.22232203 0.09112698
-0.0824977 -0.06103832 -0.1578686 0.056450583 -0.20075642 0.09924832 0.18642946 0.24496026
-0.28453612 0.2368492 -0.1813436 -0.023570295 0.26352406 0.1564345 -0.09156856 0.17041308
-0.28077602 0.22568057 0.2802222 -0.01310923 0.04750991 -0.06773748 -0.1827466 -0.13057142
-0.019170761 -0.23616928 -0.23331134 0.03168128 -0.18783356 -0.15702368 -0.002496439 -0.15213265
0.2672118 -0.10421157 -0.16051207 -0.07690504 -0.23552236 0.14871332 0.24802837 -0.16648224
00000000: b1c6 93be ef14 1ebc 1936 bcbd c340 3bbe
00000010: 7f03 443d beaa 403c d86f 343d 1072 25be
00000020: 21c5 90be 9405 cf3b 762f f1bd 3551 c7bd
00000030: 779e 593e 0d1c 413d aa01 073e cc39 a5bd
00000040: a58e 6abe ebc4 6b3d 28c3 43be 4081 123d
00000050: 0bb2 66be 51da 5e3e 7c5e 49be b250 803e
00000060: aed0 503e 8d75 5f3e ec5f 313e 2ed7 883d
00000070: 2084 66bc e3fd 96bb b822 ebbd d9db 87be
00000080: a9b7 863e 030e 753c 2507 0b3e 8497 2d3c
00000090: 70e5 a93d 5b21 36be b9ca 65be 8c70 613e
000000a0: f031 e03d 3ef5 113e 8eb3 92be 96e1 9f3c
000000b0: d0dc 89be d34f 07bd a607 7abc 7ff6 4fbe
000000c0: 605b 92be 2c08 f93a fdea 843e d833 853e
000000d0: 3af8 33be a90b 52bd 4332 77be 40da 66be
000000e0: cf19 a2bd 9b7e 8f3e a93c 9abd 0cd3 883c
000000f0: ed0b 8b3e f4b6 523d 7276 6e3e 026d 443e
00000100: 6198 8a3e acc5 4a3d 980c 6fbe f34b 7ebe
00000110: 4ebb 18be e1fb 733e 42fb 293e 3e08 ad3d
00000120: 4c1c 61be 97b6 59be f32a 713e 577a f5bc
00000130: 6c29 93be 172c 12bd 09ef 8dbd 38af 8e3b
00000140: d46c f73d 117d e33d 7a30 62be bd5a 4fbb
00000150: 2f7e 12be 58f4 473e af60 123e 5240 223e
00000160: 775f 863e 7b33 113e 6fb2 93be dc2d 953d
00000170: b6d6 4abe 87e6 1d3d 8937 4a3b c397 923e
00000180: 7ef6 49be 73cf 90be 7d7d 9ebd 0d8a 3e3d
00000190: df8a 583e f8ac 6f3e 63a8 633e c8a0 ba3d
000001a0: 8ef4 a8bd 5103 7abd 4ea8 21be ba38 673d
000001b0: 1793 4dbe b442 cb3d 5de7 3e3e ddd6 7a3e
000001c0: b8ae 91be 9988 723e 23b2 39be 7e16 c1bc
000001d0: a0ec 863e 5e30 203e 4c88 bbbd c480 2e3e
000001e0: e0c1 8fbe cf18 673e 4979 8f3e 19c8 56bc
000001f0: c099 423d f3b9 8abd ed21 3bbe 84b4 05be
00000200: 000c 9dbc 5cd6 71be 2be9 6ebe 3bc4 013d
00000210: 7157 40be d1ca 20be 4c9b 23bb a9c8 1bbe
00000220: fccf 883e e06c d5bd 475d 24be 6480 9dbd
00000230: c62c 71be 4e48 183e 26fb 7d3e 527a 2abe

actor.15.bias f4 [12]
-0.10731326 0.26941118 -0.2088259 0.07818465 -0.23520242 -0.25693402 0.0004368011 -0.16475774
0.15634231 -0.08928885 0.002844249 -0.15071104
00000000: 0ec7 dbbd 43f0 893e 75d6 55be 461f a03d
00000010: e7d8 70be db8c 83be 7402 e539 41b6 28be
00000020: 3318 203e 13dd b6bd 9466 3a3b ff53 1abe

actor.18.weight f4 [12, 12]
0.11862669 0.2674641 -0.043396447 -0.17817332 -0.28155172 0.27662677 0.121669844 0.119218834
0.0491482 0.14485283 0.10251147 0.14095306 0.18054195 0.040934145 0.2486469 0.17950404
-0.008836886 -0.12893593 0.019136453 0.22482353 0.1828695 -0.11697822 -0.06026713 0.11461568
0.1087673 0.27488828 0.14017689 0.09196785 0.06671821 -0.27129647 -0.10635301 0.0305523
-0.20082046 -0.2529278 0.19479306 0.098180115 -0.23295097 0.017133458 0.17000735 0.16629848
0.26362062 -0.11414302 0.12853888 -0.23416814 -0.035607945 -0.18359609 -0.05496829 0.16433802
0.14391173 -0.15184736 -0.07158232 -0.057750974 -0.10981975 -0.15813464 0.21197367 0.19954072
0.24099395 -0.15851486 0.21139282 -0.087535284 -0.0678218 -0.07772118 -0.014036826 -0.12641041
0.03947859 -0.1860623 0.11872862 -0.24208955 -0.104651466 -0.2016268 0.19473132 0.19833376
-0.22959948 -0.15752178 0.25835967 0.08411734 0.19877462 -0.22131477 0.13028614 0.18375346
-0.066978544 -0.013302492 0.21049571 0.078715846 0.0828303 0.0008780415 -0.12051809 -0.1766921
0.2880757 -0.022804886 0.25617886 0.23619358 -0.15095136 0.019621672 -0.073839486 -0.005241579
0.19025443 0.15895951 -0.16396444 -0.14283954 -0.2050757 -0.24509627 0.18518361 -0.17837767
0.0037725673 -0.00039216777 0.04938451 -0.016889747 0.14980423 0.039644804 0.20700526 0.062313177
-0.003600538 0.040905792 0.19240327 0.04357092 0.20336522 -0.027374007 0.0025030118 0.2425288
-0.2725356 0.028798075 0.26366675 -0.14486064 -0.053248443 -0.017392104 0.09510317 0.10910922
0.06539635 0.11387502 -0.12385788 0.12144816 -0.091533735 0.1813851 -0.08472204 -0.24580947
0.020616407 0.15021159 -0.011313745 0.0037471708 0.0010228847 0.15320955 0.02258726 -0.25788477
00000000: 8df2 f23d 0ef1 883e 79c0 31bd 1173 36be
00000010: 8c27 90be 06a2 8d3e 0a2e f93d 0129 f43d
00000020: 9f4f 493d 4d54 143e 89f1 d13d 0056 103e
00000030: fddf 383e 90aa 273d 4b9d 7e3e e8cf 373e
00000040: 96c8 10bc c807 04be 0dc4 9c3c 2438 663e
00000050: 2442 3b3e 4792 efbd abda 76bd a0bb ea3d
00000060: 64c1 de3d 28be 8c3e 888a 0f3e a459 bc3d
00000070: 8fa3 883d 5fe7 8abe 9bcf d9bd d148 fa3c
00000080: e1a3 4dbe c17f 81be d577 473e a812 c93d
00000090: b38a 6ebe 775b 8c3c 6816 2e3e 264a 2a3e
000000a0: 48f9 863e d1c3 e9bd b29f 033e c6c9 6fbe
000000b0: a3d9 11bd 9d00 3cbe 6e26 61bd 3a48 283e
000000c0: 995d 133e e07d 1bbe c099 92bd 498c 6cbd
000000d0: 2de9 e0bd 0cee 21be a00f 593e 6754 4c3e
000000e0: 1ec7 763e b851 22be 5c77 583e b345 b3bd
000000f0: 28e6 8abd 482c 9fbd b7fa 65bc bb71 01be
00000100: 4db4 213d 1e87 3ebe fe27 f33d 53e6 77be
00000110: 8253 d6bd 4177 4ebe a667 473e 0118 4b3e
00000120: 201c 6bbe 644d 21be b847 843e b645 ac3d
00000130: 938b 4b3e 57a0 62be bb69 053e de29 3c3e
00000140: 0c2c 89bd b2f2 59bc 308c 573e c635 a13d
00000150: efa2 a93d 5e2c 663a 30d2 f6bd c6ee 34be
00000160: a87e 933e 50d1 babc e029 833e bbdc 713e
00000170: fe92 1abe a1bd a03c 2839 97bd 8dc1 abbb
00000180: 0fd2 423e 48c6 223e 4be6 27be 8744 12be
00000190: 5dff 51be 84fa 7abe c6a0 3d3e a3a8 36be
000001a0: 2d3d 773b de9b cdb9 6947 4a3d 5e5c 8abc
000001b0: 4866 193e 9762 223d 30f9 533e 1a3c 7f3d
000001c0: 01f7 6bbb d58c 273d 5d05 453e 6c77 323d
000001d0: f93e 503e 743f e0bc 9209 243b 7859 783e
000001e0: c989 8bbe f1e9 eb3c 54ff 863e 5956 14be
000001f0: 0a1b 5abd e379 8ebc 73c5 c23d a874 df3d
00000200: 86ee 853d 4e37 e93d 33a9 fdbd d0b9 f83d
00000210: 0a76 bbbd 04bd 393e c082 adbd 7ab5 7bbe
00000220: bde3 a83c 11d1 193e 495d 39bc 1893 753b
00000230: 5112 863a f7e2 1c3e eb08 b93c 7909 84be

actor.18.bias f4 [12]
-0.20587291 0.017063668 -0.023179917 0.27593228 -0.06786092 0.22092539 -0.24345894 -0.27436104
-0.026555154 -0.18278271 -0.08418458 0.032515995
00000000: 59d0 52be 1bc9 8b3c cfe3 bdbc ff46 8d3e
00000010: abfa 8abd 443a 623e 4d4d 79be 0d79 8cbe
00000020: 328a d9bc 642b 3bbe f768 acbd 7e2f 053d

actor.21.weight f4 [12, 12]
-0.250403 0.19836934 -0.17519562 0.22149286 0.09436133 -0.054137908 -0.2526338 0.04777881
-0.16127074 0.24949121 -0.24284828 -0.07625458 -0.15909459 -0.18566354 -0.15056428 -0.028619438
0.019528793 0.04889984 0.14751266 -0.1179118 -0.17911035 -0.06082348 0.2720363 -0.035268225
-0.24302478 0.22651158 0.0702396 0.050102048 0.049550343 0.20140758 -0.1314464 0.2103911
0.27758926 -0.07443555 0.18219188 0.15926729 0.27033925 -0.067186125 -0.17172286 -0.10715647
-0.19639963 0.009903545 0.2783237 0.2800544 0.218052 0.028564515 0.0062667006 0.19113778
0.17141064 -0.02864683 -0.073010586 0.1141454 -0.010016659 -0.20280533 -0.13578035 0.23411243
0.24040872 -0.11248546 -0.061949227 -0.1430741 -0.09424474 0.2631443 -0.2567486 0.13775147
-0.25945768 -0.13772488 -0.058784593 0.020002965 -0.046880223 -0.13195747 -0.12875953 -0.17558232
-0.20149684 -0.1798508 0.27681914 -0.13601539 -0.24005878 0.1984072 0.11199412 0.19856952
-0.28714365 -0.27478465 -0.20488612 -0.15207504 -0.0006357069 0.124868825 0.16900827 -0.2482909
0.11512702 -0.16694327 0.066354886 0.09063453 0.046197165 0.10213472 -0.014414093 0.19057982
0.0602067 0.25290576 0.06257574 -0.15281759 0.18538675 0.015639152 0.27898714 -0.031924784
0.28561938 -0.16851752 0.14508295 -0.21535304 0.19818516 0.052401062 0.16389214 -0.24860072
-0.28716022 0.13909458 -0.11876469 0.114327714 -0.17126767 -0.08923971 0.0012932658 0.17384176
0.16301976 -0.025786305 -0.08165201 -0.005006368 0.14878383 -0.2446724 -0.08820857 -0.27828178
0.041669067 -0.034145404 0.163533 0.23061404 -0.24682684 -0.1277567 -0.04640729 -0.002878627
-0.065895304 -0.18150327 -0.11154375 -0.007434257 0.23214595 -0.07356976 0.19063883 -0.23335056
00000000: d234 80be 5521 4b3e 7b66 33be 06cf 623e
00000010: 8340 c13d b6bf 5dbd 3859 81be b7b3 433d
00000020: 2824 25be a07a 7f3e 38ad 78be 5c2b 9cbd
00000030: b1e9 22be 951e 3ebe 862d 1abe 5073 eabc
00000040: d9fa 9f3c 334b 483d 8f0d 173e be7b f1bd
00000050: b468 37be 0b22 79bd 5848 8b3e 6a75 10bd
00000060: 7ddb 78be a7f2 673e c8d9 8f3d ce37 4d3d
00000070: 4df5 4a3d ca3d 4e3e e399 06be c470 573e
00000080: 2e20 8e3e aa71 98bd 8290 3a3e f716 233e
00000090: e869 8a3e e198 89bd 1ed8 2fbe da74 dbbd
000000a0: fc1c 49be 7a42 223c 7280 8e3e 4a63 8f3e
000000b0: 0649 5f3e 2100 ea3c e558 cd3b 9fb9 433e
000000c0: 4586 2f3e c2ac eabc 9386 95bd 10c5 e93d
000000d0: ea1c 24bc 33ac 4fbe 010a 0bbe 2bbb 6f3e
000000e0: b42d 763e c75e e6bd 79be 7dbd 0482 12be
000000f0: 6303 c1bd daba 863e 8d74 83be b90e 0d3e
00000100: a3d7 84be c007 0dbe 1dc8 70bd 42dd a33c
00000110: 7a05 40bd dc1f 07be 8ad9 03be dacb 33be
00000120: 3055 4ebe cf2a 38be 3dbb 8d3e 9e47 0bbe
00000130: f8d1 75be 422b 4b3e 2c5d e53d cf55 4b3e
00000140: 7e04 93be 93b0 8cbe abcd 51be 8fb9 1bbe
00000150: 91a5 26ba 3abb ff3d 8110 2d3e f83f 7ebe
00000160: b7c7 eb3d 2df3 2abe 12e5 873d 999e b93d
00000170: 3d39 3d3d 022c d13d 1729 6cbc 5b27 433e
00000180: 4d9b 763d dd7c 813e b627 803d 377c 1cbe
00000190: 06d6 3d3e ae1d 803c 67d7 8e3e 90c3 02bd
000001a0: b43c 923e db8f 2cbe a090 143e 8285 5cbe
000001b0: 0df1 4a3e 7fa2 563d 57d3 273e 3091 7ebe
000001c0: aa06 93be cf6e 0e3e e73a f3bd a624 ea3d
000001d0: cb60 2fbe 4fc3 b6bd cd82 a93a 9303 323e
000001e0: a7ee 263e cd3d d3bc 2b39 a7bd 750c a4bb
000001f0: ca5a 183e 678b 7abe b2a6 b4bd f37a 8ebe
00000200: 2fad 2a3d 0ddc 0bbd 3275 273e 1626 6c3e
00000210: 2dc0 7cbe a7d2 02be 9215 3ebd 59a7 3cbb
00000220: 1ef4 86bd fedb 39be 0d71 e4bd 119b f3bb
00000230: abb7 6d3e beab 96bd d336 433e 73f3 6ebe

actor.21.bias f4 [12]
0.012909361 -0.22527389 -0.27088308 0.028608322 -0.13218144 0.21252672 0.22801308 -0.28732517
-0.020117939 -0.049316853 -0.16453782 -0.20153642
00000000: c981 533c 33ae 66be 30b1 8abe 005c ea3c
00000010: 925a 07be 9ba0 593e 437c 693e 491c 93be
00000020: 60ce a4bc 7800 4abd 9a7c 28be 905f 4ebe

actor.24.weight f4 [12, 12]
-0.12216095 0.1274516 0.0686368 0.17374103 -0.017216599 0.14993125 0.05582341 -0.06294792
-0.016876154 -0.26254815 -0.00662948 -0.0948343 -0.09660666 -0.1159457 -0.06311427 -0.21312237
0.016940024 -0.011731859 -0.07603003 0.25059074 0.19373468 0.0815275 -0.10632551 0.036819413
-0.19862369 0.20114483 0.26963103 -0.043100394 0.2226281 0.2709212 -0.0173452 -0.107192606
0.0145689845 0.047705647 -0.26721856 -0.018008092 -0.10437551 0.19263168 -0.008286626 0.18992954
0.25677258 -0.09046942 0.06213846 -0.024693975 -0.12580465 -0.16013694 0.0066799293 0.087707035
-0.05077241 0.04902345 0.18039928 0.120343335 0.11904154 0.08112821 -0.22191018 -0.17464991
-0.21407522 0.18969922 -0.25425598 -0.21551877 0.19011042 0.17063789 -0.27288997 0.1668014
-0.06586925 0.0621939 -0.18083611 -0.04382086 0.0641599 0.22011153 0.17505209 -0.15697555
-0.18935283 -0.017566955 0.09059829 0.15828016 -0.28766564 -0.023589944 0.010208372 -0.13481662
0.2276888 -0.07662861 -0.27522212 -0.17236142 0.009255793 -0.21482311 0.06593667 0.28082398
0.01181741 -0.071116306 0.27196273 0.21311112 0.19182995 0.021897526 0.013197155 -0.22387536
0.029385328 0.28078106 0.0152606815 -0.25760943 0.1584437 0.2590744 0.24200885 0.013615304
0.054231443 0.04671645 -0.118314125 -0.04212087 0.23550305 0.029451504 0.27207214 -0.19169964
-0.042189043 0.0033828428 -0.17181014 0.22288159 0.20161395 -0.15571222 0.25431827 0.26918095
-0.16973607 -0.009956988 0.2876855 -0.1874093 -0.04522466 -0.19810691 0.20829594 0.046797015
0.12017496 0.20714487 -0.04580221 -0.28855607 0.014136072 -0.022340108 0.10469314 0.13475107
-0.14355 -0.11370811 0.18197845 0.08217925 0.06612896 0.12852882 0.13423161 -0.2085837
00000000: 852f fabd ac82 023e 7391 8c3d 2be9 313e
00000010: d309 8dbc 9487 193e 17a7 643d d7ea 80bd
00000020: dc3f 8abc b66c 86be 1c3c d9bb 7c38 c2bd
00000030: b6d9 c5bd f074 edbd 0e42 81bd c03c 5abe
00000040: cec5 8a3c fc36 40bc a2b5 9bbd 6e4d 803e
00000050: 6262 463e e4f7 a63d 30c1 d9bd f4cf 163d
00000060: 0264 4bbe e9f8 4d3e 140d 8a3e 0a8a 30bd
00000070: 9ff8 633e 2fb6 8a3e 8517 8ebc cc87 dbbd
00000080: c0b2 6e3c ff66 433d dfd0 88be b585 93bc
00000090: d4c2 d5bd 3d41 453e a1c4 07bc e47c 423e
000000a0: b277 833e 0848 b9bd e684 7e3d 054b cabc
000000b0: efd2 00be f0fa 23be 4fe3 da3b bf9f b33d
000000c0: bbf6 4fbd d0cc 483d 97ba 383e 9176 f63d
000000d0: 0dcc f33d 8c26 a63d 6c3c 63be 6dd7 32be
000000e0: 8936 5bbe 8340 423e d72d 82be f4b0 5cbe
000000f0: 4eac 423e b3bb 2e3e 3cb8 8bbe fccd 2a3e
00000100: 75e6 86bd 08bf 7e3d 1a2d 39be 817d 33bd
00000110: 4466 833d eb64 613e db40 333e 33be 20be
00000120: b5e5 41be 93e8 8fbc 998b b93d 3214 223e
00000130: e948 93be b33f c1bc 0441 273c 5e0d 0abe
00000140: 4127 693e 76ef 9cbd eae9 8cbe 837f 30be
00000150: 9ca5 173c 97fa 5bbe ce09 873d 29c8 8f3e
00000160: cf9d 413c 6da5 91bd b33e 8b3e cd39 5a3e
00000170: 126f 443e 7162 b33c e138 583c 953f 65be
00000180: 80b9 f03c 89c2 8f3e f007 7a3c 62e5 83be
00000190: 113f 223e 66a5 843e 2bd1 773e b912 5f3c
000001a0: ca21 5e3d c059 3f3d ad4e f2bd ef86 2cbd
000001b0: b627 713e 4844 f13c 0a4d 8b3e e94c 44be
000001c0: 6bce 2cbd afb2 5d3b ffee 2fbe 123b 643e
000001d0: e373 4e3e 0673 1fbe 0136 823e 16d2 893e
000001e0: 4bcf 2dbe a222 23bc 844b 933e 39e8 3fbe
000001f0: 7e3d 39bd 8adc 4abe 884b 553e 3aae 3f3d
00000200: 4a1e f63d c91d 543e 199b 3bbd 9fbd 93be
00000210: fc9a 673c 9a02 b7bc 5b69 d63d 2ffc 093e
00000220: c5fe 12be ccdf e8bd 8f58 3a3e 984d a83d
00000230: 9f6e 873d 0f9d 033e 0374 093e f796 55be

actor.24.bias f4 [12]
0.023051178 0.02759707 -0.2788502 0.06126142 -0.0038517856 0.22391549 -0.2755392 0.27154693
-0.14127009 0.17006488 0.2132647 -0.035816487
00000000: d3d5 bc3c 4013 e23c 74c5 8ebe 41ed 7a3d
00000010: 3d6e 7cbb 1a4a 653e 7913 8dbe 3308 8b3e
00000020: 1ba9 10be 7d25 2e3e 1062 5a3e 4fb4 12bd

actor.27.weight f4 [12, 12]
-0.14769088 -0.047926683 -0.18003482 0.03568207 0.121343754 0.059660193 -0.16624035 0.15773243
0.26490253 -0.087833226 0.14989822 -0.019027742 0.11635721 -0.20587756 -0.24649985 -0.008195295
-0.24323463 0.10398919 0.27023852 -0.056613907 0.0027847835 0.04390032 -0.13949968 -0.014769611
0.07436924 0.23345077 -0.23949802 -0.005714238 -0.2355129 -0.025557425 -0.007612928 -0.12037369
0.17706083 0.1980609 -0.11198775 -0.0402451 -0.08847547 0.0077751838 0.09514945 0.26689175
-0.2647824 0.11724237 -0.17384197 -0.23573847 0.22231115 -0.08600364 -0.16187437 0.0791895
-0.060068086 -0.2642304 -0.15057501 -0.121951 -0.022514237 -0.1905697 -0.2780207 0.16055691
-0.24788885 -0.034948252 0.24778982 -0.10625193 -0.19090298 0.077085644 0.2519172 -0.03183531
-0.017033247 0.13488339 0.03615955 0.05530037 0.1527604 0.13121054 -0.20673525 -0.11396301
0.1972042 0.04454618 0.06724607 0.27727488 0.1786901 0.11519313 0.27623534 -0.2539293
0.044797976 0.07537433 -0.050195344 -0.13555948 0.05328502 -0.23861772 -0.12298335 0.21924071
-0.10606022 -0.08310877 0.12948306 -0.07303295 0.042397723 -0.28851697 0.16437571 -0.25681198
0.038453605 -0.28640354 -0.24776477 0.2322346 -0.15895525 -0.009962906 0.0128596 0.26562193
0.0921597 0.14091143 -0.123497784 -0.0989787 0.20998971 0.1058277 0.07239412 -0.21769337
-0.23039155 0.05828516 -0.21663323 0.20239767 0.24054246 -0.11955701 -0.1860619 0.27944738
-0.15401629 -0.23008122 -0.20952073 0.050146475 0.056059584 0.18640359 0.23246427 0.12311229
0.04120986 0.26072615 -0.11913174 -0.050622713 0.24444947 -0.0971627 0.15476798 0.06190824
0.10189566 -0.06600281 -0.2458679 0.20700891 0.2376779 -0.2292368 -0.1351039 0.012242339
00000000: 473c 17be c54e 44bd 0c5b 38be 5d27 123d
00000010: 1383 f83d 3f5e 743d e93a 2abe 9c84 213e
00000020: 4ea1 873e e8e1 b3bd eb7e 193e 11e0 9bbc
00000030: b04c ee3d 91d1 52be 756a 7cbe 8f45 06bc
00000040: 8012 79be 49f8 d43d b45c 8a3e fce3 67bd
00000050: ea80 363b d2d0 333d 01d9 0ebe 3dfc 71bc
00000060: e64e 983d b80d 6f3e f83e 75be 813e bbbb
00000070: 4b2a 71be ce5d d1bc de75 f9bb 7b86 f6bd
00000080: 6f4f 353e 7ad0 4a3e d559 e5bd 0cd8 24bd
00000090: a132 b5bd f8c6 fe3b b7dd c23d 09a6 883e
000000a0: 8f91 87be c51c f03d a103 32be 6d65 71be
000000b0: 89a5 633e ad22 b0bd 65c2 25be 1b2e a23d
000000c0: f409 76bd 3549 87be 5630 1abe 72c1 f9bd
000000d0: c76f b8bc b424 43be bb58 8ebe 0869 243e
000000e0: 93d6 7dbe e625 0fbd 9dbc 7d3e 9d9a d9bd
000000f0: 127c 43be 14df 9d3d 4bfb 803e be65 02bd
00000100: 4f89 8bbc df1e 0a3e 091c 143d a482 623d
00000110: 396d 1c3e 0e5c 063e 68b2 53be 7065 e9bd
00000120: e6ef 493e 0e76 363d 4fb8 893d f9f6 8d3e
00000130: 8afa 363e 60ea eb3d b86e 8d3e 0503 82be
00000140: 157e 373d db5d 9a3d a299 4dbd 1bd0 0abe
00000150: 6541 5a3d 3458 74be b2de fbbd a380 603e
00000160: 1a36 d9bd ee34 aabd 3597 043e 4d92 95bd
00000170: 3ca9 2d3d 7fb8 93be 1b52 283e dc7c 83be
00000180: 8781 1d3d 7ca3 92be 0cb6 7dbe e8ce 6d3e
00000190: 2ac5 22be 753b 23bc 12b1 523c 99ff 873e
000001a0: 3abe bc3d 164b 103e 68ec fcbd 58b5 cabd
000001b0: 8b07 573e 31bc d83d 5e43 943d 03eb 5ebe
000001c0: c3eb 6bbe 6cbc 6e3d 1ad5 5dbe 5641 4f3e
000001d0: c350 763e 4eda f4bd 0387 3ebe ba13 8f3e
000001e0: 72b6 1dbe 699a 6bbe 9a8c 56be 6466 4d3d
000001f0: bc9e 653d 95e0 3e3e 1d0b 6e3e 4c22 fc3d
00000200: accb 283d e67d 853e 57fb f3bd c359 4fbd
00000210: f650 7a3e 3dfd c6bd 7f7b 1e3e 7f93 7d3d
00000220: acae d03d 7b2c 87bd cbc4 7bbe 25fa 533e
00000230: d661 733e 0dbd 6abe ad58 0abe 1794 483c

actor.27.bias f4 [12]
0.14303249 -0.040859953 -0.12656337 0.22464256 -0.1449187 0.26229823 0.0049092895 0.15154666
0.06787238 0.05080985 0.21242468 -0.014467468
00000000: 1c77 123e c45c 27bd d499 01be b308 663e
00000010: 9165 14be f44b 863e 1bde a03b 0c2f 1b3e
00000020: ad00 8b3d fd1d 503d db85 593e f508 6dbc

actor.30.weight f4 [12, 12]
0.2036794 0.095300004 -0.16112421 0.18921028 -0.20509146 0.15029934 -0.0618464 0.089574926
-0.034541875 0.0570622 -0.08718988 0.11963798 0.13474949 -0.26404497 0.25451764 -0.23279366
-0.128848 0.1136428 0.2660724 0.09386561 -0.16108632 0.050800662 -0.17324018 0.13580939
0.0147544695 0.028153695 -0.22143577 0.15406437 0.2742721 -0.2002639 0.09819491 -0.12730174
-0.0773745 0.25556558 -0.27019992 -0.054511942 0.10382456 0.13110909 -0.1128289 -0.15759529
0.058201022 -0.26279616 0.03832504 -0.18258029 -0.052746326 0.2598475 -0.23971468 -0.14277884
-0.2220911 0.1720591 0.23843475 -0.18667975 0.18214242 0.18491386 -0.24802727 0.09850418
0.13120545 -0.05151607 0.19419676 -0.01792237 -0.03748117 0.16195428 -0.2639357 -0.28353006
0.053630974 0.031810705 0.020443896 -0.17686895 0.23003675 -0.17850325 -0.1276725 -0.24364594
-0.28750545 0.069836594 -0.116329744 0.17668982 0.27867952 0.093759865 0.25238663 -0.20092832
0.15206856 0.15690418 -0.11554269 -0.020489356 -0.17322586 0.027803339 -0.2757793 -0.17236294
-0.24884401 -0.036428552 0.029422976 -0.23209444 -0.10606624 0.17333613 0.013983176 0.05057808
-0.12748371 -0.08490457 -0.2559283 0.26891133 0.032828152 0.13296163 0.16876175 0.25310373
-0.19912164 0.080571 -0.25021166 0.10745924 -0.14813274 0.11241285 -0.21254145 0.1527486
0.20672256 0.15868345 -0.24239813 0.1805243 -0.18317215 -0.2699996 0.18791051 0.049159482
-0.10052847 -0.25232378 0.07421617 -0.12478551 -0.22889952 -0.036230817 -0.24583669 0.14221223
-0.19020933 -0.09825992 -0.2855803 -0.040152565 -0.08913671 0.15928902 -0.06532298 0.1943318
0.25202996 0.05888174 -0.09894074 -0.23782258 -0.20197311 -0.09725145 -0.18091038 0.15284829
00000000: 5591 503e a62c c33d bffd 24be 57c0 413e
00000010: 7f03 52be 12e8 193e a752 7dbd 0f73 b73d
00000020: c87b 0dbd 0eba 693d 9c90 b2bd c204 f53d
00000030: c5fb 093e e730 87be 2350 823e 7661 6ebe
00000040: bbf0 03be 8ebd e83d a43a 883e 9d3c c03d
00000050: d0f3 24be 5b14 503d e065 31be 9e11 0b3e
00000060: bbbc 713c 94a2 e63c 0fc0 62be 0dc3 1d3e
00000070: 656d 8c3e fb11 4dbe 6a1a c93d 635b 02be
00000080: 8676 9ebd 7ed9 823e a557 8abe ea47 5fbd
00000090: f9a1 d43d 7641 063e d712 e7bd a960 21be
000000a0: 3264 6e3d 388d 86be b8fa 1c3d 54f6 3abe
000000b0: 880c 58bd bb0a 853e c477 75be 9e34 12be
000000c0: d96b 63be 4330 303e 3d28 743e fa28 3fbe
000000d0: 8b83 3a3e 0f5a 3d3e dcfa 7dbe 8fbc c93d
000000e0: b95a 063e 8402 53bd 84db 463e efd1 92bc
000000f0: db85 19bd 58d7 253e 9422 87be da2a 91be
00000100: 27ac 5b3d f14b 023d f579 a73c 221d 35be
00000110: c18e 6b3e 8ec9 36be 94bc 02be 527e 79be
00000120: ea33 93be 7d06 8f3d 4a3e eebd 2dee 343e
00000130: 15af 8e3e 2c05 c03d d238 813e 27c0 4dbe
00000140: dcb7 1b3e 7dab 203e a5a1 ecbd 4bd9 a7bc
00000150: 1f62 31be d4c3 e33c f232 8dbe e97f 30be
00000160: f7d0 7ebe 1b36 15bd 7408 f13c 2aaa 6dbe
00000170: 4239 d9bd 077f 313e b119 653c f62a 4f3d
00000180: 178b 02be 72e2 adbd 0909 83be bfae 893e
00000190: d076 063d 1827 083e e1cf 2c3e d096 813e
000001a0: 8be6 4bbe 6902 a53d be1b 80be 9713 dc3d
000001b0: 1cb0 17be b538 e63d 77a4 59be 216a 1c3e
000001c0: 14af 533e ea7d 223e 3737 78be 5ddb 383e
000001d0: 7b91 3bbe 633d 8abe 9d6b 403e 745b 493d
000001e0: dfe1 cdbd 9530 81be a6fe 973d 8c8f ffbd
000001f0: a364 6abe c466 14bd 9dbc 7bbe 15a0 113e
00000200: 3cc6 42be 7f3c c9bd 9537 92be 0477 24bd
00000210: 4f8d b6bd a91c 233e 0ec8 85bd eafe 463e
00000220: 120a 813e fb2d 713d 71a1 cabd c387 73be
00000230: 0ad2 4ebe c52b c7bd 9240 39be 4384 1c3e

actor.30.bias f4 [12]
-0.09319976 -0.010566954 0.012011842 -0.24943773 0.2407131 -0.110330366 -0.2336631 -0.0045647146
-0.25373644 0.036018457 -0.1867996 -0.063308015
00000000: 84df bebd 0421 2dbc 51cd 443c 9b6c 7fbe
00000010: 7f7d 763e e3f4 e1bd 6145 6fbe 9a93 95bb
00000020: bee9 81be 1788 133d 6548 3fbe a2a7 81bd

actor.33.weight f4 [12, 12]
-0.08490522 0.20890464 0.22278062 0.28617167 0.031799726 0.1841342 -0.2369031 -0.19364575
0.1553575 0.06341304 0.07989857 0.16501945 0.18303512 0.13566177 -0.10693878 -0.09144416
0.06079664 0.23758347 -0.02187409 -0.08592841 0.159487 0.1913754 -0.005358617 -0.08536436
-0.28759557 0.017735371 0.088490166 -0.2119339 -0.21432382 -0.2886008 0.2255602 0.27061862
0.28569186 0.25771534 -0.030433817 0.1283973 0.17086495 -0.07711366 -0.16631734 0.24029568
-0.030250706 0.10644781 -0.13499506 -0.14891385 -0.05349019 0.009546615 0.17077999 0.1875272
-0.03627108 0.2838082 -0.15368067 0.019403288 -0.180924 0.0472568 0.2631056 -0.2387881
0.06790769 -0.26530105 -0.064563766 -0.13567275 0.0004866308 -0.200334 0.07331469 -0.27238894
0.063282825 -0.11131684 -0.17275682 0.24472784 0.031164194 -0.19108829 -0.16271129 -0.12879883
-0.17081498 0.03569611 0.0040641464 0.25166497 0.00842851 -0.15398593 0.2482219 0.072596535
-0.062287915 0.20259306 0.23665336 -0.24302417 -0.23808645 -0.18989125 -0.24824922 -0.08660982
0.1056738 -0.2633333 -0.2821401 -0.24857357 -0.15062019 0.18099138 0.25594038 0.2867777
0.0031448442 -0.24449332 0.28151336 -0.19404662 0.10899198 0.14429957 0.0892457 0.09527698
-0.26929322 -0.09727141 -0.18567799 0.19936855 -0.16401275 -0.0069059175 0.2565858 0.21880302
-0.20769551 -0.24081586 0.22847982 0.08307924 -0.22132182 0.24960636 -0.20840317 0.24989963
0.20710313 0.2057102 -0.055384062 0.025088793 -0.24105476 0.16262399 0.016644763 0.21376371
-0.12168925 0.27885747 0.19242388 -0.08086396 0.07881468 -0.21059161 -0.19219759 -0.19779262
-0.16583094 0.08025743 -0.124416225 -0.099705115 0.20194755 0.047680046 -0.14069264 -0.07834274
00000000: cae2 adbd 19eb 553e 9a20 643e 1885 923e
00000010: 6e40 023d ad8d 3c3e ba96 72be 124b 46be
00000020: 0916 1f3e b2de 813d dda1 a33d dcfa 283e
00000030: 8f6d 3b3e ebea 0a3e b802 dbbd 1347 bbbd
00000040: e605 793d 1549 733e 4b31 b3bc 3cfb afbd
00000050: 8f50 233e eaf7 433e 5697 afbb 82d3 aebd
00000060: ba3f 93be c549 913c 553a b53d 3305 59be
00000070: b477 5bbe 7cc3 93be 41f9 663e 868e 8a3e
00000080: 3446 923e 44f3 833e 5750 f9bc 957a 033e
00000090: 39f7 2e3e c4ed 9dbd 184f 2abe 1210 763e
000000a0: 54d0 f7bc 4f01 da3d 253c 0abe df7c 18be
000000b0: 8818 5bbd 6869 1c3c f3e0 2e3e 2107 403e
000000c0: fc90 14bd 4f4f 913e 775e 1dbe a5f3 9e3c
000000d0: 2444 39be 5990 413d c7b5 863e de84 74be
000000e0: 3013 8b3d 8ad5 87be 023a 84bd cced 0abe
000000f0: 7b22 ff39 5b24 4dbe 0326 963d 9076 8bbe
00000100: 6d9a 813d 15fa e3bd 2ae7 30be ef99 7a3e
00000110: 0d4c ff3c a6ac 43be ca9d 26be d7e3 03be
00000120: 1fea 2ebe 1636 123d 882c 853b 3bda 803e
00000130: bc17 0a3c 7dae 1dbe e22d 7e3e 7ead 943d
00000140: 9d21 7fbd 8e74 4f3e 4255 723e 54db 78be
00000150: efcc 73be da72 42be 0b35 7ebe 7d60 b1bd
00000160: 816b d83d 9fd3 86be ab74 90be 128a 7ebe
00000170: 2e3c 1abe ce55 393e 9e0a 833e 87d4 923e
00000180: bb19 4e3b 755c 7abe 8522 903e 28b4 46be
00000190: 3037 df3d 44c3 133e 73c6 b63d 9420 c33d
000001a0: cde0 89be 3c36 c7bd 5f22 3ebe 4527 4c3e
000001b0: f5f2 27be 094b e2bb 375f 833e e60d 603e
000001c0: 22ae 54be 6f98 76be 9df6 693e 7325 aa3d
000001d0: 30a2 62be cf98 7f3e a467 55be b0e5 7f3e
000001e0: d812 543e b2a5 523e 66da 62bd 0387 cd3c
000001f0: 0fd7 76be e786 263e 995a 883c e0e4 5a3e
00000200: 3738 f9bd 68c6 8e3e c40a 453e 019c a5bd
00000210: 9769 a13d 54a5 57be 72cf 44be 268a 4abe
00000220: 96cf 29be 025e a43d efcd febd 3232 ccbd
00000230: 57cb 4e3e 274c 433d bb11 10be 2972 a0bd

actor.33.bias f4 [12]
-0.07589434 0.1347683 0.20320347 0.23002623 -0.1964022 -0.03083944 0.0677613 -0.112820365
0.18981133 -0.032093268 0.0308042 -0.2467967
00000000: 7e6e 9bbd b400 0a3e 9214 503e ff8b 6b3e
00000010: a91d 49be fea2 fcbc 70c6 8a3d 5d0e e7bd
00000020: e75d 423e 3b74 03bd 1759 fc3c 46b8 7cbe
