gigala/topology/topology_optimiz/hierarchical_rl/HRL_without_the_trick/preTrained/T0-h-v1/2level/HAC_T0-h-v1_level_1_actor.pth (torch, 21969 bytes, 30 tensors)

actor.0.weight f4 [12, 32]
-0.016324548 0.15467608 -0.037933573 0.009146013 -0.1128862 -0.101648144 -0.05114067 -0.16166364
-0.023635847 0.03718275 -0.12191751 -0.14765202 0.15668009 -0.077058196 -0.1302456 -0.044397954
-0.0831249 -0.16872591 -0.023593826 -0.0804672 -0.054582592 0.07882025 0.008388445 0.14765485
-0.17616455 0.15476163 0.09702788 -0.04867731 0.12227964 0.16553447 0.01753745 0.049114987
-0.13188088 -0.013123049 -0.09037913 -0.089567065 0.030549029 -0.075401425 0.090207614 -0.05477328
-0.13700642 0.15859218 -0.029025283 0.0023197085 -0.2569937 0.1517657 -0.028465595 -0.09577717
-0.19758545 0.034472205 -0.014451958 0.05361699 0.1283472 -0.16113909 -0.13766296 0.08901337
0.14926414 -0.015869403 0.016175292 0.04447505 0.045618072 -0.08404119 -0.14711285 -0.17428872
0.27510417 0.8678509 0.3199171 0.56032735 0.1340267 0.77121 0.35212678 0.60891587
0.8293984 0.23459442 0.46624774 0.35719797 0.6372552 0.21932799 0.40269688 0.24023756
0.6059804 0.86802447 0.20982748 0.4905014 0.14345047 0.45196253 0.3415989 0.18797669
0.28254658 -0.08530107 -0.024732066 -0.16464674 0.24385649 -0.030464185 0.00012397587 0.27765754
0.1581367 -0.42709023 0.00069456676 -0.4595141 0.16341421 -0.22588667 -0.15610695 -0.3589653
-0.33776087 -0.42559645 -0.14957708 -0.27250248 -0.19249356 -0.37550852 -0.3469231 0.104478694
-0.012425274 -0.30610517 0.0006865412 0.0525134 0.15357764 0.010500009 -0.017097684 0.27242324
0.002565549 -0.03197868 0.28441545 0.1956151 0.009136498 0.13043392 0.26706323 0.2627293
0.19392636 0.5334077 0.3909297 0.7319468 -0.1448808 0.7474297 0.36567014 0.653095
0.548933 0.29965937 0.4305754 0.3516632 0.74032116 0.21336557 0.26043946 0.2571913
0.6344055 0.7804948 0.37123471 0.17947817 -0.031315733 0.34625825 0.19932488 0.40380043
0.4020398 0.09802641 0.09437597 0.10678035 0.12770112 -0.05389013 0.1325567 0.20409033
0.051626965 0.09269573 0.029873267 0.48860002 -0.41698435 0.55039144 -0.0026076585 0.35803849
0.10203527 0.09599145 0.0727299 0.1992137 0.72407037 0.36970532 0.25679737 0.4498443
0.30402607 0.34964663 0.062415764 0.17070061 -0.32820085 0.11146733 -0.14923622 -0.06815128
-0.08545764 -0.19476442 -0.22206192 -0.32265127 0.548585 -0.091330506 -0.047444064 0.525501
-0.1283148 -0.06160803 -0.14095446 0.14780778 -0.19334927 0.019678479 -0.16549471 0.0731909
0.019773424 0.086652294 -0.14721659 -0.006313294 -0.15072592 0.105030365 -0.12477149 0.05892615
0.01977785 -0.17694604 0.03324479 -0.07229974 0.0020756125 -0.060375415 -0.05828219 -0.048116073
0.08629772 -0.015585866 -0.035337023 -0.09875144 -0.17609537 -0.07858263 -0.12625054 0.066215366
-0.36077458 -0.08485913 -0.43966353 0.03164248 -0.28319353 0.30302963 -0.2545467 0.0063327253
-0.31265208 -0.08765927 0.00013628602 -0.23055136 0.30616096 0.29899812 -0.102599606 -0.16919158
-0.09916654 0.24161854 -0.37224302 0.07032511 -0.2132977 -0.132144 -0.51247454 -0.2790682
-0.35541776 -0.431105 -0.51316535 -0.45768422 0.047611095 -0.03268066 -0.50161934 -0.018042715
00000000: 0fbb 85bc 6863 1e3e 3c60 1bbd 29d9 153c
00000010: e130 e7bd e72c d0bd e178 51bd 278b 25be
00000020: f79f c1bc f04c 183d e3af f9bd 1732 17be
00000030: bf70 203e b0d0 9dbd 1a5f 05be a1da 35bd
00000040: 633d aabd 7cc6 2cbe d747 c1bc fdcb a4bd
00000050: ff91 5fbd 836c a13d b06f 093c d532 173e
00000060: 7b64 34be d579 1e3e 8eb6 c63d dc61 47bd
00000070: bf6d fa3d de81 293e b3aa 8f3c cc2c 493d
00000080: c80b 07be 0f02 57bc b118 b9bd f06e b7bd
00000090: f541 fa3c 106c 9abd c5be b83d f259 60bd
000000a0: 694b 0cbe fd65 223e 6ec6 edbc 4006 183b
000000b0: ae94 83be 7868 1b3e ae30 e9bc d226 c4bd
000000c0: d753 4abe ba32 0d3d e8c7 6cbc 7d9d 5b3d
000000d0: 736d 033e a501 25be 85f7 0cbe a44c b63d
000000e0: b3d8 183e 8d00 82bc 0c82 843c 782b 363d
000000f0: 04da 3a3d ca1d acbd c0a4 16be be78 32be
00000100: 74da 8c3e 7a2b 5e3f 2dcc a33e 9d71 0f3f
00000110: 4c3e 093e 056e 453f f649 b43e e9e1 1b3f
00000120: 7453 543f 8539 703e 06b8 ee3e a7e2 b63e
00000130: 2823 233f 8497 603e 492e ce3e d600 763e
00000140: 8821 1b3f da36 5e3f 04dd 563e 0023 fb3e
00000150: aee4 123e a267 e73e 0de6 ae3e f67c 403e
00000160: f2a9 903e 54b2 aebd e79a cabc 2899 28be
00000170: 84b5 793e 0790 f9bc 85ff 0139 2129 8e3e
00000180: 96ee 213e 92ab dabe 9613 363a 6f45 ebbe
00000190: 0e56 273e d64e 67be 80da 1fbe 4dca b7be
000001a0: feee acbe c7e7 d9be bc2a 19be 7285 8bbe
000001b0: 081d 45be a742 c0be e89f b1be edf8 d53d
000001c0: 6093 4bbc d1b9 9cbe 00f9 333a 4a18 573d
000001d0: 7543 1d3e 3b08 2c3c 7110 8cbc 0f7b 8b3e
000001e0: c522 283b 14fc 02bd e79e 913e 534f 483e
000001f0: 40b1 153c 7890 053e 83bc 883e 7484 863e
00000200: a294 463e 688d 083f f027 c83e de60 3b3f
00000210: a25b 14be 8e57 3f3f 1e39 bb3e 3c31 273f
00000220: e086 0c3f f46c 993e 6174 dc3e 330d b43e
00000230: b085 3d3f 817c 5a3e 5258 853e 94ae 833e
00000240: 6668 223f 82ce 473f 7a12 be3e 20c9 373e
00000250: ed44 00bd c348 b13e d21b 4c3e eebe ce3e
00000260: 29d8 cd3e 12c2 c83d 3048 c13d a8af da3d
00000270: 15c4 023e e6bb 5cbd f2bc 073e 0efd 503e
00000280: cc76 533d 42d7 bd3d c8b8 f43c c829 fa3e
00000290: f97e d5be 74e6 0c3f 40e5 2abb d250 b73e
000002a0: def7 d03d 2a97 c43d 6af3 943d adfe 4b3e
000002b0: ad5c 393f 044a bd3e f27a 833e fe51 e63e
000002c0: 4ea9 9b3e e204 b33e aca7 7f3d 24cc 2e3e
000002d0: f109 a8be fc48 e43d 61d1 18be e692 8bbd
000002e0: 6a04 afbd 5370 47be 3364 63be 8c32 a5be
000002f0: 1170 0c3f 7d0b bbbd b554 42bd 3c87 063f
00000300: f464 03be b458 7cbd 5e56 10be ec5a 173e
00000310: 5afd 45be c334 a13c 7277 29be 1ce5 953d
00000320: e0fb a13c c276 b13d f2bf 16be c0df cebb
00000330: e557 1abe 291a d73d 3288 ffbd 8c5c 713d
00000340: 2805 a23c 5831 35be b02b 083d e311 94bd
00000350: 0007 083b 364c 77bd 4eb9 6ebd 5c15 45bd
00000360: dcbc b03d dc5b 7fbc 8ebd 10bd 323e cabd
00000370: 5852 34be eeef a0bd d247 01be ec9b 873d
00000380: 72b7 b8be a0ca adbd 941b e1be 8c9b 013d
00000390: befe 90be b326 9b3e f253 82be c082 cf3b
000003a0: ef13 a0be b486 b3bd 00e8 0e39 a815 6cbe
000003b0: 21c1 9c3e 4816 993e be1f d2bd 8f40 2dbe
000003c0: d417 cbbd da6a 773e a396 bebe 9c06 903d
000003d0: b66a 5abe c250 07be 8831 03bf 07e2 8ebe
000003e0: 51f9 b5be cbb9 dcbe ce5e 03bf 9655 eabe
000003f0: da03 433d 28dc 05bd 206a 00bf 51ce 93bc

actor.0.bias f4 [12]
-0.16997515 -0.0384274 0.5403256 -0.13855565 0.76811695 0.3333125 0.020599611 -0.28058422
0.045291513 0.05400279 -0.016494282 -0.17866729
00000000: f70d 2ebe 0d66 1dbd c752 0a3f 88e1 0dbe
00000010: 50a3 443f f0a7 aa3e 84c0 a83c bca8 8fbe
00000020: 9883 393d 0832 5d3d 041f 87bc 8ff4 36be

actor.3.weight f4 [12, 12]
-0.20955071 0.035066742 0.24588016 0.3939013 0.68512785 -0.10887275 0.08994424 0.061274588
-0.33471838 0.011065453 0.38967556 0.18111664 -0.2427426 0.12813355 -0.2583912 0.061927855
-0.19291905 -0.06262687 -0.24790743 -0.3928261 -0.115256354 -0.4839456 0.3839559 0.04589399
0.15146682 -0.06055318 -0.44309205 -0.20181921 -0.28572178 -0.38886103 0.25313053 -0.3143128
-0.49967593 -0.62436885 0.43028638 -0.21818684 -0.1569888 0.09413166 0.8256961 0.7134808
0.5899887 0.3074328 -0.34413567 0.085822016 -0.08558786 0.1367282 0.31457075 0.3998509
0.22033143 -0.111739084 -0.16437285 0.23783448 0.0072742375 -0.08051797 0.07255479 0.06911764
-0.04529383 -0.14947519 -0.14656968 -0.053467754 0.0330762 -0.26606208 1.0136561 0.43491182
0.79813755 0.3071413 -0.13020244 0.14838985 0.020239055 -0.0023522377 -0.19224752 0.5652063
0.26577806 0.18803471 -0.27017283 0.19482675 0.095395945 -0.26116344 0.26861554 0.23429474
0.25677857 -0.2539769 -0.08508427 0.022091167 -0.1566427 -0.010474039 -0.4733775 -0.33793893
-0.6051611 -0.45479244 0.2415602 -0.24070664 -0.32367602 -0.58041245 -0.16969357 -0.16576192
0.032159377 -0.020742083 -0.23971866 -0.09702538 -0.27705166 0.13038643 0.03159642 -0.057504322
0.0933188 0.048794348 0.06311351 0.2197311 -0.15861218 0.21535437 0.85859776 0.6450181
0.6385611 0.43257704 -0.17078522 0.04527226 0.17708412 0.3429057 0.046952814 0.5454269
-0.054724097 0.114543095 -0.4167587 -0.18958056 -0.6847619 -0.28041404 0.15218233 -0.65357995
-0.45453137 -0.23419231 0.17186001 -0.24706183 0.23257077 0.2482874 1.0237447 0.6642689
0.6969093 0.57684076 -0.20905206 0.32778013 0.3679113 0.5274061 0.021283086 0.53760266
00000000: 7694 56be 25a2 0f3d 02c8 7b3e 6ead c93e
00000010: 8a64 2f3f adf8 debd b034 b83d 10fb 7a3d
00000020: 3560 abbe e04b 353c 8e83 c73e a476 393e
00000030: 8491 78be 7135 033e da4b 84be 10a8 7d3d
00000040: 928c 45be 8442 80bd 72db 7dbe 8120 c9be
00000050: 860b ecbd b8c7 f7be de95 c43e 56fb 3b3d
00000060: 1e1a 1b3e 9c06 78bd f6dc e2be b2a9 4ebe
00000070: 204a 92be cb18 c7be 539a 813e 9bed a0be
00000080: 86d5 ffbe a3d6 1fbf 7f4e dc3e 5f6c 5fbe
00000090: acc1 20be 1ac8 c03d d260 533f ada6 363f
000000a0: 8009 173f d567 9d3e 8d32 b0be 74c3 af3d
000000b0: b048 afbd 7a02 0c3e 6b0f a13e 42b9 cc3e
000000c0: 909e 613e 76d7 e4bd 5b51 28be e28a 733e
000000d0: ba5c ee3b 9be6 a4bd 9b97 943d 8d8d 8d3d
000000e0: 0686 39bd 0610 19be 5d16 16be 0101 5bbd
000000f0: e97a 073d 4a39 88be 7cbf 813f c3ac de3e
00000100: be52 4c3f a041 9d3e ca53 05be 82f3 173e
00000110: 60cc a53c 0028 1abb 89dc 44be 5cb1 103f
00000120: 1014 883e 2c8c 403e 1854 8abe aa80 473e
00000130: f35e c33d 37b7 85be fa87 893e f6ea 6f3e
00000140: 7b78 833e 4309 82be a940 aebd 89f8 b43c
00000150: f266 20be 4e9b 2bbc 895e f2be 5506 adbe
00000160: d6eb 1abf 8eda e8be 8f5b 773e cd7b 76be
00000170: ddb8 a5be e995 14bf 27c4 2dbe 7ebd 29be
00000180: 8db9 033d 4deb a9bc cf78 75be 3eb5 c6bd
00000190: b7d9 8dbe 0584 053e 3f6b 013d a789 6bbd
000001a0: ed1d bf3d 95dc 473d a841 813d 3101 613e
000001b0: 3b6b 22be db85 5c3e 10cd 5b3f e81f 253f
000001c0: be78 233f bd7a dd3e 52e2 2ebe 686f 393d
000001d0: 8a55 353e 5691 af3e 9851 403d 19a1 0b3f
000001e0: 6026 60bd 9295 ea3d 6561 d5be 6821 42be
000001f0: 8e4c 2fbf 6e92 8fbe afd5 1b3e 0451 27bf
00000200: 56b8 e8be 1cd0 6fbe 12fc 2f3e c7fd 7cbe
00000210: 0827 6e3e 0d3f 7e3e 110a 833f 870d 2a3f
00000220: a668 323f d6ab 133f be11 56be ccd2 a73e
00000230: df5e bc3e 1604 073f de59 ae3c 54a0 093f

actor.3.bias f4 [12]
0.32435584 0.13946056 -0.1400862 0.33362 -0.19066234 0.51621264 -0.12455085 -0.3693325
0.2239764 0.79274267 -0.31277508 0.7171606
00000000: f811 a63e c0ce 0e3e c272 0fbe 3ed0 aa3e
00000010: fd3c 43be 8326 043f 8414 ffbd 2619 bdbe
00000020: 125a 653e 2ff1 4a3f 0e24 a0be d697 373f

actor.6.weight f4 [12, 12]
-0.20488374 -0.18200694 -0.4756083 -0.337857 0.18715072 -0.64439654 -0.10660628 -0.20490089
0.22319987 -0.56538147 -0.25715613 -0.41177103 -0.12812176 0.13164128 0.22374882 -0.2108194
-0.19274427 0.21731305 0.014318391 0.15037897 -0.23353148 -0.22752073 0.20610058 0.006731789
0.32813424 0.0883057 0.1714393 0.43036026 -0.2797813 0.5004952 0.0350676 -0.11433162
0.20806316 0.49153224 0.11932776 -0.21880507 0.9132464 -0.24542604 0.2840193 0.8873567
-0.15141906 0.95646006 0.16162014 0.40027696 0.20872375 0.8224319 0.29159325 1.0028639
-0.00048587372 -0.17046683 -0.119091645 0.08939653 -0.02648189 -0.053639576 0.10448625 -0.2720098
-0.10529006 -0.276102 0.013520084 0.08378563 0.16782165 0.40400875 0.3631416 0.046384513
0.06732522 -0.46250796 0.250546 -0.093444444 0.13977419 0.09235498 0.33116457 -0.51378417
-0.07027963 -0.26089695 -0.19929378 0.029711906 0.24312583 -0.049075965 -0.015828285 0.021209545
-0.15161751 -0.13959469 -0.21764913 -0.017221624 0.4146759 -0.17167798 0.15576038 0.5272299
-0.2393007 0.5318651 -0.20052895 0.24493982 -0.23865604 0.64587444 0.19715545 1.0202894
0.24851276 -0.18774347 0.20942204 0.26496217 -0.27802762 -0.18716662 0.21823923 -0.17565289
0.18972602 -0.16701078 -0.044630595 -0.18527901 -0.13534832 -0.33703703 0.27426875 -0.23460633
-0.010063701 -0.31609556 -0.14070977 0.5879804 0.26478568 -0.15533891 0.20611559 -0.20347986
-0.32482216 -0.050639316 -0.01897695 -0.16533466 0.09421033 -0.023272902 0.14323302 0.074120775
-0.090954535 -0.27128327 -0.09362617 -0.20876919 -0.4264372 -0.26862139 -0.15309735 -0.17780139
0.017240481 -0.53879523 -0.086335756 -0.2246591 0.23075424 -0.17079015 -0.25336882 -0.2534545
00000000: 0bcd 51be 0760 3abe ee82 f3be 98fb acbe
00000010: 70a4 3f3e 2cf7 24bf 6554 dabd 8ad1 51be
00000020: 828e 643e d7bc 10bf f8a9 83be a7d3 d2be
00000030: 5a32 03be f9cc 063e 691e 653e 0ae1 57be
00000040: c15e 45be 5087 5e3e af97 6a3c f2fc 193e
00000050: e022 6fbe 32fb 68be 080c 533e 5796 dc3b
00000060: 3601 a83e 9ed9 b43d c98d 2f3e 2e58 dc3e
00000070: 7f3f 8fbe 7420 003f 0ba3 0f3d b226 eabd
00000080: 820e 553e 1daa fb3e 1d62 f43d 700e 60be
00000090: 84ca 693f f750 7bbe fa6a 913e cf29 633f
000000a0: 990d 1bbe 91da 743f c07f 253e 1af1 cc3e
000000b0: aebb 553e e68a 523f b64b 953e d85d 803f
000000c0: debc feb9 db8e 2ebe 52e6 f3bd 8715 b73d
000000d0: 8cf0 d8bc 2cb5 5bbd e3fc d53d de44 8bbe
000000e0: 51a2 d7bd 3e5d 8dbe 5883 5d3c cd97 ab3d
000000f0: 70d9 2b3e 3cda ce3e b2ed b93e b0fd 3d3d
00000100: cee1 893d d8cd ecbe 9147 803e cd5f bfbd
00000110: f720 0f3e 9c24 bd3d 678e a93e 5c87 03bf
00000120: c4ee 8fbd 4994 85be ab13 4cbe 6266 f33c
00000130: faf5 783e e103 49bd 52aa 81bc a4bf ad3c
00000140: 9f41 1bbe e9f1 0ebe 6adf 5ebe 5d14 8dbc
00000150: 6650 d43e 5acc 2fbe a67f 1f3e 8af8 063f
00000160: 3e0b 75be 5028 083f 7657 4dbe 81d1 7a3e
00000170: 4062 74be 0758 253f 1ee3 493e d898 823f
00000180: 217a 7e3e d33f 40be bb72 563e 1fa9 873e
00000190: a359 8ebe 9ba8 3fbe 1b7a 5f3e 5ade 33be
000001a0: 8a47 423e e004 2bbe 92ce 36bd c8b9 3dbe
000001b0: c098 0abe 1e90 acbe f46c 8c3e a43c 70be
000001c0: 39e2 24bc 47d7 a1be 3916 10be e285 163f
000001d0: fd91 873e 2a11 1fbe f70f 533e 065d 50be
000001e0: 174f a6be 2c6b 4fbd 8c75 9bbc 7d4d 29be
000001f0: 58f1 c03d d0a6 bebc adab 123e a2cc 973d
00000200: 5f46 babd a4e5 8abe 14bf bfbd 97c7 55be
00000210: fa55 dabe be88 89be 8dc5 1cbe 9111 36be
00000220: e93b 8d3c 7cee 09bf cdd0 b0bd 090d 66be
00000230: d74a 6c3e 9de3 2ebe 8fb9 81be cac4 81be

actor.6.bias f4 [12]
-0.4791606 -0.19403513 -0.03867492 0.4815207 0.03790751 0.22671576 0.19103244 0.6007041
-0.20374034 0.17722046 -0.13007055 -0.11922678
00000000: 8a54 f5be 25b1 46be 9869 1ebd e289 f63e
00000010: e844 1b3d 2d28 683e 029e 433e bec7 193f
00000020: 4fa1 50be 4879 353e 3731 05be 2c2d f4bd

actor.9.weight f4 [12, 12]
-0.27224746 -0.088474095 0.1615497 -0.06342732 -0.14531612 0.21024199 -0.18181711 -0.1941098
-0.016943913 0.15015115 -0.18879245 0.19372967 0.1359441 0.22277817 -0.5619526 0.8629805
-0.1940088 -0.31239295 0.28393173 0.51895046 -0.24247931 -0.28233156 -0.19020933 0.62693816
-0.26940066 0.012707564 0.037195597 -0.6540347 0.1760229 -0.03278603 -0.23246461 -0.65502
-0.059467517 -0.23438382 -0.09304886 -0.1632241 0.42087746 -0.15667795 -0.10912706 0.69849074
0.028050767 -0.009232926 0.034216776 -0.049354583 0.053592775 -0.30966774 0.060559273 0.5747842
0.056720346 -0.021737713 0.22045335 0.11711394 0.091492094 -0.24414659 0.059602242 -0.080666736
0.07372341 -0.1434652 0.17695439 -0.092062145 0.48952806 0.08091165 -0.5665828 0.19649784
0.19840644 -0.7200632 -0.101043426 0.17452693 0.07174984 -0.11178818 -0.46214923 0.5431766
-0.10957617 0.12048299 0.018780932 0.19547036 -0.2861771 -0.10219497 0.20209315 -0.27181703
-0.23466375 -0.18961346 0.14602154 -0.14012131 0.3169633 -0.20797163 -0.56158257 0.7319428
-0.06752279 0.42648572 0.17545585 0.693387 0.03158998 0.18747425 0.0032546818 0.49526972
-0.13669656 0.11596373 0.045024376 -0.22908862 -0.09082267 -0.11316491 0.10112323 -0.1335888
0.12110265 -0.016014183 -0.049310453 0.11140136 0.17635073 0.08880525 0.04931854 -0.017715516
-0.051551204 -0.2284743 -0.058947437 0.21881324 0.18230754 -0.2791256 0.05414455 -0.048051633
0.46406534 0.22517999 -0.3000578 0.65966594 -0.047109034 0.19459191 0.15877867 0.515084
0.009352252 -0.3212735 -0.13341485 0.7130685 -0.39125338 0.090968266 -0.21797141 -0.34452906
0.20016861 0.018027117 -0.041173935 -0.34367666 -0.25788504 -0.012819094 -0.08546914 -0.15817827
00000000: 0564 8bbe e831 b5bd 496d 253e 2fe6 81bd
00000010: c0cd 14be ad49 573e 442e 3abe b8c4 46be
00000020: f6cd 8abc 39c1 193e cf52 41be 1261 463e
00000030: ee34 0b3e f61f 643e 20dc 0fbf 4aec 5c3f
00000040: 3eaa 46be f8f1 9fbe 805f 913e f0d9 043f
00000050: 7f4c 78be c38d 90be 3cc6 42be 057f 203f
00000060: e2ee 89be 6333 503c 695a 183d d16e 27bf
00000070: 593f 343e a54a 06bd 340b 6ebe 64af 27bf
00000080: 3694 73bd 5002 70be 6790 bebd 3824 27be
00000090: 407d d73e 2f70 20be 027e dfbd 4ad0 323f
000000a0: b9ca e53c b345 17bc e426 0c3d 0828 4abd
000000b0: 1984 5b3d c58c 9ebe 000d 783d 0f25 133f
000000c0: 9853 683d 4a13 b2bc 86be 613e 6fd9 ef3d
000000d0: 3560 bb3d 9001 7abe 7b21 743d 9a34 a5bd
000000e0: 4dfc 963d 8be8 12be 8833 353e 148b bcbd
000000f0: 6ca3 fa3e 02b5 a53d 920b 11bf bb36 493e
00000100: 0f2b 4b3e 1056 38bf dbef cebd 30b7 323e
00000110: 95f1 923d 34f1 e4bd d39e ecbe 9f0d 0b3f
00000120: 7969 e0bd c9bf f63d 78da 993c 6229 483e
00000130: ce85 92be 994b d1bd 82f1 4e3e 9a2b 8bbe
00000140: b24b 70be 082a 42be ac86 153e f67b 0fbe
00000150: 0349 a23e 84f6 54be e0c3 0fbf 9a60 3b3f
00000160: 6349 8abd 565c da3e b3aa 333e cf81 313f
00000170: 7f64 013d 40f9 3f3e 804c 553b fe93 fd3e
00000180: 2ffa 0bbe 647e ed3d 7b6b 383d 3596 6abe
00000190: 3c01 babd 01c3 e7bd b219 cf3d 81cb 08be
000001a0: ab04 f83d 2d30 83bc c2f9 49bd 6526 e43d
000001b0: 4995 343e 87df b53d 3d02 4a3d 2120 91bc
000001c0: 5b27 53bd 2bf5 69be de72 71bd 9410 603e
000001d0: d4ae 3a3e 8de9 8ebe adc6 5d3d cad1 44bd
000001e0: f999 ed3e 9595 663e 2da1 99be dedf 283f
000001f0: 67f5 40bd 1a43 473e e096 223e 8cdc 033f
00000200: 303a 193c f67d a4be e79d 08be a88b 363f
00000210: 5d52 c8be 924d ba3d e633 5fbe 1d66 b0be
00000220: 00f9 4c3e 9bad 933c 00a6 28bd 63f6 afbe
00000230: 8209 84be 2d07 52bc 720a afbd 7cf9 21be

actor.9.bias f4 [12]
-0.047220882 0.21412347 -0.52438104 0.11872548 -0.3294489 -0.10638577 -0.3214935 0.41688925
-0.053885765 -0.26921448 0.53902906 -0.5414503
00000000: af6a 41bd 2f43 5b3e d63d 06bf 5826 f33d
00000010: 87ad a8be c8e0 d9bd cc9a a4be 8272 d53e
00000020: 52b7 5cbd 7bd6 89be cffd 093f 7d9c 0abf

actor.12.weight f4 [12, 12]
-0.26024017 0.5819067 0.26540986 0.15263858 -0.2510527 -0.087539196 -0.30115485 0.64770234
-0.17934139 -0.20946065 0.29449934 0.63395315 -0.14339037 0.5250006 0.31288984 0.2848582
0.16853803 0.50767446 -0.1401495 0.62275213 0.26001632 0.3532393 0.63007474 0.19808654
0.14616352 -0.3162449 0.1703557 0.18565269 -0.23482363 -0.22451238 -0.24106467 0.06042925
-0.25415254 -0.34941548 -0.11716786 -0.13611692 -0.0027643584 -0.12714759 -0.18017364 -0.2640342
-0.19203356 -0.35670868 0.27874067 0.5044125 0.18176863 -0.6978837 0.3677029 0.27254704
-0.0023417077 0.32535514 0.05225861 -0.20535411 0.2546754 0.26498836 0.06206953 -0.24244393
0.15160644 0.3007623 -0.24685138 -0.19172826 0.0197457 -0.16661155 -0.04602978 -0.6231489
-0.0012384119 -0.11090186 -0.4478503 -0.33601117 0.079339646 -0.1710919 -0.5441526 0.13914967
-0.14827293 -0.4173055 -0.1755076 -0.32124645 0.16205744 -0.20915495 -0.13816553 -0.3475477
0.22443005 -0.20991421 -0.36037838 -0.5481072 -0.24484439 -0.6152507 0.041277483 -0.20002256
-0.20955497 -0.29062533 -0.06447065 -0.22335796 0.12719661 -0.54528856 0.2075941 -0.009671258
-0.20799938 0.22004457 0.22056165 -0.2510697 -0.16666962 -0.12630442 -0.20036484 0.02994347
-0.2109545 0.15169615 -0.23761472 -0.25840932 0.0075899595 0.246315 0.06203089 -0.23779517
0.25650766 -0.23374972 0.21918646 0.6817373 0.07517484 0.06544181 0.1927962 0.08925795
0.23697704 -0.6886822 0.24672225 -0.13337547 -0.37298694 -0.2826561 0.014068107 -0.17125629
-0.17129686 -0.42694008 -0.15880579 -0.22036412 -0.27153164 0.11164692 -0.26317325 -0.41436493
0.11826515 -0.08052093 0.12846072 -0.15151781 0.25723866 -0.16149105 -0.08816761 0.042128235
00000000: 333e 85be d6f7 143f cde3 873e 4a4d 1c3e
00000010: fb89 80be c047 b3bd f830 9abe d2cf 253f
00000020: 45a5 37be da7c 56be 9ec8 963e c14a 223f
00000030: edd4 12be 7066 063f 1933 a03e efd8 913e
00000040: 3c95 2c3e f4f6 013f 5a83 0fbe af6c 1f3f
00000050: dc20 853e c8db b43e 944c 213f 33d7 4a3e
00000060: e4ab 153e daea a1be ba71 2e3e bd1b 3e3e
00000070: 9b75 70be 93e6 65be a8d9 76be a984 773d
00000080: 4820 82be 96e6 b2be b4f5 efbd 3c62 0bbe
00000090: 3d2a 35bb fa32 02be 707f 38be 7e2f 87be
000000a0: 72a4 44be 85a2 b6be 19b7 8e3e 2d21 013f
000000b0: 8e21 3a3e 82a8 32bf 8e43 bc3e 498b 8b3e
000000c0: 5677 19bb f394 a63e 200d 563d 5948 52be
000000d0: d064 823e 8eac 873e 9f3c 7e3d 3943 78be
000000e0: b83e 1b3e 84fd 993e 9cc6 7cbe 6a54 44be
000000f0: bcc1 a13c 389c 2abe b989 3cbd b086 1fbf
00000100: 3552 a2ba 8420 e3bd a24c e5be a809 acbe
00000110: d37c a23d b732 2fbe 964d 0bbf 407d 0e3e
00000120: dcd4 17be 11a9 d5be 44b8 33be 6a7a a4be
00000130: 63f2 253e b72c 56be 447b 0dbe c6f1 b1be
00000140: fed0 653e c0f3 56be 8483 b8be c150 0cbf
00000150: 7db8 7abe 1281 1dbf 9412 293d b7d2 4cbe
00000160: 9495 56be d8cc 94be 3009 84bd f3b7 64be
00000170: d43f 023e 0898 0bbf 8c93 543e 3274 1ebc
00000180: cafd 54be 5d53 613e eada 613e 358c 80be
00000190: 71ab 2abe f255 01be 712c 4dbe 024c f53c
000001a0: 7504 58be 3c56 1b3e 4651 73be 3a4e 84be
000001b0: 32b5 f83b 003a 7c3e 1a14 7e3d 9480 73be
000001c0: f954 833e 165c 6fbe 6a72 603e 5686 2e3f
000001d0: 44f5 993d 5b06 863d 5e6c 453e dfcc b63d
000001e0: 1caa 723e 7a4d 30bf c2a4 7c3e 9493 08be
000001f0: 25f8 bebe 4db8 90be eb7d 663c cf5d 2fbe
00000200: 7268 2fbe e497 dabe fc9d 22be 22a7 61be
00000210: 3206 8bbe 24a7 e43d a5be 86be a427 d4be
00000220: 0035 f23d 28e8 a4bd 358b 033e 7c27 1bbe
00000230: c9b4 833e e95d 25be 3891 b4bd a88e 2c3d

actor.12.bias f4 [12]
0.37110215 1.3631383 -0.34944493 0.012782276 0.6043779 0.04075123 -0.5901535 -0.25356674
0.021645555 0.14984876 -0.28149474 -0.025325328
00000000: 1a01 be3e 517b ae3f 72ea b2be c06c 513c
00000010: 83b8 1a3f c3ea 263d 4d14 17bf 80d3 81be
00000020: 0552 b13c f471 193e 1420 90be 1077 cfbc

actor.15.weight f4 [12, 12]
-0.13128546 -0.11937104 0.22058412 -0.022343583 0.009382604 0.019175028 0.030615732 0.109110326
0.18201104 -0.087140605 -0.13488208 -0.06711967 0.60455513 0.6773532 -0.12312048 0.34922808
0.27876094 -0.023563236 0.4604214 -0.054070458 0.2823912 0.52766347 -0.108032346 -0.3459109
-0.16135044 -0.59891367 -0.20000076 -0.28997278 -0.64029384 -0.05005456 -0.029470775 -0.5863991
-0.1592895 0.17145833 -0.255836 -0.101944834 0.16635388 0.6600043 -0.17866509 -0.021253113
-0.14742236 -0.11427854 0.6302324 0.23494904 -0.13956091 0.21591379 -0.17302927 -0.23771156
-0.30366838 -0.41913676 0.14888465 0.20760906 -0.10716797 0.004927881 0.10258309 0.011003273
-0.04446758 0.07956609 -0.24264556 -0.28359935 -0.17823038 -0.2724995 0.23995328 -0.18973377
-0.11899515 0.24272212 -0.17554516 -0.04193112 0.24025121 0.12717183 0.15221316 0.09271864
-0.33680612 -0.13156632 0.24452591 -0.055212915 -0.096566536 -0.123340175 0.03106443 -0.22270192
-0.25274286 -0.57991517 0.13122365 0.05472709 0.49478465 0.3766951 -0.17183656 0.03516358
-0.033923957 -0.041471947 0.18039395 -0.112607524 0.03324245 -0.1416849 -0.008043432 0.25510994
-0.6169143 -0.31688422 -0.05270355 -0.20384131 0.19198336 -0.13437425 -0.17728269 -0.060623407
0.25860316 -0.19956088 -0.09037108 0.27365172 -0.042939205 -0.12416064 0.10527048 -0.20104921
0.17647386 -0.09965312 0.24645653 0.2005382 0.24593407 -0.052344453 -0.04751094 -0.025618302
0.14034803 -0.7320969 -0.28732163 -0.2077298 -0.56799775 0.21128999 0.21427248 -0.30539912
0.018646415 0.2226905 -0.32551485 -0.03745006 0.22805075 -0.2405927 -0.1128142 -0.26812816
0.17391653 0.19269268 0.27713364 -0.28249893 0.08163549 -0.14727087 -0.14252271 -0.18234418
00000000: b26f 06be ce78 f4bd cee0 613e e409 b7bc
00000010: 7eb9 193c f314 9d3c d8cd fa3c 3c75 df3d
00000020: 1a61 3a3e c676 b2bd 871e 0abe 0a76 89bd
00000030: 20c4 1a3f 0567 2d3f 9726 fcbd 06ce b23e
00000040: c1b9 8e3e b007 c1bc 5bbc eb3e fc78 5dbd
00000050: 9495 903e f414 073f 1040 ddbd 3c1b b1be
00000060: 0d39 25be 6852 19bf 00cd 4cbe 5077 94be
00000070: 4cea 23bf 0306 4dbd b26c f1bc 401e 16bf
00000080: c91c 23be c692 2f3e f0fc 82be 74c8 d0bd
00000090: ac58 2a3e 0bf6 283f fbf3 36be 021b aebc
000000a0: e3f5 16be de0a eabd e956 213f 7b96 703e
000000b0: 0ee9 0ebe 8118 5d3e 962e 31be a96a 73be
000000c0: 6c7a 9bbe 1899 d6be 3875 183e 7897 543e
000000d0: e17a dbbd 107a a13b 1517 d23d 1247 343c
000000e0: a323 36bd 8cf3 a23d 1478 78be ef33 91be
000000f0: 0682 36be 0e85 8bbe 50b6 753e 9249 42be
00000100: bbb3 f3bd 268c 783e 1cc2 33be f7bf 2bbd
00000110: 6a04 763e 5539 023e c4dd 1b3e 45e3 bd3d
00000120: da71 acbe 52b9 06be 0065 7a3e f026 62bd
00000130: adc4 c5bd c699 fcbd d57a fe3c f90b 64be
00000140: 8367 81be 5275 14bf 7e5f 063e 8329 603d
00000150: 6a54 fd3e 2ede c03e ecf5 2fbe b007 103d
00000160: d9f3 0abd 7dde 29bd 31b9 383e c69e e6bd
00000170: 3c29 083d d915 11be 99c8 03bc c59d 823e
00000180: 18ee 1dbf a63e a2be addf 57bd c7bb 50be
00000190: 4997 443e 6799 09be 9889 35be 4050 78bd
000001a0: a267 843e b059 4cbe 7914 b9bd 141c 8c3e
000001b0: 05e1 2fbd ef47 febd 0d98 d73d d8df 4dbe
000001c0: 90b5 343e ef16 ccbd 1a5f 7c3e e359 4d3e
000001d0: 24d6 7b3e 2367 56bd d59a 42bd 79dd d1bc
000001e0: 65b7 0f3e b46a 3bbf d21b 93be 1fb7 54be
000001f0: 4d68 11bf 675c 583e 3f6a 5b3e 465d 9cbe
00000200: 5ec0 983c fa08 643e e2a9 a6be 3c65 19bd
00000210: 2386 693e ef5d 76be 220b e7bd 1848 89be
00000220: 2d17 323e 3b51 453e 76e4 8d3e b3a3 90be
00000230: 8230 a73d 2dce 16be 79f1 11be 6fb8 3abe

actor.15.bias f4 [12]
-0.5393341 0.6300247 -0.28748137 0.44996268 -0.15958403 -0.046196703 -0.3773362 -0.09585763
-0.19974427 -0.22000894 -0.33324796 -0.25423795
00000000: cd11 0abf 4c49 213f c230 93be 8261 e63e
00000010: ff69 23be c138 3dbd 3632 c1be 0151 c4bd
00000020: c389 4cbe 064a 61be 7a9f aabe 7a2b 82be

actor.18.weight f4 [12, 12]
0.0016172619 -0.27885047 -0.016350292 0.23185599 0.015719477 -0.05470089 -0.24894777 -0.29809216
0.14368117 0.1893372 0.20268533 -0.07096289 0.23753554 0.71437 0.20283379 0.55291533
-0.041909248 0.11286152 0.61297536 -0.2710417 0.20951065 -0.036345895 0.46831656 -0.055369817
0.112081625 0.57636803 -0.12518983 -0.06928816 -0.08927726 -0.11779001 0.018912002 -0.10531305
-0.037117805 -0.23414244 -0.22623965 0.24327534 0.6289987 0.21815452 0.25841957 0.55135316
-0.18934368 -0.19323042 0.32948384 -0.56033045 0.43123993 -0.19840413 0.39855164 -0.015503188
-0.17213842 0.22181287 -0.054450653 0.14816754 0.14816576 -0.12706697 -0.06825368 0.1653044
-0.13353117 -0.036650654 -0.22725163 -0.050701384 -0.33296865 -0.2388631 -0.13186486 -0.7017795
-0.15151906 -0.13900343 0.007244608 -0.10788337 -0.18305 -0.09195501 -0.06584334 -0.24567467
0.65430945 0.65139854 -0.26112914 0.42117777 -0.062050417 0.14406666 0.16886312 -0.28284505
0.48673683 -0.22253688 -0.27123147 0.093778685 -0.23167725 0.081575304 -0.5144504 0.010102071
0.034883488 -0.027626216 -0.076970465 -0.042051114 -0.068450555 0.030618854 -0.17770505 0.21483685
0.39098868 0.20373058 0.5829502 0.6032569 -0.29084724 -0.15811212 0.16569453 -0.22090544
0.18526801 0.12937614 0.3326984 -0.039509494 -0.36978802 -0.30290034 0.07605316 -0.60306364
-0.08193368 -0.027288629 0.22162955 0.087020226 -0.16463271 0.1983233 -0.093285516 -0.082062654
-0.08884049 0.24717228 0.46180102 0.2686102 0.13833393 0.16822486 0.13221653 -0.13655595
0.101682946 -0.13207285 0.28166288 0.23796739 -0.23024629 0.5921281 -0.29356748 -0.035810087
-0.006844112 0.10016174 0.29545122 -0.2615103 0.18514934 0.067256324 -0.32554215 0.1609382
00000000: 4efa d33a 7dc5 8ebe 0cf1 85bc a86b 6d3e
00000010: 22c6 803c 0a0e 60bd 2aec 7ebe 899f 98be
00000020: 2821 133e 9ce1 413e be8c 4f3e fe54 91bd
00000030: 843c 733e f4e0 363f a9b3 4f3e dc8b 0d3f
00000040: 08a9 2bbd f123 e73d f4eb 1c3f fac5 8abe
00000050: f689 563e 6fdf 14bd 30c7 ef3e 76cb 62bd
00000060: 0d8b e53d db8c 133f c331 00be f3e6 8dbd
00000070: ffd6 b6bd e43b f1bd 58ed 9a3c 5eae d7bd
00000080: d708 18bd 09c3 6fbe 5eab 67be 2c1d 793e
00000090: 0f06 213f e663 5f3e 924f 843e 7b25 0d3f
000000a0: 4fe3 41be 32de 45be 1bb2 a83e d171 0fbf
000000b0: 7bcb dc3e 742a 4bbe f60e cc3e 1501 7ebc
000000c0: 0e45 30be ea22 633e a607 5fbd 3bb9 173e
000000d0: c4b8 173e d81d 02be 96c8 8bbd 8e45 293e
000000e0: 65bc 08be ff1e 16bd a7b4 68be 41ac 4fbd
000000f0: de7a aabe 8798 74be 9507 07be d2a7 33bf
00000100: d027 1bbe ea56 0ebe 2d64 ed3b f5f1 dcbd
00000110: 7671 3bbe e952 bcbd dfd8 86bd 2492 7bbe
00000120: d380 273f 0ec2 263f b8b2 85be 9da4 d73e
00000130: 9428 7ebd 3686 133e 74ea 2c3e 11d1 90be
00000140: 9235 f93e b5e0 63be dade 8abe 0a0f c03d
00000150: cd3c 6dbe f410 a73d 05b3 03bf 2883 253c
00000160: fde1 0e3d 6050 e2bc b1a2 9dbd ca3d 2cbd
00000170: ce2f 8cbd 64d4 fa3c 50f8 35be 31fe 5b3e
00000180: ab2f c83e c09e 503e 393c 153f 0b6f 1a3f
00000190: eee9 94be 25e8 21be d4ab 293e 0935 62be
000001a0: e6b6 3d3e 2e7b 043e 7257 aa3e b5d4 21bd
000001b0: db54 bdbe c115 9bbe c2c1 9b3d 6162 1abf
000001c0: d8cc a7bd 678c dfbc dbf2 623e a937 b23d
000001d0: 7a95 28be 4315 4b3e 7a0c bfbd 7710 a8bd
000001e0: 01f2 b5bd bb1a 7d3e 2f71 ec3e 4787 893e
000001f0: 69a7 0d3e 2343 2c3e c563 073e 53d5 0bbe
00000200: 263f d03d 1b3e 07be 1e36 903e b9ad 733e
00000210: afc5 6bbe b595 173f 7a4e 96be 99ad 12bd
00000220: 9344 e0bb 9921 cd3d 6245 973e aee4 85be
00000230: ca97 3d3e afbd 893d 76ad a6be fccc 243e

actor.18.bias f4 [12]
0.18679348 1.2844014 0.2044888 1.4610556 -0.60421944 -0.39772636 0.6773024 -0.21683165
0.92900926 -0.5717875 0.6750015 0.17291826
00000000: ca46 3f3e 4467 a43f 8365 513e df03 bb3f
00000010: 20ae 1abf caa2 cbbe b163 2d3f 1e09 5ebe
00000020: 8dd3 6d3f aa60 12bf e6cc 2c3f 7c11 313e

actor.21.weight f4 [12, 12]
0.008333435 0.5806956 -0.0507962 0.17674494 0.6527407 0.28328592 0.42313945 -0.25798494
0.41773567 0.15306973 0.047989577 -0.2796418 0.2727849 -0.41149357 -0.080070086 -0.6931896
0.15321578 0.12581924 0.17479816 -0.2549891 -0.36477652 -0.2272933 -0.6486294 -0.17484024
0.114706665 -0.6974869 -0.19479716 -0.21001124 -0.13863865 0.10067514 -0.064812645 -0.33104146
-0.5112935 0.081527226 -0.61673975 -0.2444415 -0.37667865 -0.2781197 0.0663761 0.18572074
-0.5034852 0.32900202 0.18013 -0.051941514 0.18434395 0.6102578 0.121841565 0.17626747
-0.21090525 -0.5664531 -0.055609364 -0.5164916 -0.01589343 0.18012738 -0.28001165 -0.2632823
-0.18205446 0.18181653 -0.23706196 -0.2070566 -0.049192794 -0.520168 -0.23474328 -0.23855844
0.063037805 0.002070065 -0.15825222 -0.40706778 -0.6287944 -0.2816274 -0.5469097 -0.37295273
-0.06798532 1.3029615 0.3703952 0.8099025 0.7364569 0.04675428 1.0419445 -0.2203868
0.8692735 -0.110341266 0.24047174 0.076602966 -0.3099782 -0.4094973 -0.022995878 -0.2681939
-0.4324186 -0.24369249 -0.015443474 -0.2724139 -0.23304941 -0.25527284 0.26298428 -0.18538645
0.2638892 -0.20950213 -0.25652954 -0.56696427 -0.11693709 -0.25153533 -0.39153233 0.03718956
-0.5706526 -0.39658982 0.20813641 -0.23476052 0.008603202 0.5729046 -0.19131014 0.6120337
-0.52922195 0.28917915 0.24467151 0.45627916 1.0073419 0.22161594 0.14392503 0.2004275
0.28003475 1.4966234 0.51149094 1.0193282 0.65957206 0.26411578 1.1290087 0.37742358
1.2313391 0.24839431 0.23014706 0.55731 -0.3439581 0.8478832 0.5647283 1.1254106
-0.04267761 0.53345275 0.5674033 0.5478198 0.44324952 0.25788614 0.6391289 1.0529183
00000000: f688 083c 78a8 143f ad0f 50bd a0fc 343e
00000010: 041a 273f da0a 913e bca5 d83e 9a16 84be
00000020: 73e1 d53e 50be 1c3e b890 443d 362d 8fbe
00000030: 76aa 8b3e 49af d2be c9fb a3bd e074 31bf
00000040: 99e4 1c3e c2d6 003e 4afe 323e ee8d 82be
00000050: fdc3 babe 93bf 68be 940c 26bf 5209 33be
00000060: 54eb ea3d 808e 32bf e878 47be 300d 57be
00000070: 4af7 0dbe c52e ce3d 7ebc 84bd 447e a9be
00000080: 21e4 02bf bff7 a63d a8e2 1dbf df4e 7abe
00000090: 06dc c0be b565 8ebe 31f0 873d 942d 3e3e
000000a0: 68e4 00bf f472 a83e 0074 383e a0c0 54bd
000000b0: a9c4 3c3e db39 1c3f 1288 f93d 767f 343e
000000c0: 8cf7 57be 1203 11bf a5c6 63bd cb38 04bf
000000d0: f032 82bc 5073 383e b05d 8fbe f0cc 86be
000000e0: 7c6c 3abe 1d2e 3a3e 5fc0 72be a506 54be
000000f0: 627e 49bd bb29 05bf 8b60 70be aa48 74be
00000100: f719 813d eda9 073b df0c 22be 306b d0be
00000110: abf8 20bf 7731 90be 4602 0cbf a9f3 bebe
00000120: e33b 8bbd 71c7 a63f 71a4 bd3e c555 4f3f
00000130: 7088 3c3f 6a81 3f3d 705e 853f 14ad 61be
00000140: b588 5e3f 9afa e1bd 393e 763e 04e2 9c3d
00000150: 76b5 9ebe a1a9 d1be da61 bcbc b650 89be
00000160: f965 ddbe 868a 79be a006 7dbc d679 8bbe
00000170: 81a4 6ebe 1fb3 82be e0a5 863e f2d5 3dbe
00000180: 7c1c 873e ba87 56be d757 83be 9224 11bf
00000190: b77c efbd 3dc9 80be ed76 c8be 1454 183d
000001a0: 4a16 12bf d20d cbbe b621 553e 1065 70be
000001b0: 72f4 0c3c e0a9 123f cee6 43be 3eae 1c3f
000001c0: 177b 07bf 4a0f 943e 2b8b 7a3e 6c9d e93e
000001d0: 94f0 803f 4aef 623e 1561 133e de3c 4d3e
000001e0: b760 8f3e 5b91 bf3f 12f1 023f 5979 823f
000001f0: b7d9 283f 2f3a 873e 5b83 903f aa3d c13e
00000200: 859c 9d3f 145b 7e3e acab 6b3e deab 0e3f
00000210: 471b b0be e00e 593f 0992 103f 740d 903f
00000220: b8ce 2ebd 5c90 083f 5841 113f eb3d 0c3f
00000230: 9af1 e23e a709 843e f49d 233f 07c6 863f

actor.21.bias f4 [12]
-0.11555222 -0.20605129 -0.4699988 0.4475216 -0.4994426 -0.43989968 0.7546475 -0.16295029
-0.34904855 0.6266915 1.5035604 1.4351346
00000000: a4a6 ecbd 1cff 52be afa3 f0be 8d21 e53e
00000010: f1b6 ffbe 883a e1be 9430 413f 71dc 26be
00000020: 7eb6 b2be db6e 203f ab74 c03f 7eb2 b73f

actor.24.weight f4 [12, 12]
-0.11216784 -0.28851256 0.043572746 -0.04689829 0.24767518 0.2588364 0.21901532 0.2640471
0.06017177 0.0343875 -0.21799731 -0.040472116 0.4587809 -0.2808619 0.16548434 0.58557963
-0.23441891 0.052219294 0.5800949 0.43022802 0.0816911 -0.120334044 0.62868744 0.22790746
-0.13752756 0.06347385 -0.13979095 0.17516337 0.12587784 -0.11280839 -0.26621386 -0.2411698
0.020838851 0.023568196 0.040630076 -0.24574037 0.34699208 0.21676292 0.4987345 0.764156
0.2925539 0.32790744 1.1382073 -0.0075297616 0.26813602 1.0245194 1.4808347 1.8647786
0.17858936 -0.21053256 -0.17844732 -0.102247015 -0.093789905 0.010776217 0.09668224 0.19472225
-0.04310084 -0.18926613 -0.19025667 0.07247935 0.048201982 -0.13411787 -0.0018198498 -0.13368155
0.25972965 -0.03798862 -0.22122599 -0.0066999574 -0.5475095 -0.3890062 -0.4487182 -0.40255478
-0.5477354 0.45480436 0.25508255 0.26877883 0.24218388 0.19234627 -0.38210052 -0.09454915
0.356834 0.55368775 0.15256628 0.2664174 -0.4098997 -0.012839193 0.17853345 -0.15254408
-0.051572405 -0.055919975 -0.4572466 -0.15323496 -0.17761996 0.2754676 -0.46903062 -0.3200161
0.62871826 0.12889911 -0.09898193 0.6761322 0.07355135 -0.11401566 0.22120582 -0.10049848
0.14822972 -0.6558412 0.20680909 -0.24638858 -0.09592614 -0.23118153 -0.37409016 -0.28338867
-0.71066463 -0.6634655 0.1651548 -0.23459283 -0.012639118 -0.6127445 -0.22187129 -0.272128
-0.10894951 -0.11008503 -0.15461221 -0.13773647 -0.12640615 -0.040395897 0.19514711 -0.24265124
0.09887154 -0.28535584 -0.10564778 -0.14041984 0.15285665 0.09582638 -0.09151907 -0.45951462
-0.17700095 -0.2866157 -0.32530612 0.16541235 -0.20576024 -0.27047902 -0.52318954 -0.3511337
00000000: 41b8 e5bd ebb7 93be 5679 323d 6c18 40bd
00000010: 909e 7d3e 3486 843e 8d45 603e 2e31 873e
00000020: ad76 763d e8d9 0c3d b03a 5fbe 17c6 25bd
00000030: 55e5 ea3e 22cd 8fbe ba74 293e 8ce8 153f
00000040: 830b 70be e6e3 553d 1981 143f d946 dc3e
00000050: aa4d a73d b271 f6bd a9f1 203f 9360 693e
00000060: 06d4 0cbe 94fe 813d 5c25 0fbe 075e 333e
00000070: 1fe6 003e 1608 e7bd 2f4d 88be 37f5 76be
00000080: 3db6 aa3c 1712 c13c b96b 263d 5da3 7bbe
00000090: f2a8 b13e 19f7 5d3e 215a ff3e ba9f 433f
000000a0: a0c9 953e 7ce3 a73e c7b0 913f 38bc f6bb
000000b0: 2049 893e 7423 833f fe8b bd3f 11b1 ee3f
000000c0: 21e0 363e d995 57be e5ba 36be e266 d1bd
000000d0: ec14 c0bd bb8e 303c 5701 c63d 4565 473e
000000e0: 828a 30bd fbce 41be a5d2 42be 0e70 943d
000000f0: 716f 453d 3256 09be 0788 eeba d1e3 08be
00000100: 49fb 843e f599 1bbd 1189 62be 518b dbbb
00000110: 9529 0cbf d22b c7be 64be e5be a91b cebe
00000120: 6338 0cbf 1edc e83e 2e9a 823e 619d 893e
00000130: 0dff 773e 6cf6 443e aea2 c3be fca2 c1bd
00000140: f2b2 b63e 7bbe 0d3f 563a 1c3e dd67 883e
00000150: 60de d1be 7b5b 52bc 79d1 363e 8434 1cbe
00000160: 963d 53bd 580c 65bd 3a1c eabe a0e9 1cbe
00000170: 02e2 35be 170a 8d3e c824 f0be 26d9 a3be
00000180: aef3 203f 21fe 033e 0ab7 cabd 0017 2d3f
00000190: 17a2 963d 0b81 e9bd c783 623e 26d2 cdbd
000001a0: 88c9 173e 35e5 27bf c3c5 533e 4a4d 7cbe
000001b0: ed74 c4bd daba 6cbe bf88 bfbe 5218 91be
000001c0: 1eee 35bf e0d8 29bf 571e 293e 1a39 70be
000001d0: 4e14 4fbc d3dc 1cbf 3a32 63be 5c54 8bbe
000001e0: ec20 dfbd 4374 e1bd aa52 1ebe ca0a 0dbe
000001f0: 9d70 01be 2b76 25bd a5d4 473e 9179 78be
00000200: 297d ca3d 291a 92be dd5d d8bd 38ca 0fbe
00000210: 7486 1c3e 9f40 c43d 5a6e bbbd 8045 ebbe
00000220: bd3f 35be 4bbf 92be 868e a6be db61 293e
00000230: d0b2 52be 3a7c 8abe c0ef 05bf ccc7 b3be

actor.24.bias f4 [12]
-0.16179906 -0.03576497 0.1995641 1.5769678 0.08686405 -0.4832839 0.38164356 -0.316659
-0.4110972 -0.5498508 0.15083879 -0.6373623
00000000: a7ae 25be 4a7e 12bd 885a 4c3e 15da c93f
00000010: c7e5 b13d fd70 f7be c966 c33e 2121 a2be
00000020: 557b d2be 06c3 0cbf 7c75 1a3e 2d2a 23bf

actor.27.weight f4 [12, 12]
0.11072686 0.04645495 -0.2800323 -0.5269509 0.18693243 -0.29525357 -0.26743788 0.2521215
-0.19497424 0.09816122 0.17847905 -0.2330932 -0.17949745 0.13350807 -0.07353851 -0.47288126
-0.07823933 -0.649557 -0.3801416 0.058156427 0.1813661 -0.06560964 0.2674132 -0.49329326
0.10813562 -0.19085759 0.12703022 0.4510499 -0.082513765 0.41821665 0.718113 -0.5189911
-0.24342898 0.23195721 0.09461852 0.23878706 -0.22753003 0.27113873 -0.07306998 -0.0071846396
-0.014456283 0.2047687 -0.16733432 -0.10574916 0.01328923 0.026512552 -0.22718638 0.12902977
-0.2593141 0.6822897 0.20971335 1.2869755 0.22504725 0.16022629 1.4854208 0.19131982
0.683475 0.3175382 0.17482825 0.42064232 -0.1584628 -0.101189405 0.25572637 -0.14090733
0.09864368 0.22581641 -0.049943786 -0.014236214 0.081519105 0.18701468 0.081249826 0.017405456
-0.21683186 -0.21543752 -0.08414032 -0.63634396 -0.062317338 0.17006929 -0.5880724 0.1930833
-0.23614082 -0.26252365 -0.13482453 0.27284545 -0.21205251 -0.22503442 0.24506629 -0.30781588
-0.25180832 -0.22655143 -0.16450205 0.14144851 -0.28782573 -0.5286337 -0.033161163 -0.14948173
0.033688486 -0.60721695 -0.04828744 0.40168485 0.25989515 0.2902618 0.48398513 -0.70227
-0.5089377 0.48159018 -0.11392775 0.4184279 0.1946196 0.19016135 -0.09859744 -0.16477475
0.20164578 0.0144652305 -0.26249653 -0.15511337 0.10455129 0.14912657 -0.0073350794 0.16778146
0.2639007 -0.028055014 0.21277791 0.5966465 0.24678023 0.28593257 0.22206996 -0.14953785
0.3136309 0.081361465 0.013018013 -0.005916654 0.08431404 -0.4833197 0.28785214 -0.25998932
0.16798532 0.21746406 0.10353872 -0.1029225 -0.12934126 0.47440907 0.13202307 -0.092226155
00000000: c4c4 e23d 8c47 3e3d 6560 8fbe 41e6 06bf
00000010: 376b 3f3e 7a2b 97be 9eed 88be 1216 813e
00000020: 54a7 47be c008 c93d 36c3 363e fcaf 6ebe
00000030: 2ece 37be 57b6 083e 5c9b 96bd 7e1d f2be
00000040: f13b a0bd 5e49 26bf eba1 c2be 6f35 6e3d
00000050: 09b8 393e 595e 86bd 62ea 883e ef90 fcbe
00000060: 3576 dd3d 2c70 43be 3614 023e 03f0 e63e
00000070: fafc a8bd 7e20 d63e 41d6 373f 9adc 04bf
00000080: 7245 79be 3186 6d3e 5bc7 c13d 9884 743e
00000090: a2fd 68be b2d2 8a3e b7a5 95bd 206d ebbb
000000a0: 0cda 6cbc e3ae 513e b059 2bbe 0493 d8bd
000000b0: 12bb 593c da30 d93c 8ca3 68be 6120 043e
000000c0: d1c4 84be 8aaa 2e3f 19bf 563e 9dbb a43f
000000d0: c972 663e 5c12 243e 4522 be3f 58e9 433e
000000e0: 38f8 2e3f 5e94 a23e 2d06 333e 6e5e d73e
000000f0: 1244 22be 643c cfbd 91ee 823e 034a 10be
00000100: b305 ca3d 6b3c 673e db91 4cbd 023f 69bc
00000110: 7df3 a63d c780 3f3e 4f66 a63d e395 8e3c
00000120: 2c09 5ebe a79b 5cbe c351 acbd 70e7 22bf
00000130: 7740 7fbd a526 2e3e ea8b 16bf a1b7 453e
00000140: e6ce 71be 8069 86be 710f 0abe 66b2 8b3e
00000150: 4b24 59be 6c6f 66be a8f2 7a3e 0b9a 9dbe
00000160: 05ed 80be 19fd 67be 3a73 28be e1d7 103e
00000170: e55d 93be 8a54 07bf 00d4 07bd bd11 19be
00000180: f0fc 093d 9272 1bbf 0dc9 45bd a3a9 cd3e
00000190: fa10 853e 329d 943e e6cc f73e f7c7 33bf
000001a0: be49 02bf fd92 f63e f452 e9bd 2f3c d63e
000001b0: 5c4a 473e a8b9 423e 74ed c9bd b6ba 28be
000001c0: 3b7c 4e3e 93ff 6c3c f265 86be 0ad6 1ebe
000001d0: fd1e d63d a3b4 183e 1b5b f0bb e7ce 2b3e
000001e0: fe1d 873e a1d3 e5bc 74e2 593e d3bd 183f
000001f0: f5b3 7c3e c165 923e 4f66 633e 7320 19be
00000200: 3b94 a03e d7a0 a63d 8149 553c 7ee0 c1bb
00000210: d7ac ac3d ae75 f7be 5b61 933e 521d 85be
00000220: 5804 2c3e e6ae 5e3e 1c0c d43d 08c9 d2bd
00000230: 0972 04be bfe5 f23e 0e31 073e 11e1 bcbd

actor.27.bias f4 [12]
-0.23189709 -0.264306 0.8798248 -0.19762193 1.3199408 -0.033416715 -0.24320957 -0.20210743
0.8040099 -0.14826362 0.39026004 0.57033086
00000000: 6e76 6dbe 1e53 87be 333c 613f 675d 4abe
00000010: d2f3 a83f f7df 08bd ee0b 79be 40f5 4ebe
00000020: 98d3 4d3f 6bd2 17be 2ad0 c73e 3401 123f

actor.30.weight f4 [12, 12]
0.18738796 -0.1868909 -0.2506563 -0.23964263 0.11193777 0.17435835 0.24585606 -0.039537024
0.09607516 0.043153115 -0.045918226 -0.22089961 0.031966355 -0.10622148 0.6800781 0.21927764
0.6480748 0.2129307 0.42224476 0.43217507 0.618045 -0.24348825 0.13933738 0.63890576
-0.016954679 0.070742995 -0.22562961 0.25125918 -0.0518478 -0.2238184 -0.191927 -0.05349858
-0.015982661 -0.1683076 -0.12152758 0.18889885 -0.43926442 -0.50935996 -0.29533285 0.007259268
-0.38628882 -0.21389446 -0.24258956 0.0035101012 -0.43339524 -0.23246711 -0.18610656 0.035927847
0.5066156 0.45335835 0.97752184 -0.28221387 0.8584275 0.22574341 0.29174155 0.5119304
0.9688179 -0.17917831 0.63196254 0.62223625 -0.1093162 -0.115129426 -0.43305758 0.2702959
-0.38426083 -0.17751229 -0.13940278 -0.13037974 -0.47253624 -0.28323013 -0.117030144 -0.2857315
0.1313792 -0.27531123 0.026991956 -0.13831069 -0.015576212 0.15905443 0.07656722 -0.28684172
-0.20567377 -0.16170672 0.0825721 -0.020893602 -0.010722533 0.21075219 -0.6152782 -0.15858434
-0.24904643 0.23064435 -0.22322407 -0.19094124 -0.43963987 -0.021999318 0.7248224 -0.2267562
-0.15530254 -0.22206841 -0.26852152 0.16258737 -0.6764075 -0.19204558 0.18340878 -0.27245823
-0.4027997 0.15428501 0.016996874 -0.44182187 0.14623915 0.116264604 -0.47215968 -0.11431078
-0.58932513 0.13468203 -0.31176347 -0.26634866 -0.3590254 -0.17909198 0.10656237 -0.51360434
0.31671056 0.59728444 0.26050845 -0.020564763 0.233792 -0.22711983 0.09289896 -0.1329338
0.44801992 0.24289067 0.20823473 -0.19498737 0.40862215 0.22568084 1.1007061 0.15380377
1.2164067 -0.27434552 0.31033295 0.41775 1.1610388 -0.0002511443 0.7254981 0.42003036
00000000: a1e2 3f3e 5460 3fbe 0656 80be e164 75be
00000010: a13f e53d ff8a 323e b1c1 7b3e 93f1 21bd
00000020: 0ec3 c43d 52c1 303d c014 3cbd 8233 62be
00000030: 27ef 023d a68a d9bd 9919 2e3f 518a 603e
00000040: 3be8 253f 810a 5a3e 7730 d83e 0d46 dd3e
00000050: 3238 1e3f fc54 79be 75ae 0e3e 548f 233f
00000060: 8ae4 8abc b4e1 903d 730b 67be 0ba5 803e
00000070: 5c5e 54bd a730 65be 8388 44be 5421 5bbd
00000080: 12ee 82bc d458 2cbe 74e3 f8bd b36e 413e
00000090: 44e7 e0be 6a65 02bf de35 97be 27df ed3b
000000a0: a6c7 c5be 2607 5bbe 6669 78be ba09 663b
000000b0: fbe5 ddbe dc0b 6ebe b892 3ebe 1429 133d
000000c0: 8fb1 013f 961e e83e df3e 7a3f 567e 90be
000000d0: e8c1 5b3f 4829 673e 265f 953e df0d 033f
000000e0: 7304 783f 857a 37be 4cc8 213f e04a 1f3f
000000f0: 2ce1 dfbd fac8 ebbd b9b9 ddbe 3964 8a3e
00000100: d6bd c4be c8c5 35be 9abf 0ebe 4482 05be
00000110: 45f0 f1be 8a03 91be 80ad efbd 664b 92be
00000120: 4588 063e 98f5 8cbe 3c1e dd3c 51a1 0dbe
00000130: 5e33 7fbc 2adf 223e 46cf 9c3d ebdc 92be
00000140: 259c 52be 7296 25be 901b a93d 0f29 abbc
00000150: 90ad 2fbc 6ccf 573e df82 1dbf ef63 22be
00000160: 0706 7fbe 082e 6c3e da94 64be 1a86 43be
00000170: 7a18 e1be ea37 b4bc f68d 393f c732 68be
00000180: a107 1fbe e765 63be a77b 89be 4e7d 263e
00000190: 0b29 2dbf 99a7 44be 83cf 3b3e a57f 8bbe
000001a0: c33b cebe e4fc 1d3e 073d 8b3c 7a36 e2be
000001b0: b7bf 153e 231c ee3d eabe f1be c51b eabd
000001c0: 03de 16bf 16ea 093e 769f 9fbe da5e 88be
000001d0: 2dd2 b7be e363 37be 5f3d da3d 937b 03bf
000001e0: e327 a23e a2e7 183f 5d61 853e 6f77 a8bc
000001f0: 2c67 6f3e 1a92 68be cf41 be3d cc1f 08be
00000200: de62 e53e 55b8 783e 7c3b 553e c5aa 47be
00000210: ec36 d13e e118 673e f0e3 8c3f bc7e 1d3e
00000220: 37b3 9b3f 0477 8cbe f6e3 9e3e 54e3 d53e
00000230: eb9c 943f 04ac 83b9 3eba 393f 380e d73e

actor.30.bias f4 [12]
-0.045215514 0.35857013 0.14811684 -0.6168891 1.336838 -0.15039998 -0.2632109 0.17362395
-0.5984991 -0.23226623 0.6232746 1.5571662
00000000: e733 39bd 8196 b73e f1ab 173e 72ec 1dbf
00000010: 821d ab3f 7402 1abe 94c3 86be 7aca 313e
00000020: 3d37 19bf 33d7 6dbe ed8e 1f3f 3951 c73f

actor.33.weight f4 [12, 12]
0.22757521 -0.24721804 -0.28000447 -0.32563797 -0.5248697 -0.2805879 -0.15315746 0.059913848
-0.3947587 -0.122698516 -0.43939957 -0.2303636 0.07782189 -0.16487151 -0.28299072 0.4833885
0.6618316 0.5746985 -0.22792628 -0.055565316 -0.18095759 -0.018861288 0.22707948 -0.16352998
-0.013148392 -0.4654079 0.080499075 -0.04828275 -0.5631124 0.22626863 -0.13042194 -0.6072183
-0.04867206 -0.3048388 -0.16149221 -0.20428127 -0.062346656 0.57924974 0.22729437 -0.25562543
1.1188211 -0.07321752 0.17562805 0.9613586 -0.056449655 0.287184 0.39948824 0.93520045
0.19259839 0.22460514 0.21657279 -0.27363878 -0.118438244 0.06307161 -0.18204163 -0.67551786
-0.14344841 -0.13822716 -0.3460198 -0.54499435 -0.28606424 0.61145985 -0.22700562 0.03414241
0.7343048 0.24240927 0.07637058 0.31231272 -0.25797603 0.31173402 0.23475307 1.1135042
-0.10342768 -0.28390202 -0.009943773 -0.22979373 -0.027555384 -0.16301946 0.22376293 -0.11385629
-0.11812293 0.2814088 0.08291363 -0.18106657 -0.24642979 0.08762042 0.22353089 -0.23703986
-0.6319545 -0.7126612 -0.1627805 -0.25379175 -0.264038 -0.17388994 -0.4082463 -0.22467032
0.09074534 -0.23460615 -0.0056288945 0.26609978 0.04378094 -0.0352749 0.23335817 -0.2558587
-0.13451761 0.040482514 0.5593401 0.27762783 -0.17194055 -0.27348238 -0.2657145 0.14920714
-0.165482 0.036077198 0.09349079 0.11053973 -0.28172952 0.13043168 -0.09409088 -0.10311573
-0.054271784 0.17435966 -0.04371745 0.52176005 1.0583901 0.30433697 -0.20368229 0.69870913
-0.16053538 0.66872203 0.9604422 1.4699392 -0.2366384 -0.13718401 -0.22842142 0.1745168
-0.2831124 -0.26323044 -0.016358173 0.06972971 -0.34517366 -0.04669388 -0.2505497 -0.29238528
00000000: 7a09 693e ba26 7dbe bf5c 8fbe 05ba a6be
00000010: dc5d 06bf 38a9 8fbe 4fd5 1cbe 3968 753d
00000020: d01d cabe 5c49 fbbd fbf8 e0be 70e4 6bbe
00000030: 1561 9f3d 14d4 28be 29e4 90be b37e f73e
00000040: cc6d 293f 711f 133f 8265 69be 7598 63bd
00000050: f24c 39be fd82 9abc 8687 683e 6774 27be
00000060: 5a6c 57bc f249 eebe b3dc a43d 22c4 45bd
00000070: 2228 10bf f7b2 673e 548d 05be a972 1bbf
00000080: 5b5c 47bd d513 9cbe 375e 25be 1c2f 51be
00000090: 355f 7fbd b649 143f dbbf 683e 56e1 82be
000000a0: 8835 8f3f 11f3 95bd d7d7 333e 991b 763f
000000b0: c137 67bd c809 933e b989 cc3e 4c69 6f3f
000000c0: 8338 453e e4fe 653e 42c5 5d3e 621a 8cbe
000000d0: c08f f2bd b02b 813d 1f69 3abe bdee 2cbf
000000e0: 24e4 12be 6c8b 0dbe 8229 b1be c084 0bbf
000000f0: 0377 92be a288 1c3f 2974 68be e9d8 0b3d
00000100: 66fb 3b3f 233a 783e 2e68 9c3d 74e7 9f3e
00000110: 6f15 84be 9a9b 9f3e 1c63 703e 4e87 8e3f
00000120: e4d1 d3bd 9b5b 91be 35eb 22bc 0c4f 6bbe
00000130: d4bb e1bc 93ee 26be 1c22 653e 7d2d e9bd
00000140: 6fea f1bd d014 903e 9fce a93d 8469 39be
00000150: 1758 7cbe 5672 b33d 48e5 643e 94ba 72be
00000160: c5c7 21bf f770 36bf eeaf 26be fef0 81be
00000170: fd2f 87be 3410 32be a905 d1be fa0f 66be
00000180: b1d8 b93d 983c 70be 9772 b8bb 3b3e 883e
00000190: a553 333d 6a7c 10bd 72f5 6e3e e9ff 82be
000001a0: fcbe 09be fed0 253d ea30 0f3f 3c25 8e3e
000001b0: 2f11 30be e205 8cbe bb0b 88be c2c9 183e
000001c0: 1d74 29be afc5 133d 1978 bf3d a762 e23d
000001d0: da3e 90be e28f 053e b8b2 c0bd 572e d3bd
000001e0: 174c 5ebd 578b 323e 1211 33bd 1192 053f
000001f0: 5479 873f 0ed2 9b3e 1792 50be 9ade 323f
00000200: 6363 24be 5e31 2b3f 8adf 753f f826 bc3f
00000210: 5651 72be f779 0cbe 4ee7 69be 88b4 323e
00000220: 1cf4 90be 24c6 86be 9301 86bc 73ce 8e3d
00000230: 9aba b0be 1542 3fbd 0d48 80be 86b3 95be

actor.33.bias f4 [12]
-0.7724509 0.32754478 -0.25381368 0.89945453 -0.5149988 0.5368335 -0.16824225 -0.98703194
-0.16666591 -0.04295438 1.3568923 -0.32072747
00000000: 58bf 45bf f3b3 a73e def3 81be a742 663f
00000010: f6d6 03bf ec6d 093f b247 2cbe 20ae 7cbf
00000020: 78aa 2abe eff0 2fbd a6ae ad3f 6436 a4be
