gigala/topology/topology_optimiz/HRL/preTrained/T0-h-v1/2level/HAC_T0-h-v1_level_1_actor.pth (torch, 6807 bytes, 18 tensors)

actor.0.weight f4 [4, 4]
00000000: 983f de3d 6409 62be 8af0 ae3e ba97 cb3e
00000010: a207 8f3e 3226 80be c874 a53d 3411 68be
00000020: 20fa 513e 8e61 da3e 9098 44be c0d3 46bc
00000030: 689d 413e f0c2 a8bd b8ec 803d f8c2 b23e
0.10851973 -0.22073895 0.34167892 0.39764196 0.2793551 -0.2502914 0.08078915 -0.22662812
0.20505571 0.42652553 -0.19198823 -0.012135446 0.18907702 -0.082403064 0.062951505 0.34914374

actor.0.bias f4 [4]
00000000: 602b b2be 009c 3dbc c8e0 44be f01a e8be
-0.34798717 -0.011572838 -0.19226372 -0.45333052

actor.3.weight f4 [4, 4]
00000000: 3a29 c23e 04f8 9d3e 1487 3abe 821b d53e
00000010: 2a40 aebe 70bb 1fbd 0005 e53b 6e85 c1be
00000020: 509c d83d 105d fcbe c0d7 61be e63f b0be
00000030: c81e ef3d 486c fabe a84e c3bd 3c36 e3be
0.37922078 0.30853283 -0.1821559 0.4162255 -0.34033328 -0.038997114 0.0069891214 -0.3779711
0.10576689 -0.4928975 -0.22054958 -0.3442375 0.11675793 -0.48910737 -0.09536487 -0.44377315

actor.3.bias f4 [4]
00000000: 1a60 b5be d83a 9a3d 62f5 e1be ba81 993e
-0.35424882 0.07530755 -0.44132525 0.29981786

actor.6.weight f4 [4, 4]
00000000: f0ac aebd 9c10 55be 9869 df3e daa8 cb3e
00000010: 08a9 c4be 38b7 de3d 40ed 1fbe 2661 b5be
00000020: 24fa 843e 946f 863e 069c 9e3e e000 f13d
00000030: e08f 463e 7019 113d 8236 ab3e c83f e2be
-0.08529079 -0.20807117 0.4363525 0.3977726 -0.3841021 0.1087479 -0.15617847 -0.3542568
0.25972092 0.26257002 0.3097841 0.11767745 0.19390821 0.03542465 0.33440024 -0.44189286

actor.6.bias f4 [4]
00000000: 64d5 9a3e 5e54 c9be f2bf 9e3e 9033 d73e
0.3024093 -0.3932218 0.31005818 0.42031527

actor.9.weight f4 [4, 4]
00000000: 60c4 053d 32e0 b53e 58f2 c33e fcc7 823e
00000010: d0d4 99be 2e84 b6be 1c82 853e 0807 003e
00000020: 68d7 72be 3cc9 1d3e beec cfbe d01c 833d
00000030: 8099 8d3d 78db ccbe a0f6 643e 8046 253d
0.03265798 0.3552261 0.3827083 0.255432 -0.30045176 -0.3564772 0.26075828 0.12502682
-0.23714983 0.15408796 -0.40610307 0.0640198 0.069140434 -0.4001119 0.22359705 0.040350437

actor.9.bias f4 [4]
00000000: 9cf4 823e 80f5 1a3e 587a 4ebe 8020 b23d
0.25577247 0.15132713 -0.20163858 0.08697605

actor.12.weight f4 [4, 4]
00000000: cc32 c0be e8da e2be 2067 25bd 50c3 0b3e
00000010: e8f0 033e 70fb a5be 4486 1e3e b8c9 24be
00000020: a092 993d ec1d e5be 3a22 d0be f0b7 17be
00000030: ac16 043e 8088 723d bc78 20be c053 a23e
-0.37538755 -0.44307637 -0.04038155 0.13648725 0.12884867 -0.32418394 0.15480906 -0.16092575
0.074986696 -0.4474939 -0.40651113 -0.1481626 0.12899274 0.059212208 -0.15671057 0.3170452

actor.12.bias f4 [4]
00000000: 6ad4 ddbe 6008 82be 920a d9be c678 90be
-0.43326122 -0.25397015 -0.42390877 -0.28217143

actor.15.weight f4 [4, 4]
00000000: 6032 113e 26ab c53e c4ee 0bbe 783c f33e
00000010: 1e0e d4be 5aa1 d6be 909a 92be 40d7 20be
00000020: 2cd0 53be 6ca2 60be 6c41 79be ec78 9ebe
00000030: da13 9b3e 8420 073e 0275 cdbe d0cc 143e
0.14179373 0.38607138 -0.136653 0.47507071 -0.4141702 -0.41919976 -0.28633547 -0.15707111
-0.2068488 -0.21936959 -0.24341363 -0.3095163 0.30288583 0.13195997 -0.40128332 0.14531255

actor.15.bias f4 [4]
00000000: de90 9dbe d068 fcbd 8235 85be f8f6 edbe
-0.30774587 -0.12324679 -0.26017386 -0.46477485

actor.18.weight f4 [4, 4]
00000000: e0bd e4be 9a54 a0be 0aa9 efbe c213 86be
00000010: 5878 bb3e 0090 a43b a07a f8be 98bc c43d
00000020: 2430 563e 7803 df3d 88c3 c7be 8039 debb
00000030: 78e0 983e 940d 663e 7022 4c3d 1e36 ef3e
-0.44676113 -0.31314546 -0.46808654 -0.2618695 0.36615252 0.005022049 -0.48531055 0.09606284
0.20916802 0.108893335 -0.39016366 -0.006781757 0.29858756 0.22466117 0.04983753 0.46720976

actor.18.bias f4 [4]
00000000: c0c7 9c3c 0e11 a0be 6a51 c4be bc53 973e
0.019138217 -0.31263012 -0.38343364 0.29556072

actor.21.weight f4 [4, 4]
00000000: 54c9 27be 1c14 f43e d8a3 e3be 2e92 febe
00000010: 544b 373e 8c9a 303e d6b5 91be 5adc a03e
00000020: 22ac e5be 58f4 75be 14a6 19be e4ea acbe
00000030: 4035 18be 8c9a c23e 60f7 72bd b27c be3e
-0.16385394 0.47671592 -0.4446094 -0.497209 0.17899829 0.17246455 -0.28459042 0.31418115
-0.4485789 -0.24018991 -0.1500476 -0.33772957 -0.14864063 0.38008535 -0.059317946 0.3720451

actor.21.bias f4 [4]
00000000: 807c 94bb 0262 d7be 2088 babd e86e 49be
-0.004531443 -0.42066962 -0.09107995 -0.19671214

actor.24.weight f4 [2, 4]
00000000: 204a b13c 3e13 88be 6821 68be 90fd 723d
00000010: c8ec f93e d203 d4be 0e5d f43e 645e 7fbe
0.02164179 -0.2657718 -0.22668993 0.059323847 0.48813462 -0.41409165 0.47727245 -0.24938351

actor.24.bias f4 [2]
00000000: 4e93 fdbe 3ae7 e43e
-0.49526447 0.44707662
