gigala/topology/topology_optimiz/HRL/preTrained/T0-h-v1/2level/HAC_T0-h-v1_solved_level_1_crtic.pth (torch, 8551 bytes, 23 tensors)

critic.0.weight f4 [2, 6]
0	0xbe69409b	-0.22778551
1	0xbd796f5a	-0.06089721
2	0xbdf0c0d0	-0.11755526
3	0x3dcd2dd8	0.100185096
4	0xbddbc360	-0.10730624
5	0xbd5dab88	-0.054118663
6	0xbe1f8f80	-0.15582085
7	0xbebf049b	-0.373082
8	0x3eb64b72	0.35604435
9	0x3d9f16be	0.077680096
10	0x3ebae9e2	0.36506563
11	0xbd86bedc	-0.06579372

critic.0.bias f4 [2]
0	0xbdd21eec	-0.10259804
1	0xbec48102	-0.38379675

critic.3.weight f4 [2, 2]
0	0xbe896d76	-0.26841325
1	0x3eed65aa	0.46366626
2	0xbf314c70	-0.6925726
3	0xbe7d41d8	-0.24732149

critic.3.bias f4 [2]
0	0x3edc934e	0.43081135
1	0x3ed0a8c6	0.40753764

critic.6.weight f4 [2, 2]
0	0x3e85a4ae	0.26102203
1	0xbe0f53dc	-0.13996834
2	0xbd5b4bc0	-0.053539038
3	0xbe0981dc	-0.13428444

critic.6.bias f4 [2]
0	0xbe85764b	-0.26066813
1	0x3e97166e	0.295093

critic.9.weight f4 [2, 2]
0	0xbe769f72	-0.24084261
1	0xbecb62e4	-0.39723885
2	0x3e242436	0.16029438
3	0xbf02d784	-0.511101

critic.9.bias f4 [2]
0	0xbe1a8760	-0.15090704
1	0x3eb901b6	0.36134118

critic.12.weight f4 [2, 2]
0	0x3e874df4	0.2642666
1	0x3f1a1bd1	0.60198694
2	0xbef6ed6a	-0.48228008
3	0x3a030b47	0.0004998934

critic.12.bias f4 [2]
0	0xbe55d270	-0.20881057
1	0xbeca7e86	-0.39549655

critic.15.weight f4 [2, 2]
0	0xbecbaa87	-0.3977854
1	0x3e364fa7	0.17803822
2	0x3d978340	0.07398081
3	0xbeb8cd55	-0.36094156

critic.15.bias f4 [2]
0	0xbeff2fef	-0.49841258
1	0xbf15fac8	-0.58585787

critic.18.weight f4 [2, 2]
0	0x3f316762	0.69298375
1	0xbdf6d4d8	-0.120523155
2	0xbe276ea4	-0.163508
3	0xbe8520cd	-0.26001588

critic.18.bias f4 [2]
0	0xbeb51487	-0.35367224
1	0xbf258b5c	-0.6466577

critic.21.weight f4 [2, 2]
0	0xbed489bf	-0.41511342
1	0x3edd49d2	0.43220383
2	0x3e1e950b	0.15486543
3	0xbe7f6cae	-0.24943802

critic.21.bias f4 [2]
0	0xbe88d1a4	-0.26722443
1	0x3ee7455e	0.4517011

critic.24.weight f4 [2, 2]
0	0x3f027c9f	0.50971407
1	0x3f2e6677	0.681251
2	0x3e5337a8	0.206267
3	0x3eaedf58	0.34154773

critic.24.bias f4 [2]
0	0xbd68b6a0	-0.05681479
1	0xbed3abc2	-0.41341978

critic.27.weight f4 [2, 2]
0	0xbf315762	-0.6927396
1	0x3edc7fed	0.4306635
2	0xbdd27c18	-0.10277575
3	0x3e94bdfa	0.2905119

critic.27.bias f4 [2]
0	0x3d3d9823	0.046287667
1	0xbf28f2fb	-0.6599576

critic.30.weight f4 [2, 2]
0	0xbeb2b842	-0.34906203
1	0x3e4bb4d0	0.19893193
2	0xbe106484	-0.14100844
3	0xbf2ecdb7	-0.68282646

critic.30.bias f4 [2]
0	0x3dbdca02	0.092670456
1	0x3db095db	0.08622333

critic.33.weight f4 [1, 2]
0	0xbc882872	-0.016620848
1	0x3e976613	0.29570064
