gigala/topology/topology_optimiz/HRL/preTrained/T0-h-v1/2level/HAC_T0-h-v1_solved_level_0_crtic.pth (torch, 6627 bytes, 17 tensors)

critic.0.weight f4 [2, 20]
000000 26 c8 93 bd 91 ed 51 be 22 c8 23 be 28 aa 2f be
       -0.0721591 -0.2050078 -0.15994313 -0.17154753
000010 b8 cd ad bc 62 5e cb bd 8a 04 20 be 38 12 4b 3d
       -0.021216258 -0.099301115 -0.15626732 0.04957792
000020 b0 c1 6b 3c d8 4e 09 bd 9e 01 a6 bd 58 28 43 3e
       0.01438944 -0.033522457 -0.08105777 0.19058359
000030 e6 95 5c be c0 90 ae bb 50 96 d4 3d c2 aa 21 3e
       -0.21541557 -0.005327314 0.10380232 0.15787795
000040 b8 33 47 be a0 6b 0f bd c6 f5 3e 3e c8 c4 16 3d
       -0.19453323 -0.03501475 0.18648443 0.03680876
000050 d4 78 8a 3d 88 59 ca bd dc e9 1e 3e 46 ba ab bd
       0.067613274 -0.09880358 0.15518898 -0.08385138
000060 7d 9a f6 bd 7c b1 4f 3e a8 9f 72 3d 80 53 ca ba
       -0.12041185 0.20282549 0.05923429 -0.0015436262
000070 23 93 1f be e4 ba 4a bd c8 e5 2f be 67 0f 1a be
       -0.15583472 -0.04949464 -0.17177498 -0.15044938
000080 74 2a 03 bd 48 10 31 3d 6d 9d 3b be 48 8a 5e 3e
       -0.03202291 0.043228418 -0.18321772 0.21732438
000090 98 67 28 3e 65 17 55 be 28 20 0f 3e 76 66 09 be
       0.16445768 -0.20809706 0.1397711 -0.13417992

critic.0.bias f4 [2]
000000 3e 96 3a be b2 83 56 3e
       -0.18221375 0.20948675

critic.3.weight f4 [2, 2]
000000 69 95 91 be 3c 31 70 be c8 76 b4 3d 86 a1 cc 3e
       -0.28434303 -0.23456281 0.08811718 0.39966983

critic.3.bias f4 [2]
000000 c0 cc 5e 3d 48 96 42 be
       0.054394484 -0.1900264

critic.6.weight f4 [2, 2]
000000 50 91 75 3d 44 93 bb be 09 ac 03 bf 90 88 3c 3e
       0.059953034 -0.36635792 -0.5143438 0.1841147

critic.6.bias f4 [2]
000000 a8 98 98 3d 66 e4 b3 3e
       0.07450992 0.35135192

critic.9.weight f4 [2, 2]
000000 a1 7e 86 be be ea 32 bf bc aa 33 be 05 28 2f bf
       -0.26268485 -0.6988944 -0.17545599 -0.6842044

critic.9.bias f4 [2]
000000 d0 08 64 bd 46 db b0 3e
       -0.055672467 0.34542292

critic.12.weight f4 [2, 2]
000000 30 fd 85 3d 8a ba cf 3e 3c 0e 07 3e 3e 3f 9b 3e
       0.06542432 0.40572006 0.13189024 0.30321687

critic.12.bias f4 [2]
000000 65 f1 22 3f 28 7a d7 3d
       0.6364959 0.10521346

critic.15.weight f4 [2, 2]
000000 d8 fd f0 3d dc e5 92 be 1a c1 e1 3e 19 da 17 3f
       0.11767167 -0.28690994 0.44092637 0.59317166

critic.15.bias f4 [2]
000000 22 75 fb be 2d b3 2f 3f
       -0.49112803 0.68632776

critic.18.weight f4 [2, 2]
000000 e0 6b 5a 3e 28 19 ca bd 18 ac 25 bf 2b e7 34 bf
       0.21330214 -0.098680794 -0.6471572 -0.70665234

critic.18.bias f4 [2]
000000 96 32 0e bf 79 6b 17 bf
       -0.5554594 -0.59148365

critic.21.weight f4 [2, 2]
000000 04 6e f1 be 54 dc 52 be 43 42 16 bf 72 54 17 bf
       -0.47154248 -0.20591861 -0.5869486 -0.5911323

critic.21.bias f4 [2]
000000 78 2c a1 bd cc 4c 18 bf
       -0.0786981 -0.5949218

critic.24.weight f4 [1, 2]
000000 20 ed 82 bd a0 b3 f6 3d
       -0.06392884 0.120459795
