gigala/topology/topology_optimiz/HRL/preTrained/T0-h-v1/2level/HAC_T0-h-v1_solved_level_0_crtic.pth (torch, 5451 bytes, 13 tensors)

critic.0.weight f4 [3, 20]
00000000: 8050 8abc d008 5bbe 3fe2 09bd 578a 153e
00000010: ddde d23d 9737 1dbb 2366 213e 0aea 50be
00000020: 54db 1e3e 9447 633e 4e40 0bbe ce65 443d
00000030: 08bb 13bd 9b4c 41be 40ce 00bb 457f 99bd
00000040: 3295 43be 17db 26be 9574 9f3b 4a93 513e
00000050: fef5 a33d 244c 2fbe 3fef 1d3e a05d 963c
00000060: 32bd 5fbe 9fcb 2d3c fdfc 123e fea2 06be
00000070: bd8d 28bc b527 e4bd e08b 34be dc1a 02be
00000080: 5cfd b73c 2503 143e cb30 2abd fdea 4dbe
00000090: 39c7 faba bf24 47be 5236 573c a98c 133e
000000a0: d171 c33d 218e 0bbe 9722 4abd ae5f b73d
000000b0: 8d77 783d 9d14 57be c17e 05be 0af5 a1bd
000000c0: 7a4a a83d a096 4c3e 3e11 cc3d 6efe ac3d
000000d0: 384c 42be 4f29 143e 1602 a43d 1642 93bd
000000e0: 39ba dbbd c230 823d 723a f8bd 0665 cf3d
-0.016884089 -0.2139008 -0.03366303 0.14603554 0.10296414 -0.0023989433 0.15761618 -0.20401779
0.15513355 0.22195274 -0.13598749 0.04794865 -0.03606704 -0.18876879 -0.0019654185 -0.07494978
-0.19099882 -0.16294514 0.0048661926 0.20466343 0.08005904 -0.17118889 0.15423296 0.01835519
-0.21849516 0.010607629 0.1435432 -0.13148114 -0.010287699 -0.11140386 -0.17631483 -0.12705559
0.022459678 0.14454325 -0.04155044 -0.20109172 -0.0019132859 -0.19447611 0.01313551 0.14409126
0.09543193 -0.13628437 -0.049349394 0.08953796 0.060660888 -0.21003957 -0.13036634 -0.079080656
0.0821733 0.19979334 0.09964226 0.08446966 -0.18974388 0.14468883 0.0800821 -0.07190339
-0.107288785 0.06356956 -0.121205226 0.101266906

critic.0.bias f4 [3]
00000000: 6d17 2f3e 7f14 17be bad4 0ebe
0.1709878 -0.14753912 -0.13948336

critic.3.weight f4 [3, 3]
00000000: ec9c 75be a716 fdbe 089b 87bd 84a6 b73e
00000010: ba3b 593e a79f 43be 48ca 92bd 008c 80be
00000020: 809f eebe
-0.23985642 -0.49431345 -0.06621367 0.3586923 0.2121419 -0.19103871 -0.07167488 -0.25106812
-0.46606064

critic.3.bias f4 [3]
00000000: fa5c 21be 1884 ce3d 5fe8 95be
-0.15758124 0.10083789 -0.29278848

critic.6.weight f4 [3, 3]
00000000: 7a75 ddbe d4be 6240 c82b ae3d 62e6 37be
00000010: 8464 4bc0 9099 083f f021 013d e499 cabe
00000020: feac 083f
-0.4325369 3.5428972 0.08504444 -0.17958978 -3.17801 0.5335932 0.031526506 -0.39570534
0.53388965

critic.6.bias f4 [3]
00000000: a1d8 d33e b67c 61bd 7286 85be
0.41376212 -0.055050574 -0.26079136

critic.9.weight f4 [3, 3]
00000000: 7423 94bf 1ae0 d7be 746b 9a3e 6903 98be
00000010: 9cfe 9fba 7087 f23d 20c7 1540 c9fc 0b40
00000020: 07b6 9abe
-1.157332 -0.42163163 0.30160105 -0.29690102 -0.0012206617 0.11842239 2.3402786 2.1873038
-0.30217

critic.9.bias f4 [3]
00000000: e7c3 90bc d454 23be b2fe 46be
-0.017671539 -0.15950328 -0.19433096

critic.12.weight f4 [3, 3]
00000000: a687 92be 6c55 8fbe 7049 8bbe 7b65 5abf
00000010: f8e8 f9be ff12 80bf be16 fd3e ffb2 523e
00000020: 5492 983e
-0.28619117 -0.2799486 -0.27204466 -0.85311097 -0.48810554 -1.0005797 0.49431413 0.20576094
0.2979914

critic.12.bias f4 [3]
00000000: 7107 5d3e ba36 61be 1844 b8be
0.2158487 -0.21993533 -0.3598945

critic.15.weight f4 [3, 3]
00000000: b336 bebe a555 16bd 4d65 4e3e 1273 0abf
00000010: 7a19 e3be dfd7 ab3e 189c 973d f22a c33e
00000020: 74f2 ed3e
-0.37151107 -0.03670277 0.2015583 -0.54081833 -0.44355375 0.33563134 0.074028194 0.38118702
0.4647404

critic.15.bias f4 [3]
00000000: c6ce 953e 7208 dabc 7e25 adbe
0.29259318 -0.026615355 -0.33817667

critic.18.weight f4 [1, 3]
00000000: e254 163d d54f e93e 01ac 0dbf
0.036702044 0.4556872 -0.5534058
