gigala/topology/topology_optimiz/HRL/preTrained/T0-h-v1/2level/HAC_T0-h-v1_level_1_actor.pth (torch, 21767 bytes, 34 tensors)

actor.0.weight f4 [12, 4]
000000 b0 bc a9 3d 94 76 46 be b8 b2 96 be a6 7e ff be
       0.082879424 -0.19381171 -0.29433227 -0.49901313
000010 7c 36 d5 be d0 3f 23 bd 74 11 cd 3e 42 5d a1 be
       -0.4164313 -0.03985578 0.40052378 -0.31516463
000020 40 c2 c6 3d 13 09 93 3e 18 b3 99 3d b4 20 80 bc
       0.09705019 0.2871786 0.075048625 -0.015640594
000030 ec 1b ba 3e 4e 9f f3 be 20 37 d5 3e d4 c3 d3 3e
       0.36349428 -0.47582477 0.4164362 0.41360343
000040 aa ca dc 3e f9 66 be 3e 00 76 07 bd 80 50 cc be
       0.4312337 0.37187937 -0.033071518 -0.39905167
000050 f4 88 a1 be 6e 0b db be b6 c1 9e be fc 1e e4 be
       -0.315498 -0.42782158 -0.31007165 -0.4455489
000060 5a b6 b0 3e b3 9e 6a 3e 5c ed 5d be aa df 54 bb
       0.34514123 0.22912101 -0.21672577 -0.0032481947
000070 30 50 48 3d 0b 23 f5 3c 3c 89 b2 3e 0d 1f 60 3e
       0.048904598 0.029923936 0.34870327 0.21886845
000080 76 5a c4 be 99 29 ee 3e 44 66 4a be c3 76 56 be
       -0.38350266 0.46516111 -0.19765574 -0.20943742
000090 48 ed ff 3e 0e 04 9f be f8 a5 fd bd 80 db 34 3d
       0.4998572 -0.3105778 -0.12385172 0.044154644
0000a0 66 bc e6 be 0b 4e c0 3e 20 c2 c8 3e aa 6c f4 be
       -0.45065612 0.37559542 0.39210606 -0.47739154
0000b0 98 2c 9b bd 3d f7 ca 3d 72 c7 99 3e 76 0b 53 3e
       -0.07576865 0.09910438 0.30034977 0.20609841

actor.0.bias f4 [12]
000000 b0 1f 3d bd b2 fe df 3e 18 bc db bd e0 ea d3 3c
       -0.046172798 0.43749005 -0.107292354 0.025868833
000010 08 7a a3 be c6 33 93 be 84 1e 14 be 2c 1d ea be
       -0.3192904 -0.28750437 -0.14464766 -0.4572538
000020 d7 e9 88 bd b0 62 d7 3d 30 8e b0 be ae d2 d5 be
       -0.066852264 0.1051687 -0.3448348 -0.41762298

actor.3.weight f4 [12, 12]
000000 c2 ff 82 3e 06 db 00 be 74 cb 59 be b2 7b 94 bd
       0.25585753 -0.12583551 -0.21269017 -0.072501555
000010 0e 00 0b be 0a 12 8d be cb bd 1d bd 2b 8e 06 be
       -0.1357424 -0.27552825 -0.03851108 -0.1314017
000020 5c 8b b6 bd 52 cd 03 3e 98 99 60 3c a9 e9 76 3e
       -0.089132994 0.12871292 0.013708495 0.24112572
000030 34 4a 93 be 20 65 81 3e 0e 7d 32 3e 82 cb a2 bd
       -0.2876755 0.25272465 0.17430517 -0.07948972
000040 0a 1b 51 3e f2 66 8a 3e 5d c3 1f 3d d0 67 a6 3d
       0.20420471 0.27031666 0.039004672 0.081252694
000050 f7 f9 5a bd 50 6b af bc 05 a5 9f bb dd aa 14 be
       -0.05346104 -0.021413475 -0.004871967 -0.14518304
000060 d0 66 4c 3d 00 23 fc bd eb d6 16 3e e8 80 35 3d
       0.049902737 -0.12311363 0.14730422 0.044312388
000070 58 16 65 be 2a 9b 84 3e 89 f0 b0 3d 82 d9 0c 3e
       -0.22371805 0.2589963 0.086396284 0.13754848
000080 15 63 92 be 10 cc 7d 3e dc ed b2 3d a5 2f b9 bc
       -0.2859122 0.24784875 0.08736774 -0.022605726
000090 b8 6e 41 be 88 a4 66 3d 08 54 e1 3d 3c 59 b3 3d
       -0.18889892 0.056309253 0.11002356 0.087572545
0000a0 b9 3d 58 3e 03 b8 86 be 12 38 65 be a8 fd 8e 3e
       0.21117295 -0.26312265 -0.2238467 0.279279
0000b0 23 72 7a 3e 90 28 d4 bc 37 11 27 3e 19 78 53 3e
       0.24457602 -0.025898248 0.1631516 0.20651282
0000c0 b0 3f 55 3e 02 84 0c be 29 12 d8 bd de 79 1a be
       0.20825076 -0.13722232 -0.10550339 -0.15085551
0000d0 9c a5 8b bd e2 fd 8a 3e 43 92 08 bc fc e2 6b be
       -0.06818697 0.27146822 -0.008335653 -0.23035806
0000e0 7d 54 5f 3e 94 c3 e8 3d ed d2 2d 3d e3 59 1a be
       0.21809573 0.113654286 0.042437483 -0.15073352
0000f0 10 af 55 3e 1e 9c 70 be 4a 49 13 3e d8 4b 0e bd
       0.20867562 -0.23497054 0.14383426 -0.0347403
000100 a5 1e d6 bd 21 0f 85 be 85 79 23 3d 28 39 0b be
       -0.10455064 -0.25988105 0.039910812 -0.13596022
000110 ad 49 ea bd 96 05 27 3e d6 aa 3d be ff ec 8b 3e
       -0.11439834 0.16310725 -0.185222 0.2732925
000120 40 ae 6f 3e a2 38 57 3e f1 5e f5 3c 4c 37 62 be
       0.23406315 0.21017697 0.029952498 -0.22091407
000130 aa 25 88 bd 83 d4 0e be e0 34 26 bd e4 c1 89 be
       -0.06647809 -0.13948254 -0.04057777 -0.2690574
000140 42 c5 04 be 14 8c 4c bd 7e 0e 79 37 48 7f 98 bd
       -0.12965873 -0.049938276 1.4844931e-05 -0.07446152
000150 58 f8 77 3d 4f 1f 21 be 2c b6 4e be 4c 57 57 be
       0.060539573 -0.157346 -0.2018668 -0.21029395
000160 a7 dc 84 3e ca 53 2f 3e c9 51 83 be 86 62 7a be
       0.25949594 0.17121807 -0.25648335 -0.24451646
000170 43 01 b5 bc e8 86 1e be f8 e9 b7 3d f2 d8 d6 bd
       -0.022095328 -0.1548115 0.08980173 -0.10490598
000180 b0 53 e4 3c 78 bc 95 bd d5 18 63 be 70 de dd bc
       0.027871937 -0.07311338 -0.22177441 -0.027083606
000190 38 7e 88 3e dc 10 66 3e 43 2e 48 be 38 60 b0 3d
       0.26658797 0.22467369 -0.19548897 0.08612102
0001a0 60 a5 83 3e c0 3d 8c 3c a6 e6 bb bc 1f 9f 7d 3e
       0.2571211 0.017119288 -0.02293713 0.24767731
0001b0 80 64 88 3b 24 02 56 bd c9 9f 90 3e ec b9 f8 3d
       0.004162371 -0.052248135 0.28246906 0.12144837
0001c0 0c 2d 44 be f4 14 5a 3e da 31 81 3e 7b df 6c 3e
       -0.19157809 0.21297055 0.25233346 0.23132126
0001d0 cb b5 e8 bd 3a 37 df bd 94 51 49 3e eb 70 5d 3e
       -0.11362799 -0.108992055 0.19660026 0.21625106
0001e0 66 95 72 be d0 46 76 3e 4c 22 0e 3e 1c 10 b1 3d
       -0.23689803 0.2405045 0.1388027 0.08645651
0001f0 0f de a5 bd 20 ab 1a bd be ca 2e 3e 29 91 40 3d
       -0.08098995 -0.037760854 0.17069528 0.047013436
000200 52 d3 5d 3e 64 f7 36 be c9 34 df bd 86 95 0b bd
       0.21662644 -0.1786781 -0.1089874 -0.034078144
000210 a4 88 ef 3d 4c f1 cd 3d 61 8a 23 3e 0b d0 23 be
       0.11695984 0.10055789 0.15970756 -0.15997331
000220 3c d7 26 bd 24 26 e6 3d 5a dd ff bd 12 c9 53 3e
       -0.040732607 0.112377435 -0.12493391 0.20682171
000230 44 39 5c 3e cc cb 23 3e 16 a0 25 3e 6e d9 34 3e
       0.2150622 0.15995711 0.16174349 0.17661068

actor.3.bias f4 [12]
000000 ba 64 7a be 16 79 b4 bd 80 89 5d 3e 2c 50 f5 bd
       -0.24452487 -0.08812158 0.21634483 -0.11978182
000010 48 0f c6 3c ea 08 c9 bd c0 90 3b bc 00 74 4b bd
       0.024177209 -0.09816153 -0.011448085 -0.049671173
000020 20 be a9 bd 99 da 51 3d 22 bf 87 3e 0c da b4 3b
       -0.082882166 0.05123386 0.2651301 0.0055191573

actor.6.weight f4 [12, 12]
000000 c7 ca a9 bd 1a 1a 72 3e 7c db 06 be 23 26 8f 3d
       -0.0829063 0.2364277 -0.13169664 0.06989696
000010 3f 3e 0d 3c 3f 94 ae 3d f6 02 2d 3e 9c 7e 9d 3d
       0.008620798 0.085243694 0.16895661 0.076901644
000020 e2 b4 a7 bc ca 4b 0f 3e 67 96 8c 3d c3 5b 40 bd
       -0.020471994 0.13993755 0.068646245 -0.04696251
000030 2b 1a 7f 3d f8 4e 15 be c0 ec d3 3c 3d 7a 2f be
       0.062280815 -0.14580905 0.025869727 -0.17136474
000040 c2 26 fd 3d ba 72 8f 3e f1 8a c0 bd 01 41 84 be
       0.12360908 0.28017217 -0.09401501 -0.25830844
000050 00 b7 72 3e da cb 24 be a9 dd 34 3e 1c d5 40 3e
       0.23702621 -0.16093388 0.17662682 0.18831295
000060 50 1d d0 bd c6 6a e4 3b ac 1c fa bd bd a2 73 3e
       -0.10161841 0.006970736 -0.122125 0.23792548
000070 b4 2e 4b be 77 95 04 3d 8e 3a 26 be 02 7f 68 3e
       -0.19842035 0.032369103 -0.16233274 0.227047
000080 e7 01 0d 3e f3 2d 8c 3e 24 bd cc bd 5e f6 eb 3d
       0.13770257 0.27378806 -0.09997013 0.115216
000090 63 07 7c be 02 24 34 3e 42 46 c4 bd e8 0c ce 3d
       -0.24612193 0.17591861 -0.09583713 0.100610554
0000a0 9d ed 12 3e f5 60 39 be ae 19 26 3e 2f 66 ec bd
       0.14348455 -0.18103392 0.16220734 -0.115429275
0000b0 a2 de f5 3d 57 2a b5 bd 8d ce e1 3c 92 8d 25 3d
       0.120053545 -0.08845966 0.027564311 0.040418215
0000c0 b0 d0 7e 3e 29 23 a9 3d df 4e 4e 3d 21 c7 59 bd
       0.24884295 0.082586594 0.050368186 -0.05316842
0000d0 cb 39 93 be a3 63 03 be f1 35 c9 bd aa 92 dd 3d
       -0.2875503 -0.12830977 -0.09824742 0.108189896
0000e0 ff 17 ab bc de 2a ba 3d 28 4e 19 be 64 10 93 be
       -0.020885466 0.090902075 -0.1497122 -0.28723443
0000f0 4b 99 d8 3d 6d b0 1c 3e 97 69 1c 3e 7a 19 6f 3e
       0.10576113 0.15301676 0.15274654 0.23349562
000100 f7 0c 90 be d3 af af 3d 2b bb 6a 3e 7f 7d 17 be
       -0.2813489 0.08578458 0.22922961 -0.14793967
000110 83 13 20 3e b5 93 15 3e 36 77 46 3d 07 e5 8e be
       0.15632443 0.14607127 0.048453532 -0.2790911
000120 ad 95 0a 3e c8 50 84 3e 4b 2e 22 bd bc 66 e9 3d
       0.1353366 0.2584288 -0.03959493 0.11396548
000130 44 63 61 3e 43 b6 5c be 33 84 89 be fb 05 e6 3d
       0.22010523 -0.21553902 -0.26858672 0.112316094
000140 9a b6 42 bc eb 13 0b be 78 02 8a be ff 55 38 be
       -0.011884356 -0.13581817 -0.26955009 -0.18001555
000150 91 c2 9f 3d aa 37 58 bd 66 6f 80 be 76 ec e2 bc
       0.078007825 -0.05278746 -0.2508499 -0.027700644
000160 d2 8b 6b bc f6 ea 89 be 62 38 31 3e 1b c9 93 3e
       -0.0143765975 -0.26937073 0.17306665 0.2886437
000170 ed 80 53 3e af ce 84 be cb 10 35 be fc 3a 66 be
       0.2065465 -0.25938937 -0.17682187 -0.22483438
000180 d0 01 79 3e 13 78 0c be bd 19 5c 3e fa 6d f6 bd
       0.24317098 -0.1371768 0.21494193 -0.12032695
000190 6f 3f e9 3d 01 f2 50 3e 48 13 10 be a9 d8 01 3e
       0.11389052 0.20404817 -0.14069855 0.12680306
0001a0 c5 13 10 3e db 7e 89 3d f5 c2 dd bd df a2 63 be
       0.14070041 0.06713649 -0.10828201 -0.22230099
0001b0 d7 a6 76 3d 00 c9 85 be 82 ed c2 bd ef 53 3f 3d
       0.060217705 -0.26129913 -0.09517957 0.046710905
0001c0 4e 4f 35 3e b2 d5 61 3e 78 ef 77 be 61 ec 02 be
       0.17706034 0.22054175 -0.24212444 -0.12785484
0001d0 ee dd d4 bc ae a9 f9 bb 4a 8d 91 bd 7f 66 3b be
       -0.02598473 -0.0076191043 -0.07107027 -0.18300818
0001e0 45 3e 83 bd 0e 75 6a bd 6d 50 33 be 6b f4 c7 3d
       -0.06408361 -0.05724054 -0.17511149 0.09763416
0001f0 5a 98 52 be 60 60 7d be 2b 50 56 3d d8 74 10 be
       -0.2056593 -0.24743795 0.052322548 -0.14107072
000200 f5 7e 86 3e 32 62 3f be b7 8e 47 be 1e bf 8d 3e
       0.26268736 -0.18689802 -0.19488035 0.27684873
000210 8c cb 57 3d 19 5f 90 3e 3f 80 82 3e 43 95 97 3e
       0.05268435 0.28197554 0.2548847 0.29606065
000220 cd 88 68 3e 4b 68 2e 3e 56 77 32 be 08 34 9f bd
       0.22708435 0.17031972 -0.17428336 -0.07773596
000230 d6 ef 84 bc 8c c1 1f 3c f5 e3 72 3e 9c d3 dc 3d
       -0.016227644 0.009750735 0.23719771 0.10782549

actor.6.bias f4 [12]
000000 20 3d 89 be 83 68 95 3d 35 70 87 3c 18 be 05 3e
       -0.26804447 0.07295325 0.016532997 0.13060796
000010 48 a1 fc bd 00 ef 77 3e 17 d4 50 be cc 31 67 3e
       -0.123354495 0.24212265 -0.20393406 0.2257759
000020 44 c5 84 3e 59 e3 6f be 4c b6 47 be 06 59 42 3e
       0.25931752 -0.2342657 -0.19503134 0.18979272

actor.9.weight f4 [12, 12]
000000 df 52 70 be 91 cd 98 bc 7e 34 2b be 0d 18 1b 3e
       -0.23469113 -0.01865271 -0.16719243 0.15145893
000010 67 28 8c 3e 2b 8e 69 3e fb bc 7d 3e 68 93 21 3e
       0.27374575 0.22808139 0.24779122 0.15778887
000020 b3 2f 7d be 5a 40 a0 3d f1 b9 87 3e 38 23 1d 3e
       -0.24725227 0.07824774 0.2650905 0.15345466
000030 50 5e 39 be 28 c9 fa 3d a8 df 82 3d 5f d5 38 be
       -0.18102384 0.12245399 0.06390315 -0.18050145
000040 7a 95 81 be 2f 5e 26 be 51 f9 65 be 1c fa c4 bd
       -0.25309354 -0.16246866 -0.22458388 -0.09618017
000050 81 5c da 3c ed 6d 15 be c5 10 9e bd 85 c6 c7 bd
       0.026655437 -0.14592715 -0.07718042 -0.097546615
000060 a9 23 0e 3e b0 a0 5b be 8e f3 8f 3e a5 13 91 3e
       0.13880791 -0.21448016 0.28115505 0.283353
000070 95 6a 7c 3e 27 f1 68 3e 0e 4b 04 bd 17 2d 15 be
       0.24650033 0.22748242 -0.03229814 -0.14567982
000080 ed 6a 8b 3e 0a 18 8e be 6f 62 8c be 53 90 83 3e
       0.27230015 -0.27752715 -0.2741885 0.25696048
000090 33 11 e3 bd c8 32 44 3e 85 4a 28 be de 49 47 be
       -0.11087265 0.19159997 -0.16434677 -0.19461772
0000a0 2e ba 52 be c9 bb 0e bc 40 a7 8c bb b1 16 da bd
       -0.20578834 -0.008711764 -0.0042923987 -0.10648859
0000b0 ce 60 7b 3d b5 4b 2e 3e 1a 04 07 be bf 4a 25 3e
       0.061371617 0.17021067 -0.13185158 0.16141795
0000c0 47 67 e1 bd 6d 78 a5 3d fd 8d c5 bd 9d 77 1f be
       -0.11006027 0.0807961 -0.09646223 -0.15572973
0000d0 fe f4 8e 3e b3 c1 41 be 35 f5 8d 3d 83 4b 8c be
       0.2792129 -0.18921547 0.06931535 -0.2740136
0000e0 11 d8 1a 3e 24 ba 43 3e 8f 81 8c be f6 35 43 be
       0.15121485 0.19113976 -0.27442595 -0.19063553
0000f0 ec 43 8c be d6 06 a2 3d 86 cb 7d be 01 18 f8 3d
       -0.2739557 0.0791146 -0.2478467 0.121139534
000100 6b 70 8c 3e ba a5 f5 bc 28 a5 11 3e 28 99 6a be
       0.27429518 -0.029986251 0.14223158 -0.22909987
000110 84 10 ba 3d a7 67 0f bd 01 42 37 3e dc d3 9c 3e
       0.09085181 -0.03501096 0.17896272 0.30630386
000120 cb e4 54 be 8d 59 32 bd 1e 7d 2f be f8 8e f0 3d
       -0.20790403 -0.043542434 -0.17137572 0.11746019
000130 5b a2 84 3e 4e d3 23 bd f2 5f 84 3e 6e ad 4b 3e
       0.25905117 -0.039996438 0.2585445 0.19890377
000140 a3 07 1d bd f8 46 21 3e 68 7c 79 3e ac 6d c8 3c
       -0.03833736 0.15749729 0.24363863 0.024466358
000150 11 47 80 be b0 4c 81 3d 0f 66 86 be b5 25 83 3c
       -0.2505422 0.06313455 -0.2624974 0.016009191
000160 eb 8e 45 be 52 26 85 3e bd 26 2b be d6 69 09 be
       -0.192928 0.260058 -0.16713996 -0.1341928
000170 8e 7e 42 3e bf 3a 3f be d1 ff 8f 3e 9c 5b ab 3c
       0.1899359 -0.18674754 0.2812486 0.020917706
000180 a4 bf 1f 3e 57 a1 26 be b0 e2 7e bb 86 e5 09 3e
       0.15600449 -0.16272484 -0.003889244 0.13466462
000190 02 69 14 3e 7a 0a 97 bc b8 cf 81 3e 82 d1 00 3e
       0.14493182 -0.018437613 0.2535379 0.12579921
0001a0 b0 03 a8 bd e3 9f 8f be 40 7a 71 3e 9a 11 6e 3e
       -0.08203828 -0.2805167 0.23581791 0.23248902
0001b0 5e e4 1c be a4 63 0c 3d 68 36 16 3e 25 ee 62 3e
       -0.1532149 0.034274712 0.14669192 0.22161157
0001c0 50 02 e7 bd 07 a6 04 3e ce c0 27 be 68 d0 c7 3c
       -0.11279738 0.1295396 -0.16382143 0.024391368
0001d0 b7 a6 7b bd 91 54 6f 3d b4 d9 2c 3e 49 67 a3 3c
       -0.06143829 0.05843026 0.16879922 0.019946711
0001e0 9e 1d 62 3e 98 e6 e4 bd 15 36 28 be 41 94 73 3e
       0.2208161 -0.11176795 -0.1642688 0.23787023
0001f0 07 18 ee 3b 1c 8b a4 bd 6d c1 94 3d 4e b1 8d 3d
       0.007266048 -0.080343455 0.072634555 0.06918584
000200 5f 79 39 bd b5 0b 19 be fa 14 16 be 63 a8 5a bd
       -0.045281764 -0.14945872 -0.1465644 -0.053383242
000210 b3 f8 e6 3c a2 81 8a be a3 51 67 3e 76 1a 90 ba
       0.02819476 -0.27052027 0.22589736 -0.0010994214
000220 55 6e 26 b9 45 01 7c 3d 45 9d 34 3d 2e 46 8f 3d
       -0.00015872096 0.06152465 0.044095296 0.069958076
000230 5e d9 3e ba 02 4c 08 bd d4 5f 45 be bb 96 00 3e
       -0.0007280315 -0.03327561 -0.19274837 0.12557499

actor.9.bias f4 [12]
000000 10 14 88 3e 2c 8c 40 3e 17 54 8a be ac 80 47 3e
       0.26577806 0.18803471 -0.2701728 0.19482678
000010 f3 5e c3 3d 36 b7 85 be fa 87 89 3e f7 ea 6f 3e
       0.095395945 -0.2611634 0.26861554 0.23429476
000020 7a 78 83 3e 44 09 82 be a9 40 ae bd 97 f8 b4 3c
       0.25677854 -0.25397694 -0.08508427 0.022091193

actor.12.weight f4 [12, 12]
000000 3a 33 22 be e2 29 2c bc d9 f0 52 bd 22 1a b6 3d
       -0.15839854 -0.0105080325 -0.05149922 0.08891703
000010 fb 09 43 be b6 33 f2 bc 33 47 77 3e a2 cf 41 3e
       -0.19046776 -0.029565673 0.24148254 0.18926862
000020 63 3c 88 3d 16 a5 1c be f2 c4 2d be 11 23 84 3e
       0.06652143 -0.1529735 -0.1696966 0.25808004
000030 e6 ab 05 3d 0b 0e aa bc a5 60 75 be c2 6e c5 bd
       0.03263464 -0.02075865 -0.23962648 -0.09640266
000040 95 d9 8d be 59 6c 07 3e 8a 82 04 3d 63 ec 68 bd
       -0.27705064 0.13224925 0.032351054 -0.05686606
000050 6d f7 b9 3d 1c d6 4f 3d 66 61 81 3d 80 44 5f 3e
       0.09080396 0.0507413 0.063174054 0.21803474
000060 4f 20 1c be e7 17 ce bc 19 aa 88 3e f5 ef d0 ba
       -0.152467 -0.025157882 0.26692274 -0.0015940653
000070 17 1c fe 3b 0f ee 3a 3e 1a fa db 3c 52 11 a1 bc
       0.0077548134 0.18254875 0.026852656 -0.01966158
000080 c1 28 2d 3e 54 b8 dc 3d 9b 7c 8f be 4f b7 f1 3d
       0.16910078 0.10777345 -0.28024754 0.118025415
000090 ba c7 43 bd c4 ad 51 3d f2 6d 36 3d 4c 32 60 3e
       -0.047797896 0.051191106 0.044538446 0.21894187
0000a0 52 18 80 be 6c d8 00 3e f1 65 1b 3e 36 5c 56 be
       -0.25018555 0.12582558 0.15175606 -0.20933613
0000b0 1f a1 49 bc ef 8d 24 3e 9e 88 3a 3d 98 c4 45 3e
       -0.012306481 0.16069768 0.045540445 0.19313276
0000c0 4e 1c 6c 3e c8 83 7e 3e 75 2f 8c 3e 8d a4 84 3e
       0.23057672 0.24854958 0.27379957 0.25906792
0000d0 1f 46 28 bd 9d 27 83 bd 70 41 56 be 62 5f 84 bd
       -0.041082498 -0.0640404 -0.209234 -0.06463505
0000e0 47 f4 98 3d a6 30 17 3e 2b 40 ac 3c 3b a1 34 3e
       0.07468467 0.14764652 0.021026691 0.1763963
0000f0 b4 bb 82 3e e7 ea 41 3e c9 a8 82 3d a8 2f 60 3a
       0.2553383 0.18937264 0.063798495 0.0008552023
000100 23 c1 43 be f0 db 2f 3e 16 ac f9 bd 6a 74 c9 bb
       -0.19116645 0.17173743 -0.12191026 -0.006147911
000110 ba 28 60 3e b6 10 97 3e c4 6a 04 bd f5 73 51 3e
       0.21890536 0.29504937 -0.032328382 0.2045439
000120 4c 94 69 3e be 5c 3a be b5 34 2f bd d4 6f d7 3d
       0.22810477 -0.18199441 -0.042774875 0.105193764
000130 22 a6 3f 3e 72 76 5c be 30 aa da bd b6 1f 57 3e
       0.18715718 -0.21529558 -0.10676992 0.2100819
000140 ff 77 62 3e 92 bb fd bd ad 4f 30 3e 70 70 bb 3c
       0.22116087 -0.12389292 0.17217894 0.022880763
000150 51 ce 00 be 32 c4 06 3e 8f a5 61 3e 80 71 58 be
       -0.12578703 0.1316078 0.22035812 -0.21137047
000160 21 5f 45 be 74 ac 5e 3e 81 d7 66 3c 94 7e 1a 3e
       -0.1927457 0.21745473 0.014089466 0.15087348
000170 9b 65 6d be 7e fc 68 be 13 1c 53 3e aa f3 5b 3b
       -0.2318329 -0.22752568 0.20616178 0.0033561983
000180 76 d0 01 3d be 8d ee bd 68 56 45 3e 83 22 99 3d
       0.031692944 -0.11648129 0.19271243 0.07477286
000190 f0 22 8f be 97 04 18 3e ac c2 0f 3d 36 00 df bd
       -0.27956343 0.14845501 0.035097763 -0.10888712
0001a0 0c eb 67 3e 8b 50 e7 3d 92 e5 f5 3d e8 35 5b be
       0.22648257 0.11294659 0.12006678 -0.21407282
0001b0 b9 04 29 3e ca 4b 7b be 0d 24 f7 bd e3 91 90 3d
       0.16505708 -0.2454063 -0.12067423 0.07059076
0001c0 73 0b 1b be 0c e7 2d 3e 2d 5d 25 3e 8a a7 56 3d
       -0.15141086 0.16982669 0.16148825 0.05240587
0001d0 e2 c6 58 3e fd 5e 2c bc b4 bb bb bd 88 22 44 3e
       0.21169618 -0.010520694 -0.09166661 0.19153798
0001e0 8a 9c 1c ba 6e 8e 2e be 7b e6 f3 bd c7 18 b7 3d
       -0.0005974254 -0.1704652 -0.11909195 0.08940273
0001f0 3d f5 d8 bc e6 55 5c bd c8 f9 d5 3d e7 44 8b be
       -0.026484126 -0.053792857 0.104480326 -0.27201006
000200 5e 74 d7 bd a9 5c 8d be 2b 89 5d 3c 2f 59 ab 3d
       -0.10520242 -0.27609757 0.013521473 0.0836662
000210 9a 67 3e 3d c6 a3 ee 3c bf e9 95 3d 53 b3 49 3d
       0.04648552 0.029130828 0.07319974 0.049243283
000220 a6 24 89 3d c6 49 df bd 05 0c 80 3e 4e 24 c2 bd
       0.06696443 -0.10902743 0.2500917 -0.09479581
000230 fe 0d 0f 3e 0c 64 8a 3e 87 44 23 3d 8c c0 22 be
       0.13970181 0.27029455 0.039860275 -0.15893763

actor.12.bias f4 [12]
000000 ba ee 8f bd 49 94 85 be a5 13 4c be f0 66 f3 3c
       -0.07027955 -0.26089695 -0.19929369 0.02971217
000010 f6 f5 78 3e fc 03 49 bd 42 aa 81 bc c6 bf ad 3c
       0.24312577 -0.049076065 -0.015828256 0.021209609
000020 95 41 1b be ea f1 0e be 6a df 5e be 70 14 8d bc
       -0.15161736 -0.1395947 -0.21764913 -0.01722166

actor.15.weight f4 [12, 12]
000000 a3 68 a9 3d a4 c3 52 3e ee a5 91 be f5 5d 16 3e
       0.08271911 0.20582443 -0.28446907 0.1468428
000010 70 5d 75 be bc 6b 0e 3e b8 5f 4d be 3c b6 3d be
       -0.23961425 0.13908285 -0.20056045 -0.18526548
000020 0c 3d 74 be 52 b3 79 3e 27 74 75 be 40 34 49 3e
       -0.23851413 0.24384812 -0.2397009 0.19648838
000030 13 71 80 3e ec ff 3f be 2d 46 5c 3e a2 a3 89 3e
       0.2508627 -0.1874997 0.21511145 0.26882654
000040 98 d6 8a be 3f 86 3c be c9 2b 63 3e e8 c7 33 be
       -0.27116847 -0.18410586 0.22184671 -0.17556727
000050 d4 44 47 3e 8d 01 28 be 43 cf 36 bd 5f 1b 3d be
       0.1945985 -0.16406842 -0.044631254 -0.18467472
000060 29 ee 2b 3d e6 6a 34 be ac d8 28 be 5b d4 50 3d
       0.041975174 -0.17618904 -0.16488904 0.050983768
000070 81 32 5b bc 29 93 9a bc 67 d6 0f be 0c 6a 27 3e
       -0.01337874 -0.018869 -0.14046632 0.16349047
000080 25 b1 88 3e 66 1a 31 3e e7 60 66 be dc c1 71 be
       0.2669765 0.17295226 -0.22497903 -0.23609108
000090 d4 7a 3d be 2d da 5a 3c f1 d0 fb bc d2 5b 12 3d
       -0.18503886 0.013357681 -0.03073928 0.035732098
0000a0 e1 c8 a0 3d 74 7f 25 3e ee 25 0f 3e 46 2d 8f 3d
       0.078508146 0.16161901 0.13979313 0.06991057
0000b0 52 a1 c5 bd ef 63 04 bd 73 1b bf bd 9a de 59 be
       -0.0964991 -0.032321867 -0.093314074 -0.21276322
0000c0 f7 1c f7 bc 02 cc 88 be 60 8e 77 3e 6b 4e 58 3e
       -0.030165179 -0.26718146 0.24175406 0.21123664
0000d0 83 b0 81 3d 3f 6b 3d be 87 63 76 bd 6c 09 8d 3d
       0.06332495 -0.18497942 -0.06015351 0.06886563
0000e0 ae 91 83 3e be b7 79 3e b0 42 b8 3d e6 89 09 3e
       0.25697082 0.24386498 0.08997095 0.1343151
0000f0 18 ea 95 bd f3 43 47 be 6a 29 17 be fd 58 d2 bd
       -0.073200405 -0.19459514 -0.14761892 -0.102708794
000100 84 08 1a 3d 37 38 32 3b e4 59 43 3e 7e a4 81 3e
       0.037605777 0.0027194151 0.1907726 0.2532081
000110 cf 85 50 be 57 11 f7 3d 79 dd d2 bd 5f df 0f 3e
       -0.20363544 0.12063854 -0.10296149 0.14050053
000120 48 96 8b be 0f cd b5 bd 48 21 21 3e 89 e5 84 bd
       -0.27263093 -0.088770024 0.15735352 -0.06489093
000130 41 ba 1f be 35 d7 57 3e 6d 29 3b be 87 ea 46 be
       -0.15598394 0.21078189 -0.18277521 -0.19425403
000140 50 39 a7 bc f1 ef 15 3e df 51 41 be 9b e8 47 3e
       -0.02041307 0.14642312 -0.18878888 0.19522326
000150 94 14 8f be c1 17 64 3e 54 a3 5b be 52 66 80 3c
       -0.27945387 0.22274686 -0.21449023 0.01567379
000160 29 95 46 be c8 9b 78 be c2 5f 91 3e ee 1b f6 3d
       -0.19392838 -0.24278176 0.2839337 0.12017046
000170 72 46 78 be 88 d1 81 be b1 7a 7c bc 52 10 3e 3e
       -0.24245623 -0.25355172 -0.015410111 0.18560913
000180 84 19 24 3e 55 d8 4a 3c e3 78 f1 3c e8 b0 5c be
       0.16025358 0.012380679 0.029476589 -0.2155186
000190 44 8f 26 3e 78 74 30 bd a4 5a 6e be 68 e3 59 be
       0.16265589 -0.043079823 -0.23276764 -0.21278155
0001a0 65 b6 8d bd 80 98 3f be db bf be bd 97 2a 8d 3e
       -0.069195546 -0.18710518 -0.09313937 0.27571556
0001b0 5d bb 3c 3c 3c 20 20 be 65 eb 5d 3e 5e 9a 8a 3e
       0.01151928 -0.15637296 0.21671827 0.27070898
0001c0 b9 66 c7 3c 87 ab bb bb 0c 9c b9 3c c1 02 6a bd
       0.024340974 -0.0057272348 0.022657417 -0.057131533
0001d0 83 75 40 3d 3a d6 cd 3d 6e 27 5f 3e 00 f1 07 3e
       0.046987068 0.10050626 0.21792385 0.13275528
0001e0 38 9f 68 3d 38 af a4 bc 60 0c 6c 3e 5a fc f1 3d
       0.056792468 -0.020103082 0.23051596 0.1181571
0001f0 38 f5 c0 3d 29 e5 5d 3e 17 0d 6e 3d dd 6f 9d bd
       0.09421772 0.21669449 0.058117952 -0.07687352
000200 22 2b a6 3d 86 18 14 be 9b 35 35 3e 4f fc a4 bd
       0.08113696 -0.1446248 0.1769623 -0.080559365
000210 27 de 78 3d c1 bd a6 3d 20 66 65 be ef e0 82 be
       0.060758736 0.081416614 -0.22402239 -0.25562236
000220 f3 75 2c 3e 4e 08 95 be 31 1a e3 bd 87 cc 28 3e
       0.16841869 -0.29107898 -0.1108898 0.16484271
000230 d7 ae 66 3d f4 2b 8a 3e 78 ff 90 be 8d 30 cd 3d
       0.056319084 0.2698666 -0.28319907 0.10019026

actor.15.bias f4 [12]
000000 78 69 e0 bd d7 bf f6 3d ea 71 58 3e a6 34 48 3e
       -0.109576166 0.12048309 0.21137205 0.19551334
000010 c3 85 92 be 00 3e d1 bd 6f f1 4e 3e a8 44 dd 3d
       -0.28617677 -0.10216904 0.20209287 0.10804111
000020 b6 4b 70 be 84 c5 35 3e 44 81 4d 3e fd 7b 0f be
       -0.23466381 0.17751127 0.20068842 -0.14012142

actor.18.weight f4 [12, 12]
000000 e8 77 ae bd 74 6e 55 be 7e 2c 5f be 04 f9 02 be
       -0.08518964 -0.20842916 -0.21794316 -0.12790304
000010 6b 18 dc bd ba 95 f7 3b 84 cc 3a 3e 4c 8d 84 3e
       -0.10746845 0.0075556906 0.18242079 0.2588905
000020 05 2f 11 3d 57 44 f5 3d 99 f6 39 3e 75 06 6a 3d
       0.035445232 0.119759254 0.18160476 0.057135064
000030 a9 fc 0b be c2 84 ed 3d 88 eb 37 3d cc 87 6a be
       -0.13670601 0.11597587 0.044902354 -0.22903365
000040 a1 be bd bd a8 cf e7 bd 35 e1 63 3d 9f cb 08 be
       -0.09264875 -0.11318904 0.055634696 -0.13358925
000050 f1 13 d7 3d 7c 6b 34 bd 0f b0 a7 bd 9e 6b e2 3d
       0.105018504 -0.044047818 -0.081878774 0.110556826
000060 b8 1e 34 3e 9b 6f b8 3d 32 69 4b 3d 9f cb 48 bc
       0.17589843 0.09005662 0.04966087 -0.012255578
000070 e0 3d 3a bd c2 ae 10 3e 47 af 6d bd e2 f1 5f 3e
       -0.045469165 0.14129165 -0.058028486 0.21869615
000080 e1 e8 3a 3e 7e e2 8e be 39 e8 88 3d 38 d4 45 bd
       0.18252899 -0.27907175 0.06684918 -0.04829809
000090 b8 d0 bd 3d e3 0b 67 3e 64 85 58 3c a6 81 11 be
       0.092683256 0.22563128 0.013215397 -0.14209613
0000a0 1b c5 27 bd 00 53 fe bd 55 78 3a 3e 7d 91 1f 3e
       -0.04095946 -0.12418175 0.18209966 0.15582843
0000b0 35 74 7b 3c 49 d1 6b be d2 c6 a8 3c 10 27 90 3e
       0.01534753 -0.23029055 0.020602617 0.28154802
0000c0 bc 0f 62 bc b8 68 b3 3d ea d6 5e be 85 a0 92 3d
       -0.013797697 0.08760208 -0.2176167 0.07159523
0000d0 5b c2 41 3e a5 c5 8f 3c de ba 25 bd 9b a3 aa 3d
       0.18921797 0.017550299 -0.040461414 0.083319865
0000e0 66 f7 83 be 10 f9 3b bc 91 ce c8 bd 81 f7 8b 3e
       -0.25774688 -0.011472955 -0.098050244 0.27337268
0000f0 6b cc 3e bd 93 c1 69 3e 6f 94 bb bd 25 08 0a be
       -0.046581667 0.22827749 -0.09159171 -0.1347967
000100 26 15 d4 3d 7c 8f b7 3d 82 58 86 be 93 b1 12 be
       0.10355596 0.08962914 -0.262394 -0.14325552
000110 ad b2 53 bd cf 0c 14 3e f0 0d 2f 3e a9 03 1d be
       -0.05168407 0.14458011 0.1709516 -0.15333427
000120 16 3f 85 be 46 d5 81 3e ac 27 db bd b9 de 07 3e
       -0.26024693 0.25358027 -0.10700926 0.13268556
000130 42 8b 80 be 05 a6 fe bc f6 26 94 3d cc bc 66 3e
       -0.25106245 -0.031085024 0.07233994 0.22532958
000140 5d a6 37 be 77 77 56 be 08 65 fb bd 4f 12 4d 3e
       -0.17934556 -0.2094401 -0.122751296 0.20026515
000150 68 fa 12 be 62 3c 90 be 76 37 e3 bd 2b 1f 7f 3e
       -0.14353335 -0.28171068 -0.11094563 0.24914233
000160 7c a8 8f be f0 f8 9d 3d 7a 27 81 3e 2c dd 33 3e
       -0.2805823 0.07713497 0.2522543 0.17564839
000170 45 03 87 3e 80 41 b3 bd 0b 5b 4c 3e 9b 65 7b be
       0.26369682 -0.087527275 0.19956605 -0.24550478
000180 93 23 17 3e 41 1c 0a 3e 9c 84 30 3e 9e 2d 3d 3e
       0.14759664 0.1348734 0.17238086 0.18474433
000190 f9 e9 8b 3e ce 45 52 3e e6 a5 72 be 02 a8 77 3d
       0.27326944 0.20534441 -0.23696098 0.06046296
0001a0 85 e3 80 be 28 f8 2d 3e 9a bc d0 bd e6 0d 09 be
       -0.25173584 0.16989195 -0.10192223 -0.13384208
0001b0 f1 0f 47 bb fa e9 18 3d 3b 4a 39 be fe bf 87 be
       -0.0030374492 0.037332512 -0.18094723 -0.26513666
0001c0 f1 d5 70 3e d8 bd 94 3d e5 e1 8d 3e 19 b7 a3 3d
       0.23519112 0.07262772 0.27711406 0.079939075
0001d0 80 34 39 3e 8f e9 89 be 84 45 03 bc 40 ad 8a 3e
       0.18086433 -0.26936004 -0.008012179 0.27085304
0001e0 c6 16 a1 bb b7 93 ee bd 56 1c 54 3d 6e 53 53 be
       -0.004916045 -0.11649268 0.051784836 -0.20637295
0001f0 3f 30 3e be b5 7a 24 be 8b 3d 7e 3d 39 43 78 be
       -0.18573092 -0.16062434 0.06207041 -0.24244393
000200 f1 3d 1b 3e 7c 64 10 be 4f cb 7c be bb 4a 45 be
       0.15160348 -0.14100832 -0.24686931 -0.19266789
000210 7f 23 a2 3c de 05 16 3e d2 7b 3c bd 03 1e 8e be
       0.019792316 0.14650676 -0.04601652 -0.27757272
000220 02 7f a0 ba 18 e4 88 3e 56 4c 21 be 9e 50 2e 3d
       -0.0012244883 0.26736522 -0.15751776 0.04255735
000230 b8 7d a2 3d 07 33 2f be 19 86 5e be e3 75 0e 3e
       0.07934135 -0.17109309 -0.21730842 0.13912158

actor.18.bias f4 [12]
000000 03 d5 17 be 24 10 be 3c f2 1a 7f 3e 80 b5 f4 3d
       -0.14827351 0.023201056 0.24912623 0.11948681
000010 60 f2 25 3e a0 36 59 3e 44 7b 0d be 0e 33 b9 3d
       0.1620574 0.21212244 -0.13816553 0.09042941
000020 50 d1 65 3e d0 f3 56 be 5c 1b ab 3d ec 3e d6 bd
       0.22443128 -0.20991445 0.08354828 -0.1046122

actor.21.weight f4 [12, 12]
000000 9a cf 7a be b5 e0 6f be a8 91 29 3d 95 ff 4d be
       -0.24493256 -0.23425563 0.041398674 -0.20117028
000010 e5 61 1d 3e 2b 35 1c bd f2 09 84 bd 55 b9 64 be
       0.15369375 -0.038136642 -0.064472094 -0.22336324
000020 63 e1 ff 3d a7 1b 29 be b4 93 54 3e de ba 1e bc
       0.12494161 -0.16514455 0.2075947 -0.009688107
000030 de f7 54 be 1d af 55 3e 90 f2 61 3e f9 60 82 be
       -0.20797679 0.20867582 0.22065187 -0.2546461
000040 9d a8 2a be f5 76 01 be 3a 2c 4d be 42 8f 89 bc
       -0.16665883 -0.12643035 -0.20036402 -0.016791943
000050 2e ff 57 be 62 7d 06 3e 67 50 73 be 43 4d 84 be
       -0.21093437 0.13133767 -0.2376114 -0.25840196
000060 cf 28 87 bb 01 23 c3 3b a4 06 7e 3d c3 e4 6f be
       -0.004124738 0.0059551005 0.06201805 -0.2342711
000070 7a 62 80 3e 4b ab 6f be 10 78 60 3e f5 08 9e 3e
       0.25075132 -0.23405187 0.219208 0.3086621
000080 a3 22 8c 3d 37 b8 ab 3d dd 7a 21 be a4 ba b6 3d
       0.06842544 0.083847456 -0.15769525 0.089223176
000090 28 19 63 3e 20 1a 7d be 47 4b 7d 3e ee db 08 be
       0.22177565 -0.24716997 0.24735747 -0.13365147
0000a0 32 c2 75 3d 7f 75 c8 3d 18 a7 67 3c 77 3e 28 be
       0.059999652 0.097880356 0.014138959 -0.16430078
0000b0 b1 a4 70 be d2 27 cc 3c b6 99 22 be b4 09 61 be
       -0.23500325 0.024921332 -0.15878949 -0.21976358
0000c0 1b c3 83 be 43 c6 92 3e c9 07 87 be 18 90 4c be
       -0.2573479 0.28666887 -0.26373127 -0.19976842
0000d0 80 f9 f3 3d 69 36 61 3e 0d ed 8d 3e 08 70 ff 3d
       0.11912823 0.21993412 0.27719918 0.1247254
0000e0 76 41 96 3e c4 08 21 be 7b 63 ce 3d 14 9a 2c 3d
       0.29346818 -0.15726 0.10077568 0.042139128
0000f0 38 3c 8f be 88 ff 82 3e 09 62 c8 3d 32 46 14 3e
       -0.2797563 0.2558558 0.09784324 0.14479902
000100 8d ed 22 3e c4 b7 66 3d 5b a7 19 be 14 2b 36 3e
       0.15910931 0.056327596 -0.15005247 0.1778987
000110 93 f6 a3 bc 2c 65 10 be 07 40 28 3e f7 0f 27 bc
       -0.020015037 -0.14101094 0.16430674 -0.010196677
000120 f2 76 82 3d 3a 56 37 3e 34 18 62 3e fe 7b c6 bc
       0.06370343 0.17903987 0.22079545 -0.024229046
000130 17 2b b7 3c cc 99 0a 3c 65 70 0e 3e ba c5 5c 3d
       0.022359414 0.00845952 0.13910063 0.053899504
000140 13 07 41 3e 4f 05 d5 bd d5 1d 0a be ad 69 89 bd
       0.18850355 -0.10401403 -0.13487943 -0.06709609
000150 9c f5 25 3e 13 b7 6f 3e b7 2c fb bd a8 50 19 3e
       0.16206974 0.23409681 -0.12264388 0.14972174
000160 c7 a6 8e 3e 74 25 4a 3e d7 5d cb 3c b7 53 54 bd
       0.27861616 0.1974085 0.02482502 -0.05183765
000170 bf f6 8d 3e aa 1c c5 3d 5a 40 dd bd 01 d6 82 3d
       0.27727315 0.09624608 -0.1080329 0.06388474
000180 28 50 25 be d8 19 1f be e1 9c 7a 3e ab 63 1d 3e
       -0.16143858 -0.15537202 0.24473907 0.15370052
000190 8c 56 4e be 34 c1 4c bd 32 8f f1 bc 5b f2 12 be
       -0.20150203 -0.04998894 -0.029487226 -0.14350264
0001a0 7b 53 23 be 64 64 2f 3e 14 61 40 3e 6a c5 d0 bd
       -0.15949814 0.1712814 0.18787032 -0.10193904
0001b0 e1 5e 8f be 0f c1 5a 3e 59 e3 36 be ac d3 b3 bc
       -0.28002074 0.21362709 -0.17860164 -0.021951519
0001c0 c2 c7 16 be ef bc ea bd 30 a0 41 3e 57 f7 6e 3e
       -0.14724639 -0.114618175 0.18908763 0.2333654
0001d0 e1 cf 0e be f2 63 5b 3e f1 2f 31 be 1a 6c 73 be
       -0.13946487 0.21424845 -0.17303444 -0.23771706
0001e0 01 96 83 3d 0b 9c 2d bc 2b 9e 18 3e 34 ee 56 3e
       0.06425095 -0.010596286 0.14904086 0.20989305
0001f0 47 96 df bd 82 a6 0a 3d 5d 31 d2 3d 7e 5e 3f 3d
       -0.10917335 0.0338502 0.102633215 0.046720974
000200 35 88 8d bd 85 ba c3 3d 0a 78 78 be 8c c0 b0 bc
       -0.06910745 0.0955706 -0.24264541 -0.021576189
000210 b3 be 36 be ac 79 8b be bb 5b 76 3e 70 41 41 be
       -0.17846183 -0.27241266 0.2405843 -0.18872619
000220 ee b0 f0 bd 09 b2 7e 3e 1c c1 33 be 2d db 2d bd
       -0.11752497 0.24872603 -0.17554134 -0.04244535
000230 7d 80 7c 3e 8f c7 00 3e ed 2d 1c 3e 11 fc bd 3d
       0.2465839 0.12576126 0.15251894 0.092765935

actor.21.bias f4 [12]
000000 76 e1 ec bc 9b 1f 64 3e 21 65 7a 3e 51 ce ea bc
       -0.028916102 0.22277682 0.2445264 -0.028662832
000010 ea c3 c5 bd 2a 9a fc bd 6a 7c fe 3c ef 0b 64 be
       -0.09656508 -0.12334092 0.031065185 -0.22270177
000020 84 67 81 be dd 1f 91 be 77 5f 06 3e f6 57 60 3d
       -0.2527429 -0.28344622 0.13122354 0.054771386

actor.24.weight f4 [12, 12]
000000 f4 2b 00 3e 69 20 75 bc f6 89 29 be 1f ef 2d 3d
       0.12516767 -0.01496134 -0.16556534 0.04246437
000010 2a 4d 0d bd e8 c3 b0 bd ee f3 3e 3e 96 43 e7 bd
       -0.034497418 -0.08631116 0.1864774 -0.11292188
000020 4b ba 07 3d c4 19 11 be 70 9c cf bb dd bc 5c 3c
       0.033136647 -0.14169985 -0.0063357875 0.013472763
000030 92 d0 2e be d7 99 11 3e d5 fc 8f bc 6b e4 46 be
       -0.17071751 0.14218841 -0.017576614 -0.19423072
000040 4e f6 4f 3e b4 56 0a be 70 9d 93 3e c3 7f 58 bd
       0.20308802 -0.13509637 0.28831053 -0.052856218
000050 b3 77 84 3e 3c 0d 4c be f1 db ad bd 79 c4 8e 3e
       0.25872573 -0.19926924 -0.08489216 0.27884272
000060 89 7e 2d bd 47 7f ee bd 64 fa 00 3e 3e e8 49 be
       -0.042357 -0.1164537 0.12595516 -0.197175
000070 61 3b 56 3e 51 90 cb bd d9 80 8b 3e e3 c6 81 3e
       0.20921089 -0.099396355 0.2724674 0.2534705
000080 22 d6 7b 3e 31 03 41 bd 50 01 2b bd 22 78 1d 3c
       0.24593404 -0.047122184 -0.0417493 0.009611161
000090 98 61 0f 3e 9a e8 94 be 1d ae 17 3e 01 b8 67 3e
       0.14002073 -0.2908371 0.14812513 0.22628786
0000a0 38 5e 39 be 1d 7c 5b 3e b2 4a 2d 3e 8e 26 42 3d
       -0.18102348 0.21434064 0.16923025 0.04740005
0000b0 fc 4c 9e 3c fa 4b 63 3e 88 4a e6 3d c8 49 d0 bd
       0.019323818 0.22196952 0.112446845 -0.10170323
0000c0 ae 8f 69 3e 8b 63 76 be 0d 5a e7 bd 91 42 89 be
       0.22808716 -0.2406141 -0.11296473 -0.268086
0000d0 50 c4 31 3e 0f 10 45 3e 85 97 8d 3e e1 dd 90 be
       0.17360044 0.19244407 0.27654663 -0.2829428
0000e0 0d 35 a7 3d da d1 16 be 07 48 12 be 82 f6 3a be
       0.081644155 -0.1472849 -0.14285289 -0.18258098
0000f0 3e e4 90 be e6 67 a5 bd 56 18 2d 3e 9f 33 ca 3a
       -0.28299135 -0.08076458 0.16903815 0.0015426761
000100 5e bc 04 be 31 a2 39 bd c7 6b 1c be b7 1c f1 bd
       -0.12962481 -0.045320693 -0.15275489 -0.11773055
000110 bc 48 79 3e 91 78 61 be 61 c6 ed 3d 86 2d 82 be
       0.24344152 -0.22018649 0.116101034 -0.25425357
000120 28 d9 d4 3a aa 6a e1 3d 35 cd 8c 3c 2c ac 74 3e
       0.0016239034 0.11006673 0.017187694 0.23893803
000130 5c d2 a6 3d 8b 87 5a bd 58 81 70 be 08 ae 34 be
       0.081455916 -0.05335192 -0.2348684 -0.17644513
000140 7c 90 13 3e b8 93 43 3e 0d 2f 5b 3e 7a df 90 bd
       0.14410585 0.19099319 0.21404667 -0.07073875
000150 9d f3 4e be 52 b7 74 3e ca 05 91 be af 29 e9 3d
       -0.20210119 0.23898056 -0.2832473 0.11384904
000160 7e f6 0b 3e dc 67 ec 3d a5 76 68 3e e0 d7 97 3c
       0.13668248 0.11543247 0.2270151 0.018535554
000170 6f 6c 6e be 0b 7b 13 bd e4 47 91 3c 7a 60 52 bd
       -0.23283552 -0.036006015 0.017734475 -0.05136154
000180 4e 9a e5 3d e3 eb 10 3e 3d 2c 00 be 8f 8f 8f bd
       0.11211072 0.14152484 -0.12516876 -0.070098035
000190 74 b5 b7 bd 8a 07 f0 bd da 3a 7e be ec 2f d7 bd
       -0.08970156 -0.11720188 -0.24827138 -0.10507187
0001a0 f7 12 18 bd 85 86 6f be 74 2b 68 be 94 32 78 3e
       -0.03712746 -0.23391159 -0.22672826 0.24238044
0001b0 68 84 41 3e 1d bf 6c be 59 1b 3d be a7 a1 da 3d
       0.18898165 -0.23119779 -0.18467464 0.10675364
0001c0 10 87 97 3d 09 5a 44 be 83 83 0e bd 4d af 5b be
       0.07398808 -0.1917497 -0.034793388 -0.2145359
0001d0 ee d0 36 bc c5 2a 4b be 3f 98 34 bd cc 33 68 bc
       -0.011158211 -0.19840534 -0.044090506 -0.014172506
0001e0 b3 46 30 be db 37 65 3e 9b 1b ac bd c5 1b 24 3e
       -0.1721447 0.22384588 -0.08403703 0.16026218
0001f0 45 13 ea 3c 7a 16 02 be 60 cf 15 3e 78 7a 6c bc
       0.028573642 -0.12703887 0.14629889 -0.014433496
000200 7d bb 08 be 78 49 17 bd b4 a8 68 be f9 ae 52 bd
       -0.13352771 -0.0369353 -0.22720605 -0.0514364
000210 89 7b 92 3d 95 06 4a 3e a1 f0 06 be ad c8 8a be
       0.07152469 0.19729073 -0.1317773 -0.27106228
000220 e8 27 1b be 8b 6f 0e be 09 57 ed 3b a3 e6 dc bd
       -0.15151942 -0.13909738 0.0072430414 -0.10786178
000230 25 dc 81 3e a1 51 bc bd c0 79 86 bd 2b 92 7b be
       0.2536327 -0.09195257 -0.06566191 -0.24567477

actor.24.bias f4 [12]
000000 b8 d7 65 3e 2e 44 4d 3e 59 b2 85 be 2d 57 9f bc
       0.22445571 0.2004554 -0.2611263 -0.019450748
000010 cb 86 07 3e 2c 86 13 3e f4 f5 22 be 3c d3 e3 3b
       0.13235013 0.14406651 -0.15914136 0.0069526713
000020 1f 6e 32 3d a1 e0 63 be f3 de 8a be 19 0f c0 3d
       0.04356205 -0.22253658 -0.27123222 0.0937788

actor.27.weight f4 [12, 12]
000000 e1 28 6d be 62 3b b5 3d ab 62 6c bd e7 eb 78 3c
       -0.23160125 0.08849217 -0.057711285 0.015192962
000010 f3 84 0f 3d 68 2d d2 bc 01 62 9c bd c7 4e 1e bd
       0.0350389 -0.025656417 -0.0763588 -0.038649347
000020 59 28 8c bd 01 1f fb 3c 5b c2 8c 3e 30 fa 5b 3e
       -0.06843633 0.030654432 0.2749203 0.21482158
000030 18 88 4b bd 7b 84 7e 3e b1 cd 45 3e 76 18 3f 3e
       -0.049690336 0.24855225 0.19316746 0.18661675
000040 6a 33 81 bd 84 c8 22 be 94 03 2c 3e c3 cd cd 3d
       -0.063086346 -0.15896803 0.1679824 0.100490116
000050 c9 59 85 be 4c ba 04 3e c5 d7 d5 bd c3 ca 21 bd
       -0.26045063 0.12961692 -0.104415454 -0.03950001
000060 49 b0 68 3d 38 52 48 3e 3b b8 13 3e 0f 08 07 be
       0.056808744 0.19562614 0.14425747 -0.13186668
000070 49 69 a7 bd ff cb ce bc 2d 01 68 3e 20 10 be 3d
       -0.081743784 -0.025243757 0.22656699 0.09280419
000080 ee 19 8e 3e 1e e0 4b 3e c9 18 a8 bd 97 16 a8 bd
       0.27754158 0.19909713 -0.082078524 -0.08207434
000090 89 e3 b6 bd 3a 09 44 3e f8 be 34 bd ee 2f 6d 3e
       -0.08930118 0.19144145 -0.044127434 0.23162815
0000a0 68 a4 0d 3e 5d 28 30 3e 83 c6 04 3e b6 f4 09 be
       0.13832247 0.17202897 0.12966351 -0.13472256
0000b0 6d 90 d5 3d 04 d5 07 be b5 ed 28 be d9 a9 73 3e
       0.10427938 -0.13264853 -0.16496928 0.2379526
0000c0 be 7f 6b be e9 d2 27 3e 1a 10 31 3e 1c 60 bc bc
       -0.22997949 0.1638905 0.17291299 -0.022995047
0000d0 9e 5c e0 bb ab 72 cf 3d 8d 1e 2a bd 84 81 85 be
       -0.0068469783 0.10129293 -0.04153304 -0.26075375
0000e0 49 94 3d 3e 92 c0 89 3d 4c 98 00 3e e2 d8 24 3e
       0.18513598 0.06726183 0.12558097 0.16098359
0000f0 19 11 4f 3e bf c6 f3 3c fb 7b 7c be 90 3f 8b 3e
       0.20221366 0.029757855 -0.2465667 0.27196932
000100 02 5d 60 be e0 29 20 3d 17 8c b2 bd 2f 67 68 3e
       -0.2191048 0.039102435 -0.08718126 0.22695611
000110 10 db 36 3e 97 c9 01 be 8a c5 71 3e 8e ee 3d 3e
       0.17857003 -0.12674557 0.23610511 0.18548033
000120 86 20 8d be c1 99 3b 3e 77 e8 fc bc 37 24 31 be
       -0.27563876 0.18320371 -0.030872567 -0.17298971
000130 d4 7d 91 3e 5c f7 90 3e b7 74 0c 3c ad fb 83 be
       0.28416312 0.2831372 0.008572749 -0.2577795
000140 9a 9d 75 3b 99 bb 1c 3e 7c 11 53 3d 64 2f 8f be
       0.003747797 0.15305938 0.051530346 -0.27965844
000150 c7 8e 8b 3e e8 28 d5 3c 15 43 a3 bd 8c c6 7c be
       0.27257368 0.026020482 -0.07971779 -0.24685115
000160 62 cd 1c 3e 2f e5 00 3e f1 ff 32 3e 62 09 45 3e
       0.15312722 0.12587427 0.17480446 0.1924186
000170 2a 69 a7 3d 93 c4 68 be 5d d0 4e be 89 33 8b 3e
       0.08174355 -0.22731237 -0.20196672 0.27187756
000180 9a 16 ea 3d 28 3e 84 be d7 da 46 be 57 f3 70 3e
       0.11430092 -0.2582867 -0.19419418 0.23530327
000190 5c ea 0d be 05 34 ce 3d 7d 6a 89 bd 7c 3e ee 3d
       -0.13858932 0.10068516 -0.06709764 0.11633012
0001a0 92 68 84 bd 5c 3a a6 3d 0a 01 2e be d5 2f 4f 3e
       -0.06465258 0.081166 -0.16992584 0.2023309
0001b0 18 2c 07 be 5d 7e 92 be 9e 7f 8f 3d d6 d4 d5 3d
       -0.13200414 -0.28612033 0.07006763 0.10440986
0001c0 3d 9a 27 be 87 b3 b4 bd ea 4b 72 3e 44 90 55 bd
       -0.16367431 -0.088233046 0.23661771 -0.052139536
0001d0 42 a1 29 3e 41 e5 87 3e 12 8b 08 3e 2e 83 34 3e
       0.16565421 0.26542094 0.13334301 0.17628166
0001e0 ef ae 58 be 28 2a 36 be a4 01 7e bd 35 e4 96 bd
       -0.21160482 -0.17789519 -0.062013283 -0.07367746
0001f0 27 1c 82 bc 30 7c 37 3e 80 12 8f be 9d 15 3a 3e
       -0.015882565 0.17918468 -0.27943802 0.18172307
000200 89 97 85 3e 1c 37 3a 3e 9d f5 4c 3e 35 a0 72 3e
       0.26092175 0.18185085 0.20015569 0.23693927
000210 40 3b 48 bd d7 45 bc bd f4 96 72 be 44 e5 52 3e
       -0.04888463 -0.091930084 -0.23690397 0.2059527
000220 ec 06 82 3d ad 82 25 3a 7d 51 1e be 88 4b 25 3d
       0.063489765 0.00063137227 -0.15460773 0.040355235
000230 e5 46 3b be be e9 8f be 62 a9 cf bd 82 2b 96 3d
       -0.18288763 -0.2810802 -0.10139729 0.07332517

actor.27.bias f4 [12]
000000 57 5d 80 be b1 78 84 3e ad 35 a0 3d 6b 3c 0c be
       -0.25071213 0.2587333 0.07822738 -0.13694923
000010 6f c4 2f 3c 31 77 c7 bd fc 9c 4f 3e 3a ad 61 be
       0.010727986 -0.09739531 0.20274729 -0.22038737
000020 7b 8a 77 3e 99 00 1f be 40 e3 80 3e 63 27 3f be
       0.2417392 -0.15527572 0.25173378 -0.18667369

actor.30.weight f4 [12, 12]
000000 e6 cc 67 be 3d b4 f2 bd 94 30 bc bc 06 f7 e1 bd
       -0.22636756 -0.11850784 -0.022972383 -0.11033444
000010 b2 b7 85 be 52 8c 79 be f1 2b 88 3e 01 7b 8b be
       -0.2611671 -0.24369934 0.26596025 -0.27242282
000020 a0 4b 46 3d af b4 82 be 40 99 86 3e 14 d6 3d be
       0.048411965 -0.25528476 0.26288795 -0.18538696
000030 73 13 87 3e 2c c3 65 3e 67 c1 83 be b0 9e 06 be
       0.26382026 0.22437733 -0.25733492 -0.13146472
000040 3e 34 ed bd 42 e9 23 3e 65 31 5a bd 8b ed 18 3d
       -0.1158223 0.1600695 -0.053269763 0.037335914
000050 55 8b 0a be 8a 8c 9a bd f2 c2 53 3e 3f 41 70 be
       -0.13529713 -0.07546337 0.20679834 -0.2346239
000060 eb de 72 3c 07 32 e4 3d 7a a8 20 bd 59 97 b8 3d
       0.014823656 0.111423545 -0.03922317 0.09013242
000070 60 ea 0c be 6e fa 1f be ac f1 52 3e 22 56 1f 3c
       -0.13761282 -0.15622875 0.20600003 0.0097251255
000080 c8 9b 06 3e e7 a6 48 be 28 f8 92 be 58 14 fb bd
       0.13145363 -0.19594918 -0.28704953 -0.1225974
000090 63 33 86 3e e1 eb 98 3e e8 bf 82 3e 78 53 52 be
       0.2621108 0.2986746 0.25537038 -0.20539653
0000a0 c4 56 7d 3e 56 4b 26 be 30 3b 4d 3e 75 60 80 bd
       0.2474013 -0.16239676 0.2004211 -0.06268398
0000b0 f6 f3 87 3e 86 85 2d be 6a dc 40 be e6 7d f8 bd
       0.26553315 -0.16945466 -0.18834081 -0.12133388
0000c0 a4 db 8d 3c c3 94 22 bd 23 8d 69 3e e8 b4 54 3e
       0.017316647 -0.03969265 0.22807746 0.20772135
0000d0 db 3b 99 bd c4 0e c0 3d d9 2b 09 3e ca 45 cf 3d
       -0.0748212 0.09377816 0.13395633 0.10120733
0000e0 8c 83 8a bc 4a 69 2d be 5b b5 45 3e 88 2a 8a 3e
       -0.01690843 -0.16934696 0.19307463 0.26985574
0000f0 93 d7 1a be 6a b6 7a 3e 81 0f ae bc df 3c 75 3d
       -0.15121298 0.24483648 -0.021247627 0.059872504
000100 e3 74 58 bd d4 61 04 3c 2c 53 17 3d 3e 23 22 be
       -0.052845847 0.008079965 0.036944553 -0.15833756
000110 2b 07 b6 3d 4e d2 fe 3d b2 8c 5b 3e ba de 30 3e
       0.08888086 0.12442456 0.2144039 0.17272463
000120 f6 f6 ef bd 83 b8 92 be dc 7b b0 3c 32 5b 4f bd
       -0.11717026 -0.28656396 0.021543436 -0.05062408
000130 64 eb 80 3e 6a ee 84 3e 20 46 60 3e f7 51 87 3e
       0.2517959 0.25963145 0.2190175 0.26429722
000140 c2 0f 75 3d 46 95 18 3d ef 85 5d be 14 c6 1e bd
       0.05982948 0.037251733 -0.21633123 -0.03876312
000150 1e 6b a9 3d de 31 90 be a7 37 2b 3e 41 bb 1f 3e
       0.08272384 -0.28163046 0.16720448 0.15598775
000160 4f 05 70 be e1 91 6f 3d c2 bc 17 3e 92 65 88 3e
       -0.23439525 0.05848873 0.14818099 0.26639992
000170 ef ab b1 3d a6 4c f0 bd 48 d2 43 3e 56 58 59 be
       0.08675372 -0.117333695 0.19123185 -0.21225104
000180 19 a0 0c be 71 e9 5d 3d 3a 37 12 be 71 c1 25 3e
       -0.13732947 0.054177705 -0.1427888 0.16187073
000190 4d bf 00 3e c6 9c fd bd 3f 3d 88 be 09 ed 76 be
       0.12572975 -0.12383418 -0.26609227 -0.24113859
0001a0 3f a1 6e 3c 64 34 9d 3c 25 6d 26 3d 3f 22 7b be
       0.014564811 0.01919002 0.040631432 -0.24524783
0001b0 31 d3 08 3e 0b 61 6b be 55 90 c7 3d 3e 3c 44 bd
       0.13361813 -0.22986238 0.09744326 -0.047909014
0001c0 bc 6e 1d be 67 73 e3 bd ff b6 96 bd dc 31 82 bd
       -0.15374273 -0.111059956 -0.073591225 -0.06357166
0001d0 cb 15 15 be 6d 6a 85 be 63 5a 42 be a2 09 da 3d
       -0.14559095 -0.2605776 -0.18979792 0.106463686
0001e0 55 e6 36 3e 72 95 57 be a8 b9 36 be 40 63 d1 bd
       0.17861302 -0.21053103 -0.1784426 -0.102240086
0001f0 dd 14 c0 bd 30 a8 30 3c c2 0c c6 3d fc 66 47 3e
       -0.09378979 0.0107822865 0.09670402 0.19472879
000200 8d 99 30 bd 43 cf 41 be 6f d2 42 be 9f 68 94 3d
       -0.043115187 -0.1892672 -0.19025587 0.072465174
000210 19 75 40 3d 6f a6 28 be d2 b9 6d bc e0 e1 56 3e
       0.046986673 -0.1646974 -0.014509635 0.20984602
000220 be c1 69 3e 73 90 23 bd 5e 73 4a 3e 37 b8 d9 bb
       0.22827813 -0.03993268 0.19770572 -0.0066442746
000230 01 79 50 be 5e e7 64 3d 35 70 e4 bb af 31 23 3d
       -0.2035866 0.05588471 -0.006971384 0.039842304

actor.30.bias f4 [12]
000000 9e 3e 45 be 46 1e fe 3b 57 4e 44 be 60 69 8d 3e
       -0.19262168 0.0077550737 -0.1917051 0.27619457
000010 c3 b3 51 be d4 f2 81 be 11 5c e6 3d 48 b2 3f 3c
       -0.2047873 -0.25380576 0.11248029 0.01170022
000020 f0 f4 78 bd 99 43 19 3e 78 d0 65 3e fd 95 7f 3e
       -0.060780466 0.14967193 0.22442806 0.2495956

actor.33.weight f4 [12, 12]
000000 55 cc 6a bc 71 39 1d bc 3f 71 3f 3e f5 41 a2 3e
       -0.014330943 -0.009596215 0.18695544 0.31690946
000010 5b a4 25 bd 6c 7e 52 bd 58 d3 8a bc 8e b9 47 3d
       -0.040439945 -0.051390097 -0.01694648 0.048760943
000020 9b 9e 22 be 50 aa 8d 3e 29 5e dd bc fd 9d 16 3e
       -0.15880816 0.27669 -0.027022438 0.14708705
000030 e1 d9 85 3e 8c 81 00 3e ad 38 ca bd ae ce 45 3e
       0.2614279 0.12549418 -0.09874091 0.19317123
000040 58 2a 12 3d 43 5f e7 bd c4 10 7b 3e 61 5c 83 be
       0.035684913 -0.112974666 0.24518114 -0.25656417
000050 42 85 17 3e 7c 2b 5c be c6 8e 6b 3e 1d cf 80 be
       0.14796928 -0.21500963 0.23003682 -0.25158015
000060 23 78 c4 bd a3 ea 5c 3e 43 9a 7f 3d fe a5 9a be
       -0.09593227 0.21573882 0.062402975 -0.30204767
000070 7d 1c 88 be 3e e0 5e be 46 0d 26 3e 85 3a 70 be
       -0.26584235 -0.21765229 0.16216001 -0.23459823
000080 65 38 26 bd 4d 18 2a be 70 48 66 3e bb 52 0b 3e
       -0.040581126 -0.16610833 0.2248857 0.13605778
000090 3e 21 df bd 88 70 e1 bd 57 52 1e be fd 10 0d be
       -0.10895012 -0.11007792 -0.15461098 -0.13776012
0000a0 38 73 01 be d9 a8 25 bd 88 ab 47 3e 90 70 78 be
       -0.12641609 -0.04044423 0.19499028 -0.24261689
0000b0 74 90 ca 3d 29 1a 92 be 00 5f d8 bd 25 c9 0f be
       0.098908335 -0.28535584 -0.10564995 -0.14041574
0000c0 3d 84 1c 3e 85 32 c6 3d e1 6e bb bd 00 a1 7a be
       0.1528482 0.096776046 -0.09152008 -0.24475479
0000d0 2f 4a 35 be 6b a4 92 be 22 02 37 3c 07 62 29 3e
       -0.1770408 -0.28641066 0.011169942 0.165413
0000e0 8a d2 1f bd a2 d2 1f 3e 45 dc c9 bd 13 5b a0 3d
       -0.039019145 0.15607694 -0.09856466 0.07829871
0000f0 77 b0 25 be 46 67 b0 bd 65 8a 4a 3e 40 de 90 3e
       -0.16180597 -0.08613448 0.19779356 0.28294563
000100 cc 5b ed 3d 39 9b 2f bd 86 72 19 bd 80 c6 7a be
       0.115897745 -0.04287264 -0.037462734 -0.24489784
000110 35 f8 1f bd ce 60 c0 bd 51 76 1a 3e 43 80 70 be
       -0.039055068 -0.09393464 0.15084197 -0.23486428
000120 47 c2 e2 3d 75 d0 35 3d b7 da 8e be fd a9 88 bd
       0.11072212 0.044388253 -0.2790124 -0.06673048
000130 7e a7 65 3e 40 25 8d bd d8 5a 29 3e a1 0f 83 3e
       0.22427174 -0.068918705 0.1653856 0.2559786
000140 64 67 47 be ff ef df 3d 61 c2 36 3e 13 a9 0e be
       -0.19473034 0.109344475 0.17847587 -0.13931684
000150 49 ce 37 be c4 bb 07 3e 1b ba 96 bd d8 f8 09 bd
       -0.17949785 0.1325522 -0.073597156 -0.03368458
000160 fc 13 a0 bd d4 5a 88 be 16 0d 76 3d 70 cf 6a 3d
       -0.07816312 -0.26631796 0.060071073 0.057326734
000170 ac b8 39 3e 2c 5e 86 bd be ea 88 3e da 04 66 be
       0.18136853 -0.065609306 0.26741594 -0.22462788
000180 60 73 dd 3d 21 b5 89 3e d8 b3 0a 3e 5f 78 84 3d
       0.10813022 0.26896003 0.13545167 0.064682715
000190 c6 c0 a4 bd 3a 62 2a bc 4d 08 8d 3e d7 1e a0 bd
       -0.08044581 -0.010399396 0.27545395 -0.07818382
0001a0 8d 28 6b 3e 8e 9a 5a be 47 ce c1 3d fa e9 fb bd
       0.22964688 -0.2134802 0.094631724 -0.12300487
0001b0 80 f4 68 be 0e 1c 85 3e 7a 55 a6 bd 0b 7d 76 bd
       -0.2274952 0.25997967 -0.08121772 -0.060177844
0001c0 cb f0 45 bc 9f f2 51 3e 5b 2f 2f be 14 d2 d9 bd
       -0.012081335 0.20502709 -0.17107908 -0.10635772
0001d0 8a 60 bc bb 11 33 d9 3c ad a3 68 be b1 29 da 3d
       -0.005748813 0.026513608 -0.22718687 0.10652483
0001e0 75 c5 84 be de cb 8f 3e c3 38 55 3e bf b9 48 3d
       -0.25931898 0.28085226 0.20822434 0.049005266
0001f0 16 1c 63 3e 87 3c 8d be d1 39 1c 3e 48 6c 82 be
       0.22178683 -0.2758524 0.1525643 -0.25473237
000200 d1 05 7b 3e a8 37 02 be 05 07 33 3e c8 e5 cf 3c
       0.24513938 -0.12716544 0.17483146 0.025378123
000210 a4 3c 22 be d5 f5 d5 bd a9 62 79 3e 64 b1 2b be
       -0.15843445 -0.10447279 0.24354042 -0.16766888
000220 ce f6 d3 3d 19 f7 6d 3e 70 3c 44 bd be bd 84 bc
       0.10349809 0.23238792 -0.0479092 -0.016203757
000230 0b 12 4a 3d ca 80 3f 3e d3 66 a6 3d 47 de aa bc
       0.049333613 0.18701473 0.08125081 -0.020857943

actor.33.bias f4 [12]
000000 74 fa 5d be ac a4 5c be c8 5d ac bd 61 d9 41 be
       -0.21677572 -0.21547192 -0.08416325 -0.1893058
000010 96 35 7f bd 72 45 2e 3e 39 8a 10 be 59 b3 45 3e
       -0.062306963 0.17018679 -0.14115228 0.19306697
000020 04 c3 71 be 63 f3 3b 3e 17 10 0a be d3 b1 8b 3e
       -0.23609549 0.18354563 -0.134827 0.27284107
