gigala/topology/topology_optimiz/HRL/preTrained/T0-h-v1/2level/HAC_T0-h-v1_level_0_crtic.pth (torch, 8531 bytes, 21 tensors)

critic.0.weight f4 [4, 20]
0.09449659 -0.20924094 -0.12312083 -0.11759487 0.06665799 0.023058265 0.117676616 -0.06518908
-0.07858634 0.05165589 0.14885351 -0.20516862 0.14943504 -0.16658834 0.19185296 0.00019857944
0.039764136 0.07383481 0.18000497 -0.09462985 -0.15702532 0.26146793 0.15496685 0.12136638
0.1697272 0.16240846 -0.09455921 -0.18163484 0.074169874 0.009271726 -0.19658324 0.036557026
0.05937511 -0.084467396 -0.10326781 0.16928276 0.20873451 -0.13035867 0.12677906 -0.072751544
0.10426291 -0.0022030927 -0.010190102 0.03957559 0.0062605697 -0.20628604 -0.0645193 -0.06258632
0.00539013 0.18854499 0.02962054 0.03544266 0.11579964 0.20115353 0.052083842 -0.16721533
-0.17761318 -0.02010924 -0.012558573 -0.8501055 -0.13676162 -0.14051716 0.050595343 0.18810344
-0.20819569 -0.18022853 0.060284007 0.098223396 0.02510334 -0.09348344 -0.06903078 -0.0294233
0.06805049 -0.13002466 -0.00064964703 0.19946806 0.091716565 0.11435265 0.12466677 0.97193307
00000000: 6e87 c13d 4243 56be c626 fcbd 94d5 f0bd
00000010: fc83 883d b0e4 bc3c 7000 f13d da81 85bd
00000020: e0f1 a0bd 2095 533d 0e6d 183e b917 52be
00000030: 8005 193e 2296 2abe 1a75 443e c339 5039
00000040: b8df 223d b436 973d 3953 383e 4bcd c1bd
00000050: 3fcb 20be 20df 853e a1af 1e3e f08e f83d
00000060: f8cc 2d3e 674e 263e 42a8 c1bd 7cfe 39be
00000070: 60e6 973d 70e8 173c 1e4d 49be d2bc 153d
00000080: 5133 733d 3efd acbd 137e d3bd 7658 2d3e
00000090: 80be 553e be7c 05be 5fd2 013e c3fe 94bd
000000a0: cb87 d53d c361 10bb 63f4 26bc 041a 223d
000000b0: 7725 cd3b a63c 53be b222 84bd 422d 80bd
000000c0: b09f b03b f011 413e c6a6 f23c 532c 113d
000000d0: 5d28 ed3d 31fb 4d3e de55 553d 7f3a 2bbe
000000e0: 3be0 35be 22bc a4bc 79c2 4dbc 84a0 59bf
000000f0: 3d0b 0cbe bbe3 0fbe 103d 4f3d 309e 403e
00000100: 4031 55be d48d 38be 5dec 763d 5929 c93d
00000110: 85a5 cd3c 3f74 bfbd 0260 8dbd 2209 f1bc
00000120: 0e5e 8b3d 2f25 05be 134d 2aba 5b41 4c3e
00000130: e5d5 bb3d b931 ea3d 4b51 ff3d 9bd0 783f

critic.0.bias f4 [4]
0.14303547 -0.0009879208 0.04085801 -0.008082763
00000000: e477 123e 1f7d 81ba bb5a 273d 916d 04bc

critic.3.weight f4 [4, 4]
-0.44071305 -0.33704937 -0.22577953 -0.46637106 -0.35464218 -0.17796113 -0.017270448 0.29297715
0.026183978 -0.41253662 -0.9139534 -0.91581035 0.29565048 -0.29565948 -0.30141655 -0.15105245
00000000: 24a5 e1be bc91 acbe c032 67be 30c8 eebe
00000010: a993 b5be 713b 36be c17a 8dbc 1a01 963e
00000020: c87f d63c 0038 d3be daf8 69bf 8c72 6abf
00000030: 805f 973e ae60 97be 4553 9abe 7ead 1abe

critic.3.bias f4 [4]
-0.32994092 0.10135417 -0.026709342 0.48456985
00000000: 04ee a8be c692 cf3d 8dcd dabc 8a19 f83e

critic.6.weight f4 [4, 4]
0.42274064 0.42071277 0.17751844 -0.0061376947 -0.40500605 0.4623005 0.30375466 0.026191391
-0.25884205 -0.1383008 -0.22230035 0.2156505 0.3589387 -0.08509561 -0.07579392 0.16976552
00000000: 7671 d83e aa67 d73e 65c7 353e b71e c9bb
00000010: f45c cfbe a7b2 ec3e bb85 9b3e 548f d63c
00000020: f286 84be ba9e 0dbe b4a2 63be 7cd3 5c3e
00000030: d0c6 b73e 9b46 aebd d839 9bbd 03d7 2d3e

critic.6.bias f4 [4]
0.3520111 -0.45213732 -0.16055194 0.24870168
00000000: cd3a b43e 8b7e e7be ba67 24be a7ab 7e3e

critic.9.weight f4 [4, 4]
-0.0013661158 -0.27272168 -0.37476885 0.5125417 -0.35920683 -0.3792791 -0.36116567 -0.026090063
0.6316842 0.22448105 -0.37637442 0.21643032 0.2717565 -0.85863644 -0.0943146 0.01418121
00000000: 3d0f b3ba 2da2 8bbe b4e1 bfbe ef35 033f
00000010: f5e9 b7be df30 c2be b5ea b8be d4ba d5bc
00000020: 0eb6 213f 5cde 653e 26b4 c0be e99f 5d3e
00000030: ab23 8b3e 99cf 5bbf 0328 c1bd 4e58 683c

critic.9.bias f4 [4]
-0.24098715 0.103781424 0.40000528 -0.16669354
00000000: 56c5 76be 5b8b d43d 7ecd cc3e b6b1 2abe

critic.12.weight f4 [4, 4]
-0.10723239 -0.4305464 -0.28231823 -0.46226442 -0.3279682 0.26819903 3.091546 1.2726375
-0.04923253 0.19574547 -0.33038715 0.538663 -0.06858243 0.100048944 -0.2811351 -0.5606044
00000000: a89c dbbd 9470 dcbe 048c 90be ecad ecbe
00000010: 73eb a7be 6251 893e e4db 4540 c9e5 a23f
00000020: 0da8 49bd 8071 483e 8128 a9be d2e5 093f
00000030: f274 8cbd 76e6 cc3d f1f0 8fbe c583 0fbf

critic.12.bias f4 [4]
-0.015283108 -0.21815482 0.20311694 0.3095617
00000000: 0066 7abc fa63 5fbe e3fd 4f3e df7e 9e3e

critic.15.weight f4 [4, 4]
-0.2301544 -0.060577862 0.07833611 -0.4293108 -0.115590274 -0.46883565 -0.60527587 -0.6724608
0.0057453513 -0.4069379 -0.08436805 -0.08267236 -0.45950007 -0.059096273 1.1611717 0.31218672
00000000: 98ad 6bbe 7e20 78bd af6e a03d a0ce dbbe
00000010: 98ba ecbd 3a0b f0be 5cf3 1abf 6426 2cbf
00000020: 8043 bc3b 2a5a d0be 28c9 acbd 2050 a9bd
00000030: 9843 ebbe ef0e 72bd 46a1 943f f0d6 9f3e

critic.15.bias f4 [4]
0.058585238 -0.3749896 -0.34513026 -0.41598272
00000000: 13f7 6f3d a3fe bfbe eab4 b0be b0fb d4be

critic.18.weight f4 [4, 4]
-0.42645586 0.009137115 -0.028915644 0.37069348 -0.20372114 -0.18843979 0.43927038 -0.49834087
0.16093557 0.0066195456 -0.3455109 -0.16233712 -0.25184464 0.75094193 0.3096382 0.9718042
00000000: 6c58 dabe d7b3 153c 80e0 ecbc 89cb bd3e
00000010: 469c 50be 5cf6 40be 0ce8 e03e 8926 ffbe
00000020: 4bcc 243e c6e8 d83b cee6 b0be b43b 26be
00000030: c8f1 80be bb3d 403f e688 9e3e 29c8 783f

critic.18.bias f4 [4]
0.14216118 0.3563608 -0.2914882 -0.059669733
00000000: b392 113e ec74 b63e f13d 95be 4068 74bd

critic.21.weight f4 [4, 4]
0.28154555 0.19827609 -0.34058633 0.39483044 -0.3130219 0.062014878 -0.4857077 -0.13021886
0.23886715 0.40286592 0.9235309 0.43439424 -0.20909518 -0.0074175918 -0.8895492 -0.6883558
00000000: bd26 903e e308 4b3e 5561 aebe 3727 ca3e
00000010: 6844 a0be 5003 7e3d aeae f8be 1858 05be
00000020: 9799 743e 7144 ce3e 856c 6c3f ec68 de3e
00000030: 0c1d 56be 450f f3bb 7fb9 63bf 1638 30bf

critic.21.bias f4 [4]
0.22404452 -0.05311656 0.40323883 0.44070166
00000000: ed6b 653e c090 59bd 5275 ce3e a6a3 e13e

critic.24.weight f4 [4, 4]
-0.14568064 -0.27671766 -1.0940503 -0.19019647 0.31949592 0.35510486 1.078019 0.22819157
-0.29061082 -0.22708154 -0.34218305 -0.077050954 -0.37387875 0.11792052 -0.46569347 0.30510598
00000000: 4e2d 15be f0ad 8dbe d709 8cbf ddc2 42be
00000010: f894 a33e 4ed0 b53e 87fc 893f 0dab 693e
00000020: f1ca 94be 1088 68be 9e32 afbe e4cc 9dbd
00000030: 096d bfbe 5080 f13d 606f eebe da36 9c3e

critic.24.bias f4 [4]
0.15578428 -0.264894 0.28552285 0.22237757
00000000: ea85 1f3e 30a0 87be 0d30 923e f2b6 633e

critic.27.weight f4 [4, 4]
-0.44641393 -0.197752 -0.47926587 -0.115032494 -1.1617435 -1.0153859 -0.09190196 -0.14728782
0.28684884 -0.07877666 0.099074125 -0.057126135 0.10063569 -0.35199228 -0.12640266 -0.11600704
00000000: 5e90 e4be 807f 4abe 5662 f5be 2896 ebbd
00000010: 03b4 94bf 2af8 81bf 1837 bcbd 9ed2 16be
00000020: dadd 923e a855 a1bd 60e7 ca3d 18fd 69bd
00000030: 161a ce3d 5538 b4be b36f 01be 1995 edbd

critic.27.bias f4 [4]
-0.24086201 -0.1937021 -0.34316728 -0.0044499505
00000000: 88a4 76be d859 46be 9fb3 afbe e4d0 91bb

critic.30.weight f4 [1, 4]
-0.34003466 0.3765849 -1.8090875 0.029457942
00000000: 0619 aebe bccf c03e 2e90 e7bf c851 f13c
