gigala/topology/topology_optimiz/HRL/preTrained/T0-h-v1/2level/HAC_T0-h-v1_level_1_crtic.pth (torch, 5147 bytes, 13 tensors)

critic.0.weight f4 [3, 6]
00000000: b2e3 833e 78dd 58be f89b 303d 98e4 b6be
00000010: 0074 9fba 2e42 b73e 4498 5d3e 4cb7 303e
00000020: 4c95 75be acaa b23e 8770 50be cc29 c03e
00000030: a6a9 acbe cf09 4ebe b88c febd bea9 943d
00000040: 2443 633e 18ca b23d
0.25759655 -0.21178234 0.043117493 -0.35721278 -0.0012165308 0.3579268 0.21640116 0.17257422
-0.23982733 0.34895837 -0.20355426 0.37531888 -0.3372318 -0.20120929 -0.12429184 0.07258938
0.22193581 0.087299526

critic.0.bias f4 [3]
00000000: 8081 1cbe 227a a6be e4a5 f4bd
-0.15283775 -0.32515055 -0.119457036

critic.3.weight f4 [3, 3]
00000000: d7f9 8bbe 734f b2be f1a3 b73e d0ea a43d
00000010: 61e2 9ebe 66ce 8c3e aa5d c7be 53d2 adbe
00000020: 6015 65bd
-0.2733905 -0.3482624 0.35867265 0.080525994 -0.31032088 0.2750122 -0.38938648 -0.33949527
-0.055928588

critic.3.bias f4 [3]
00000000: 263a da3e af52 863e 2e73 c7be
0.4262249 0.26234958 -0.38955063

critic.6.weight f4 [3, 3]
00000000: 31e1 e6be 1cdf 083e b06e 2bbd 50ed 7f3d
00000010: c820 a23c 8e9f d3be c76f cebd e5aa 41be
00000020: bc70 ccbd
-0.45093682 0.1336636 -0.041853607 0.06248218 0.019791022 -0.41332668 -0.100799136 -0.18912847
-0.0998244

critic.6.bias f4 [3]
00000000: 7b84 e93e 86b1 0abf 7ed1 9b3d
0.45608887 -0.5417713 0.07608317

critic.9.weight f4 [3, 3]
00000000: 6f96 193f eb3b 04bf 3cab 623e cc77 123f
00000010: 0a54 a53e a861 9e3e a84e a3be 6532 743e
00000020: 5f51 773d
0.5999517 -0.5165393 0.22135633 0.57214046 0.3229068 0.3093388 -0.31895947 0.23847349
0.060380336

critic.9.bias f4 [3]
00000000: 4860 0d3f fa71 0ebf 5cdf 293e
0.5522504 -0.55642664 0.16589111

critic.12.weight f4 [3, 3]
00000000: c2fd b4be 9f28 05bf 5414 0a3f 715d 0b3e
00000010: 4f01 a3be f2a8 06bf 9d01 64be e42a 01be
00000020: b809 d1bd
-0.35349852 -0.5201511 0.5393727 0.13609864 -0.31836936 -0.5260154 -0.2226624 -0.12614018
-0.10206932

critic.12.bias f4 [3]
00000000: 7917 2bbe 9c80 ea3e 0099 b5b4
-0.16708173 0.45801246 -3.38252e-07

critic.15.weight f4 [3, 3]
00000000: 004a eebe e9d4 71be 9353 dc3e b8ff 0cbf
00000010: 5e12 d93e b4c3 e4bd f463 233e bca2 09bf
00000020: f97e 273e
-0.46540833 -0.23616375 0.43032512 -0.55077696 0.42396826 -0.1117014 0.15956098 -0.5376394
0.1635703

critic.15.bias f4 [3]
00000000: a7d8 03be 3025 98be 411c a93e
-0.12875615 -0.29715872 0.3302937

critic.18.weight f4 [1, 3]
00000000: 4e5a f7be acd9 043f 2937 ab3e
-0.48311085 0.5189464 0.3344052
