gigala/topology/topology_optimiz/HRL/preTrained/T0-h-v1/2level/HAC_T0-h-v1_level_0_crtic.pth (torch, 13251 bytes, 7 tensors)

critic.0.weight f4 [30, 20]
-0.094821475 3.2761528 -0.18376994 -0.20083436 -0.19056843 0.0062257997 -0.19542383 0.18284038
-0.09726415 0.01853532 -0.043343127 -0.023606589 -0.10248164 -0.14534026 0.19110611 0.17929278
0.10449693 0.05226878 0.14988296 2.9988284 -0.048504382 -3.6836686 -0.08845472 0.12583953
0.062096596 0.0028382845 -0.030318435 0.050340675 0.10815226 -0.09557347 -0.18118599 -0.2413843
0.042947285 0.14657502 0.13237005 -0.13206239 0.08083444 -0.14027406 0.13890325 -3.1870358
-0.18123119 -0.1948042 -0.012625217 -0.12523717 0.0879575 0.11268887 -0.21684986 0.12587082
0.059998393 0.13912085 0.10771918 0.16524124 0.05456862 0.11871979 -0.13261667 0.20167956
0.11351487 -0.11256216 0.19697484 -0.18674167 -0.18434644 11.594584 0.18602118 -0.22029227
0.061843198 -0.039632782 -0.071176246 -0.16315463 0.16768049 -0.23248512 -0.0589552 0.04973836
0.1760665 -0.11020837 -0.215229 -0.22608303 0.0982093 -0.22280769 -0.019250195 -1.3264122
-0.111788124 -0.050755113 0.05179423 0.06458989 -0.17436436 0.17086071 0.10896394 -0.17544053
0.10055119 0.13267082 0.17338526 -0.18388471 0.058900565 -0.016120404 0.11857167 -0.005535513
0.11217809 0.19872645 0.038587242 0.038315892 -0.019916011 -51.778248 0.06656039 -0.22891045
-0.073301055 -0.17632553 -0.2555777 -0.03482235 -0.10940763 -0.20196965 0.1750277 0.13462122
0.10713271 -0.055927355 -0.13404793 0.08256774 -0.015258138 -0.26261798 0.12777789 -5.7264647
-0.06181014 15.3336315 -0.13899876 0.059640285 0.075160235 -0.14328898 0.21822414 -0.040717367
0.22039261 -0.0042159525 0.064097345 0.16820583 -0.16855727 0.21619119 0.09867343 0.044465587
-0.1375061 0.17298023 0.08085801 -0.7472025 0.14830883 -16.050499 0.15764077 -0.1688346
-0.10312537 0.21721028 -0.044208013 -0.13635105 -0.08291695 -0.16339871 0.068815924 0.11915549
-0.11429643 -0.1768251 0.089135155 0.14515331 0.009671186 0.20758645 0.19807512 0.90824986
-0.11465847 -5.45356 0.17863065 0.1885202 -0.021803925 -0.05053248 0.23616502 -0.09558054
0.21333943 0.22111696 0.06571765 -0.012854851 -0.026844727 0.067513436 0.13559629 0.18112253
0.0908432 -0.076142624 0.043491248 2.3388748 0.11163173 -8.924535 0.10442941 -0.19809596
0.044362795 -0.048766706 0.052423205 0.07766623 -0.21330221 -0.24952902 -0.28436536 0.13708311
0.1401366 -0.19158494 0.020206809 -0.1661558 -0.122578874 -0.26813945 0.08124856 -9.037716
-0.118155986 4.3870006 0.115800016 -0.0064541576 0.20650679 0.011145449 0.08572016 -0.023431098
-0.12995768 -0.03692974 0.0084540155 -0.025506392 0.15003487 0.15455927 -0.035911873 0.21074569
0.08523899 0.010426556 -0.10111052 4.6354804 0.025550665 18.419756 0.16224249 0.04378089
0.12612511 0.046430904 0.0031485038 0.19032227 0.17204225 0.10263347 0.010404423 -0.021014879
-0.005871895 0.038004976 -0.07060501 0.19836704 -0.029964611 0.15451685 -0.05271573 2.5301518
0.065308064 -0.016808406 -0.14437258 0.16235521 -0.029513553 0.06419566 0.17196068 0.12771824
0.048736215 -0.047855586 0.17098472 0.19140553 0.15546447 -0.143463 0.055271745 0.1314415
00000000: c331 c2bd 7dac 5140 302e 3cbe 86a7 4dbe
00000010: 5f24 43be cb01 cc3b 2f1d 48be 823a 3b3e
00000020: 6d32 c7bd 62d7 973c 9088 31bd 9b62 c1bc
00000030: e5e1 d1bd 14d4 14be 52b1 433e 8798 373e
00000040: 7d02 d63d ca17 563d eb7a 193e ceec 3f40
00000050: 88ac 46bd 3ac1 6bc0 c027 b5bd 14dc 003e
00000060: 0059 7e3d 8302 3a3b 5e5e f8bc 0632 4e3d
00000070: ef7e dd3d 06bc c3bd d288 39be 722d 77be
00000080: 7ee9 2f3d c317 163e 048c 073e 5d3b 07be
00000090: 878c a53d 01a4 0fbe a73c 0e3e 65f8 4bc0
000000a0: ab94 39be c17a 47be 00da 4ebc 2c3e 00be
000000b0: 1023 b43d 6cc9 e63d e40d 5ebe 48e4 003e
000000c0: e0c0 753d b275 0e3e e09b dc3d 0035 293e
000000d0: 5883 5f3d 5c23 f33d aacc 07be 1685 4e3e
000000e0: 7c7a e83d fd86 e6bd c6b3 493e 3539 3fbe
000000f0: 50c5 3cbe 6b83 3941 567c 3e3e 4c94 61be
00000100: 4b4f 7d3d fc55 22bd dac4 91bd 0212 27be
00000110: 6fb4 2b3e 9410 6ebe 027b 71bd 73ba 4b3d
00000120: c74a 343e edb4 e1bd fe64 5cbe 4f82 67be
00000130: f521 c93d b327 64be 96b2 9dbc e0c7 a9bf
00000140: 2cf1 e4bd 98e4 4fbd 3026 543d b447 843d
00000150: 928c 32be 1cf6 2e3e 7c28 df3d afa6 33be
00000160: c8ed cd3d dcda 073e e88b 313e 464c 3cbe
00000170: b841 713d f00e 84bc b4d5 f23d 4063 b5bb
00000180: a0bd e53d f27e 4b3e a80d 1e3d 20f1 1c3d
00000190: e726 a3bc ed1c 4fc2 d050 883d 8067 6abe
000001a0: dd1e 96bd ae8e 34be 15db 82be e1a1 0ebd
000001b0: 1c11 e0bd 22d1 4ebe 763a 333e 25da 093e
000001c0: 6568 db3d 1514 65bd dc43 09be 4619 a93d
000001d0: 45fd 79bc dd75 86be 35d8 023e 333f b7c0
000001e0: a12c 7dbd 8e56 7541 b155 0ebe 5f49 743d
000001f0: 9ced 993d 59ba 12be 2676 5f3e 41c7 26bd
00000200: 9aae 613e f925 8abb 7845 833d 263e 2c3e
00000210: 479a 2cbe 3961 5d3e 4c15 ca3d 8c21 363d
00000220: 66ce 0cbe bb21 313e e298 a53d aa48 3fbf
00000230: 45de 173e 6c67 80c1 956c 213e fae2 2cbe
00000240: 6533 d3bd 5f6c 5e3e 7613 35bd 9c9f 0bbe
00000250: 5dd0 a9bd fe51 27be 5def 8c3d cb07 f43d
00000260: 3f14 eabd a411 35be 7e8c b63d 12a3 143e
00000270: e573 1e3c 8b91 543e 34d4 4a3e 1083 683f
00000280: 0fd2 eabd 9083 aec0 f4ea 363e 700b 413e
00000290: 259e b2bc 25fb 4ebd 3ed5 713e bbbf c3bd
000002a0: a775 5a3e 7c6c 623e fa96 863d 279d 52bc
000002b0: 79e9 dbbc 7c44 8a3d c1d9 0a3e 2f78 393e
000002c0: 000c ba3d aaf0 9bbd e123 323d 20b0 1540
000002d0: 2d9f e43d e5ca 0ec1 16df d53d abd9 4abe
000002e0: c3b5 353d 99bf 47bd b7b9 563d 790f 9f3d
000002f0: e56b 5abe 8984 7fbe 5698 91be 845f 0c3e
00000300: f87f 0f3e d82e 44be c088 a53c bf24 2abe
00000310: a20a fbbd 9349 89be a565 a63d 7c9a 10c1
00000320: c4fb f1bd 4f62 8c40 8f28 ed3d 667d d3bb
00000330: 8476 533e 679b 363c 0d8e af3d 93f2 bfbc
00000340: a013 05be a443 17bd b682 0a3c c8f2 d0bc
00000350: bea2 193e c944 1e3e 5418 13bd b8cd 573e
00000360: c891 ae3d 25d4 2a3c 0813 cfbd db55 9440
00000370: a14f d13c a95b 9341 e522 263e 9753 333d
00000380: f126 013e 552e 3e3d 2157 4e3b d7e3 423e
00000390: d82b 303e 7f31 d23d 5077 2a3c 6527 acbc
000003a0: 0669 c0bb 1bab 1b3d 5c99 90bd bb20 4b3e
000003b0: 5878 f5bc aa39 1e3e 73ec 57bd 02ee 2140
000003c0: 3cc0 853d c8b1 89bc 68d6 13be 7240 263e
000003d0: 68c6 f1bc 0479 833d 7616 303e 92c8 023e
000003e0: a09f 473d 3804 44bd 9e16 2f3e d0ff 433e
000003f0: 1432 1f3e f7e7 12be a064 623d 9a98 063e

critic.0.bias f4 [30]
0.004678543 -0.25269186 0.19229296 -0.058013435 0.16795161 -0.019309385 -0.21741162 0.10770812
-0.11210156 -0.30095717 0.026531506 0.22007473 0.13436347 -0.26741585 0.13608705 -0.20537214
-0.00749911 0.08630425 0.15088952 0.04137032 -0.15302041 0.15776578 0.19015017 0.2211635
-0.09779958 -0.21821275 -0.091351524 -0.08411375 -0.058515623 0.08334491
00000000: 774e 993b d460 81be 72e8 443e 7f9f 6dbd
00000010: 82fb 2b3e b72e 9ebc 27a1 5ebe 1396 dc3d
00000020: 8195 e5bd 0f17 9abe 9a58 d93c 455b 613e
00000030: 9496 093e bbea 88be 675a 0b3e 134d 52be
00000040: 18bb f5bb 48c0 b03d c882 1a3e ed73 293d
00000050: 62b1 1cbe 5a8d 213e bab6 423e af78 623e
00000060: 254b c8bd 2a73 5fbe 8216 bbbd d443 acbd
00000070: 14ae 6fbd bcb0 aa3d

critic.3.weight f4 [30, 30]
0.08162031 0.18309337 0.03353633 -7.1831255 -0.05857995 -1.5179387 -3.397499 -9.784861
-0.43225837 -0.20719127 -0.13483948 -0.54428154 0.17975768 0.26124758 -8.116399 0.1191237
-0.102168426 -0.73041654 -2.4162393 -2.5498357 0.111493915 -0.08229594 -0.12349534 -4.2180576
-10.027534 -4.17051 0.27133444 -0.14363876 -0.93957764 0.012647435 -0.02680331 -0.037390884
0.053275645 -0.27603704 0.005975932 -0.0498054 -0.031905893 -0.0724035 -0.21337779 -0.24952231
0.074478656 -0.16264899 -0.16758506 0.09222998 0.047897734 0.1501286 -0.010696735 0.12876792
-0.15729004 -0.103398986 -0.08498643 0.03063929 0.03550245 0.09348015 -0.12642853 0.07036653
-0.07921827 -0.052969426 -0.0671612 0.09373936 -1.2581781 -1.294014 0.034849927 5.9529595
0.00079117715 1.8031106 5.4437113 9.004088 0.01718874 -2.3339956 -3.2539742 0.75281996
0.12639037 -0.9613655 10.174533 -0.16283512 -0.46211854 1.0973675 3.6394618 0.78841275
-0.15098284 -0.13435444 -0.015307277 4.6478615 8.388686 5.4519224 -2.1736 -0.098240405
2.093682 0.06925461 -0.24490711 -0.7914031 -0.12630108 -2.076021 0.11881161 -0.30186558
0.296832 -5.044849 -0.5776102 -1.5598673 -1.5510484 -0.6813823 0.038802236 -0.508539
-1.5292311 0.08477861 -0.21838163 -0.482338 0.23438202 -1.5633926 -0.13044639 -0.1743265
-0.0074525923 -0.493864 -4.02352 -1.0262071 -1.2522111 -0.11405637 -0.506361 0.09659639
0.091549486 0.12412949 0.0714097 -2.2986124 0.1343779 -0.37070096 -1.0201844 -0.90588534
0.60065836 0.60975564 0.3547148 0.7069885 -0.15424289 0.14144166 -1.6384813 -0.036021948
0.05467822 0.67291903 -1.4699534 -0.40110633 -0.033546686 -0.05116628 -0.1522968 -1.3492483
-1.5909387 -0.65316534 0.2150373 -0.104676746 0.6635563 -0.15280642 -0.22180958 0.24868992
-0.14308819 -1.1136537 0.070477754 0.011366242 -0.36077225 0.121476695 -0.4121576 -0.18390955
-0.22461139 -0.62133765 0.11788872 -0.08694513 -0.38867489 0.016748577 -0.12893158 -0.28159413
-0.12898445 -1.3219135 0.012956053 -0.11933098 0.09210315 -0.26537427 -0.9121541 0.05100215
0.09356721 0.15360633 -0.33945894 0.07553804 0.07516072 0.70384413 0.018057317 -2.7107525
0.14082101 -0.2580635 -2.665577 0.26923707 -0.06850202 1.4789118 1.6291629 -0.40831202
-0.10439753 0.8271822 -2.3053238 -0.056138456 0.28140837 -0.7667102 -1.8253902 -0.26981583
-0.12187323 0.16579661 0.05047381 -0.8920363 -1.2092869 -0.4460512 0.92088795 0.0817053
-1.3735106 0.11223322 0.30582175 0.110939294 0.076397896 1.6532414 0.120909184 0.24510008
0.80155253 2.2414424 0.5282298 0.70233345 0.75008965 0.31569865 -0.17033541 0.22829348
0.7150308 0.016263902 -0.130591 0.12348489 0.48744985 1.5006834 -0.11734516 0.01238966
-0.028900757 0.32979116 1.172371 0.43040222 0.052934043 0.091584444 0.7332837 -0.16421902
-0.0616165 -0.0062746494 0.050651476 10.854019 0.028312966 1.9742802 9.56971 14.021486
-0.26094398 0.085337415 0.10241469 -0.7044767 -0.09159876 0.21055126 11.305714 -0.07275182
00000000: 8d28 a73d d47c 3b3e 645d 093d 2adc e5c0
00000010: 88f1 6fbd d14b c2bf a070 59c0 ca8e 1cc1
00000020: f850 ddbe f329 54be 5c13 0abe 0956 0bbf
00000030: 6612 383e 3ec2 853e c5dc 01c1 20f7 f33d
00000040: ae3d d1bd 94fc 3abf aaa3 1ac0 8230 23c0
00000050: ec56 e43d c68a a8bd 20eb fcbd 54fa 86c0
00000060: c770 20c1 d174 85c0 59ec 8a3e 0a16 13be
00000070: 2988 70bf 3037 4f3c 9d92 dbbc 2f27 19bd
00000080: 9037 5a3d ba54 8dbe c0d1 c33b bf00 4cbd
00000090: c1af 02bd 4948 94bd b57f 5abe c782 7fbe
000000a0: 4488 983d 758d 26be 6b9b 2bbe 12e3 bc3d
000000b0: 6a30 443d 50bb 193e 5c41 2fbc bddb 033e
000000c0: a410 21be d9c2 d3bd 5e0d aebd 40ff fa3c
000000d0: 046b 113d 8572 bf3d 7b76 01be 541c 903d
000000e0: 303d a2bd 78f6 58bd d08b 89bd 6cfa bf3d
000000f0: fb0b a1bf 40a2 a5bf ccbe 0e3d a57e be40
00000100: 0067 4f3a 54cc e63f e232 ae40 bf10 1041
00000110: 67cf 8c3c 2f60 15c0 1d41 50c0 cfb8 403f
00000120: 7a6c 013e 0d1c 76bf e3ca 2241 40be 26be
00000130: cd9a ecbe 8a76 8c3f f1ec 6840 6bd5 493f
00000140: 3f9b 1abe 3694 09be 60cb 7abc 48bb 9440
00000150: 0f38 0641 2676 ae40 431c 0bc0 4432 c9bd
00000160: e3fe 0540 5cd5 8d3d eec8 7abe 6599 4abf
00000170: 1255 01be 87dd 04c0 8053 f33d 208e 9abe
00000180: 5dfa 973e 676f a1c0 43de 13bf bba9 c7bf
00000190: c188 c6bf 126f 2ebf 18ef 1e3d 9d2f 02bf
000001a0: d8bd c3bf 68a0 ad3d 6f9f 5fbe 02f5 f6be
000001b0: d701 703e 401d c8bf bd93 05be a582 32be
000001c0: e034 f4bb bedb fcbe adc0 80c0 c15a 83bf
000001d0: 7448 a0bf 6396 e9bd e0a0 01bf 54d4 c53d
000001e0: 4c7e bb3d 9a37 fe3d 403f 923d 771c 13c0
000001f0: 5c9a 093e 84cc bdbe 6795 82bf 1ae8 67bf
00000200: bfc4 193f f218 1c3f 2e9d b53e 33fd 343f
00000210: d9f1 1dbe 15d6 103e c1b9 d1bf c08b 13bd
00000220: 45f6 5f3d 6c44 2c3f 6f27 bcbf cf5d cdbe
00000230: 4068 09bd bc93 51bd b1f3 1bbe 2bb4 acbf
00000240: e1a3 cbbf d835 27bf bd32 5c3e c360 d6bd
00000250: d3de 293f 4979 1cbe 0d22 63be 92a8 7e3e
00000260: b685 12be 348c 8ebf a456 903d 7939 3a3c
00000270: 24b7 b8be c6c8 f83d 5206 d3be c952 3cbe
00000280: 8700 66be fc0f 1fbf a46f f13d 4a10 b2bd
00000290: 6500 c7be 5034 893c a406 04be 1b2d 90be
000002a0: 8014 04be 7634 a9bf a045 543c cd63 f4bd
000002b0: 94a0 bc3d 23df 87be ee82 69bf a1e7 503d
000002c0: 2aa0 bf3d fa4a 1d3e 90cd adbe b0b3 9a3d
000002d0: dded 993d 212f 343f f0ec 933c f87c 2dc0
000002e0: 6233 103e e620 84be d098 2ac0 71d9 893e
000002f0: c94a 8cbd fb4c bd3f 6988 d03f 460e d1be
00000300: 5fce d5bd 36c2 533f 6d8a 13c0 70f1 65bd
00000310: c214 903e 1f47 44bf 63a6 e9bf 4d25 8abe
00000320: ac98 f9bd 96c6 293e a0bd 4e3d 7e5c 64bf
00000330: eac9 9abf d360 e4be 50bf 6b3f 1c55 a73d
00000340: 32cf afbf 88da e53d ab94 9c3e 2434 e33d
00000350: 8076 9c3d 6a9d d33f 3c9f f73d 84fb 7a3e
00000360: 8c32 4d3f cb73 0f40 113a 073f 20cc 333f
00000370: e005 403f 41a3 a13e 686c 2ebe c4c5 693e
00000380: 420c 373f e03b 853c a6b9 05be a5e5 fc3d
00000390: 0793 f93e 6516 c03f a952 f0bd 00fe 4a3c
000003a0: 48c1 ecbc 63da a83e 4110 963f ae5d dc3e
000003b0: 5ed1 583d a090 bb3d 7bb8 3b3f 0829 28be
000003c0: 9561 7cbd 939b cdbb ec77 4f3d 10aa 2d41
000003d0: 98f0 e73c 37b5 fc3f 881d 1941 0258 6041
000003e0: 739a 85be 62c5 ae3d cbbe d13d 9658 34bf
000003f0: 2198 bbbd c09a 573e 34e4 3441 e8fe 94bd

critic.3.bias f4 [30]
-0.05234505 -0.098471254 -0.35688454 0.052198015 -0.10418589 0.09592527 0.19172877 0.06071692
-0.044894643 0.1687229 0.115234666 0.13416316 0.015747068 0.081079125 -0.11187306 -0.16119884
-0.09203133 0.069959536 -0.4121762 0.056877855 0.15699093 0.109798856 -0.040992625 -0.11955927
0.3504149 -0.18429333 -0.14028873 -0.015495688 0.18816385 -0.10665962
00000000: c367 56bd 4cab c9bd 92b9 b6be 96cd 553d
00000010: 695f d5bd 7874 c43d 8c54 443e 4eb2 783d
00000020: 72e3 37bd b2c5 2c3e 2700 ec3d 1162 093e
00000030: ffff 803c d00c a63d b41d e5bd 4f11 25be
00000040: ec7a bcbd f246 8f3d c208 d3be c1f8 683d
00000050: 3bc2 203e 39de e03d e2e7 27bd 7edb f4bd
00000060: 9569 b33e 64b7 3cbe d9a7 0fbe a0e1 7dbc
00000070: 06ae 403e 5c70 dabd

critic.6.weight f4 [30, 30]
3.3232293 0.18740907 1.8888934 -0.40380448 0.37484828 0.023956748 -0.35353506 0.3113072
0.6646768 0.08802555 0.3399258 -0.044887207 -0.30211568 0.10880354 0.7883902 0.038619094
0.01407069 0.5156435 1.0612807 0.17650461 0.103854895 0.013500856 0.40096465 -0.0031535148
0.6127558 2.8011758 1.8057314 0.6058515 0.0733227 0.052727357 10.716153 0.1366002
8.831613 7.3730345 1.4177194 0.039319 -0.17433387 5.444007 1.573842 -0.31873092
1.3442719 1.366623 -1.1871388 0.07991471 4.2770247 0.18194869 -0.057243496 -0.14260036
4.393615 -0.15300089 0.75711495 -0.015967654 3.498227 -0.063726805 0.87834895 6.453869
2.272641 0.22219817 1.7391186 0.2698267 13.998718 0.15551797 11.312855 9.514918
1.4985793 -0.22062851 -0.91991353 6.4993176 2.4278193 -0.19356894 0.6316825 1.7155696
-2.485604 -0.22449276 6.2645698 0.088588744 0.028287739 -0.23645234 4.0436354 0.019349024
0.9256215 0.06714975 6.758247 -0.15844604 0.19906898 9.902755 2.059776 -0.11633064
1.492543 -0.11635502 -7.844683 -0.12107267 -6.1265883 -4.874794 -0.74323475 0.13719605
0.3746331 -4.144206 -0.7528595 0.007910579 -0.8775175 -0.98556226 1.5486711 -0.35047105
-2.5571756 -0.11471231 -0.10262711 -0.581167 -3.444885 -0.049782485 -0.4369554 0.09333365
-2.8366175 0.041699834 -0.5048983 -4.4588184 -1.0211279 -0.45064512 -0.936411 -0.25962123
12.875085 0.15228523 14.5630045 11.045028 1.6901557 -0.14442763 -0.2660581 4.8272448
1.5385742 0.1045353 1.0336525 1.3698072 0.093466125 0.40103227 4.75178 -0.10676966
0.028653324 0.6273335 4.005795 0.049527943 0.8198483 0.11943091 4.7297664 -0.13179392
2.1055968 7.818827 5.723275 0.44591382 1.742126 -0.11227979 -0.40297282 0.010369253
-0.14384839 0.123428136 -0.05595235 0.06886939 -0.026008451 0.1332702 0.022511575 -0.15169176
0.15143374 -0.017850917 0.14521198 0.021531174 -0.25706655 -0.075682506 0.174434 -0.12754123
0.062160462 -0.06542471 -0.06720651 -0.047444556 -0.1249064 -0.14014761 -0.12986086 -0.08458681
-0.00514118 0.111734524 0.17658903 -0.0026573346 -3.577947 -0.061618194 2.2784178 2.6434536
-0.31643608 0.120393254 -0.14671323 -2.1342938 0.10443446 0.0259265 -2.3253567 0.00859063
1.9506797 -0.49077174 -0.12822732 0.08200936 0.09179601 -0.7830316 -4.785486 -0.2673459
0.16651854 0.18610112 0.35584444 0.087610155 -1.4776953 -0.5397384 1.8588313 -1.4043775
-1.1173984 -0.32135075 -8.843971 -0.04537138 -11.518535 -15.948973 -0.9750596 -0.031503465
-0.97984684 -7.032109 -0.2196715 0.12418935 -0.9481091 -1.7309097 -0.3560364 -0.4160723
-3.3189957 -0.102803215 0.06922302 -0.85725117 -5.685355 -0.36287978 -0.77577496 -0.039108876
-4.515223 -0.112911314 -0.98752874 -1.6632699 -1.6274738 -1.1763246 -3.018513 -0.16439757
-0.063617915 -0.20236315 -0.19178161 -0.35948536 -0.20125715 -0.16100264 -0.10770907 -0.23908709
0.18177056 -0.1507347 -0.100223325 -0.14035948 -0.1082529 -0.08949003 0.031840913 0.13751355
00000000: caaf 5440 2ae8 3f3e 42c7 f13f 76bf cebe
00000010: 1dec bf3e f140 c43c 8c02 b5be a863 9f3e
00000020: 4228 2a3f bd46 b43d c10a ae3e a6db 37bd
00000030: e8ae 9abe 64d4 de3d f1d3 493f 0e2f 1e3d
00000040: c088 663c 3601 043f 0cd8 873f a0bd 343e
00000050: e0b1 d43d b232 5d3c 3d4b cd3e 33ab 4ebb
00000060: 90dd 1c3f 7746 3340 3522 e73f 1519 1b3f
00000070: 362a 963d a4f8 573d 5d75 2b41 ece0 0b3e
00000080: 494e 0d41 e6ef eb40 d477 b53f f60c 213d
00000090: 9484 32be 4e35 ae40 a873 c93f b330 a3be
000000a0: 1a11 ac3f 81ed ae3f 2af4 97bf 53aa a33d
000000b0: 63dd 8840 c250 3a3e 2878 6abd d405 12be
000000c0: 7e98 8c40 44ac 1cbe 49d2 413f 99ce 82bc
000000d0: f3e2 5f40 3383 82bd 7adb 603f 1886 ce40
000000e0: f372 1140 eb87 633e 709b de3f ba26 8a3e
000000f0: c0fa 5f41 1a40 1f3e 7401 3541 1b3d 1841
00000100: 72d1 bf3f 71ec 61be 747f 6bbf 69fa cf40
00000110: 6461 1b40 f036 46be f2b5 213f c997 db3f
00000120: 2314 1fc0 6ee1 65be 5b77 c840 046e b53d
00000130: b0bb e73c 9020 72be 7665 8140 d881 9e3c
00000140: 88f5 6c3f cf85 893d 8f43 d840 ae3f 22be
00000150: bdd8 4b3e af71 1e41 5fd3 0340 c23e eebd
00000160: a60b bf3f 8a4b eebd a507 fbc0 f3f4 f7bd
00000170: 030d c4c0 50fe 9bc0 a244 3ebf 1f7d 0c3e
00000180: e9cf bf3e 569d 84c0 66bb 40bf 609b 013c
00000190: fda4 60bf cf4d 7cbf db3a c63f f170 b3be
000001a0: c4a8 23c0 4aee eabd 2a2e d2bd 5cc7 14bf
000001b0: ff78 5cc0 b8e8 4bbd 9eb8 dfbe b625 bf3d
000001c0: 248b 35c0 72cd 2a3d 0441 01bf a4ae 8ec0
000001d0: 52b4 82bf f5ba e6be a2b8 6fbf 13ed 84be
000001e0: 5900 4e41 a9f0 1b3e 1102 6941 6fb8 3041
000001f0: 0657 d83f d6e4 13be c438 88be ca78 9a40
00000200: 00f0 c43f 9a16 d63d ba4e 843f d855 af3f
00000210: 2b6b bf3d 1a54 cd3e 950e 9840 0daa dabd
00000220: 60ba ea3c ee98 203f 792f 8040 d0dd 4a3d
00000230: 94e1 513f 3198 f43d 3f5a 9740 fcf4 06be
00000240: 19c2 0640 d533 fa40 1225 b740 d14e e43e
00000250: fcfd de3f f2f2 e5bd 7452 cebe cde3 293c
00000260: fe4c 13be e4c7 fc3d 4b2e 65bd 650b 8d3d
00000270: ad0f d5bc fc77 083e 326a b83c 1655 1bbe
00000280: 7211 1b3e 163c 92bc 73b2 143e 2562 b03c
00000290: 3a9e 83be 6eff 9abd d49e 323e 2b9a 02be
000002a0: f89b 7e3d 64fd 85bd 91a3 89bd 3955 42bd
000002b0: edce ffbd db82 0fbe 3ffa 04be d93b adbd
000002c0: 5877 a8bb 12d5 e43d c1d3 343e ad26 2ebb
000002d0: 15fd 64c0 5c63 7cbd 99d1 1140 582e 2940
000002e0: e903 a2be bd90 f63d fe3b 16be 4598 08c0
000002f0: bce1 d53d d063 d43c a5d2 14c0 b7bf 0c3c
00000300: dfaf f93f 6f46 fbbe 064e 03be 86f4 a73d
00000310: 8cff bb3d c274 48bf b422 99c0 90e1 88be
00000320: d683 2a3e 4b91 3e3e 3e31 b63e f46c b33d
00000330: 1f25 bdbf 4c2c 0abf 2fee ed3f a4c2 b3bf
00000340: e906 8fbf 1688 a4be e880 0dc1 57d7 39bd
00000350: eb4b 38c1 fe2e 7fc1 829d 79bf c709 01bd
00000360: 3ed7 7abf 0907 e1c0 91f1 60be fc56 fe3d
00000370: 47b7 72bf 738e ddbf 674a b6be 6e07 d5be
00000380: 6d6a 54c0 7e8a d2bd ccc4 8d3d d074 5bbf
00000390: 6eee b5c0 61cb b9be 3099 46bf a130 20bd
000003a0: b57c 90c0 0c3e e7bd afce 7cbf 07e6 d4bf
000003b0: 1051 d0bf ce91 96bf 512f 41c0 d657 28be
000003c0: 1c4a 82bd 4938 4fbe 6662 44be 770e b8be
000003d0: 5b16 4ebe e0dd 24be 9396 dcbd 3fd3 74be
000003e0: 1022 3a3e 325a 1abe e341 cdbd 65ba 0fbe
000003f0: b2b3 ddbd 8d46 b7bd 9e6b 023d 5ad0 0c3e

critic.6.bias f4 [30]
0.04686523 0.26859534 0.11023564 -0.4233354 0.39197794 -0.14093107 -0.61670405 -0.3365848
0.02669186 0.48731256 -0.045520835 0.46834305 -0.111244865 -0.2763146 0.11435023 0.1550609
-0.47822338 0.04808584 -0.011727471 0.2753572 0.006157726 0.15217045 0.23915142 -0.025557667
-0.18809523 0.08088561 0.54126763 -0.22159588 -0.42852268 -0.12885855
00000000: c1f5 3f3d 5485 893e 39c3 e13d 6bbf d8be
00000010: 55b1 c83e 3c50 10be 51e0 1dbf d854 acbe
00000020: e3a8 da3c 0881 f93e 0e74 3abd a9ca ef3e
00000030: 59d4 e3bd 1b79 8dbe 7430 ea3d 49c8 1e3e
00000040: b2d9 f4be a8f5 443d 9424 40bc 9efb 8c3e
00000050: c0c6 c93b 92d2 1b3e 1ce4 743e 505e d1bc
00000060: 099c 40be 5ba7 a53d 8490 0a3f 08ea 62be
00000070: 5367 dbbe 7ff3 03be

critic.9.weight f4 [1, 30]
-4.4891953 -17.240223 -3.245594 -34.963547 -6.340526 -1.6292903 -6.881629 -8.145668
0.078793995 -2.557967 -0.31907743 -8.1532345 -2.0792174 -15.042702 -2.4823477 -17.277285
-12.707111 -3.627319 3.2311838 -19.874912 -5.7431116 -0.42203698 -3.659743 -1.6848724
2.943015 -0.79173666 -2.5705824 -26.865187 -6.2369614 -19.226496
00000000: 7da7 8fc0 faeb 89c1 d0b7 4fc0 acda 0bc2
00000010: 97e5 cac0 968c d0bf 4e36 dcc0 a854 02c1
00000020: bf5e a13d bbb5 23c0 1e5e a3be a673 02c1
00000030: e611 05c0 e8ae 70c1 c9de 1ec0 e137 8ac1
00000040: 5450 4bc1 ff25 68c0 b7cb 4e40 d2ff 9ec1
00000050: 92c7 b7c0 3b15 d8be 3b39 6ac0 e6a9 d7bf
00000060: 5c5a 3c40 41af 4abf 6c84 24c0 e7eb d6c1
00000070: 3095 c7c0 ddcf 99c1
