gigala/topology/topology_optimiz/HRL/preTrained/T0-h-v1/2level/HAC_T0-h-v1_level_0_crtic.pth (torch, 27719 bytes, 33 tensors)

critic.0.weight f4 [15, 20]
00000000: a002 b53d e29e 2ebf 4551 78bd 7abb 0e3d
00000010: c2a6 0a3c 7145 563e d49c 473e 333b 1c3e
00000020: 8a4c b63d 1148 04be b95c e13d dbb1 43be
00000030: 856e 4f3e bd9b bf3d b06c 4ebe 7a57 68bc
00000040: 73fb 17be 1eba 483e 8cf2 d6bd 538e f03e
00000050: 8c49 1e3d 574f abbb 2ab9 3a3e c618 1cbe
00000060: d5a2 59bd bd36 92bd e9cd 093d 32c0 7ebc
00000070: 9471 193e 34d1 2b3e 6f49 61be ccb4 3e3e
00000080: 8586 afbd 6a52 2d3e bc0e cabd 7ce0 5b3e
00000090: 86de dcbd 6f8e 04be d2c0 173e 17e9 04be
000000a0: 2ad3 613e 1854 93bc 6998 29be ec92 3b3e
000000b0: 3cce fd3d 00fe 9c3a 6e88 16be 0cee 53be
000000c0: 3492 c83d 5a86 373e 800b d03b 4495 5bbd
000000d0: f6ee 0a3e 789f c4bd 327f 4c3e 8e6a 37be
000000e0: 1239 34be c2c8 4abe 34e1 e23d 74b2 48be
000000f0: 4ac2 b63d 950c eabf b13c 553e 9005 8ebd
00000100: b7f0 183e 446f 363e 7720 5cbe e83d 17be
00000110: 55b6 2bbd 194a 643c 48a6 ea3c de4a 6e3d
00000120: 67ea 163e de0b 963d 75e2 943d fdee 863d
00000130: 6fe9 d13d 31c4 05bd bb45 18be 916b 84bf
00000140: b066 113e bc84 18be 400a fd3b 800e e53a
00000150: 46e7 4fbe 1285 123e 6ce3 e13d 9011 fe3d
00000160: ae91 25be d434 3c3e 1876 4e3e aa0b 0fbe
00000170: eebc acbd add1 54be 4094 c13d 23a1 15be
00000180: 0cc2 c33d 6a63 3f3e 243d df3d 0f43 10be
00000190: a4ef bbbd 6fde 47be 6e21 b9bd 5eaf 1cbe
000001a0: 0c32 103e ec92 d83d 30bd 30be 800f 1d3c
000001b0: 9860 b83c d8da 853d b019 ecbc 5205 2a3e
000001c0: 64fc 813d feea 113e 8edf a4bd 100b 433c
000001d0: c05a 19bb 60b8 c4bd 6073 453e 30d9 f3bd
000001e0: a6b8 eebd 226a 4abe b05c 42bd 2cf8 123e
000001f0: ac34 ba3d e0ac 623e 4c5e cebd b684 5d3e
00000200: 889f 5d3e aab6 15be a05c e63d 277a 25bc
00000210: 2b14 0e3e 8d45 0e3e 7123 893b a27e 3dbe
00000220: 10db ebba 9fe7 483c 0d41 ea3d 0de5 83be
00000230: 0220 ce38 baa1 31c0 dd94 cbbd 9c86 33be
00000240: bcc0 c2bc 6c4c 3fbe 9ebf f8bd ba2c 4b3e
00000250: e734 0e3d b759 10be 7971 4e3e 73c6 d7bd
00000260: 5228 5b3e 34b1 3a3d 4daf 9b3d 6cc1 e13d
00000270: 528c 90bd 08c5 48be a642 a33d fa5a b43e
00000280: 9b07 0ebe 8730 c33f d796 f43d c59d 133e
00000290: 21d7 4a3e ebf6 5e3e 85d0 253e 19ab 1dbe
000002a0: da02 503d 8334 363e 880a af3c 40ca 533e
000002b0: 01c4 1d3e e7f7 0a3e fe90 bcbd 56e1 8dbd
000002c0: 18ad 0dbe d036 4d3e 4d36 8ebd 0524 ae40
000002d0: 7503 23be 5e61 33bc 7670 183b 25f4 61be
000002e0: cd8b 72bd 3971 50be 65ee 3b3d 3bf2 b93d
000002f0: 3fcf f6bd 2e9f 0f3e d91c bcbc 88e4 043e
00000300: 5c6d a53d 13b3 2cbe 8539 e63d 23b6 c9bd
00000310: 62a0 0abe 4819 da3c 8b71 0bbd 2d8f 3bbb
00000320: 2b0b 213e 4f7d 82bb 5117 343b f3a0 3bbe
00000330: 6fab 16be 06bc 423e c434 b5bd 2dd8 4dbe
00000340: 1f02 fdbc d530 733c e059 083d c2d2 53be
00000350: a067 cd3d 0310 07be 5dbd 83bd f118 32be
00000360: 49b4 533e 6534 0e3e 4755 b43d 8fae cdbc
00000370: 3a7a ee3d d498 2dbf f65c 27be 4894 b9bc
00000380: 63ce 20bd d4b6 363e 955f 88ba f1d7 d1bc
00000390: ef1e e13d fad4 10be e415 54be d2ea 2e3e
000003a0: 4cb0 4cbd 0bb0 e4bd 1e3e 20bd 2a3d 503e
000003b0: 0918 693d 39af 83bd bdd5 843d 4a78 9ebd
000003c0: 968e d2bd f563 2bbe 84a7 2b3e 4971 46be
000003d0: e412 80bd 8030 eb3d c681 5c3e 9bd3 57be
000003e0: e4fc a9bd ce90 363e b48d 23be d60a 83bd
000003f0: 298a 46be 1eac 1ebe 06d2 1abe 6aa8 ccbd
0.08838391 -0.68211186 -0.06062438 0.03484676 0.00846261 0.20924927 0.19493419 0.15256958
0.089013174 -0.12918116 0.110040136 -0.19110815 0.20257004 0.093558766 -0.20158648 -0.014181012
-0.14842014 0.19602248 -0.10495481 0.46983585 0.03864436 -0.005227964 0.18234697 -0.15243825
-0.053133804 -0.07139347 0.033643637 -0.015548753 0.14984733 0.16779023 -0.22000669 0.18623656
-0.085705794 0.1692597 -0.098660916 0.21472353 -0.107846305 -0.12944959 0.14819649 -0.12979542
0.22053209 -0.017984435 -0.16562046 0.18317765 0.12392852 0.0011977553 -0.14700481 -0.20696276
0.09793511 0.17922345 0.006349027 -0.053609148 0.13567719 -0.09600729 0.19970396 -0.17911741
-0.17599896 -0.19803146 0.1107811 -0.19599324 0.089237764 -1.828509 0.20823933 -0.06934655
0.14935575 0.17815882 -0.2149676 -0.14769709 -0.041921932 0.013933682 0.028643742 0.058176868
0.14737855 0.07326482 0.07269756 0.06588552 0.10249602 -0.032657806 -0.1487035 -1.0345327
0.14199328 -0.14894384 0.007722169 0.0017475635 -0.20303068 0.14308575 0.110297054 0.124056935
-0.16168854 0.18379527 0.20162237 -0.13969293 -0.08434473 -0.2078311 0.094521046 -0.1461225
0.09558496 0.18690267 0.109003335 -0.14088081 -0.09176567 -0.19518445 -0.09039579 -0.15301272
0.14081591 0.10574898 -0.1725967 0.009586215 0.022506997 0.06535882 -0.028820843 0.16603592
0.06346968 0.14249799 -0.08050452 0.011904493 -0.0023400038 -0.09605479 0.19282293 -0.119066596
-0.11656313 -0.19767049 -0.047451675 0.14352483 0.090920776 0.22136259 -0.100765795 0.21632656
0.21642888 -0.14620462 0.112481356 -0.010099924 0.13874881 0.13893719 0.004185133 -0.18505338
-0.0017994363 0.012262254 0.11438189 -0.2576069 9.8288074e-05 -2.775496 -0.09940503 -0.17531818
-0.023773544 -0.18681496 -0.12145923 0.1984128 0.03471842 -0.14096723 0.20160474 -0.10535898
0.214021 0.04557915 0.07601795 0.110232204 -0.07058014 -0.19606411 0.079716966 0.3522566
-0.13870089 1.5249184 0.11942833 0.14415653 0.19808628 0.21773879 0.16192825 -0.153973
0.05078397 0.17793469 0.021367326 0.20682621 0.15406801 0.1357113 -0.092073426 -0.06927745
-0.13835561 0.2004044 -0.06943951 5.441897 -0.15919288 -0.010948507 0.0023260391 -0.2206579
-0.059215356 -0.20355691 0.045881648 0.09079405 -0.12051248 0.14025566 -0.022962974 0.12977803
0.08077499 -0.16865186 0.1124144 -0.09849193 -0.13537744 0.026623383 -0.03404383 -0.0028619275
0.15726916 -0.003982223 0.0027479718 -0.18323116 -0.14713834 0.19017038 -0.08847955 -0.20101996
-0.0308848 0.014843185 0.033288836 -0.20685866 0.100295305 -0.13189702 -0.064326026 -0.17392327
0.20674242 0.13887174 0.08805328 -0.02510765 0.116444066 -0.6781132 -0.16344056 -0.022653714
-0.039259326 0.17843181 -0.0010404462 -0.025615664 0.10992228 -0.14143744 -0.20711476 0.17081764
-0.049972817 -0.1116639 -0.03912174 0.20335832 0.056907687 -0.064299054 0.0648608 -0.07737787
-0.10281102 -0.1673735 0.16763121 -0.19379152 -0.06253603 0.1148386 0.2153388 -0.21076815
-0.08300188 0.17828676 -0.15972024 -0.06398551 -0.19388641 -0.15495345 -0.1511918 -0.0999306

critic.0.bias f4 [15]
00000000: 252b 373e f97f a2bc 8079 843d 706a 45be
00000010: a0f1 dc3d a072 17bd 3cea 273e 362d 613e
00000020: a49a 2e3e 8e90 d2bd 4bf0 523d e806 26bc
00000030: 542d 1cbe bc4a b83d ea26 16be
0.17887552 -0.019836413 0.06468487 -0.19278884 0.10788274 -0.03697455 0.16397947 0.21989903
0.17051178 -0.10281478 0.051498692 -0.0101334825 -0.15251666 0.089986295 -0.14663282

critic.3.weight f4 [15, 15]
00000000: 4768 193f 45e8 ff3a e295 10be 750a 8d3e
00000010: 5e5e 573e 46af 1e3e c0ff 4ebe 9aad 483f
00000020: b5fc a93e becc 41be d438 67bd a8de 533e
00000030: d051 043d 1b8b 5dbe e08c 173e e000 123f
00000040: 9e49 34bd d45c 6a3e 2669 253e 7a10 453e
00000050: c0ff 1c3e b51a 2f3b da59 303f e6b2 b6bf
00000060: 028e a9bd 9427 e8bd 4df2 943e ecce 4bbd
00000070: e6b8 733e 3669 913d 8ebe 80be 1b8e 6abe
00000080: 0050 efb8 02ba eabd caae 6abe 2072 c53d
00000090: 9f84 6abe 4951 9e3d 30a4 003e cd56 59be
000000a0: 865d 68bc 1d62 84bd 1622 7d3e fc5b 2abe
000000b0: 9cf4 3f3e 8482 203e 0027 81bd 607a 283c
000000c0: d4f5 0fbe 6bf0 03be 7a41 093e f353 df3e
000000d0: 2018 713d 8128 a7be 9f6e 4ebe 1459 4cbe
000000e0: a2b0 b8bd 480e c33d f209 613e 47c6 77be
000000f0: 40a2 c5bc c3c3 f23d 387c 993d 29e8 183e
00000100: 9edd 28be 2c90 0ebe d21b 36bb 9e08 0cbd
00000110: 6a20 40bd c4da 15be 8967 8bbd 9def e03d
00000120: 48c7 eabd 4845 4f3d 659b 40bd 961d 863d
00000130: 28b7 623e 24fd e03d 3eb5 5f3e b058 aa3d
00000140: c027 073e e455 d0be b154 323e db70 5c3e
00000150: c3b4 603d 796f 29be edaf 8f3e 98de 173d
00000160: 1507 08be b742 13be 6df6 4b3e a840 663e
00000170: f2cb 763e 8c02 0fbe 5431 11be 2070 253e
00000180: a6b0 9abd 07ab 1e3e 0749 f1bb 7702 27be
00000190: 3515 5fbe f78f 74be 92b5 773e 1e9a 343e
000001a0: f4dc 303c 75ce 52be e2de 6cbe 1284 783e
000001b0: e194 eebd 3a51 083e bcf8 54bd 8f10 9dbd
000001c0: 507e 4cbe 28c9 5dbe 9d03 e9bd b99a 34bb
000001d0: 0c3b 773d 315f 803e 8042 1a3d 5ef9 1abe
000001e0: 6422 953e 79ad d0bc 8a55 5e3e 1ab8 513e
000001f0: 9859 173d e0e5 ac3d 2eeb e0bc 90eb 163f
00000200: 5481 d23f 7797 d13c 38b2 033e 4524 79be
00000210: ca6a 173e 5c86 31bd c5e2 22be 1302 13be
00000220: 2f73 833e acc6 a93d cc8e 83be 84be 8d3d
00000230: 565c 7e3e 9061 72b9 a2fa 9ebd b576 a6bb
00000240: da48 03be 0a11 663d b0ac 72be f212 63be
00000250: ac96 b33d 9120 7f3e f14d c6bc 4c87 21be
00000260: 4c9d 533e 5ac8 d53d 34de e43d 0efe 3f3e
00000270: d0ec f3b9 2689 b9bd 640b 92ba d81d 7dbe
00000280: 9134 82bd 5c9b 53be 9e51 193e dd68 26be
00000290: 0003 233c 559c 69bd 5437 21bd 9423 ee3d
000002a0: 7b8f 2ebd 086e 4d3e d67c 5abe 3d27 cebc
000002b0: a327 0e3e 86bb 70be 7954 853d 8a7d 4c3d
000002c0: 5ba7 61be 6e42 29be 16ff 2ebe 3c57 4a3e
000002d0: 6e4b 38be a726 013e f81c 6f3e 5e93 1fbd
000002e0: f04d f13d 249e d6bd cadf 343f a294 22be
000002f0: 278d fabc 6bdd 4dbe 365c 0d3d d4b4 ffbd
00000300: 102c 79bd c87a 05be 15ba 4d3e 3539 e0bd
00000310: 7e94 ad3d 4ce8 bc3d 89cf 0bbd b0ef 663e
00000320: c06b f33c e7ed 21bc 4a9d e6bd 15fd 23bd
00000330: 399d 5bbe f133 df3d 675b dcbc 1e69 5b3e
00000340: dc6d 7bbd e68a 51be 3933 bfbd 0415 e93d
00000350: 8495 e73d 6a70 2c3e a6cc 403e 5081 823d
00000360: 44b2 7ebe 3cc6 663d fdc8 23be a55a 86be
00000370: 6c64 dcbd 5ec8 80be b015 2e3d 2081 03bc
00000380: 5288 9b3d
0.5992474 0.0019524178 -0.14119676 0.2754704 0.21032092 0.15496549 -0.20214748 0.78389895
0.33200613 -0.18925759 -0.05645068 0.20690405 0.032304585 -0.21635096 0.14799833 0.57032585
-0.04401552 0.22886974 0.16153392 0.19244567 0.15331936 0.00267188 0.688871 -1.4273345
-0.08279039 -0.11335674 0.2909111 -0.049757883 0.23801002 0.071001455 -0.25145382 -0.22905771
-0.00011411309 -0.114612594 -0.22918239 0.09640908 -0.22902153 0.07730348 0.12562633 -0.21224518
-0.014182454 -0.06464026 0.24720034 -0.16636652 0.18745655 0.15674788 -0.06306267 0.010283083
-0.1405862 -0.12884681 0.13403884 0.43618736 0.058860898 -0.3264809 -0.20159386 -0.19955856
-0.09018065 0.09524208 0.2197645 -0.2419673 -0.024125218 0.11853745 0.07494396 0.14932312
-0.1649079 -0.13922185 -0.0027787578 -0.034187905 -0.046905912 -0.14634234 -0.06806857 0.109832026
-0.11463791 0.05060318 -0.047023196 0.06548612 0.22140181 0.10985783 0.21846482 0.08317697
0.13198757 -0.4069053 0.1741512 0.21527426 0.054859888 -0.1654643 0.28063908 0.037077516
-0.13283952 -0.14380918 0.19918223 0.22485602 0.24101236 -0.13965815 -0.14178973 0.16156054
-0.07553224 0.15494929 -0.007363442 -0.16309534 -0.21785434 -0.23883043 0.24190357 0.17636916
0.010794867 -0.2058657 -0.23131898 0.24269131 -0.1164949 0.13312235 -0.051995024 -0.07669174
-0.1997006 -0.21658766 -0.11377642 -0.0027558042 0.060359046 0.25072625 0.037661076 -0.15134189
0.291278 -0.025473343 0.21712318 0.20480385 0.036950678 0.08442283 -0.027455892 0.5895319
1.6445718 0.02558492 0.12860954 -0.24330242 0.1478683 -0.043341026 -0.15906818 -0.1435626
0.25673816 0.08289847 -0.25694883 0.069211036 0.24839911 -0.00023115263 -0.07762648 -0.005080069
-0.1282076 0.056168593 -0.23698688 -0.22175196 0.08768973 0.24914767 -0.024207087 -0.15774268
0.20665473 0.10438605 0.111751944 0.18749258 -0.0004652501 -0.09059362 -0.0011142311 -0.24718416
-0.063576825 -0.20664734 0.1497254 -0.1625094 0.009949446 -0.057033855 -0.039359406 0.1162788
-0.042617302 0.20061505 -0.21336684 -0.025165195 0.13882308 -0.23509035 0.065102525 0.04992441
-0.22036497 -0.16529247 -0.17089495 0.1975984 -0.17997524 0.12612401 0.23350894 -0.0389589
0.117824435 -0.10479382 0.70653975 -0.15877011 -0.030584885 -0.20103996 0.034511767 -0.12485662
-0.060833037 -0.13035119 0.20090516 -0.109484114 0.08475588 0.092239946 -0.034133468 0.22552371
0.029714465 -0.0098833805 -0.11260469 -0.04003628 -0.21446694 0.10898579 -0.026899053 0.21426818
-0.061384067 -0.20463142 -0.09335942 0.113809615 0.11307815 0.16839758 0.18828067 0.06372321
-0.2487269 0.056341395 -0.1599464 -0.2624103 -0.107613415 -0.25152868 0.04250115 -0.008026391
0.075943604

critic.3.bias f4 [15]
00000000: b4f9 913b 2a97 07bb 1825 39be a88e 41be
00000010: 1e54 893e cd77 41be bb1a 68be d00d 84bc
00000020: 57a4 da3d 3b49 71bd d86e dcbd e978 02be
00000030: 98f9 ab3d a15d 923e 48cf 0dbe
0.0044548158 -0.0020689466 -0.18080556 -0.18902075 0.2682199 -0.18893357 -0.22666447 -0.016119868
0.106758766 -0.05890773 -0.10763329 -0.12741436 0.083972156 0.28587058 -0.13848603

critic.6.weight f4 [15, 15]
00000000: 0290 8fbd f397 13bf 4a97 583e f892 2b3e
00000010: 4515 123e 74d8 29bd 0bb0 e03d cfa9 82be
00000020: 8c51 5dbd ae93 433d f7b9 263d 814c 0dbd
00000030: 2e18 673f e317 853e ad9b 69be c74d f33e
00000040: ab96 483f 246b 52be 41ee c23e 7e38 4ebc
00000050: 117a 823e a26a 313e 9ba6 cbbd 00ca 8e3e
00000060: 4df3 eabd 38dd 7cbe 3c54 68bd 1e8e f3bc
00000070: 0194 fdbc 46ae 65be 636d c0bd 030a 4bbe
00000080: 8816 ca3c 842c 9bbe 8e15 6bbe 3751 94bd
00000090: 1493 26be a53e 67be df47 59be 1b2e adbd
000000a0: ac61 14be fd84 153d 83a1 32bf 9c42 6fbe
000000b0: 40cd 3fbe 18cd dd3e 23df 963e 1b53 70be
000000c0: afdf eb3d 0356 0cbd 9ebd c5bd b5ab ddbd
000000d0: 3aff 23be b518 173f 3565 82be 89be 71be
000000e0: 4168 d63c 0c50 043d 6230 10be 8529 39ba
000000f0: f476 d23d c41a 2fbe 0808 37bd 8f84 8ebd
00000100: 10e2 013e 0c31 d53d a9a5 17be fd6e 40be
00000110: 6d1e e2bd 55ca 0e3e 7019 3ebd 2b7a 5dbe
00000120: e994 64be 4b7d 723c 2938 79be 6c5e c4bc
00000130: c14f 483e 8631 6fbe 247f ecbd 23b1 7abd
00000140: bc87 18be 6335 20be fce0 51bd db7e 47be
00000150: 0d30 be3d d207 883c 7761 ae3d f95a 193d
00000160: 27a1 80bd ffe5 263e 847b ee3e 0c35 b03e
00000170: a589 8c3e b469 113f 1358 02be fa4b 533e
00000180: 3a3a a23d e752 2b3d 3eed f8be 37b2 04be
00000190: 60fb 163d c02b c4bd a7ab 69be 5f73 8e3d
000001a0: 4b4d 76be e52c ba3e 817f b03e 4134 53be
000001b0: 9c5a be3e 836b 733b da24 f8bd 2ec1 253d
000001c0: caba 36be 72f6 083f ebea 5d3e f074 473d
000001d0: 028d 103e 9b97 ccbd 5636 6d3e 9590 693e
000001e0: fd99 9ebb 9f19 29be 5b26 c3bc c947 e3bd
000001f0: 82df f03d c290 2abc 2c09 45be 7e7e a3bb
00000200: 0598 b5bc a02e 47be be51 95bd 89bf 6dbe
00000210: a42f 4abc 55e7 a63d 6d6a d7bd b07e 8ebe
00000220: 2017 7a3d d602 a93d 0ce3 91bc 10ad 65be
00000230: daaa 88bc 5af6 31b9 71a8 68be 4286 93bd
00000240: 7dcc 76be 021e 70bc 6e3e cc3c f6eb d5bd
00000250: 1fae 0d3e 2c18 12be 955a e43e 8aec 983e
00000260: 0523 813e 6fa4 dfbe 4ebe 523e cda7 b2bc
00000270: 4b85 78be 71d5 c2bd 959f 943e fd0f 23be
00000280: 0a6f 1f3e 3a22 3bbd ed73 70bf f841 48be
00000290: 79a7 fb3d 1c1d dabe b085 8ebe 2575 7b3e
000002a0: 71cf 7cbd 2eec ea3d 77dc 183e 2e15 93bd
000002b0: 472c 0ebe 45b3 ccbd e5ad f13d 3670 18be
000002c0: b603 123e a61c fc3e e1d9 8ebc ae6b c2bc
000002d0: a9d5 a0bd 161f 19be 51b8 96bd 4be1 233f
000002e0: 373b 0f3e 8aa8 96be 1e9c 10be 110f 90bc
000002f0: 956a a4bd 25f2 603d 4f3b 433e 8d98 053e
00000300: 87d8 793f a6ec ba3c ee2c 423e 404a 933d
00000310: 7758 f2bd 1c29 cb3b 04f8 c0be 606f 6e3d
00000320: c4f5 6a3d 79d8 be3c 3831 e4be d143 0cbe
00000330: ccb1 693b 2d4a f53d ae8e 5ebc 5b18 63bf
00000340: 64b2 923d fdfe 943c c49a 3abe 1a16 093e
00000350: 96c1 23bd 82e5 0b3e deb2 483e 86f5 17be
00000360: 3910 5fbe f468 a2bf edcf 3b3f 3688 46be
00000370: 788b 213d c419 00be e31f b3bb 2a40 25be
00000380: d824 593e
-0.07009889 -0.5765373 0.21151462 0.16755283 0.14265926 -0.04146619 0.109710775 -0.2552018
-0.054032847 0.04774826 0.040704694 -0.034496788 0.9027127 0.25994787 -0.22813292 0.47520277
0.783549 -0.20548683 0.38072398 -0.012586711 0.25483754 0.17325833 -0.09943887 0.2788849
-0.11472187 -0.24693763 -0.056720957 -0.029730853 -0.030954363 -0.22429761 -0.09395864 -0.19828038
0.024668947 -0.303074 -0.22957441 -0.07242053 -0.16267043 -0.2258249 -0.21218823 -0.084560595
-0.14490384 0.03650378 -0.697777 -0.23365253 -0.1873064 0.43320537 0.29467115 -0.23469202
0.11517274 -0.034261715 -0.09655307 -0.10823766 -0.1601533 0.59022075 -0.2546784 -0.2360784
0.026172759 0.0323029 -0.14080957 -0.0007063377 0.10276595 -0.17100054 -0.044685394 -0.06958877
0.12683892 0.104097456 -0.14809288 -0.18792339 -0.110409595 0.13944371 -0.046410978 -0.21628635
-0.2232243 0.01480038 -0.2433783 -0.023970805 0.19561674 -0.23358735 -0.11547688 -0.061204087
-0.14895529 -0.15645365 -0.051239952 -0.19481985 0.09286509 0.016605292 0.08514684 0.037440274
-0.06280737 0.16298674 0.4657861 0.34415472 0.27448764 0.56801915 -0.1272891 0.20634452
0.07921262 0.04182711 -0.486185 -0.12958609 0.036860824 -0.09578657 -0.22819386 0.06955599
-0.24052922 0.36362377 0.34472278 -0.20625402 0.37178504 0.003714294 -0.12116404 0.040467434
-0.17844692 0.53501046 0.21671645 0.048695505 0.1411629 -0.09989854 0.23165259 0.2280906
-0.004840134 -0.1651368 -0.023822 -0.11097676 0.11761381 -0.0104104895 -0.1924178 -0.0049894443
-0.022167215 -0.1945138 -0.07290982 -0.23217596 -0.01234046 0.08149592 -0.10518346 -0.2783103
0.06105721 0.08252494 -0.01780846 -0.224293 -0.01668303 -0.00016971809 -0.22720505 -0.07203342
-0.24101444 -0.014655592 0.024932113 -0.104453966 0.13835953 -0.14267033 0.4460036 0.29867965
0.2522203 -0.4368014 0.20580408 -0.02180853 -0.24269597 -0.09513367 0.29028 -0.15924068
0.15569702 -0.045686938 -0.9392689 -0.19556415 0.12287802 -0.42600334 -0.2783637 0.24556406
-0.06172127 0.11470829 0.1492785 -0.07181774 -0.13884078 -0.099951304 0.11800746 -0.14886555
0.14259228 0.49240607 -0.017437877 -0.023732986 -0.078532524 -0.14953265 -0.07359374 0.64015645
0.13987432 -0.2942546 -0.14122054 -0.01758531 -0.080281414 0.054918427 0.19065593 0.13046475
0.9759602 0.02281792 0.18962452 0.071918964 -0.118332796 0.006199969 -0.3768922 0.058211684
0.057363287 0.023296582 -0.445688 -0.13697745 0.0035658954 0.119770385 -0.013583822 -0.8870904
0.071629316 0.018187994 -0.18223101 0.13387337 -0.03997954 0.13661769 0.19599482 -0.14839754
-0.21783532 -1.2688279 0.73364145 -0.19387898 0.03943965 -0.12509829 -0.0054664477 -0.16137758
0.21205461

critic.6.bias f4 [15]
00000000: a8f7 87ba 6d31 4dbe 0248 04bc 10c4 a3bc
00000010: 214f 183c c475 1fbe 088b 42bc 75f9 2fbc
00000020: b6d9 c9bd e2b7 833b dd90 183b ba03 cbbd
00000030: bac6 0cbb 8054 0a3e aaf8 81be
-0.001037349 -0.20038386 -0.008073809 -0.01999095 0.00929621 -0.15572268 -0.011873968 -0.010740628
-0.09855978 0.0040197233 0.0023279705 -0.0991282 -0.0021480755 0.13508797 -0.25385028

critic.9.weight f4 [15, 15]
00000000: dc16 4fbb dce6 29be a756 523e d479 ecbe
00000010: fcbf 47be 03d8 743e 0ec5 dc3d 5edd 9bbe
00000020: b971 e83d 1ccc 73be c8e8 49bc fc87 7839
00000030: 48a4 633e bcf5 68be 9465 7bbd b0c8 81be
00000040: 4267 9b3d 3da1 eebd 5aa5 51bd 054b 9dbc
00000050: fff5 25be 8479 5b3e adb8 873e 3bc9 56bd
00000060: bf1e f8bd 4726 3a3e 415b e23a e908 3ebe
00000070: 8f5c 503e 3ee7 adbd da6a d53e aa0c bd3f
00000080: 6b7b 1b3e e0bb 233f 1c5f f53d fed1 24be
00000090: cd8b eb3f ac69 613e 0fa2 5ebe 0617 d33d
000000a0: 3ba7 8d3e 9c85 8f3f ac6a 4e3f 689c 5ebe
000000b0: 09ab ebbe 44cc 27bd 8041 f6be df14 5fbe
000000c0: 188c ab3d e1a7 583e 03e8 063c 7a02 eabc
000000d0: c1fc f53d 08ab 0abe d480 403e a609 843e
000000e0: 429c 61be 942d 1abe 1e51 7abe bd9a aa3e
000000f0: 6993 2dbe ae19 0b3e e4a5 f7bb 69f9 e1bd
00000100: 501f 0abe 12ed 8abd 653b 97bd 800e bfbd
00000110: 0fd1 51be 49a1 fc3b 407d 71bd 3a23 a2bd
00000120: d172 3c3c d2e6 e8bc 133e 56be 8280 c6be
00000130: a8d8 8abe 7afb 2a3d e64a 1cbe b82d 31be
00000140: 367e 603e 6902 44bf 1361 bbbe 3e15 46bd
00000150: 9301 84bd dde8 73be 5014 29be b93b e5be
00000160: b398 72bc 9715 57be c5f7 3dbe 163b 41bf
00000170: 4bc6 af3d 598e 9dbe 40f9 48be 6b89 393e
00000180: 4b7c e4be 4628 2fbe e753 cbbd 72e3 21be
00000190: cd74 493e becd 703d 6872 4cbd ca09 1bbe
000001a0: f50c cdbe 6c4f 29be 2901 8f3e bf44 57be
000001b0: d9f3 c33d a84c 193e 2bfe 153e 5d47 74be
000001c0: a12c 89be 844d 40be 3e99 32be f12d 49bd
000001d0: 6f01 7cbe 8547 e13d 68d5 ad3b b55c 47bd
000001e0: 1ee5 04bf 700b 9c3e 9729 49bd 081f 3fbe
000001f0: 0417 033e 8e86 38bd 3bdb b5bd 8fad 36be
00000200: 0167 3dbe dfcb aebd 55e4 55be acf0 10bf
00000210: aa69 15bf f381 99bd d4b7 93be 7da0 9ebd
00000220: 68e7 be3f 665c fbbd 2302 6c3f 964d 923d
00000230: 3f2c 283d b1ec 3a3f 5d6e 353f cfd7 ce3d
00000240: 389c 543d 8971 9a3e 2915 023e f21d 94bd
00000250: 6c17 fabd a090 0b3f f429 81be 27c3 56be
00000260: 6764 b9bd 550e cb3d 33a3 e0bd 3d5c 2d3e
00000270: c223 6dbe 3ec0 463e 18aa ebbd 86d4 cbbc
00000280: 52d4 76be 1a60 2fbd 8af7 a2be 9ca8 2fbe
00000290: 6b04 853e 554a 66be 6add c6be 6c35 7cbe
000002a0: d12e 68be 04e4 b9bd fc9c 5abe 414f 5cbd
000002b0: 89b1 a0be fd18 56be ba0c ec3d 52f1 69be
000002c0: 1ab0 ccbd b4eb ed3c 49a2 a23d 2e46 71be
000002d0: a80d 9abd f827 28be 7589 8abd 8211 e3bd
000002e0: 2cc8 173e 67a2 df3d 2084 813d 0145 a6bd
000002f0: 013d 4c3e 12d9 82be 4876 45be d73d b4bd
00000300: 748f ecbe c69b 723d 2483 63bb 0d3f febf
00000310: a112 9bbd 3ea4 3cbf 129c 873d 743f 57be
00000320: 53d5 083d f480 1cbd 0eba 8fbd deff a23c
00000330: 8c09 32be 8010 97bf f5aa 08bf 43da 12c0
00000340: c720 7cbf 64c7 22be 67e8 653e 92d7 df3e
00000350: 8117 71bc 5cef 25be 7a12 1f3e 5f91 d1bd
00000360: b824 023f a56a 89be 9fa7 7fbd ba59 84bd
00000370: 443d c6be ece9 e33e 0df0 083e e3d3 01be
00000380: 3e61 22be
-0.0031599319 -0.16591972 0.20540868 -0.46186697 -0.1950683 0.23910527 0.10779773 -0.30442327
0.11349816 -0.2380833 -0.012323566 0.00023701781 0.22230637 -0.2274999 -0.06137617 -0.25348425
0.07588054 -0.116518475 -0.051183082 -0.019200811 -0.16207121 0.21433073 0.26508084 -0.052438002
-0.12115239 0.18178664 0.0017269627 -0.18558086 0.20347808 -0.084913716 0.41683084 1.476949
0.15183799 0.6395855 0.11981031 -0.1609573 1.8402039 0.22012967 -0.21741508 0.10307126
0.2766665 1.1212649 0.8063152 -0.21739352 -0.46028927 -0.040966287 -0.48096848 -0.21785305
0.0837633 0.2115779 0.008234027 -0.028565634 0.120110996 -0.13541806 0.18799144 0.2578861
-0.22032264 -0.15056449 -0.24445006 0.3332118 -0.16950764 0.13584015 -0.0075576175 -0.11033899
-0.13488507 -0.06783499 -0.073843755 -0.093289375 -0.20489906 0.0077096564 -0.05895734 -0.07916875
0.011501984 -0.028430376 -0.20922117 -0.3876992 -0.2711842 0.041743733 -0.15262946 -0.17302597
0.21923146 -0.7656618 -0.365975 -0.048360102 -0.06445613 -0.23819299 -0.16511655 -0.44772127
-0.014806914 -0.2100433 -0.18551548 -0.75480783 0.08582743 -0.30772665 -0.19626331 0.18118827
-0.44626078 -0.17105207 -0.099281125 -0.1580942 0.19673462 0.05878996 -0.049913794 -0.15140453
-0.40048948 -0.16534203 0.27930573 -0.21022318 0.095679946 0.14970648 0.14647739 -0.23855348
-0.26791862 -0.1877957 -0.1744127 -0.04911608 -0.24609922 0.109999694 0.005304981 -0.048672397
-0.51912105 0.30477476 -0.04911193 -0.18664181 0.12801749 -0.045050196 -0.088797055 -0.17839645
-0.18496324 -0.08534979 -0.20887883 -0.56617236 -0.58364356 -0.07495489 -0.28851187 -0.077454545
1.491437 -0.12273483 0.9219076 0.071437046 0.04105782 0.7301741 0.70871526 0.10099756
0.051906794 0.30164745 0.12703384 -0.07232274 -0.122114986 0.54517555 -0.2522732 -0.20972882
-0.09052353 0.09914843 -0.10968628 0.16929717 -0.23158172 0.19409272 -0.11507052 -0.024881613
-0.24104431 -0.04281626 -0.31829482 -0.17154163 0.25979933 -0.22489293 -0.388408 -0.24629754
-0.22674109 -0.09076694 -0.21348947 -0.05378652 -0.3138545 -0.2090797 0.11525865 -0.22845963
-0.09994526 0.029043056 0.0794111 -0.23561928 -0.07522136 -0.16421497 -0.06764499 -0.11087324
0.14822453 0.10919648 0.06324029 -0.0811863 0.19945146 -0.25556237 -0.19283402 -0.088008575
-0.46203196 0.05923059 -0.0034715617 -1.9862992 -0.075719126 -0.73688114 0.06621565 -0.21020299
0.033406567 -0.038208917 -0.07017909 0.019897398 -0.17386454 -1.180191 -0.5338586 -2.2945716
-0.98487514 -0.15896374 0.22451936 0.43719155 -0.014715076 -0.1620459 0.15534392 -0.102328055
0.5083728 -0.26839176 -0.062415715 -0.064624265 -0.38718617 0.44514406 0.13372822 -0.12678485
-0.15857407

critic.9.bias f4 [15]
00000000: bb17 c5bb a42b 123e 92d1 6bbe 9df7 6b3d
00000010: 2baf c03d 1b51 ea3d 0b97 68bc 7366 503e
00000020: deb1 163e 31cd dabd 3611 043e ff6d a43d
00000030: 47d0 02be 3f29 84bd d5a5 3b3e
-0.006014792 0.1427446 -0.23029163 0.05760919 0.09408411 0.11441251 -0.014196168 0.20351581
0.14716288 -0.106836684 0.1289719 0.080287926 -0.12774764 -0.064531796 0.18324979

critic.12.weight f4 [15, 15]
00000000: cbda ce3e da7a 6abe 1088 8e3f 676f 783e
00000010: 34b3 c1bd 9e63 7dbd 7277 3b3e 1071 76bd
00000020: 8f55 1dbd 4511 e43f 696e c23d 945f 903d
00000030: fcf0 883d 69bb 10be 4ce3 efbd 16be 5ebe
00000040: 7564 88bd 44fd 053d 4bf5 64be ac76 cb3d
00000050: d162 37be 33bc ceba 3d1a b83d 2745 09bd
00000060: 50d5 123f 1cf9 1abe 1f5d 363e 55c7 a0bd
00000070: 05a4 283d e1ae 0bbe 70bb b7bd 72e4 7bbe
00000080: 7fbe 7a3e 9d17 5dbd df16 133e 14a3 bf3d
00000090: 25bd 87be bea6 e3bd 86ca 92be 683e 08be
000000a0: 9995 693e ee70 13bd 0b62 1fbe 9c92 77be
000000b0: f782 6abd a72b 08be a59f 6e3e b8c9 5fbe
000000c0: bf61 553e e5ca 05be 358a 63be f5a9 a63d
000000d0: fd25 2ebd 8935 613e 26cb 76bd 380a 873e
000000e0: 3b95 64be a93f 3ebe 7f9b 72bb 4ce3 97bc
000000f0: d293 5b40 9fa4 febc a8f6 17bf 780f 123f
00000100: 9810 30bd 28b7 803d 6d65 ce3f f477 273d
00000110: e9c4 173e 1851 1a40 f1df 89be 0665 debd
00000120: e5e7 71be 843e 2dbe 2c7c a93e 6b06 75be
00000130: a227 6f3d f83c 1a40 7051 2b3e d2d5 0fbe
00000140: d02a 0e40 6984 d640 0db2 9c3d 765c 07be
00000150: 5998 61be ad35 16be 2fe3 2bbc be38 4940
00000160: 282d 723c 683b e4bd 8088 bfbb 0014 603e
00000170: f44d 9b3e 62f5 043e a3f4 403d e6bc 86bd
00000180: 5c52 b13d 14d6 b0bd 9f0e fc3d e556 8dbd
00000190: 29b0 3c3e a932 81be fd8f 353a f7e3 2b3e
000001a0: 402a dbbd 2027 27c0 18de 463e de1c 1d3d
000001b0: 70b8 18be 8bc9 65be 3702 81bd bb24 d8bf
000001c0: 7163 113c 0604 4dbe f3a8 e9bf 6073 c23d
000001d0: 723c 763d fce8 ff3d 5bc3 693e 2df8 033f
000001e0: 9255 11bd ab73 12be 31ba 03bd 3fdb 0d3e
000001f0: aa4f 473e 62ab 80bc 7898 7dbd 8658 c5bd
00000200: bb18 88be 35ff 27bd 06b9 77be d54d fa3d
00000210: e659 473d da80 53be 8301 ccbd 020e ff3c
00000220: c5cf 51bd c12b bd3e b558 22be bf12 babd
00000230: cabc 1d3d 692f d2bd d0d1 30be 39c0 62be
00000240: 29e7 f7be e379 04bd f27f f73d c154 4dbe
00000250: 01d9 3d3e 9353 13bc c459 5b3d 1178 213e
00000260: 2a79 42bf d96f 843d 6963 1bbe 4349 ffbc
00000270: 67f5 06be 86ee 59be 0b1e 2a3e 3267 5ebd
00000280: 6696 3e3e 52e4 e33d 9237 2cbe ecb0 f53b
00000290: 3320 dcbe d14f 29be a96e 783d 7bc9 88bd
000002a0: ff77 72be 2d12 e9bd 5f21 6fbc 4016 20be
000002b0: 880e 6abe 31c5 743e e10b e13d b7ee 26be
000002c0: 9b62 123e c8ea debc 0afb 3abe 12c0 81bd
000002d0: 6d92 c33e a445 4fbe 6094 a2bd 610d 26be
000002e0: 1d87 2abe df6c 94bd a84d f63e 5f9c f7bd
000002f0: 1bbc 253e 536f 3fbc 3847 723e d681 773e
00000300: a27c 953e 0a67 d0bd 43d3 743e d430 e8bd
00000310: 688d 3cbe dc8f 63be f3b2 ee3d f91c 8d3d
00000320: 05cb c63d ffa0 2ebe 1cb5 273e dfac 3ebe
00000330: 18b1 8d3e ac94 edbd 3968 563e 5d66 7e3d
00000340: c7a1 683e 9028 b73d dec9 d6bf 5867 45bd
00000350: 8b37 80be 5d4f a7be 3419 33be ec7f ce3d
00000360: 9b00 88bf ee44 3dbd f85d 3b3e 76cf 8bbf
00000370: 4f8e 2a3e c0ab d33d a612 223e d177 5a3e
00000380: 3fe1 90bd
0.404013 -0.22898427 1.1135273 0.24261247 -0.094580084 -0.06186258 0.18307284 -0.06016642
-0.038411673 1.781777 0.09493715 0.0704948 0.06686589 -0.14133991 -0.11713275 -0.217522
-0.06659786 0.032712236 -0.22359197 0.09934744 -0.17908789 -0.001577264 0.089893796 -0.033513214
0.5735674 -0.1513409 0.1780896 -0.078505196 0.041172046 -0.1364093 -0.08971298 -0.24598864
0.24486731 -0.053977598 0.14364193 0.093572766 -0.26511493 -0.11115788 -0.28670138 -0.13305056
0.22810973 -0.03599637 -0.15564744 -0.24177021 -0.057253804 -0.13297902 0.23303087 -0.21854293
0.20838068 -0.1306568 -0.2222069 0.081378855 -0.042516697 0.21993078 -0.06025233 0.26374984
-0.22322552 -0.18578972 -0.0037018952 -0.018541 3.4308972 -0.031084357 -0.5936074 0.57054853
-0.042984575 0.06284934 1.6124703 0.04088588 0.14821209 2.4111996 -0.26928666 -0.108591124
-0.23623617 -0.16918379 0.33102548 -0.2392823 0.058387406 2.4099712 0.16730285 -0.1404641
2.221363 6.7036633 0.07651148 -0.13218865 -0.22030772 -0.14668913 -0.0104911765 3.1440883
0.014781274 -0.11144143 -0.0058451295 0.2188263 0.3033291 0.12984231 0.047108304 -0.06578998
0.08658287 -0.08634582 0.12307476 -0.069013394 0.18426575 -0.25233963 0.0006926058 0.1678618
-0.10701418 -2.611763 0.1942066 0.038357608 -0.14914107 -0.22440164 -0.062992506 -1.6886209
0.008873806 -0.20021066 -1.8254684 0.09494662 0.06011624 0.1249561 0.22828428 0.5155056
-0.035481997 -0.14301936 -0.032159988 0.13853167 0.19463983 -0.015706722 -0.061912984 -0.09636025
-0.26581368 -0.04101487 -0.24191675 0.122218765 0.04866972 -0.20654622 -0.09961226 0.03113461
-0.051223535 0.36947444 -0.15854152 -0.09085607 0.03851012 -0.10262949 -0.17267537 -0.2214364
-0.4841855 -0.032342803 0.120849505 -0.20051862 0.18539812 -0.008992094 0.053552404 0.15768458
-0.7596613 0.06466646 -0.1517464 -0.031162864 -0.13179551 -0.21282396 0.16613023 -0.054297633
0.1861206 0.11127533 -0.16818073 0.0074978974 -0.42993316 -0.16534354 0.06065241 -0.06679054
-0.23678587 -0.1138042 -0.014595359 -0.15633488 -0.22857106 0.23903348 0.10988594 -0.16302
0.14295428 -0.027211562 -0.18259826 -0.06335463 0.38197652 -0.2024141 -0.079384565 -0.16216041
-0.16653104 -0.07247328 0.48106122 -0.12090372 0.16185038 -0.011684257 0.2365998 0.24170622
0.2919665 -0.10175903 0.23908715 -0.11337438 -0.18413317 -0.22222847 0.116552256 0.06890292
0.09706692 -0.17053603 0.16377681 -0.18620633 0.27674174 -0.116006225 0.20938195 0.06210934
0.22717963 0.089432836 -1.6780355 -0.04819426 -0.25042376 -0.32677737 -0.17490083 0.10082993
-1.0625185 -0.046208315 0.18297565 -1.0922687 0.16655849 0.10335493 0.15827426 0.21334769
-0.07074212

critic.12.bias f4 [15]
00000000: 6ee0 3dbe d84c 6dbd 6db9 193d e5e3 8ebc
00000010: ec6e 8bbe d17d 6ebe 6efb 06be d987 60be
00000020: 23e6 873c 41ae ccbd 0aa1 98bd 923a 1b3d
00000030: a11c c2bd 8a3a 7cbc cb82 a5bc
-0.18542644 -0.057934612 0.03753035 -0.017442653 -0.27233064 -0.23290183 -0.1318185 -0.21926822
0.01658923 -0.09994174 -0.07452591 0.037897654 -0.09478117 -0.015394816 -0.020203969

critic.15.weight f4 [15, 15]
00000000: 3380 053e 026e 5bbe af6f 58be ea72 3cbd
00000010: e35d 13be 3e1c 5a3e 8b18 293e e4a5 edbd
00000020: 676d 443d 4ec9 55be affa 88bd f95d a33d
00000030: 9f33 9cbe 414c d23d 0119 323e e474 e83f
00000040: dcfa 503e 18fa e93c 4690 0bbc b2ed 1e3f
00000050: 7ed3 91be 37d1 e53d 484f 313f a8ca 843e
00000060: cb9c 0ebd de6f 863f 3c37 64be 97ac 62bc
00000070: 61dd f0bd 0643 a03e f989 a5bd 85c0 7d3d
00000080: f00a 32be 2df7 703e da60 f1bd 8798 92bd
00000090: 0ea3 debd 78ac b73d ce11 8f3d 91bd 05bc
000000a0: 31a7 83be 762e 35be b849 d3bd 7d6e 61be
000000b0: 4e4a 663e b5be 003e 8111 76be 49cb 3cbe
000000c0: ce7d 303d ab9a 1cbe ba61 3cbd 753b 093e
000000d0: a237 32be ba42 2dbd 99b6 0c3e 2fa1 6a3e
000000e0: 9913 eebc 0359 b3bd 6600 9b3d 1a4e 3dbe
000000f0: 4911 78be 4fa3 82bd 1446 55be 52a5 d9bd
00000100: d29b c5bd 7518 37bf 2e58 4cbb be7c 4e3d
00000110: 8596 fb3d 9c22 ce3d 5853 3c3e 5ae5 d9bd
00000120: 6d50 67be 11ad 0ebe 1118 acbc 03a6 febc
00000130: e965 ca3e 73b1 97bd 2208 563e cc8f cbba
00000140: bd64 37bd 1ab4 bcbc 3699 6e3d ffe5 eabd
00000150: cb73 acbd 2ce4 a1bd 2ab6 823e 3ca6 4bbe
00000160: a274 f4bd 5e14 523e cf07 b23d d602 07be
00000170: 3a22 603e e29b 223c c630 ac3e 4ae5 febd
00000180: 3e7e 723d 72a5 f13d d5fc 713e e77e 6c3e
00000190: 0204 49be f4ac 35be a0c9 d53c 2cde 983e
000001a0: 2a15 5dbe e538 b140 a016 ea3c 9eab e93d
000001b0: fadb ffbd aa5b f13f 2637 c1be 838d 3c3e
000001c0: ef07 a73f b03b 273e c4fd 3b3e d489 3540
000001d0: 23ed 20be 5b69 4abe 54e3 68be 22d1 ba3f
000001e0: 99f3 07bd a016 24be de2f 80be d781 08be
000001f0: 2450 e8ba 086f 67be ea41 0f3d 14d8 313e
00000200: 1300 05be 5c0b ac3d 6c24 f4bd 5751 46be
00000210: 4f58 923e 9dc0 bfbd 05ce ef3c f4f0 37be
00000220: 9c85 873d 3793 5bbe f4e5 613d 5ca1 443e
00000230: 6c3b 91bf aeb7 bf3d e1dd ee3d 9c94 41bd
00000240: 53ce 95be 4766 583d 3f04 c7bc 5433 2dbc
00000250: 3fa3 f13d 509e 1fbe 31a1 d5bd 850d 083e
00000260: 55aa 3a3d 8287 c7bc ec0a 163e c13e e43f
00000270: 7aa4 7dbe 5302 04be 4dd9 233d 8890 8f3e
00000280: 4448 3abe 3310 26be d458 ebbd 8d95 0e3e
00000290: 296d 8bbe cb6b 30c0 6872 33bf 213d 153e
000002a0: 3555 46be c6e3 88bf fae8 ccbe 0d08 543e
000002b0: f936 12bf 909a 29be 80fc d4bd 9658 e2bf
000002c0: c3b2 103e a293 4e3e 8e97 5a3d 147c 87bf
000002d0: 8121 7840 0a26 253d 01df 5e3c a8bf 4f3d
000002e0: d3a3 a73f 4606 e93e 7b38 91be c8c5 6b3f
000002f0: f3a6 bcbd c535 a1be 99d2 1540 1c0d ca3d
00000300: 2d2c 563d 1ccf 9d3e 30d0 a53f 0e5e 33be
00000310: 4d5e e9bd 842a aebc 7b6b 74bd 2ea6 43bd
00000320: 4ac7 10bd 135b e6bd d8a0 543d 9f32 04bc
00000330: 9ebc ad3d 43ba 093e 4e1c 7e3d 9b6e 1bbd
00000340: 96d5 9ebd 9577 fdbc b4e8 40be 98ea f5bd
00000350: 76ae 0a3e 9464 9e3b 3a27 1e3d 5a17 5bbe
00000360: 5dcd 9f3d 3612 f53c 9904 d93d 7fd3 60be
00000370: feb6 9bbd 7d96 8f3d 2870 8c3d 83ac 6dbe
00000380: 0aba 86be
0.13037185 -0.21428683 -0.21136354 -0.046008028 -0.14391284 0.21299836 0.16513269 -0.11603907
0.047955897 -0.20877573 -0.06688439 0.07976908 -0.30508134 0.102684505 0.1739235 1.8160672
0.20408195 0.028561637 -0.008518284 0.62081444 -0.28481668 0.11221545 0.692616 0.25935864
-0.0348175 1.0502889 -0.22286695 -0.013835094 -0.11760975 0.31301135 -0.08082957 0.06195118
-0.17386985 0.2353179 -0.11786051 -0.071579985 -0.10870944 0.08968443 0.06985818 -0.008162872
-0.25713494 -0.17693505 -0.10316795 -0.22014804 0.22489282 0.12572749 -0.24030115 -0.18436922
0.043088727 -0.15293376 -0.045991637 0.13401587 -0.17404035 -0.042299964 0.1374153 0.22913049
-0.02906208 -0.08757212 0.07568435 -0.18486825 -0.24225344 -0.06378805 -0.20827514 -0.106272355
-0.09648861 -0.71521693 -0.003118049 0.050411932 0.12284569 0.10065195 0.18391168 -0.106394485
-0.22589274 -0.13933207 -0.02100757 -0.03108502 0.39530876 -0.07406893 0.2090154 -0.0015530526
-0.044773806 -0.023035098 0.058251582 -0.114696495 -0.08420523 -0.079048485 0.25529605 -0.19887632
-0.119363084 0.20515582 0.086928956 -0.13184676 0.21888056 0.009924861 0.3363096 -0.12446077
0.059202425 0.11799134 0.23631604 0.23095284 -0.19630435 -0.17741758 0.026097119 0.29857004
-0.21590105 5.538195 0.028575242 0.114096865 -0.12493129 1.8856099 -0.37737387 0.18413357
1.3049296 0.16331363 0.18358523 2.8365374 -0.1571546 -0.19766752 -0.22742969 1.4595072
-0.033191297 -0.16024256 -0.2503652 -0.1333078 -0.0017724079 -0.22600949 0.03497497 0.17367584
-0.1298831 0.08400604 -0.119210094 -0.19366966 0.28583 -0.0936291 0.029273042 -0.1796301
0.06617281 -0.21442877 0.05515094 0.19202179 -1.1346259 0.09361206 0.11663414 -0.047260866
-0.29258975 0.052831914 -0.024294017 -0.01057132 0.11798715 -0.15587735 -0.104311354 0.13286407
0.045572598 -0.024356607 0.14652604 1.7831651 -0.24769774 -0.12891512 0.040002156 0.28039956
-0.1819163 -0.16217117 -0.11491552 0.13924237 -0.2723172 -2.7565792 -0.70096445 0.145741
-0.19368441 -1.0694511 -0.40021497 0.20706196 -0.5711513 -0.16562867 -0.10399723 -1.7683284
0.14130692 0.20173505 0.05336719 -1.0584741 3.877045 0.04031948 0.013602973 0.050719887
1.309687 0.455126 -0.28363404 0.92098665 -0.092115305 -0.31486335 2.3409789 0.09865782
0.052288223 0.30822074 1.2954159 -0.17516348 -0.113949396 -0.021260507 -0.059672814 -0.047765903
-0.035346307 -0.1124784 0.051911205 -0.00806871 0.084832415 0.1344996 0.062038712 -0.03794728
-0.07755582 -0.03094081 -0.18838769 -0.12007636 0.13543114 0.004833767 0.038611628 -0.21395627
0.07802842 0.02991591 0.1059658 -0.2195568 -0.07603262 0.07011125 0.068573296 -0.23210339
-0.26313812

critic.15.bias f4 [15]
00000000: 41a0 e63d bea5 ebbc 3be2 003d 9ad2 28be
00000010: 1f62 61bb c6b5 82be a6a7 87bd 07b7 8cbe
00000020: af72 6cbd 6ccf 30be 6d3e 76be 7538 88bc
00000030: ede8 49be 4e39 bb3d 2773 e4bd
0.11261035 -0.028765555 0.03146575 -0.16486588 -0.003439076 -0.25529307 -0.06623773 -0.2748339
-0.05772656 -0.17266625 -0.24047251 -0.016628483 -0.1971776 0.091417894 -0.11154776

critic.18.weight f4 [15, 15]
00000000: a4f2 5dbe 1187 b2bb 8a25 a93d c245 c2bd
00000010: a96c db3d 02f4 9f3d cf2f 53be 3ac3 f9bd
00000020: bc28 093e ea28 2c3e 5987 80bb c365 32be
00000030: 289a b0be a4aa 283e 5203 74be bce5 4ebe
00000040: 449d 28be b8d7 f3bd 6ca2 4bbe f6bc 72be
00000050: dfd1 203e 2d02 c4bc 366f 7abd c16e 993d
00000060: 29d4 6d3e a5e8 cdbd 26d5 4bbd dbca 0ebe
00000070: bf35 20bc 7209 623d 7b69 cfbd 4423 c340
00000080: 5095 273d 2e12 7b3d 2053 c3bf ba1a 3d3d
00000090: b5ed 04be 14a1 45bf c6c9 84bd bf76 25bf
000000a0: a455 d0bf 8de8 7740 88fd 25be dfd1 d63d
000000b0: 775e 9a3d 87d2 cbbc a120 24c1 3803 1e3e
000000c0: 48cb 81bb 7a3b 1ebe 5167 433e a280 7c3e
000000d0: 1fb7 cdbe 168c 873e 236f 5abe 1466 6c3f
000000e0: a067 c4c0 bd33 0240 811a a939 9db4 93bc
000000f0: 4646 a73d 6efe 6a41 746a 913d 0080 82be
00000100: c16f 373e f6f5 2b3e 67ab 44bd 6314 fa3e
00000110: d3b2 e6bd 3440 3bbe 7981 1a3f 2c61 1041
00000120: 2d44 353f cf1f 42be e8b8 9cbc da09 a0bd
00000130: 26c2 34be 74ae 3ebe 4d9a 4a3e 182a 983e
00000140: a2f5 debd c4f4 523c ca0f 6d3f 7549 2ebe
00000150: 962c 19bd 2f05 dabd 496b 863c b33d 46be
00000160: e1d2 573c 8e16 0939 d643 05be bf2e 213f
00000170: 2bc3 2c3e 3f5c 903e 4e18 19be 39e6 08bd
00000180: 5958 babc cd21 43be d952 44be d40e 713d
00000190: c759 173d cdaf e53e c7d0 29be 7e5c 13bd
000001a0: 2ed6 85be ba7c 0dbe 2ed0 143d 3587 b53d
000001b0: 76b0 bd3c d8bd 81be 2515 e4bd 7cea febc
000001c0: 827c a8be 16fb 0dbe eda6 873e 0eb6 5d3f
000001d0: 7d7a 3bbe c7f0 e5bc eddd e33d d9b9 833d
000001e0: 0203 4b3e f4ef a6c0 9360 bd3d 3c1a f4bc
000001f0: f39a 2cbe 4f34 0bbe cc3e 1e3e 25dd d73e
00000200: 9d1f d7bd 90ac 16bd c028 383e 1218 4bc0
00000210: 6552 a4be 868b 6a3e 1a6b 78bd 086f 573e
00000220: 70ea 093e 1828 4f3e dde4 33be f7e2 47be
00000230: f77b 603e 890b 70be b28c 16be 1ce8 30be
00000240: 3103 abbd 5e51 6cbe bc55 7dbe 4fa4 b43d
00000250: 29c3 713e aeae aa3d 9458 a43d cb6d 57be
00000260: f362 043e 45a0 a5bb 40f1 2ebe d6ab 07be
00000270: d517 7bbe 40a9 3abe 2fc4 83be c2b8 163d
00000280: c30b e8bd c6b0 80be a72f 42be 2f9e 19be
00000290: b013 7d3e f58b e13d c322 1041 72f2 233e
000002a0: 8961 5a3e 0223 fcbe accd 93bd de85 bc3e
000002b0: 136a 063f ad44 6abe 931d 81bd 84e7 313f
000002c0: 7897 ad40 d246 403f a1e9 debd 975f 373e
000002d0: efe4 71be 7ae8 9abd 32d5 683e 344f f7bd
000002e0: 24a0 00be c88c 863e f707 893e 2ed0 3bbe
000002f0: d00f 70be 5d45 593d 4f92 aebc 0201 a4bd
00000300: 56e9 28be e6d9 2b3e ff95 e6bd a2ed 8bbe
00000310: 9a0e 7abe e90a 3ebe 888b 353d 1525 fb3d
00000320: be40 f3bd 8b2b 87be 2c42 0abe 0db7 67bc
00000330: 4124 c5bd 11ce 4dbe db31 6f3e 4bbb 80be
00000340: ce9f 1d3e 5d8f ea3c 0c82 1a3d 4ee9 39c1
00000350: 298c 6abe 430e 8fbd 4f4e a2ba f6be e33d
00000360: 12c8 bd3c 6089 eebe 2c34 25be 624c d43d
00000370: 709d 5abe bd6a ecc0 6941 5dbe 73b9 423e
00000380: cb8c e5bd
-0.21674591 -0.00544823 0.08259113 -0.094859615 0.10714085 0.07810213 -0.20623706 -0.1219544
0.13394445 0.16812482 -0.0039223847 -0.17421632 -0.34492612 0.16471344 -0.23829392 -0.20204824
-0.16466242 -0.119063795 -0.19886178 -0.23704895 0.1570506 -0.023926819 -0.061141215 0.07491828
0.23225464 -0.10054139 -0.04976382 -0.1394457 -0.009778439 0.05518479 -0.10127541 6.098055
0.04091388 0.061296634 -1.5259743 0.046168067 -0.12981303 -0.7719891 -0.06483798 -0.6463432
-1.6276135 3.8735688 -0.16209996 0.104892485 0.07537549 -0.02488066 -10.257966 0.15430915
-0.0039610006 -0.15452376 0.19082381 0.24658445 -0.40178773 0.26474065 -0.21331458 0.9234326
-6.1376495 2.0344079 0.0003225394 -0.018030459 0.081677005 14.687117 0.071003824 -0.2548828
0.17913724 0.16793045 -0.048015025 0.4884368 -0.11264577 -0.1828621 0.6035381 9.023724
0.70807153 -0.18957447 -0.019131139 -0.07814379 -0.17652187 -0.18621236 0.19785424 0.29719615
-0.108866945 0.0128757395 0.9260222 -0.17020209 -0.037396036 -0.1064552 0.01640858 -0.19359474
0.013172836 0.0001307374 -0.13014159 0.62961954 0.16871326 0.28195378 -0.14950678 -0.033422682
-0.022747206 -0.19055863 -0.19172229 0.05885203 0.036950853 0.44860688 -0.16583548 -0.03597688
-0.2613997 -0.1381711 0.036331348 0.08863679 0.023155432 -0.25340152 -0.111368455 -0.03111767
-0.32907492 -0.13865313 0.26494542 0.8660592 -0.18308444 -0.028068913 0.11126313 0.06431932
0.19825366 -5.216791 0.09246936 -0.029797666 -0.16855983 -0.13594173 0.15453643 0.42160907
-0.10504077 -0.036785662 0.17984295 -3.1733441 -0.32094112 0.22904786 -0.060649015 0.21038449
0.13468337 0.20230138 -0.17567773 -0.19520174 0.21922289 -0.234419 -0.14702109 -0.17276043
-0.08350218 -0.23077914 -0.24739736 0.08820402 0.23609604 0.08334099 0.080247074 -0.21037976
0.12928371 -0.005054506 -0.17084217 -0.13249144 -0.2452081 -0.18228626 -0.25735614 0.036797293
-0.11330368 -0.25134867 -0.1896349 -0.15001749 0.24714541 0.11013023 9.008487 0.16010454
0.21326269 -0.4924546 -0.07216963 0.36820883 0.52505606 -0.2287776 -0.06304469 0.6949389
5.42474 0.75108063 -0.10884405 0.17907558 -0.23622487 -0.07563873 0.22737578 -0.12075654
-0.12561089 0.26279283 0.2676389 -0.18341133 -0.23443532 0.053044666 -0.02131 -0.08008005
-0.1649526 0.1678234 -0.11259078 -0.27329737 -0.24419633 -0.1855885 0.04432252 0.12262932
-0.11877583 -0.26400408 -0.13501805 -0.014142764 -0.096260555 -0.2009814 0.23358862 -0.25142893
0.15392992 0.028632814 0.03772168 -11.619459 -0.2290503 -0.06985142 -0.0012382957 0.11120407
0.02316669 -0.46589184 -0.16133183 0.10366131 -0.2134912 -7.3880296 -0.21606983 0.19016056
-0.11208495

critic.18.bias f4 [15]
00000000: 6f72 a4bd a263 afbb 3079 7dbc f28f 69be
00000010: 9a00 45be 6270 053e 9dff ff3c 824f 97bc
00000020: 9623 7bbe e84a 5d3d c267 64be 1bcf b23c
00000030: 63ff 1abe cc84 f8bd b96a fa3b
-0.08029639 -0.0053524533 -0.015470788 -0.22808817 -0.1923851 0.13031152 0.031249816 -0.01847053
-0.24525294 0.054026514 -0.22305205 0.021827271 -0.15136485 -0.12134704 0.007642117

critic.21.weight f4 [15, 15]
00000000: aebd 25be 7ab6 20be 2a6e a7bd 9ffb 983d
00000010: df26 dcbd d5e9 27bd b9f1 5bbe 9b91 84bd
00000020: acbf c4bc 573a dfbd 02c3 6dbe 33d4 2cbe
00000030: e465 1abe 8b76 40be ca1d e0bd ccbf 82be
00000040: cd09 95be 8c42 fdbd 99fb 43be e13d 9f3e
00000050: c143 e93e b2a5 0e3e a7e7 aabc 39d5 113e
00000060: 5419 e7bd 75c6 ba3e 9128 9fbd aae6 debd
00000070: 7e4a 573e 8f7d 133e 853a bdbd 09bd 093d
00000080: 8f85 1fc1 1f10 91c0 2a2e cebf c94a 89bd
00000090: 9d5c 7fc0 1421 253e d742 88bf ad96 93bd
000000a0: 4f4a 8bbe d5a1 bfbf fbe6 4b3e 6ade 31be
000000b0: 2f4d 60c0 dd13 463e e018 be3e ae81 a7c0
000000c0: bd34 19c0 7622 6bbf e253 f43d 58c4 06c0
000000d0: ec3a 22bf df1d 10bf c4ac a73d 4152 39bd
000000e0: aab1 7cbf c227 343e c382 2dbd 4916 e0bf
000000f0: 21f3 473e b0e6 3abe 876c fbbf ec12 5cbf
00000100: 9b0d 0dbf 89a3 013e 1125 41bf 86db 84be
00000110: d0f9 20be 3b8c 28be 5f9c 893e 3382 bbbe
00000120: a380 093e 62ef 933e 996b 41bf 3ac1 e4bd
00000130: 26fe 863d 66dc 18bc bfb1 3bbd 0e55 38bf
00000140: b430 8f3e 6afe f7bd 3fc6 ffbd da7f fabd
00000150: 5d21 233e 8523 bf3d 8225 00be 7607 9c3b
00000160: 0ff5 53be 1fdd 45be 169e dcbd df25 f83d
00000170: 2276 09be d2a6 013d 9de7 a23e 9d41 16bd
00000180: 4e19 8d3d eeb9 80be f4c5 c1bd 3ceb 75bd
00000190: 90f3 49bd 7159 a93f 8440 c73c 1115 93bd
000001a0: f9e5 54be 10ea a03d 9096 6abd 96b2 9840
000001b0: 6b33 1f40 2d0b ad3e c8b5 11bf 4954 0140
000001c0: 6d19 de3e 1637 083f 47f0 de3b bbea 86be
000001d0: 1952 3d3f 38a4 133d 6638 12bf 5675 e83f
000001e0: 3a21 7e3e 4273 0abe 549f 82c0 3acd f4bf
000001f0: d638 4ebf 68c7 7cbe 02a1 d0bf eb9f d6bc
00000200: b1bf 37bf fa1c 943d 0390 40be 1228 75bf
00000210: 7705 683e 9603 963d b7ff a8bf 302e 243e
00000220: ed0a 30be 14bc f0bd 146d 953d 29ff 23be
00000230: 01e2 35bd 93ba b33c f28f 72bd e604 153e
00000240: aef5 833e d9f0 47be 081a 583f 8712 893e
00000250: 44b4 32be d0ff 1b3e 275d ec3d 3450 49be
00000260: 0323 07c1 3d49 79c0 5e7f aabf 4aa6 e5bd
00000270: 1664 4bc0 0238 e4bd 2098 67bf cc55 bfbb
00000280: 7776 ffbd c4aa d4bf 2000 63be 9a52 343e
00000290: 212f 3bc0 a5c0 c9bc 9028 0c3d 50b9 32be
000002a0: 1143 32be a1f1 80be 702b b0bd 76b8 843d
000002b0: 946f a8be 8d38 82be 1116 51be 16c0 363e
000002c0: 5d2c 82be 3274 9c3d 54ef 883c 250b 193d
000002d0: c4c7 f7bd 6444 65be 3520 8a3d 7dc2 c9bc
000002e0: 7fab 54bf 6b92 a63e 7a8d c3bd 3a93 2d3e
000002f0: e82a 963d 628e 8d3d c619 66be 67f8 ecbd
00000300: b78b 0f3e ea0d cc3d ae7b 6abe d1fd 3dbd
00000310: 99f2 69be dbe7 5940 44b0 ce3f 133f a03f
00000320: 0a20 023e 9859 be3f 9c4b 09bf e5ac 123f
00000330: 0e16 213e 8572 68be 5704 813e 2a24 243e
00000340: 45b8 67be 1d7e ba3f 49cb d83b a1fc 74bc
00000350: 1be1 edbd a3d7 d6bd f997 f2be cd1b c43c
00000360: 3995 ffbd 65fc b5be 847c ac3d f5f5 5f3e
00000370: 34c7 22be 6f2d 04bf fb78 a7bd 87a9 133d
00000380: 9e73 313d
-0.16185638 -0.1569461 -0.08175309 0.07469868 -0.107496016 -0.040994484 -0.21478929 -0.064730845
-0.024017178 -0.10899799 -0.23218921 -0.16877823 -0.1507793 -0.1879522 -0.10943182 -0.25536954
-0.2910904 -0.123662084 -0.19138946 0.31101897 0.45559505 0.13930395 -0.020862414 0.14241494
-0.11284128 0.36479536 -0.07771409 -0.108838394 0.2102451 0.14403366 -0.09239677 0.033627544
-9.970107 -4.533218 -1.6107838 -0.06703717 -3.9900277 0.161259 -1.0645398 -0.072064735
-0.2720513 -1.4971262 0.19912331 -0.1737 -3.504711 0.19343515 0.37128353 -5.23458
-2.393844 -0.9184946 0.11930062 -2.1057339 -0.6337116 -0.5629558 0.08187249 -0.04524446
-0.98708594 0.17593291 -0.042361032 -1.7506801 0.1952634 -0.18252063 -1.9642495 -0.8596637
-0.55098885 0.1266004 -0.75447184 -0.25948733 -0.15720296 -0.16459744 0.26877114 -0.36622772
0.13427977 0.28893572 -0.75554806 -0.111696675 0.06591444 -0.009329891 -0.04582381 -0.72004783
0.27966845 -0.121090725 -0.12488984 -0.12231417 0.15930696 0.09332947 -0.12514308 0.0047616316
-0.20698951 -0.19322632 -0.1077234 0.12116598 -0.1342397 0.031653233 0.31817332 -0.036683667
0.06889592 -0.25141853 -0.09461585 -0.06003879 -0.049304545 1.323042 0.024322756 -0.071817525
-0.20790853 0.07857144 -0.057272494 4.7718 2.4875133 0.3379759 -0.56918 2.0207694
0.43378773 0.53209054 0.0068035456 -0.2635096 0.73953396 0.036045283 -0.5711731 1.8160808
0.24817362 -0.1352053 -4.081949 -1.912513 -0.80555475 -0.24685442 -1.6299136 -0.026199302
-0.7177687 0.07232089 -0.18804936 -0.9576427 0.22658335 0.07324903 -1.3203038 0.16033244
-0.17191668 -0.11754623 0.072961956 -0.16015305 -0.044404987 0.021939551 -0.05921931 0.1455265
0.25773376 -0.1952547 0.8441472 0.26771948 -0.17451578 0.15234303 0.11541205 -0.19659501
-8.446048 -3.895095 -1.3320119 -0.11213358 -3.1779838 -0.11143495 -0.904665 -0.005839085
-0.12473767 -1.6614614 -0.22168016 0.17609635 -2.9247515 -0.024627993 0.03421837 -0.17453504
-0.17408396 -0.25184348 -0.08602035 0.06480496 -0.32897627 -0.2543377 -0.20418574 0.17846712
-0.25424471 0.0763935 0.016715683 0.037364144 -0.12098649 -0.2238937 0.06744424 -0.024628872
-0.8307418 0.32533583 -0.09548469 0.16950694 0.073324025 0.06911923 -0.2247077 -0.115708165
0.1401814 0.099635914 -0.22898743 -0.046384636 -0.2284645 3.4047763 1.6147542 1.2519249
0.12707534 1.4871092 -0.53630996 0.57295066 0.1573107 -0.22699936 0.25198624 0.1602942
-0.22628887 1.4569737 0.0066160304 -0.01495281 -0.11615201 -0.10490348 -0.4738157 0.023939038
-0.12479634 -0.35544124 0.08422187 0.21871169 -0.15896302 -0.51631826 -0.08177372 0.036050346
0.04332315

critic.21.bias f4 [15]
00000000: d4b6 7cbe 2051 583e 63cb c13d 6f0a 71bc
00000010: 063f ec3d e1e0 3f3e efbc 02bd 30ed cf3b
00000020: e133 ba3d 4039 0ebe 3c63 a5bc d9b1 f33c
00000030: 0c87 263e 4ee3 58ba 66fe 1cbe
-0.24679118 0.21124697 0.09462621 -0.01471196 0.11535458 0.18738128 -0.031918462 0.0063454136
0.09091926 -0.13889027 -0.02018892 0.02974789 0.16262454 -0.0008273617 -0.1533142
