gigala/topology/topology_optimiz/HRL/preTrained/T0-h-v1/2level/HAC_T0-h-v1_level_0_actor.pth (torch, 9777 bytes, 24 tensors)

actor.0.weight f4 [6, 4]
000000 e4 96 be be 00 b0 92 be 64 38 f9 be 8c 7a 84 be
       -0.37224495 -0.28649902 -0.48675835 -0.25874746
000010 30 4c 66 bd 10 63 a5 be 36 cf 9c 3e 00 4e cd 3d
       -0.056225 -0.3230214 0.3062684 0.10024643
000020 90 83 d9 bd 2e 94 a7 3e 3c e9 d0 be 26 ee ae be
       -0.10620797 0.3273024 -0.40802944 -0.34166068
000030 b2 a4 f7 3e 46 d9 81 3e 88 7d 80 3d 0c 4b dc be
       0.4836784 0.2536108 0.06273943 -0.43026006
000040 a0 16 6e bd 18 2e 8c bd 98 ac 9a 3e 8c e9 9e 3e
       -0.058127046 -0.06844729 0.30209804 0.31037557
000050 7c 19 bb be f8 a8 f7 3e 34 6f 7d be 60 51 d2 bc
       -0.3654288 0.483711 -0.24749452 -0.025673568

actor.0.bias f4 [6]
000000 58 48 64 be 50 4e 22 3e 00 91 57 bc 0c b6 23 be
       -0.22293222 0.15850186 -0.013157129 -0.15987414
000010 84 b4 53 be c6 69 c3 be
       -0.2067433 -0.38166636

actor.3.weight f4 [6, 6]
000000 b6 81 bc 3e 80 f2 b4 be bc 59 46 be 6b 81 cf be
       0.36817712 -0.35341263 -0.19370168 -0.40528426
000010 52 ae bd 3e ba 18 4c be 79 40 62 be ba 8b 14 be
       0.37047058 -0.19931307 -0.22094907 -0.14506426
000020 17 0e cb be f6 83 87 be d7 34 25 be d5 ae 82 be
       -0.39659187 -0.26467866 -0.16133438 -0.2552401
000030 48 a6 a2 3e 63 82 ac be e2 91 84 3e 38 d9 c6 3d
       0.31767488 -0.33693227 0.2589255 0.097094
000040 b2 bb b6 3e 06 ec 74 be b2 8f a8 3e 88 db 51 bd
       0.35690075 -0.23918161 0.3292213 -0.051234752
000050 94 af 7d be 68 69 04 be 20 bd d8 3c d0 69 b1 bc
       -0.24774009 -0.12930834 0.02645737 -0.0216569
000060 93 13 3e be 72 92 9e 3e 48 26 c2 be 59 33 2e be
       -0.18562154 0.30971104 -0.3791983 -0.17011775
000070 63 1f 93 be dc 3a 6e 3e 0c ae 20 3e 30 64 32 bd
       -0.28734884 0.2326464 0.15691394 -0.043552577
000080 fc 42 62 3e 36 a6 90 3e 5c c0 c7 bd c0 11 ba 3d
       0.22095865 0.2825181 -0.097534865 0.09085417

actor.3.bias f4 [6]
000000 48 6b f1 bd 23 08 85 be d8 6d b9 bd 80 b3 68 3b
       -0.117880404 -0.2598277 -0.09054154 0.003550738
000010 0d dd 25 be cc ff 16 3e
       -0.16197605 0.14746016

actor.6.weight f4 [6, 6]
000000 d4 2f 66 3e 70 13 99 be e0 a3 f3 bd b8 dc e5 3d
       0.22479182 -0.29897642 -0.11896491 0.112237394
000010 3c 6b 5c 3e 72 22 b8 3e 1c d1 d8 bd b0 3d ec bc
       0.21525282 0.3596378 -0.105867594 -0.028838009
000020 96 a6 4f be 10 d7 c9 bc 6f 7e 35 be e4 db a4 3e
       -0.20278391 -0.024638683 -0.17724012 0.32199013
000030 ba 86 97 3e e8 a4 7c bd 2c 9a ce 3e 7e 1a 82 3e
       0.29594976 -0.061680704 0.40352 0.25410837
000040 80 b4 19 bd 20 7d cd 3d ea 56 93 be a0 14 aa 3d
       -0.037525654 0.10033631 -0.28777248 0.08304715
000050 90 78 db 3c f0 cc bf 3e 8c 3c 1c be 8e 32 61 be
       0.026790887 0.37461042 -0.15257472 -0.21991941
000060 bc e2 0c 3e a7 56 9d be 80 1d 56 bc 60 c1 a4 3c
       0.13758367 -0.30730173 -0.013068557 0.02011174
000070 58 aa bb 3e 98 c6 c9 bd 90 73 1f 3d 1c 57 9a 3d
       0.366534 -0.09852332 0.03892857 0.07536146
000080 80 56 c7 3e 70 03 7f 3e 00 cf 8c 3c 28 42 c4 3d
       0.38933182 0.24903655 0.017188549 0.09582931

actor.6.bias f4 [6]
000000 fa 2a 1d be 6c 3d 5b 3e 10 c3 cb 3e c8 43 6f 3d
       -0.15348426 0.2141015 0.39797258 0.05841425
000010 f4 6c 5d 3e ce 43 91 3e
       0.21623594 0.28372043

actor.9.weight f4 [6, 6]
000000 58 be d9 bd 68 38 13 bd a8 56 5a bd a0 d4 19 be
       -0.10632008 -0.035942465 -0.053305298 -0.15022516
000010 9a bf ab be 68 37 83 bd 4c e7 9d bd 8c 84 fa bd
       -0.33544618 -0.06407052 -0.07710132 -0.122323126
000020 a0 8b fd bc f8 33 36 3e c0 05 a1 3b 60 bf b7 3e
       -0.030950367 0.17793262 0.0049140155 0.35888195
000030 20 d6 6d 3e 10 b5 87 bd 40 0b 8a be f9 9a b3 be
       0.23226213 -0.06626332 -0.26961708 -0.35079172
000040 38 4d ac bd 96 4c a0 be dc 80 ce 3e 60 ed b5 bd
       -0.08413166 -0.3130843 0.40332687 -0.08883166
000050 0e f4 1f be 24 29 a5 be 2c 78 77 3e fe 93 9f 3e
       -0.15620443 -0.3225795 0.24166936 0.31167597
000060 cf 40 69 be ac db 8f 3d 2e c7 a8 3e a0 d2 a6 3d
       -0.22778629 0.07024321 0.32964462 0.08145642
000070 b8 1d ef bd f0 98 85 be e4 33 00 3e 64 14 d9 bd
       -0.1167559 -0.26093245 0.12519795 -0.10599592
000080 64 31 42 be 68 79 d3 bd 7c ff bc be c4 ee c1 bd
       -0.18964154 -0.10325891 -0.3691367 -0.09469369

actor.9.bias f4 [6]
000000 80 f4 2f 3b 80 31 81 3e e4 36 a4 3e 5b 75 60 be
       0.0026848614 0.25233078 0.32073128 -0.21919768
000010 d0 7e c1 3c 81 10 8f be
       0.02362004 -0.2794228

actor.12.weight f4 [6, 6]
000000 cf 81 37 be 6e 47 6e be db 22 32 be 24 8c 85 3e
       -0.17920612 -0.23269436 -0.17396109 0.2608348
000010 00 00 17 b9 4e 96 c9 3e 20 f9 78 3c 6c 8a 8e 3e
       -0.00014400482 0.39372486 0.015196115 0.27839983
000020 04 78 23 be 7c 98 10 3e 08 df 0f 3d 15 e8 c2 be
       -0.15963751 0.14120668 0.03512481 -0.3806769
000030 e0 2c d2 bc e3 37 61 be f6 31 90 be 96 79 bd 3e
       -0.025656164 -0.21993975 -0.28163117 0.37006825
000040 64 0b cd bd c0 d1 3b 3e 8a 0e 8a 3e 63 a6 bd be
       -0.10011938 0.18341732 0.26964217 -0.37041005
000050 02 1b 24 be a8 59 1b bd 64 13 6d 3e 1a 38 82 be
       -0.16025928 -0.0379273 0.23151928 -0.25433427
000060 df c8 8d be 7c 88 3b 3e 00 f1 63 3c 8a c8 92 be
       -0.27692315 0.18313783 0.013912439 -0.28668624
000070 8f b8 b2 be f0 2a 91 3d 80 2d 5f 3b 12 3e a1 be
       -0.34906432 0.07088268 0.003405422 -0.31492668
000080 e0 de 49 3d d4 4e 87 3e e4 d4 11 3e 5c 28 c6 be
       0.049284816 0.2642733 0.14241368 -0.38702667

actor.12.bias f4 [6]
000000 8f c5 b0 be 10 af b6 bc 00 57 d5 3b e4 b3 b5 bd
       -0.34525725 -0.022300273 0.0065106153 -0.08872202
000010 f0 c2 3b 3d f4 ec c4 3e
       0.045840204 0.3846203

actor.15.weight f4 [6, 6]
000000 d4 2f d0 3e 4a 80 b3 be 1a cc b0 3e 90 bc 87 be
       0.4066149 -0.35058814 0.34530717 -0.2651105
000010 fc 8b c4 3e e0 aa 62 bd ca f5 b0 3e 30 45 a9 3e
       0.3838805 -0.05533874 0.34562522 0.33060598
000020 33 34 9b be 94 04 d7 bd 30 dc 63 bd 20 75 21 be
       -0.30313262 -0.1049892 -0.05562991 -0.15767336
000030 86 81 94 be cc e0 65 3e 80 85 aa bc a0 47 7c 3c
       -0.2900507 0.22449034 -0.02081561 0.015397936
000040 58 b1 4c 3e fd 22 50 be 10 2b b8 3e 42 92 a5 be
       0.19989526 -0.20325847 0.35970354 -0.32338148
000050 78 ee 34 bd ca e3 ad be 08 f6 47 3e 64 ec 7d 3e
       -0.044172734 -0.33962852 0.19527447 0.24797207
000060 ae bd b8 3e ea 9a aa 3e 34 b4 77 3e ac e7 0e 3e
       0.36082214 0.33321315 0.24189836 0.13955563
000070 b4 e0 ab be b0 77 c7 3d c0 2f fe 3d 02 9d 0d be
       -0.33569872 0.097396255 0.12411451 -0.13829425
000080 24 50 ba be 23 e3 c5 be 28 43 0a 3e a6 78 65 be
       -0.36389267 -0.38649854 0.1350218 -0.22409305

actor.15.bias f4 [6]
000000 80 0d b4 3c 1a 3f 9e 3e 62 97 bd 3e e2 9e af 3e
       0.021979094 0.30907518 0.37029558 0.34300905
000010 ec 58 69 be f8 d4 ca bd
       -0.22787827 -0.09903902

actor.18.weight f4 [6, 6]
000000 0c 07 86 3d 99 5d 59 be c0 d4 e8 3d e8 46 41 3e
       0.06544313 -0.21227111 0.11368704 0.18874705
000010 3e 1e 0a be 5c 97 aa be b8 6c 43 3e 38 c5 bf 3e
       -0.13488099 -0.33318603 0.19084442 0.37455153
000020 50 93 ba 3c 7a a7 66 be 82 9f 89 3e f8 20 80 bd
       0.022775322 -0.22524825 0.26879507 -0.06256288
000030 9e 81 94 be f8 3d 76 3e d4 80 c6 3e 4e 6d 77 be
       -0.2900514 0.24047077 0.38770163 -0.2416279
000040 6a c5 b0 3e c6 7a aa 3e 91 f0 70 be 06 51 1b be
       0.34525615 0.33296794 -0.23529269 -0.15167627
000050 08 1b 4c 3e d6 c6 98 3e cb 32 63 be e5 18 62 be
       0.19932187 0.298392 -0.22187345 -0.22079809
000060 84 73 06 be 18 35 ce 3e 5c 04 ab 3e 70 b9 66 3e
       -0.13130003 0.40274882 0.33401763 0.22531676
000070 7d 4f cb be 80 77 bf bb 26 21 81 be 13 aa 64 be
       -0.39709082 -0.005843103 -0.25220603 -0.22330503
000080 84 53 4c 3e 70 2a d0 bd f9 4d 9c be d8 2f 61 3e
       0.19953734 -0.10164344 -0.30528238 0.21990907

actor.18.bias f4 [6]
000000 6c 62 6c 3e 5c 77 af 3d 46 18 b1 be 58 ba 4a 3e
       0.2308442 0.08567688 -0.34588832 0.19797647
000010 02 b4 a7 3e 1c 54 21 be
       0.32754523 -0.15754741

actor.21.weight f4 [6, 6]
000000 19 7d b4 be 9c c8 60 3e 38 15 9a be 5c 89 55 3e
       -0.35251692 0.21951526 -0.30094314 0.2085318
000010 d9 74 c0 be 28 fb 42 3d 18 19 1c 3e 2c ed 27 be
       -0.37589148 0.047602803 0.15243948 -0.16399068
000020 90 da 82 3e 7d 00 7a be 48 ff 80 3d 58 ac 66 bd
       0.25557375 -0.24414249 0.06298691 -0.056316704
000030 88 de 15 3e 80 ea 6a 3e c4 41 b9 bd 8c 61 37 3e
       0.1463567 0.22941017 -0.09045747 0.17908305
000040 01 e1 b3 be 98 81 c3 3e 24 a2 e0 bd ec 16 7d 3e
       -0.35132602 0.3818481 -0.10968426 0.24715775
000050 20 8d be 3e c0 a5 b5 3e e8 40 4d 3e 14 51 13 3e
       0.37217045 0.3547802 0.20044291 0.14386398
000060 84 49 b6 bd c0 b9 2d bc 70 97 b7 be 0c 97 cc 3e
       -0.08900741 -0.010603368 -0.35857725 0.3995899
000070 ac 92 a0 bd 22 b2 c8 3e 59 f7 b6 be a5 44 c2 be
       -0.078404754 0.39198405 -0.35735586 -0.37942997
000080 e8 9d f6 3d 3c 11 29 be 6c 09 7d be 64 ab cf 3e
       0.12041837 -0.1651048 -0.24710625 0.40560448

actor.21.bias f4 [6]
000000 7e 85 88 3e a0 9c 54 3c e0 fe 59 3e 84 59 a0 3e
       0.26664346 0.012976795 0.21288633 0.31318295
000010 a8 fa 9e 3e de 5c a5 3e
       0.3105061 0.32297415

actor.24.weight f4 [6, 6]
000000 80 48 7b bd b0 3c 9d 3e ea 67 9c be 48 c2 a2 bd
       -0.06134844 0.30710363 -0.3054803 -0.079472125
000010 76 a0 8f 3e 20 ab 81 3e e7 a0 bf be 62 8a a6 be
       0.2805211 0.2532587 -0.37427446 -0.32527453
000020 70 cd 31 bd 0f 4f be be 07 98 82 be 8c f9 14 3e
       -0.04340881 -0.37169692 -0.25506613 0.1454832
000030 6c 76 be 3e 4c b0 12 3e ff a2 b5 be 28 10 aa bd
       0.37199724 0.14325064 -0.3547592 -0.08303863
000040 6a 16 b3 3e 08 4e 6c 3d 47 0e 71 be 6c e3 e6 bd
       0.34978038 0.057691604 -0.23540603 -0.11273846
000050 e0 76 dd bc 80 8b 7f bb 80 e8 70 3c b8 18 c1 bd
       -0.027034223 -0.003899306 0.01470387 -0.09428543
000060 fa 24 4c be 0c 33 65 3e bf aa a6 be d0 eb 41 3e
       -0.1993598 0.22382754 -0.32552144 0.18937612
000070 14 77 14 be a4 73 0b 3e 28 cb cb 3e 40 a0 7a bd
       -0.1449855 0.13618332 0.39803433 -0.061187983
000080 30 c8 26 bd 9a 73 9e be 80 53 67 3c 2c d9 3b 3e
       -0.040718257 -0.30947572 0.014119029 0.18344563

actor.24.bias f4 [6]
000000 98 5b 7d be b8 69 01 3d ef 9b ad be a8 5b 1d 3e
       -0.24741971 0.031594962 -0.3390803 0.15366995
000010 c0 da db bd 44 d3 cb 3e
       -0.107350826 0.3980962

actor.27.weight f4 [6, 6]
000000 b8 99 68 be cf 6f 4e be 18 22 dd 3d cd 21 6b be
       -0.22714889 -0.20159839 0.107975185 -0.22962113
000010 8a dc 8d be 64 f0 b5 3d cc c0 35 3e 2e 91 ae be
       -0.2770732 0.088837415 0.17749327 -0.34095138
000020 d4 ac d5 bd 00 a7 96 3e a2 b7 ce 3e 10 6f c9 3c
       -0.10433355 0.29424286 0.40374476 0.024589092
000030 0e dd 85 3e ac 0a 3d be 24 e2 a8 be 40 21 49 3d
       0.26145214 -0.18461102 -0.32985032 0.049103975
000040 14 77 2d 3e a4 9f b0 3d 3c 02 b4 3e a6 d9 93 3e
       0.16939956 0.08624199 0.35157955 0.2887699
000050 44 eb 8e 3e 1a 7b 11 be f0 fe b5 3e 68 18 39 3e
       0.27913868 -0.14207116 0.35546064 0.18075716
000060 8c 5d cd bd dc 7a 72 3e 64 19 c7 bd 29 f7 9a be
       -0.10027608 0.2367968 -0.0972164 -0.30266693
000070 5c 76 75 3e 24 14 83 3d d8 d4 22 3e 50 22 ed 3d
       0.23970932 0.06400326 0.15901506 0.1157881
000080 bc 6e 61 3e 80 82 6c bc 00 59 9c ba 6c 7b c5 bd
       0.22014898 -0.0144354105 -0.001192838 -0.096426815

actor.27.bias f4 [6]
000000 54 fd f1 bd dc 90 18 be 78 f5 73 3e 13 1c 5d be
       -0.11815897 -0.1489901 0.23824108 -0.2159274
000010 bc a1 b2 be 2a 3e a2 3e
       -0.3488902 0.31688052

actor.30.weight f4 [6, 6]
000000 88 6e 93 3d 08 8d 2f be ce 7e 70 be 39 08 2b be
       0.071988165 -0.17143643 -0.23485872 -0.16702355
000010 94 be 99 3e de 05 c3 be 5b c1 87 be c0 d6 c7 3d
       0.30028212 -0.38090414 -0.26514706 0.09757757
000020 a8 10 40 3d c5 ef d0 be 78 33 5d bd 48 fd 76 be
       0.046890885 -0.4080793 -0.054004163 -0.24120057
000030 84 b5 70 3e 34 24 b0 3e fc c4 77 3e f0 12 49 3e
       0.23506743 0.3440262 0.24196237 0.1963613
000040 d5 ed b6 be 72 fe 95 3e b8 0e a5 be d0 23 b0 3c
       -0.35728326 0.2929569 -0.32237792 0.021501452
000050 08 02 8f bd 76 3f 19 be 16 86 90 3e 3a b4 d0 3e
       -0.06982809 -0.14965615 0.282273 0.40762502
000060 d8 eb df 3d ac f8 9e be a2 64 90 3e 14 95 9d bd
       0.109336555 -0.31049097 0.28201777 -0.0769445
000070 9d e7 66 be e6 a1 12 be 90 95 19 3d da 11 75 be
       -0.22549291 -0.14319572 0.03749615 -0.23932591
000080 8b 81 af be d0 54 c1 bd 20 2d 97 bc b1 90 3e be
       -0.3427852 -0.09440005 -0.018454134 -0.18609883

actor.30.bias f4 [6]
000000 16 b2 86 3e ae be bd 3e c4 1c 3e 3e 30 6c 46 bd
       0.26307744 0.3705954 0.1856566 -0.04844302
000010 f0 2f 01 be 10 da 5c bd
       -0.12615943 -0.053918898

actor.33.weight f4 [9, 6]
000000 60 25 c6 3d 7c 62 ed bd bb 6a 65 be c4 c8 a8 be
       0.096750975 -0.1159105 -0.22403996 -0.32965672
000010 96 80 96 3e 39 5b 8c be 8a ca c2 3e b0 6a 79 3d
       0.29394978 -0.27413347 0.3804515 0.06089276
000020 df d9 49 3c 48 29 bc 3e a7 a7 48 be 40 35 fc 3b
       0.012320011 0.36750245 -0.19595204 0.0076967776
000030 76 52 73 be 82 96 fe 3b 4a 5f cb 3e 1c b8 33 3e
       -0.23761925 0.007769407 0.39721137 0.17550701
000040 b8 cc 62 bd f0 e1 b6 bc 40 fb 04 3d d4 02 bf be
       -0.055371016 -0.022324532 0.032466173 -0.37306845
000050 a2 ef ae 3e 28 4d c9 3d f0 8e 9a 3d 58 82 be bd
       0.341672 0.098291695 0.075467944 -0.09302205
000060 40 06 1c bd ea d9 12 be f5 a7 af be 18 a7 2b bd
       -0.038091898 -0.1434094 -0.3430783 -0.0419074
000070 70 e3 b2 bd 2a 7f 83 be 88 46 bb 3e 20 0e bf 3e
       -0.087347865 -0.25682956 0.3657725 0.37315464
000080 1c ce ee bd d2 bd b1 be 98 df 6b 3d 4e 3f a4 3e
       -0.11660406 -0.34715134 0.057586282 0.32079548
000090 e4 1b 3a 3e 1c 44 0b 3e 1a f2 95 be da 1c cf 3e
       0.18174702 0.136002 -0.2928627 0.404517
0000a0 18 10 7b 3e 74 7c c4 3e 38 8d 9a 3e 4e 27 b1 3e
       0.24517858 0.383762 0.30185866 0.346003
0000b0 c2 c8 b6 be 78 4e de 3d f4 76 72 3e 52 80 b3 be
       -0.3570004 0.108548105 0.2367819 -0.35058838
0000c0 f0 5d 2c 3e d8 45 30 bd 66 70 98 3e b8 0b 1d 3e
       0.1683271 -0.04303536 0.29773253 0.15336502
0000d0 ae 3b b8 3e 6c f4 cb 3e
       0.35983032 0.39834917

actor.33.bias f4 [9]
000000 51 f9 d0 be d8 93 02 3e c7 2a 3d bd 5c 55 21 3e
       -0.40815213 0.1275171 -0.046183374 0.15755218
000010 98 72 70 be 40 0d 95 3e 69 c2 bc 3d 1c 50 a6 be
       -0.23481214 0.2911167 0.09216768 -0.32482994
000020 56 92 6c be
       -0.23102698
