gigala/topology/topology_optimiz/HRL/preTrained/T0-h-v1/2level/HAC_T0-h-v1_solved_level_1_crtic.pth (torch, 5879 bytes, 15 tensors)

critic.0.weight f4 [3, 6]
0.2633805 0.26843953 0.10279648 -0.028476702 -0.12562734 0.15920551 0.31447306 -0.03387692
-0.19435133 0.26231325 0.007374603 0.16417761 0.10050851 0.55114305 0.23653728 -0.044997245
0.28782478 0.1344907
00000000: cfd9 863e e870 893e f686 d23d f947 e9bc
00000010: 74a4 00be c506 233e 9d02 a13e 86c2 0abd
00000020: 0904 47be ec4d 863e a7a6 f13b 2d1e 283e
00000030: 68d7 cd3d b617 0d3f d436 723e 084f 38bd
00000040: c55d 933e eeb7 093e

critic.0.bias f4 [3]
-0.32506466 -0.08762423 -0.3668835
00000000: e06e a6be 5574 b3bd 27d8 bbbe

critic.3.weight f4 [3, 3]
-0.22351344 -0.3400951 0.49230617 -0.039645404 7.149832 0.29638377 0.40874895 -0.19893074
0.29376963
00000000: b5e0 64be f220 aebe 8e0f fc3e 3863 22bd
00000010: 6ccb e440 9dbf 973e 8b47 d13e 80b4 4bbe
00000020: f968 963e

critic.3.bias f4 [3]
0.09823256 -0.4599977 0.38458598
00000000: 272e c93d d284 ebbe 74e8 c43e

critic.6.weight f4 [3, 3]
-0.35130662 -0.22577327 -0.47555512 0.47308218 0.2322687 0.39142525 -0.03524611 -0.06818855
-0.23957945
00000000: 76de b3be 1c31 67be f67b f3be d437 f23e
00000010: d9d7 6d3e e468 c83e 3a5e 10bd 70a6 8bbd
00000020: 5154 75be

critic.6.bias f4 [3]
-0.46059597 -0.24628177 -0.094950125
00000000: 3cd3 ebbe 4a31 7cbe 3675 c2bd

critic.9.weight f4 [3, 3]
-0.058294535 -0.37545577 0.008350421 0.16580564 -0.00039645284 -0.46543702 0.2789296 -1.7156377
0.29593623
00000000: 40c6 6ebd bd3b c0be 34d0 083c f4c8 293e
00000010: 00db cfb9 c34d eebe dccf 8e3e 049a dbbf
00000020: f484 973e

critic.9.bias f4 [3]
0.85572803 -0.47097465 0.68410766
00000000: fe10 5b3f 9723 f1be ae21 2f3f

critic.12.weight f4 [3, 3]
-0.6160091 0.29114005 0.5632788 0.8038779 -0.30661085 -0.046010494 -0.28594646 -0.51015145
-0.041291963
00000000: c6b2 1dbf 4f10 953e 0a33 103f f1ca 4d3f
00000010: 19fc 9cbe 8075 3cbd 9367 92be 4999 02bf
00000020: c321 29bd

critic.12.bias f4 [3]
0.13632846 0.21376759 -0.04161092
00000000: b099 0b3e e4e5 5a3e 3670 2abd

critic.15.weight f4 [3, 3]
0.7736947 0.5702123 -0.114914924 -0.46708238 0.077726014 -0.33720496 -0.010331821 -0.59466046
0.41585585
00000000: db10 463f 6ff9 113f 8458 ebbd 6c25 efbe
00000010: d12e 9f3d 21a6 acbe cc46 29bc ab3b 18bf
00000020: 0feb d43e

critic.15.bias f4 [3]
-0.007341156 -0.12540516 0.1580558
00000000: 148e f0bb 366a 00be 61d9 213e

critic.18.weight f4 [3, 3]
-0.9734515 -0.0908046 0.3131075 -0.33360842 -0.14752576 -0.24898511 0.35885492 0.43225804
0.35505658
00000000: 1e34 79bf c3f7 b9bd a04f a03e b9ce aabe
00000010: fe10 17be f4f5 7ebe d5bb b73e ed50 dd3e
00000020: fac9 b53e

critic.18.bias f4 [3]
0.07976138 -0.5529323 -0.14714763
00000000: ef59 a33d f98c 0dbf dead 16be

critic.21.weight f4 [1, 3]
0.7469007 -0.4234741 1.3289173
00000000: e234 3f3f 99d1 d8be f619 aa3f
