gigala/topology/topology_optimiz/HRL/preTrained/T0-h-v1/2level/HAC_T0-h-v1_level_1_crtic.pth (torch, 5147 bytes, 13 tensors)

critic.0.weight f4 [3, 6]
000000 ea ff bf be 14 c5 21 be 52 1d 90 3e 3b b1 99 be
       -0.37499934 -0.15797836 0.2814737 -0.3001803
000010 04 7e a0 be 9a a5 80 3e 34 e4 7c 3e a8 c0 8a 3e
       -0.31346142 0.25126344 0.24696428 0.2710011
000020 cc b5 34 3d f7 24 8d 3e ff 78 b2 be db 97 16 3e
       0.044118688 0.27567264 -0.34857938 0.14706366
000030 15 3c 7f bd e0 3d e3 3e 33 5d 80 3e 24 64 65 be
       -0.062313158 0.44383144 0.25071105 -0.22401482
000040 0c 62 07 3e 44 31 17 bd
       0.13220996 -0.036912218

critic.0.bias f4 [3]
000000 fe 47 71 be 81 6b c9 be 51 5e ca 3e
       -0.23562619 -0.3933983 0.39525083

critic.3.weight f4 [3, 3]
000000 c4 05 df 3e b3 e5 d6 3e 53 60 cd 3e be cb 0a 3f
       0.43559086 0.41972122 0.40112552 0.54217136
000010 6c d2 47 3e 0c 7c 12 3f c0 2f 0c bf ea 93 d0 be
       0.19513863 0.5722053 -0.5476036 -0.4073785
000020 6e 20 fc be
       -0.49243492

critic.3.bias f4 [3]
000000 49 ec 29 3e b9 16 18 be 32 54 10 be
       0.16594042 -0.14852418 -0.14094618

critic.6.weight f4 [3, 3]
000000 7c e0 a5 be d7 da 08 bf 50 ef d6 3d 7a ac db bd
       -0.3239783 -0.53458923 0.10494864 -0.10726257
000010 92 d0 a8 be 9e 33 fb be 18 03 e6 be 54 3f cb 3d
       -0.32971627 -0.49062818 -0.44924235 0.09924188
000020 80 81 1f 3c
       0.009735465

critic.6.bias f4 [3]
000000 2a a6 b7 3d bd df 8a 3f 7b f0 5d 3d
       0.0896724 1.084953 0.05418442

critic.9.weight f4 [3, 3]
000000 6f a3 fe 3e 52 f3 09 bf bc 2a f5 be 31 67 41 be
       0.49734065 -0.538869 -0.47884166 -0.1888702
000010 45 4d 8a 3f 25 63 9e 3d e0 72 f8 be 96 cd d5 be
       1.0804831 0.07733754 -0.48525143 -0.41758412
000020 84 66 a3 bf
       -1.276566

critic.9.bias f4 [3]
000000 4b 58 39 bc 5f e0 76 3d 95 7d f0 3e
       -0.011312555 0.06027257 0.4697081

critic.12.weight f4 [3, 3]
000000 36 86 c5 be fc 3e 3d 3f 3f 99 c7 be de 65 8f 3e
       -0.38578957 0.7392423 -0.38984105 0.28007406
000010 34 8a b5 bd 47 b9 bf 3e d5 d5 0c be 87 f0 1e 3f
       -0.08864251 0.37446043 -0.13753445 0.62085766
000020 4b a3 7e be
       -0.24866979

critic.12.bias f4 [3]
000000 8d 66 41 bf bc 2a 9a be fb b1 92 ba
       -0.75547105 -0.3011073 -0.0011191958

critic.15.weight f4 [3, 3]
000000 12 49 ff be ea c8 06 3f b9 89 aa bd ff 5d d0 3e
       -0.49860436 0.5265032 -0.0832705 0.40696713
000010 d0 fe 8c 3d 34 17 21 3f 02 35 6d 3f d3 d2 fd bd
       0.06884539 0.6292603 0.9265901 -0.12393727
000020 c1 f7 09 bf
       -0.5389367

critic.15.bias f4 [3]
000000 aa 42 ac b9 76 f5 06 bf 59 d7 4b 3e
       -0.00032856065 -0.52718294 0.19906367

critic.18.weight f4 [1, 3]
000000 83 80 c6 be b8 13 4c 3f 8a 17 77 3f
       -0.38769922 0.7971759 0.9652029
