gigala/topology/topology_optimiz/HRL/preTrained/T0-h-v1/2level/HAC_T0-h-v1_level_0_actor.pth (torch, 22535 bytes, 34 tensors)

actor.0.weight f4 [12, 4]
00000000: 4ae8 833e 54fc 61be a083 c6bd 2051 703e
00000010: 0202 f1be 1287 993e a8a9 d2bd 0a3d 823e
00000020: 785a 8e3d 00c4 7abd 4002 0e3e 2010 ca3c
00000030: 30ff 3a3e e486 47be 3051 15bd 4060 38bd
00000040: 306c 943d 00e7 02bb 64c9 df3e 5054 1f3e
00000050: 08ac 3ebe 369d 9abe 70a3 abbd b0d8 5cbe
00000060: d411 24be 801f c43c d49b 983e 3825 8b3e
00000070: c640 fabe 1cb3 9e3e c808 0f3e 88d4 f23e
00000080: aef9 a83e 5240 e9be 2e68 f3be 3cf4 76be
00000090: eecb e03e 1091 aabd 801d 5b3e a8ee 6dbe
000000a0: 1a31 fb3e 5ca0 58be 12fb bf3e 8003 c23b
000000b0: 82dd 86be 7a96 833e d4e3 87be e494 163e
0.2576316 -0.22068912 -0.09693074 0.23468447 -0.47071844 0.29985863 -0.102862656 0.25437194
0.06950849 -0.061222076 0.13868046 0.024665892 0.18261409 -0.1948505 -0.03645438 -0.045013666
0.07247198 -0.0019974113 0.43708336 0.15559506 -0.18620312 -0.30198067 -0.083807826 -0.21567035
-0.16022426 0.023940802 0.29806387 0.27176833 -0.48877543 0.30996025 0.13968194 0.47427773
0.3300299 -0.45556885 -0.4754042 -0.24116606 0.43905586 -0.0832845 0.21397972 -0.23235571
0.490609 -0.21154922 0.3749624 0.0059208274 -0.26340872 0.25700742 -0.26541007 0.14705235

actor.0.bias f4 [12]
00000000: fcd7 13be 0088 60bd 881d f6be bc1c 74be
00000010: 10ea 8a3e 40e9 f8bd 1afd fe3e e634 cd3e
00000020: 20ca bfbc 2ce0 aabe f2e4 9b3e 20e7 1e3e
-0.1443786 -0.0548172 -0.48069406 -0.23839086 0.271317 -0.12153864 0.49802476 0.4007942
-0.02341181 -0.33374155 0.3044811 0.15517855

actor.3.weight f4 [12, 12]
00000000: 7615 3fbe ee01 403e 1876 333e a615 833e
00000010: 0bb4 25be e0a1 42bd 803e b7bb 48b3 2c3d
00000020: ba56 60be 49c4 51be 40cf 203e 1aa2 8abd
00000030: f664 103e 90d1 863c a01e c23d e8ff 813d
00000040: 60f6 d63d a488 123e 83e1 88be d8ca 143e
00000050: 77d8 4fbe 0e09 5fbe c0d0 8f3c e07d 49bd
00000060: 6c9d 2d3e c631 2bbe 9c64 83be 8221 573e
00000070: 9454 2fbd a443 263e 5810 be3d 68aa 5dbe
00000080: 788b 6d3d 7c01 8e3d 7cec 45be 6e41 0cbe
00000090: 4c96 c93d 00cc 533d ae7b fbbd b8f7 b2bd
000000a0: 765e 873e 88c5 5abd a0a8 263e 90fe ff3d
000000b0: 8214 3fbe ca63 7bbe 86df 8d3e a0f7 763c
000000c0: aa9f 4a3e 8008 753d 4025 be3d b0cd 5c3e
000000d0: d025 8c3e 2228 44be 00d6 133d 9c98 5c3e
000000e0: 3a25 563e e2a3 373e 08ef 55be 7edd 54be
000000f0: c3c5 32be 708b 143d 084f 933e b4b9 3abe
00000100: 7885 1d3e e99c 23be 28f7 8abe 4c4f 7bbd
00000110: 6c51 2a3e 2237 893e c694 37be 684c 803d
00000120: 7810 7f3e f2e1 433e 103a 383e bc10 523e
00000130: 54f9 3a3e e0b4 983d b723 4abe 443c 78be
00000140: 9873 07be e8af 09bd d330 35be 8c4b d83d
00000150: a4f8 b63d bcde 85bd 8c39 e33d a811 bf3d
00000160: 347a 343e 7c12 473e b836 c8bd f067 903e
00000170: 38b2 08bd 007e 22bc ce81 8bbe 4e41 3ebe
00000180: 48b1 2cbe 66df fcbd 3c2a 523e f431 c1bd
00000190: 18e6 5cbe 7877 e33d 5049 bd3d a275 3f3e
000001a0: 6cf7 18be b82e 803d aa3a d7bd 46d4 84bd
000001b0: 5d92 6bbe 76b9 06be c60f b5bd 24d2 fc3d
000001c0: b003 583d ac09 923d 8885 933e 340d 903e
000001d0: 8c9d 493e e09b 163c f07e 4cbe 5004 673e
000001e0: d4d6 93bd 702f bfbc 76a9 7ebe 788f 69bd
000001f0: 1aa9 3ebe dad0 873e 288e 7fbe ee6a 66be
00000200: 009a 20bc 59d6 1fbe 688a d33d 1292 e3bd
00000210: 5ad7 0abe 30f0 853c 94fc 553e 35ef 4fbe
00000220: 32d1 0a3e 66e8 3d3e 4694 903e e4e6 4ebe
00000230: 2c2f 8f3d b993 5abe 145f 7c3e 3255 e5bd
-0.1866053 0.18750736 0.17525518 0.25602454 -0.16181962 -0.047517657 -0.0055921674 0.042163163
-0.21908084 -0.20485033 0.1570406 -0.067692 0.14101014 0.016457349 0.094784975 0.06347638
0.10496211 0.14309937 -0.26734552 0.14530504 -0.20297419 -0.21780798 0.017555594 -0.04919231
0.16954583 -0.16718206 -0.25662696 0.21008876 -0.04280527 0.1623674 0.09280461 -0.21647036
0.057994336 0.06933877 -0.19328493 -0.13696834 0.0984312 0.05170822 -0.122794494 -0.08738655
0.26439255 -0.053411037 0.16275263 0.12499726 -0.18660167 -0.24549785 0.27709597 0.015073687
0.1978747 0.05982256 0.092844486 0.21562839 0.273726 -0.19155934 0.03609276 0.21542591
0.20912638 0.1793361 -0.20891964 -0.20787618 -0.17458253 0.03626579 0.28771234 -0.18234903
0.15382946 -0.15977825 -0.2714169 -0.06135492 0.16632622 0.26799875 -0.17927846 0.06264573
0.24908626 0.1912916 0.17990899 0.20514196 0.18259174 0.07456374 -0.19740187 -0.2424174
-0.1322769 -0.033615023 -0.17694406 0.105612844 0.08934143 -0.06536624 0.110949606 0.093295395
0.17624742 0.19440645 -0.09776062 0.28204298 -0.033373088 -0.009917736 -0.2724747 -0.185796
-0.16864502 -0.12347297 0.20523924 -0.09433356 -0.21572149 0.11106771 0.09242499 0.18697217
-0.14938134 0.06258911 -0.10509236 -0.064858004 -0.23005052 -0.13156685 -0.08840899 0.12344769
0.05273789 0.07130751 0.28812814 0.28135073 0.19689006 0.009192437 -0.19970298 0.22560239
-0.072187096 -0.02333805 -0.24869332 -0.057021588 -0.18619195 0.2652653 -0.24956572 -0.22501728
-0.009802341 -0.15609111 0.10329133 -0.11111845 -0.13558713 0.016349882 0.20897132 -0.20306094
0.13556364 0.18545684 0.28238124 -0.20205265 0.06991419 -0.21345414 0.24645644 -0.1119789

actor.3.bias f4 [12]
00000000: b60e 323e 00cf 0c3c d02d b8bc a0e9 16bc
00000010: f800 493d a458 0b3e a8a2 3d3d b859 b43d
00000020: 85f3 84be ac5b 573e eadc 803e f058 743e
0.17388424 0.0085942745 -0.022482783 -0.009210974 0.04907319 0.13608032 0.0462977 0.08806175
-0.2596704 0.21031064 0.25168544 0.23862052

actor.6.weight f4 [12, 12]
00000000: 4484 5a3e 1051 55be 0a29 dbbd 0a52 823e
00000010: 1826 61be bc16 863e a87d 68be bb39 50be
00000020: 9483 103e 4463 54be 2472 87bd 8c0c 573e
00000030: e424 6a3e c6c8 8b3e acee 6fbd c9c2 65be
00000040: f286 913e 8ce2 7bbd 423e f3bd e81e 903d
00000050: 00b9 4ebe 524b 423e a843 393e 428e 6abe
00000060: e8cc 72be 8026 cfbc 6452 f83d 20fb 08bc
00000070: d1e4 15be 4043 d83b 6eec 8abe c0eb 50be
00000080: aec7 44be 3470 733e bc49 823e 30d0 c8bd
00000090: 6020 543c 22d5 033e 78ac 0d3d 2d06 14be
000000a0: 5c7c 2a3e acb7 353e 000e 89bc e08e 11bd
000000b0: 6650 863e 9c32 813e c499 27be 7a9b 903e
000000c0: b44e 923d 945b 44be 24d1 213e 9eb0 5cbe
000000d0: e68e 883e 8709 3ebe b435 a73d c805 b43d
000000e0: 889f 8c3d 142e 753e b08e f5bd 0297 f9bd
000000f0: a914 80be 801a 42bc 8b08 0cbe 8083 3d3c
00000100: 9864 72bd 9c28 c43d 2cb8 7f3e c073 ae3d
00000110: 9273 bebd 2a0d 11be dae7 80be 08bc 783e
00000120: 1cff 5fbd 18ad 6e3d 80f4 2e3c d760 3cbe
00000130: 727a 263e 62a9 253e 602f 6e3c f4fc 27be
00000140: 2635 fbbd c043 823b a2e3 28be 2fef 24be
00000150: 8c60 30bd fa3c aabd 4021 913d 6265 9bbd
00000160: 90be 1cbd 16a7 e1bd f311 87be dee6 803e
00000170: 6095 613d fa2a 843e 1c8f 3ebd ec93 94bd
00000180: 02f3 8abe a86d e0bd 30d9 413e 81c3 90be
00000190: 9ec8 cebd 5c19 343e 9e5e 2a3e e04c da3d
000001a0: 8c0d 6abd f00d b3bc 648c 60bd 54f1 d9bd
000001b0: 9cb9 f63d e05d c9bd 7010 26be 141f 863d
000001c0: f2a9 55be 3058 7cbd ae0e 173e 8cf3 dc3d
000001d0: 8ca8 7b3e 899d 49be 007d 243b c095 aebd
000001e0: fd55 25be ee4a 26be 40f2 943d 506b f73c
000001f0: e8e3 16be dc5b 50be 6aea 74be eeda 903e
00000200: 7889 49bd 34b5 88bd b665 d9bd c6d9 13be
00000210: 9b2a 87be 5f89 2dbe 62ae 343e 0494 813d
00000220: a28d d0bd a06c dfbd e4d5 3c3e 8615 553e
00000230: ae65 8e3e 5475 ac3d 2ccf 0e3e 8002 bebc
0.21339518 -0.20831704 -0.10701187 0.25453216 -0.21987188 0.2618922 -0.22704184 -0.20334522
0.14112693 -0.20740992 -0.066135675 0.2100088 0.22865635 0.27301615 -0.058577225 -0.22437586
0.28423268 -0.06149535 -0.11877109 0.07037145 -0.2018776 0.18974045 0.18092215 -0.2290583
-0.23710978 -0.025286913 0.1212509 -0.008360654 -0.14638068 0.0065998137 -0.27133507 -0.20402431
-0.19216797 0.23773271 0.2544688 -0.098053336 0.012947172 0.12874272 0.034588307 -0.14455481
0.16649002 0.17745847 -0.016730309 -0.035536647 0.26233214 0.25233924 -0.1636725 0.2824362
0.07143918 -0.1917556 0.15802437 -0.21551749 0.26671523 -0.18558322 0.0816454 0.08790165
0.06866366 0.23943359 -0.11990106 -0.121870056 -0.25015762 -0.011847138 -0.13675134 0.011566997
-0.059177965 0.09578058 0.249726 0.08518171 -0.09299387 -0.14165178 -0.2517689 0.24290478
-0.05468665 0.058270544 0.0106784105 -0.18396316 0.16257647 0.16177896 0.014537662 -0.16405088
-0.12265997 0.0039753616 -0.16493085 -0.16106866 -0.043060824 -0.083124116 0.0708642 -0.075876966
-0.038267672 -0.11018197 -0.26380882 0.25176138 0.055074096 0.2581404 -0.0465232 -0.07254776
-0.27138525 -0.10958415 0.18930507 -0.28274158 -0.100968584 0.17587799 0.16637656 0.10659194
-0.057141826 -0.021857232 -0.054821387 -0.10641733 0.12047121 -0.09832358 -0.16217208 0.065488964
-0.2086561 -0.06160754 0.14751694 0.107886404 0.24576014 -0.19689001 0.002509892 -0.08524656
-0.16146083 -0.16239521 0.07272768 0.030202538 -0.14735377 -0.20347542 -0.23917547 0.2829203
-0.049203366 -0.06675187 -0.10615103 -0.14438543 -0.26399693 -0.16946934 0.17644647 0.0632706
-0.10183264 -0.109093904 0.18440968 0.20808992 0.2781195 0.08420816 0.13946217 -0.023194551

actor.6.bias f4 [12]
00000000: fbd1 2cbe 71cc 90be e00c 343e 30dc 2bbd
00000010: 14e5 f23d 40cd 683c 47f2 89be 7f05 11be
00000020: 5453 a63d 2c52 6fbd fdb9 8ebe f04f cf3d
-0.16876976 -0.28280976 0.17583036 -0.041958034 0.118600994 0.014209092 -0.26942655 -0.14162253
0.08121362 -0.058427975 -0.27876273 0.10122669

actor.9.weight f4 [12, 12]
00000000: 0064 353c 9a00 bebd a4d4 ee3d 68a1 793d
00000010: f009 dabd 02c7 843e 544c 143e 8877 143d
00000020: 8c15 63bd 4663 7abe 883a 643e 1a8e 98bd
00000030: c406 3fbe d286 3d3e b8f7 d13d 204e 923d
00000040: 1073 6abd 7e7f b8bd 58a7 483d 98c0 643e
00000050: 9053 293d 82c6 0bbe 0ed3 923e c04e ca3b
00000060: fcad 693e bc16 903d a47b 843e 2e8e 2a3e
00000070: e4b4 16be eca5 4f3e 0069 f33a 3249 6dbe
00000080: 1cc5 77bd 5768 85be 1927 19be 806a 51be
00000090: aa2d 4a3e 3869 78bd 344b 4cbd 5ca8 0d3e
000000a0: 909a f03d b616 43be 54e1 d93d 7028 fb3d
000000b0: 7809 6bbe 1681 803e 76de 33be 1c31 e7bd
000000c0: f67b 73be 6416 873e f826 613d 88e8 783e
000000d0: d06c 9a3c 60ac 203e 84c3 bcbd 3cd3 6bbe
000000e0: 58cf 3d3d 50e4 d2bc 40c6 eebc d92c 11be
000000f0: 00d3 c33b f4c8 a93d d046 d53d a320 6ebe
00000100: dccf 0e3e a02e f33c 02e2 4b3e 30e8 503e
00000110: beca 68be daef 8d3e 0d5b 91be a8ee 293e
00000120: 4072 a63c d0e1 0b3e 33da 1fbe 36b7 313e
00000130: 3346 12be 2ca4 82be e812 c63d 20cd 213e
00000140: 8682 923e 8027 f7bc 9a2e 8e3e 22e8 3d3e
00000150: cf9b 12be 1203 64be 0ecb 253e 35f4 21be
00000160: 7a97 073e 662a 7dbe cea9 573e f431 b13d
00000170: 00ef 07bd 6e92 073e 2c74 52be ec3d 81bd
00000180: 8077 393b b9ce 2abe fe10 97bd f4f5 febd
00000190: 40dc 8c3e 2820 7b3e bcf3 7e3e 7c9b 713e
000001a0: f98c 8dbe 90c2 c53d 80e9 d93d 99d1 58be
000001b0: e4a3 ef3d 3966 20be 0806 3c3d 34d3 c33d
000001c0: 1c13 7f3e ee13 1bbe c292 68be 36c1 883e
000001d0: 682b f83d 5cad 0f3e 40d0 d43d 9243 d1bd
000001e0: dcd1 313e 3309 81be c88c 243d dc9f 053e
000001f0: 2cf8 493e 9d9d 13be 94cb 47be 0c9a dd3d
00000200: f1c1 6abe 40aa 75be b6eb 84be 2b59 0fbe
00000210: 4cb2 61bd e80d 2fbe 48fa f9bd 5fe0 82be
00000220: d0b0 353e 4a58 87bd 7482 3abe 70ec 993d
00000230: 6406 5dbe 62eb 4e3e fcf9 293e 143f 91be
0.011071205 -0.092774585 0.11661652 0.060944945 -0.10646427 0.2593308 0.14482242 0.036246806
-0.05544047 -0.24451932 0.22287953 -0.07448979 -0.18654925 0.18508461 0.10252327 0.071438074
-0.05723864 -0.09008692 0.048987716 0.22339094 0.041339457 -0.13649943 0.28676647 0.0061739385
0.22820276 0.07035586 0.2587558 0.166558 -0.14717442 0.20278138 0.0018570721 -0.23172453
-0.060490713 -0.26056167 -0.14956321 -0.20450783 0.19743982 -0.06064722 -0.049876407 0.13833755
0.117482305 -0.19051632 0.10638681 0.12263572 -0.22952831 0.25098485 -0.17565331 -0.11288664
-0.23777756 0.2638427 0.054968804 0.24307454 0.018850714 0.15690756 -0.09216979 -0.23029798
0.046340317 -0.025743634 -0.029147267 -0.14177264 0.005976081 0.08290282 0.10413897 -0.23254637
0.1394648 0.029685318 0.19910434 0.20401073 -0.2273359 0.27722055 -0.2838978 0.16594946
0.02031815 0.1366036 -0.1561058 0.17355046 -0.14284591 -0.25515878 0.09671575 0.15800905
0.28615206 -0.030170202 0.2776993 0.18545583 -0.14317249 -0.22266796 0.1619074 -0.15815814
0.13241377 -0.24723205 0.21060869 0.08652106 -0.033186913 0.13239452 -0.20552129 -0.06310639
0.0028299987 -0.16680421 -0.07376288 -0.124492556 0.27511787 0.24523985 0.24897665 0.23594469
-0.27646616 0.096562505 0.1064024 -0.21173705 0.117011815 -0.15663995 0.04590419 0.09561768
0.24909633 -0.15144321 -0.22712234 0.26709908 0.12117654 0.14030975 0.10391283 -0.10217966
0.17365211 -0.2520233 0.040173322 0.13049263 0.19723576 -0.14415593 -0.19511253 0.10820398
-0.22925545 -0.23990726 -0.25961083 -0.13998859 -0.055101678 -0.17095149 -0.122059405 -0.25561807
0.1774323 -0.06608637 -0.18213826 0.075158 -0.21584469 0.20206979 0.16599268 -0.28368437

actor.9.bias f4 [12]
00000000: 5e08 68be f5e9 42be f104 20be 68a3 133d
00000010: 9927 92be 8826 5bbe 64ff 063e a8a0 c1bd
00000020: 1e41 ebbd 0e8c 74be 749f ef3d b0fe a63c
-0.22659442 -0.1903456 -0.15626885 0.03604451 -0.28545836 -0.21401417 0.13183361 -0.09454471
-0.114870295 -0.23881552 0.11700335 0.020385116

actor.12.weight f4 [12, 12]
00000000: ea84 e4bd d005 35be 7877 7b3d c8dc a03d
00000010: f034 033e e0b1 af3d 245f 34bd 40d4 64be
00000020: fe2e 3c3e 002c 22bb 4774 44be e4ec 7e3e
00000030: 20d0 243e c852 68be 1da1 13be b230 c9bd
00000040: 98a5 2abe fa0a 0a3e b9e1 52be be5c 893e
00000050: b45d f4bd c47c 2e3e 6011 213c f300 02be
00000060: 1866 453e 278e 61be fd65 1cbe 78b9 0d3d
00000070: a07e 6a3e 404e fdbd 8200 34be c4b7 3cbe
00000080: 2253 02be 2e39 ccbd 60b4 89bd 222a 28be
00000090: 60c7 b83d 80a5 193b 4823 41be 00cf 28be
000000a0: e060 7a3d 0021 87bb 6c36 513e cc3f 33bd
000000b0: 0278 6fbe c4a1 5abe b088 adbd 4ef0 82bd
000000c0: a8f0 063d 1697 84bd 2024 da3d 32a0 c4bd
000000d0: 90f5 583e f0ca 873d 10c2 b5bd 90b8 833e
000000e0: 78ee 963d 9ae3 48be 2284 24be 0459 393e
000000f0: 1c02 073e 2cce 663e e0a7 b5bc 44c0 4e3e
00000100: b4f7 123e bcd5 b63d 16d5 88bd a87a 8e3e
00000110: 1047 6f3d 188a 98bd 407d 86bb d44b 913e
00000120: d08a 463e 903f afbc 50e6 903e 56cf 013e
00000130: 5f62 1dbe 7d82 86be 58c9 2b3e fe9c 8a3e
00000140: d239 2cbe 74d2 f23d 0059 493c 14d2 7cbd
00000150: 58c1 a0bd 8079 a43d d055 823d 30a7 473e
00000160: f06c d83d 3684 063e 6062 823e d417 b83d
00000170: 3885 2f3d c23c d7bd d8ca 583e d09e 2e3d
00000180: 5e89 3e3e 62b9 8e3e a239 84bd 7222 503e
00000190: 0820 70bd 7061 853e 00ab 683e d8e8 d3bd
000001a0: a09f 293c a117 01be a41c efbd 7466 6fbd
000001b0: 00fb 00bb 3017 cebd 4786 8bbe fcc9 32be
000001c0: 8015 cabc 28bb bcbd 988f 5b3e 8048 703e
000001d0: 5c51 3c3e 1ed4 023e f157 6abe 46a3 8b3e
000001e0: 8c3e 82be fc5c c2bd da0c 50be 1499 d43d
000001f0: e3f9 75be 15bb 11be 48c5 3bbe 02b4 35be
00000200: 3dfe 09be b04a 913e a027 c1bc 7437 b43d
00000210: 69b8 92be a669 833e 2cbd 80bd e1a4 87be
00000220: c2b7 4b3e d0db 9fbd 3239 863e 85c8 48be
00000230: 5039 89be b712 5ebe 880c 003e 989a 04bd
-0.11158164 -0.17677999 0.06139323 0.07854611 0.12813163 0.08578849 -0.044036046 -0.22346592
0.18377301 -0.0024745464 -0.19184981 0.24895054 0.16095018 -0.22687829 -0.14416929 -0.09823741
-0.16664732 0.1348075 -0.20593919 0.2682857 -0.11931935 0.17039782 0.009830803 -0.12695675
0.19277227 -0.22026883 -0.1527328 0.034600705 0.22899866 -0.12368441 -0.17578319 -0.18429476
-0.12727025 -0.09971844 -0.06723857 -0.16422322 0.09022403 0.0023444593 -0.18861115 -0.16485214
0.061127543 -0.004123807 0.20430917 -0.043762013 -0.23385623 -0.21350771 -0.08473337 -0.06393491
0.03294435 -0.0647413 0.106514215 -0.09600867 0.21187425 0.06630504 -0.08874905 0.25726748
0.07369703 -0.19618073 -0.1606603 0.18100363 0.13184398 0.22539586 -0.022174776 0.20190531
0.14352304 0.08927485 -0.06681268 0.27827954 0.05841738 -0.07448214 -0.0041042864 0.28378165
0.1938889 -0.021392614 0.28300714 0.12676749 -0.15369557 -0.2627143 0.16776025 0.270729
-0.16818932 0.11856547 0.012289286 -0.061723784 -0.078493774 0.08030987 0.06364024 0.1949737
0.10567653 0.13136372 0.2546568 0.0898892 0.042851657 -0.105096355 0.21171129 0.042631924
0.18607089 0.2787581 -0.06456305 0.2032564 -0.058624297 0.260509 0.22721481 -0.10347146
0.010352999 -0.1260667 -0.11675385 -0.058447316 -0.0019680858 -0.100630164 -0.27250883 -0.17459863
-0.024668455 -0.09215385 0.21441495 0.23465157 0.18390411 0.12776229 -0.2288511 0.27273005
-0.25438344 -0.094903916 -0.20317402 0.1038076 -0.24021105 -0.14231522 -0.18336976 -0.17744449
-0.1347589 0.28377295 -0.023578465 0.08799639 -0.2865632 0.2566654 -0.06286082 -0.2649298
0.19894317 -0.07805598 0.26215512 -0.19607742 -0.26801538 -0.21686827 0.1250478 -0.032373995

actor.12.bias f4 [12]
00000000: 23ed 88be 503d 5b3d 00bd 96bc c095 d53d
00000010: 145e 16be 2007 53be 767a 493e 993e 0ebe
00000020: 0cf0 4f3e 48ad 6f3e a1b9 4ebe f848 08be
-0.2674342 0.05352527 -0.01840067 0.10428953 -0.14684325 -0.20608187 0.19675621 -0.13891067
0.20306414 0.23405945 -0.20188 -0.13309085

actor.15.weight f4 [12, 12]
00000000: f856 0e3d 705b 8bbe 6890 b53d 5655 f6bd
00000010: 5e10 03be 6885 64be e849 0a3e 535f 3cbe
00000020: bb46 6cbe 1079 9bbd 1d90 24be 46b1 8fbe
00000030: cc43 ee3d 14ef e0bd 5a0f 4f3e 8c14 503e
00000040: f286 3cbe 2054 2cbe 5ada d1bd b026 2d3e
00000050: 00cf 22bc 9a34 d3bd de1e 373e ca2a 8c3e
00000060: f089 5a3e ac0c 62be 2896 75bd 20cd 62bd
00000070: c844 7c3e 75e3 18be 526b 29be 80ff 933b
00000080: 2856 89bd 34c8 df3d 80b9 0f3d ac7d 30be
00000090: 96f2 563e ba01 383e 5877 813d 65c7 85be
000000a0: e0e8 0a3e d86a 443e b097 a43d e686 e4bd
000000b0: f099 9e3c 1c1e e3bd 0426 8b3e 3cb8 8e3e
000000c0: b0ca 09bd 94e1 46be b0e3 2d3e e4de 163e
000000d0: 3cb1 1c3e 756d 5ebe 5878 c83d 324c fcbd
000000e0: 21e9 81be b869 4ebe cc9d fa3d cc55 dd3d
000000f0: 7ab8 81be 38a1 273e cc80 623e 9c66 603e
00000100: 06e9 263e 309d 39bd dc12 463e 006c 673e
00000110: b017 1a3e e09c 54be d855 cebd b42e 6a3e
00000120: 685c 613e 449e 3c3e d619 f7bd c42c 6abd
00000130: 303a 5cbe f276 28be 44ea 623e fe9f 72be
00000140: 241a 92bd 50fd 7a3d 9a5d 31be 88cf 893d
00000150: 0414 3ebd 0470 ec3d 55d7 62be 882d 233d
00000160: 28c1 86be dc63 373e f491 8f3e cc03 d3bd
00000170: f8d7 2e3d 444c 18be d317 3dbe c6b5 15be
00000180: 14d3 0cbe b072 603d 6089 07bd 10d0 a53c
00000190: b087 62be 60b7 39be ede8 7fbe 8c76 54be
000001a0: 108b 773e dca5 db3d 53f5 8cbe 8c59 45bd
000001b0: 90ca bd3c 28eb 1d3e 5814 893e 14c3 8e3d
000001c0: b63b 503e a060 d2bd 8089 1abc 2072 32be
000001d0: 5032 883d de6d 883e f4a1 393e 1e13 933e
000001e0: 1032 05be 48f2 13bd 88e6 733d 30a8 6d3e
000001f0: 88dd 87be 8f2c 11be 8085 2b3d 1cdc 2abe
00000200: 00da dc3d d038 a1bc bc32 99bd d888 1e3e
00000210: 6442 533e d6c3 8f3e 82dc 053e e057 01bc
00000220: f0af 713e f840 6b3e 4126 14be 88a5 063e
00000230: 488d 0a3d c480 ffbd 2acb 8cbd 6e9a 8bbd
0.03475091 -0.272182 0.08865434 -0.12027995 -0.12799212 -0.22316515 0.13504755 -0.18395738
-0.23073857 -0.0759145 -0.160706 -0.28064936 0.11634025 -0.109831005 0.202207 0.20320338
-0.18410853 -0.16828966 -0.102467254 0.1690929 -0.009937048 -0.10312767 0.17882869 0.27376395
0.21341681 -0.22075146 -0.059957653 -0.055371404 0.24635613 -0.14930518 -0.16544846 0.004516542
-0.06705886 0.109268576 0.035089016 -0.1723544 0.20990977 0.17969409 0.06321591 -0.26128688
0.13565397 0.19181383 0.080367446 -0.11158542 0.019360512 -0.11089727 0.2717744 0.27874935
-0.033640563 -0.19421989 0.16981387 0.14733464 0.15301985 -0.21721442 0.09788579 -0.123192206
-0.25373176 -0.20157516 0.122371286 0.1080738 -0.25336057 0.16370094 0.22119445 0.21914142
0.16299829 -0.04531592 0.19343132 0.22599792 0.15048099 -0.20762968 -0.10074967 0.22869378
0.22007906 0.18419749 -0.12065475 -0.057171598 -0.21506572 -0.16451624 0.22159678 -0.23693845
-0.07133892 0.061276734 -0.17320862 0.067290366 -0.046405807 0.11544803 -0.22152455 0.039838344
-0.26319242 0.17909187 0.2804104 -0.103034586 0.042686433 -0.14872843 -0.1846612 -0.14620122
-0.13752395 0.054796875 -0.033089995 0.020240813 -0.22122073 -0.18136358 -0.24991198 -0.20748347
0.24174142 0.107249945 -0.27530918 -0.0481811 0.023167878 0.15421736 0.26773334 0.06970802
0.20335278 -0.10272336 -0.009432197 -0.17426348 0.06650221 0.26646322 0.18128186 0.28725523
-0.13007379 -0.03611973 0.059546024 0.2320869 -0.26536202 -0.14177154 0.041875362 -0.16685528
0.10783768 -0.01968041 -0.0748038 0.15481889 0.20630795 0.28079098 0.13072398 -0.007894486
0.23602271 0.22974002 -0.14467718 0.13149083 0.033826143 -0.12475732 -0.06874688 -0.068165645

actor.15.bias f4 [12]
00000000: fbda 4ebe fe68 b4bd 04f2 c63d f001 593e
00000010: 00a2 b33c a121 8fbe 248e 1c3e e4e3 b2bd
00000020: 94fe 833e 5bd1 8ebe 9a52 8abd 3c3f 653e
-0.20200722 -0.08809088 0.097141296 0.21192145 0.021927834 -0.27955344 0.15288597 -0.08734873
0.25780165 -0.278941 -0.06754036 0.22387403

actor.18.weight f4 [12, 12]
00000000: acc1 ff3d 9a7a 13be 0ef7 7fbe 0032 4bbb
00000010: c063 e43d b668 75be a45c 77be 8027 6ebb
00000020: 987f 72bd 16ff 3d3e ca35 8fbe 9811 3cbd
00000030: 5012 65be b037 2cbd cd07 17be a010 ba3d
00000040: da49 77be 278a 68be 8ec0 27be 3f73 81be
00000050: d69a 3a3e 5837 29bd b43b 24be 4023 4f3e
00000060: 8c21 86bd 1ae2 183e 9044 b7bd fa50 77be
00000070: 5cd8 813d d211 383e 801c 90be 702b f63c
00000080: 08ab 6b3d 48b6 073d 0014 eabb 12c6 b7bd
00000090: ca7c 65be 98db 403d 1c88 46be d53d 74be
000000a0: 02cf bdbd 6c5b 4abe 7c34 b53d 068f 523e
000000b0: e4bb 653e af38 37be 6e29 213e 440f 523e
000000c0: 0039 543b 606c f93d bc43 273e 202e 623e
000000d0: 5e2b 1e3e 885a fc3d 5a64 e0bd 60cf 24be
000000e0: ae2b 0cbe b037 733e ae31 8fbd 002a 293c
000000f0: 6fd6 89be 2017 52bc 86c7 a6bd 0ebc 3ebe
00000100: 10ef 643e ea52 6fbe 8806 29bd c0ac a7bc
00000110: 30ce 85be d6b9 323e 621d bcbd 98cc 043e
00000120: 58fb 243e 6e54 823e 143c 923d 84eb 5d3e
00000130: 7680 883e 2059 6a3d e8eb 70bd 56df a1bd
00000140: a88f 3f3d 1cc2 d43d f46e 8bbe 8c7b 5d3e
00000150: 6075 3a3d 83ae 89be 645e bd3d 0a98 3b3e
00000160: 9ce8 dc3d 084b 713e 808e c33b 6b3c 75be
00000170: 00aa 2bba fadb 563e 412e 0ebe f82a fc3d
00000180: 1048 883d e0d8 3fbd 8073 063b 7487 fb3d
00000190: a348 4abe 64a3 3a3e b01f 483e 5ae0 253e
000001a0: b8b1 933e 0087 4ebc acbc 50be a0f7 573c
000001b0: d685 abbd f0b3 d03d 440c 7a3e 2ccb 21be
000001c0: 800e 463c dcc1 8f3e b4fa 6bbe 800a 4cbd
000001d0: 2e86 8f3e 908c 4e3e 9097 ab3d f4fc febd
000001e0: 4072 dcbc 9289 84be 8e26 8bbe 037b 8abe
000001f0: 9af5 8d3e 34cd 693e c083 ea3d ec7e 94bd
00000200: 1883 7e3e ce29 9cbd 6637 4d3e 20ef 19bc
00000210: 020e 0bbe fc00 a5bd 787a 7cbd ca49 87be
00000220: 54cb b03d 0421 b4bd a0cf 073e e078 3c3e
00000230: d4fd 3bbd 965c 0f3e b83d 6c3d a084 463e
0.12488112 -0.14402238 -0.24996588 -0.0031005144 0.11151838 -0.23965725 -0.24156433 -0.0036339462
-0.059203714 0.18554339 -0.27970725 -0.045915216 -0.22370267 -0.042045295 -0.1474907 0.09085202
-0.24149266 -0.22708951 -0.16382048 -0.25283238 0.18223128 -0.041312546 -0.160384 0.2022829
-0.06549367 0.14930001 -0.08948624 -0.24151984 0.063400954 0.17975548 -0.28146744 0.03005001
0.057536155 0.03313282 -0.0071434975 -0.08973326 -0.22410884 0.04708442 -0.19387859 -0.23851712
-0.09267999 -0.19761437 0.08847901 0.20562372 0.22434956 -0.17892717 0.1573846 0.20513636
0.0032382607 0.12178874 0.16334432 0.22087908 0.15446231 0.12321955 -0.109566405 -0.16094732
-0.13688537 0.23751712 -0.069918975 0.010324955 -0.26921412 -0.012822896 -0.08143525 -0.18626425
0.2235682 -0.23371473 -0.041265994 -0.020468116 -0.2613387 0.17453703 -0.09185292 0.12968671
0.16111505 0.2545504 0.07140365 0.21671873 0.26660508 0.057213902 -0.058818728 -0.07903926
0.04676786 0.10388586 -0.27233088 0.2162916 0.045522094 -0.26890954 0.09246519 0.18319717
0.10786554 0.23563778 0.005967915 -0.23948829 -0.00065484643 0.20982352 -0.13884832 0.12312883
0.0665437 -0.046837687 0.002051562 0.12281695 -0.19754271 0.18226391 0.19543338 0.16198865
0.28846526 -0.012605429 -0.20384473 0.013181597 -0.083751366 0.1019057 0.24418741 -0.1580016
0.012088418 0.2807759 -0.23044854 -0.0498147 0.28032058 0.20170808 0.08378518 -0.12450591
-0.026909947 -0.25886208 -0.27177852 -0.27046975 0.27726442 0.22832185 0.114509106 -0.07250771
0.24854696 -0.07625161 0.20040664 -0.009395391 -0.13579562 -0.080568284 -0.061640233 -0.26423484
0.08632532 -0.0879536 0.13262796 0.18405485 -0.045896366 0.14000162 0.057676047 0.1938653

actor.18.bias f4 [12]
00000000: 1ca3 3ebe 009f cfbc fc01 c5bd 3282 813e
00000010: 68aa 84be 9626 26be 907b 053d 7635 833e
00000020: 1a02 483e 7e4e 8abe 0ed4 4fbe 544f 8f3e
-0.18616909 -0.025344372 -0.09619519 0.25294644 -0.2591126 -0.16225657 0.03258854 0.25626725
0.19532052 -0.2701301 -0.20295736 0.2799021

actor.21.weight f4 [12, 12]
00000000: e051 2c3d ab2f 7dbe 8842 babd c63b 013e
00000010: 5c40 77bd b70f 63be 9c82 36be 0022 19be
00000020: 6042 39bc 58b0 e73d 76ed 0d3e 039a 0fbe
00000030: 8864 46bd 2e3b 64be 4c8c 5f3e d27f 933e
00000040: c8a8 8f3e 889c f13d 6422 7cbd 40ce ebbb
00000050: 404c d53d a61d 80be f0cc 923c 5948 70be
00000060: b1c6 93be e014 1ebc 1a36 bcbd c240 3bbe
00000070: 8003 443d c0aa 403c d86f 343d 1072 25be
00000080: 21c5 90be 8005 cf3b 762f f1bd 3451 c7bd
00000090: 789e 593e 101c 413d aa01 073e cc39 a5bd
000000a0: a68e 6abe e8c4 6b3d 28c3 43be 4081 123d
000000b0: 0bb2 66be 50da 5e3e 7c5e 49be b250 803e
000000c0: aed0 503e 8c75 5f3e ec5f 313e 2cd7 883d
000000d0: 2084 66bc 00fe 96bb b822 ebbd d8db 87be
000000e0: aab7 863e 000e 753c 2607 0b3e 8097 2d3c
000000f0: 70e5 a93d 5b21 36be b9ca 65be 8c70 613e
00000100: f031 e03d 3ef5 113e 8eb3 92be 90e1 9f3c
00000110: d0dc 89be d04f 07bd a007 7abc 7ff6 4fbe
00000120: 605b 92be 0008 f93a feea 843e d833 853e
00000130: 3af8 33be a80b 52bd 4332 77be 40da 66be
00000140: ce19 a2bd 9a7e 8f3e a83c 9abd 10d3 883c
00000150: ee0b 8b3e f8b6 523d 7476 6e3e 026d 443e
00000160: 6298 8a3e a8c5 4a3d 980c 6fbe f34b 7ebe
00000170: 4ebb 18be e0fb 733e 42fb 293e 4008 ad3d
00000180: 4c1c 61be 96b6 59be f42a 713e 507a f5bc
00000190: 6c29 93be 182c 12bd 08ef 8dbd 40af 8e3b
000001a0: d46c f73d 107d e33d 7a30 62be 805a 4fbb
000001b0: 2f7e 12be 58f4 473e b060 123e 5240 223e
000001c0: 785f 863e 7a33 113e 6fb2 93be dc2d 953d
000001d0: b6d6 4abe 88e6 1d3d 8037 4a3b c497 923e
000001e0: 7ef6 49be 73cf 90be 7c7d 9ebd 108a 3e3d
000001f0: e08a 583e f8ac 6f3e 64a8 633e c8a0 ba3d
00000200: 8ef4 a8bd 5003 7abd 4ea8 21be b838 673d
00000210: 1893 4dbe b442 cb3d 5ee7 3e3e dcd6 7a3e
00000220: b8ae 91be 9888 723e 23b2 39be 8016 c1bc
00000230: a0ec 863e 5e30 203e 4c88 bbbd c480 2e3e
0.04207027 -0.24725215 -0.09094721 0.12620458 -0.060364112 -0.22173963 -0.17823261 -0.14954376
-0.011307329 0.11312932 0.13860115 -0.14023595 -0.048435718 -0.222882 0.21830863 0.28808457
0.28058457 0.11797434 -0.061556235 -0.007196218 0.10414934 -0.2502262 0.017919987 -0.23465098
-0.28862527 -0.009648532 -0.091900066 -0.18286422 0.0478549 0.01175946 0.044051975 -0.16156793
-0.28275397 0.0063177943 -0.117766306 -0.09732285 0.21251857 0.047145903 0.13184229 -0.080676645
-0.22905979 0.05756083 -0.19117415 0.035767794 -0.22528856 0.21762967 -0.19664949 0.25061566
0.20392105 0.21822184 0.17321748 0.06681666 -0.014069587 -0.004607916 -0.114812315 -0.26534915
0.26312 0.014956951 0.13576946 0.010595202 0.08295715 -0.17786162 -0.22440614 0.2201559
0.10947025 0.14253709 -0.28652614 0.019516736 -0.2692628 -0.0330351 -0.015260607 -0.20308875
-0.2858534 0.0018999577 0.25960535 0.26016116 -0.1757516 -0.051280648 -0.24140267 -0.22544193
-0.07915078 0.28026277 -0.075311005 0.016702205 0.2715754 0.051444024 0.23287374 0.19182208
0.27069384 0.049504906 -0.23344648 -0.2483366 -0.14915201 0.23826551 0.16599753 0.08448839
-0.2198345 -0.21261057 0.23551542 -0.02996555 -0.2874254 -0.035686582 -0.06930357 0.0043543875
0.12081304 0.11107838 -0.22088805 -0.0031639636 -0.14305948 0.19526803 0.14294696 0.15844849
0.26244712 0.14179793 -0.28847072 0.072841376 -0.19808468 0.03854993 0.0030855834 0.28631413
-0.19722936 -0.2828327 -0.07738778 0.046518385 0.21146727 0.23405826 0.22232205 0.09112698
-0.0824977 -0.061038315 -0.1578686 0.056450576 -0.20075643 0.09924832 0.18642947 0.24496025
-0.28453612 0.23684919 -0.1813436 -0.0235703 0.26352406 0.1564345 -0.09156856 0.17041308

actor.21.bias f4 [12]
00000000: e0c1 8fbe d018 673e 4a79 8f3e 20c8 56bc
00000010: c099 423d f4b9 8abd ed21 3bbe 84b4 05be
00000020: 000c 9dbc 5cd6 71be 2be9 6ebe 38c4 013d
-0.28077602 0.22568059 0.28022224 -0.013109237 0.04750991 -0.06773749 -0.1827466 -0.13057142
-0.019170761 -0.23616928 -0.23331134 0.03168127

actor.24.weight f4 [12, 12]
00000000: 7257 40be d1ca 20be 809b 23bb a9c8 1bbe
00000010: fccf 883e e06c d5bd 475d 24be 6480 9dbd
00000020: c62c 71be 4e48 183e 24fb 7d3e 527a 2abe
00000030: 0ec7 dbbd 44f0 893e 75d6 55be 441f a03d
00000040: e7d8 70be db8c 83be 0004 e539 42b6 28be
00000050: 3418 203e 14dd b6bd 7f66 3a3b ff53 1abe
00000060: 8cf2 f23d 0ef1 883e 78c0 31bd 1273 36be
00000070: 8c27 90be 06a2 8d3e 0c2e f93d 0029 f43d
00000080: a04f 493d 4c54 143e 88f1 d13d 0056 103e
00000090: fedf 383e 90aa 273d 4c9d 7e3e e8cf 373e
000000a0: a0c8 10bc c807 04be 10c4 9c3c 2438 663e
000000b0: 2442 3b3e 4692 efbd acda 76bd a0bb ea3d
000000c0: 64c1 de3d 28be 8c3e 888a 0f3e a459 bc3d
000000d0: 90a3 883d 5fe7 8abe 9acf d9bd d048 fa3c
000000e0: e1a3 4dbe c17f 81be d677 473e a812 c93d
000000f0: b28a 6ebe 705b 8c3c 6816 2e3e 264a 2a3e
00000100: 48f9 863e d0c3 e9bd b29f 033e c6c9 6fbe
00000110: a0d9 11bd 9c00 3cbe 6c26 61bd 3a48 283e
00000120: 9a5d 133e e07d 1bbe c099 92bd 488c 6cbd
00000130: 2ce9 e0bd 0cee 21be a00f 593e 6854 4c3e
00000140: 20c7 763e b851 22be 5c77 583e b245 b3bd
00000150: 28e6 8abd 482c 9fbd c0fa 65bc bb71 01be
00000160: 50b4 213d 1e87 3ebe 0028 f33d 52e6 77be
00000170: 8253 d6bd 4077 4ebe a667 473e 0218 4b3e
00000180: 201c 6bbe 644d 21be b847 843e b845 ac3d
00000190: 948b 4b3e 57a0 62be bc69 053e de29 3c3e
000001a0: 0c2c 89bd c0f2 59bc 308c 573e c435 a13d
000001b0: f0a2 a93d ff2b 663a 30d2 f6bd c6ee 34be
000001c0: a87e 933e 50d1 babc e029 833e bcdc 713e
000001d0: fe92 1abe a0bd a03c 2839 97bd 80c1 abbb
000001e0: 10d2 423e 48c6 223e 4be6 27be 8744 12be
000001f0: 5eff 51be 84fa 7abe c6a0 3d3e a2a8 36be
00000200: 003d 773b 009c cdb9 6847 4a3d 605c 8abc
00000210: 4866 193e 9862 223d 30f9 533e 183c 7f3d
00000220: 00f7 6bbb d88c 273d 5e05 453e 7077 323d
00000230: f83e 503e 703f e0bc 8109 243b 7859 783e
-0.18783358 -0.15702368 -0.0024964511 -0.15213265 0.2672118 -0.10421157 -0.16051207 -0.07690504
-0.23552236 0.14871332 0.24802834 -0.16648224 -0.10731326 0.2694112 -0.2088259 0.078184634
-0.23520242 -0.25693402 0.00043681264 -0.16475776 0.15634233 -0.08928886 0.002844244 -0.15071104
0.118626684 0.2674641 -0.043396443 -0.17817333 -0.28155172 0.27662677 0.12166986 0.11921883
0.049148202 0.14485282 0.102511466 0.14095306 0.18054196 0.040934145 0.24864691 0.17950404
-0.008836895 -0.12893593 0.019136459 0.22482353 0.1828695 -0.11697821 -0.060267136 0.11461568
0.1087673 0.27488828 0.14017689 0.09196785 0.06671822 -0.27129647 -0.106353 0.030552298
-0.20082046 -0.2529278 0.19479308 0.098180115 -0.23295096 0.017133445 0.17000735 0.16629848
0.26362062 -0.114143014 0.12853888 -0.23416814 -0.035607934 -0.18359607 -0.054968283 0.16433802
0.14391175 -0.15184736 -0.07158232 -0.05775097 -0.10981974 -0.15813464 0.21197367 0.19954073
0.24099398 -0.15851486 0.21139282 -0.08753528 -0.0678218 -0.07772118 -0.014036834 -0.12641041
0.0394786 -0.1860623 0.11872864 -0.24208954 -0.104651466 -0.20162678 0.19473132 0.19833377
-0.22959948 -0.15752178 0.25835967 0.08411735 0.19877464 -0.22131477 0.13028616 0.18375346
-0.066978544 -0.013302505 0.21049571 0.07871583 0.08283031 0.00087803596 -0.12051809 -0.1766921
0.2880757 -0.022804886 0.25617886 0.2361936 -0.15095136 0.01962167 -0.073839486 -0.005241573
0.19025445 0.15895951 -0.16396444 -0.14283954 -0.20507571 -0.24509627 0.18518361 -0.17837766
0.0037725568 -0.00039216876 0.049384505 -0.016889751 0.14980423 0.039644808 0.20700526 0.06231317
-0.0036005378 0.040905803 0.19240329 0.043570936 0.2033652 -0.027374 0.0025030079 0.2425288

actor.24.bias f4 [12]
00000000: c989 8bbe f0e9 eb3c 54ff 863e 5956 14be
00000010: 081b 5abd e079 8ebc 74c5 c23d a874 df3d
00000020: 84ee 853d 4c37 e93d 34a9 fdbd d0b9 f83d
-0.2725356 0.028798074 0.26366675 -0.14486064 -0.053248435 -0.017392099 0.095103174 0.10910922
0.06539634 0.113875 -0.123857886 0.12144816

actor.27.weight f4 [12, 12]
00000000: 0a76 bbbd 04bd 393e c082 adbd 7ab5 7bbe
00000010: c0e3 a83c 10d1 193e 405d 39bc 0093 753b
00000020: 0012 863a f6e2 1c3e f008 b93c 7909 84be
00000030: 59d0 52be 20c9 8b3c d0e3 bdbc 0047 8d3e
00000040: acfa 8abd 443a 623e 4c4d 79be 0d79 8cbe
00000050: 308a d9bc 642b 3bbe f868 acbd 802f 053d
00000060: d234 80be 5621 4b3e 7b66 33be 08cf 623e
00000070: 8440 c13d b8bf 5dbd 3859 81be b8b3 433d
00000080: 2824 25be a07a 7f3e 38ad 78be 5c2b 9cbd
00000090: b1e9 22be 951e 3ebe 862d 1abe 5073 eabc
000000a0: e0fa 9f3c 304b 483d 8e0d 173e be7b f1bd
000000b0: b468 37be 0c22 79bd 5848 8b3e 6875 10bd
000000c0: 7ddb 78be a8f2 673e c8d9 8f3d d037 4d3d
000000d0: 50f5 4a3d ca3d 4e3e e399 06be c470 573e
000000e0: 2e20 8e3e aa71 98bd 8290 3a3e f816 233e
000000f0: e869 8a3e e298 89bd 1ed8 2fbe da74 dbbd
00000100: fc1c 49be 8042 223c 7280 8e3e 4a63 8f3e
00000110: 0449 5f3e 2000 ea3c 0059 cd3b a0b9 433e
00000120: 4486 2f3e c0ac eabc 9486 95bd 10c5 e93d
00000130: e01c 24bc 32ac 4fbe 010a 0bbe 2cbb 6f3e
00000140: b42d 763e c65e e6bd 78be 7dbd 0482 12be
00000150: 6203 c1bd daba 863e 8d74 83be ba0e 0d3e
00000160: a3d7 84be c007 0dbe 1cc8 70bd 40dd a33c
00000170: 7c05 40bd dc1f 07be 8ad9 03be dacb 33be
00000180: 3055 4ebe d02a 38be 3ebb 8d3e 9e47 0bbe
00000190: f8d1 75be 422b 4b3e 2c5d e53d d055 4b3e
000001a0: 7e04 93be 93b0 8cbe abcd 51be 8fb9 1bbe
000001b0: fea5 26ba 38bb ff3d 8210 2d3e f83f 7ebe
000001c0: b8c7 eb3d 2df3 2abe 10e5 873d 989e b93d
000001d0: 4039 3d3d 042c d13d 2029 6cbc 5a27 433e
000001e0: 509b 763d dc7c 813e b827 803d 377c 1cbe
000001f0: 06d6 3d3e b01d 803c 68d7 8e3e 90c3 02bd
00000200: b43c 923e db8f 2cbe a090 143e 8285 5cbe
00000210: 0ef1 4a3e 80a2 563d 56d3 273e 3091 7ebe
00000220: aa06 93be ce6e 0e3e e63a f3bd a424 ea3d
00000230: cc60 2fbe 50c3 b6bd 0083 a93a 9203 323e
-0.091533735 0.1813851 -0.08472204 -0.24580947 0.020616412 0.15021157 -0.011313736 0.0037471652
0.0010228753 0.15320954 0.02258727 -0.25788477 -0.20587291 0.017063677 -0.023179919 0.2759323
-0.06786093 0.22092539 -0.24345893 -0.27436104 -0.02655515 -0.18278271 -0.08418459 0.032516003
-0.250403 0.19836935 -0.17519562 0.22149289 0.094361335 -0.054137915 -0.2526338 0.047778815
-0.16127074 0.24949121 -0.24284828 -0.07625458 -0.15909459 -0.18566354 -0.15056428 -0.028619438
0.019528806 0.04889983 0.14751264 -0.1179118 -0.17911035 -0.060823485 0.2720363 -0.035268217
-0.24302478 0.2265116 0.0702396 0.050102055 0.049550354 0.20140758 -0.1314464 0.2103911
0.27758926 -0.07443555 0.18219188 0.1592673 0.27033925 -0.06718613 -0.17172286 -0.10715647
-0.19639963 0.00990355 0.2783237 0.2800544 0.21805197 0.028564513 0.006266713 0.19113779
0.17141062 -0.028646827 -0.07301059 0.1141454 -0.01001665 -0.20280531 -0.13578035 0.23411244
0.24040872 -0.11248545 -0.061949223 -0.1430741 -0.09424473 0.2631443 -0.2567486 0.13775149
-0.25945768 -0.13772488 -0.05878459 0.020002961 -0.04688023 -0.13195747 -0.12875953 -0.17558232
-0.20149684 -0.17985082 0.27681917 -0.13601539 -0.24005878 0.1984072 0.11199412 0.19856954
-0.28714365 -0.27478465 -0.20488612 -0.15207504 -0.0006357132 0.12486881 0.16900828 -0.2482909
0.11512703 -0.16694327 0.06635487 0.090634525 0.046197176 0.102134734 -0.014414102 0.1905798
0.06020671 0.25290573 0.06257576 -0.15281759 0.18538675 0.015639156 0.27898717 -0.031924784
0.28561938 -0.16851752 0.14508295 -0.21535304 0.19818518 0.052401066 0.16389212 -0.24860072
-0.28716022 0.13909456 -0.11876468 0.1143277 -0.17126769 -0.08923972 0.0012932718 0.17384174

actor.27.bias f4 [12]
00000000: a8ee 263e d03d d3bc 2c39 a7bd 800c a4bb
00000010: ca5a 183e 678b 7abe b2a6 b4bd f37a 8ebe
00000020: 30ad 2a3d 10dc 0bbd 3275 273e 1426 6c3e
0.16301978 -0.02578631 -0.081652015 -0.005006373 0.14878383 -0.2446724 -0.08820857 -0.27828178
0.04166907 -0.034145415 0.163533 0.230614

actor.30.weight f4 [12, 12]
00000000: 2dc0 7cbe a7d2 02be 9015 3ebd 80a7 3cbb
00000010: 1ef4 86bd fedb 39be 0e71 e4bd 009b f3bb
00000020: acb7 6d3e beab 96bd d436 433e 74f3 6ebe
00000030: c081 533c 33ae 66be 30b1 8abe 005c ea3c
00000040: 925a 07be 9ca0 593e 447c 693e 491c 93be
00000050: 60ce a4bc 7800 4abd 9a7c 28be 905f 4ebe
00000060: 862f fabd ac82 023e 7491 8c3d 2ce9 313e
00000070: d009 8dbc 9487 193e 18a7 643d d6ea 80bd
00000080: e03f 8abc b66c 86be 003c d9bb 7c38 c2bd
00000090: b6d9 c5bd f074 edbd 0e42 81bd c03c 5abe
000000a0: d0c5 8a3c 0037 40bc a2b5 9bbd 6e4d 803e
000000b0: 6262 463e e4f7 a63d 30c1 d9bd f0cf 163d
000000c0: 0264 4bbe eaf8 4d3e 140d 8a3e 0c8a 30bd
000000d0: a0f8 633e 30b6 8a3e 8017 8ebc cc87 dbbd
000000e0: c0b2 6e3c 0067 433d dfd0 88be b085 93bc
000000f0: d4c2 d5bd 3c41 453e a0c4 07bc e47c 423e
00000100: b277 833e 0848 b9bd e884 7e3d 004b cabc
00000110: efd2 00be f0fa 23be 40e3 da3b c09f b33d
00000120: bcf6 4fbd d0cc 483d 96ba 383e 9076 f63d
00000130: 0ccc f33d 8c26 a63d 6c3c 63be 6cd7 32be
00000140: 8936 5bbe 8440 423e d72d 82be f4b0 5cbe
00000150: 4eac 423e b4bb 2e3e 3cb8 8bbe fccd 2a3e
00000160: 76e6 86bd 08bf 7e3d 1a2d 39be 807d 33bd
00000170: 4466 833d ec64 613e da40 333e 33be 20be
00000180: b5e5 41be 90e8 8fbc 988b b93d 3214 223e
00000190: e948 93be b03f c1bc 0041 273c 5e0d 0abe
000001a0: 4027 693e 76ef 9cbd eae9 8cbe 837f 30be
000001b0: a0a5 173c 98fa 5bbe cc09 873d 28c8 8f3e
000001c0: c09d 413c 6ca5 91bd b43e 8b3e cc39 5a3e
000001d0: 126f 443e 7062 b33c e038 583c 953f 65be
000001e0: 80b9 f03c 88c2 8f3e e007 7a3c 62e5 83be
000001f0: 103f 223e 66a5 843e 2cd1 773e c012 5f3c
00000200: c821 5e3d c059 3f3d ac4e f2bd f086 2cbd
00000210: b827 713e 4044 f13c 0a4d 8b3e e94c 44be
00000220: 6cce 2cbd 80b2 5d3b feee 2fbe 143b 643e
00000230: e473 4e3e 0673 1fbe 0036 823e 16d2 893e
-0.24682684 -0.1277567 -0.046407282 -0.0028786361 -0.065895304 -0.18150327 -0.11154376 -0.007434249
0.23214597 -0.07356976 0.19063884 -0.23335057 0.012909353 -0.22527389 -0.27088308 0.028608322
-0.13218144 0.21252674 0.2280131 -0.28732517 -0.020117939 -0.049316853 -0.16453782 -0.20153642
-0.122160956 0.1274516 0.068636805 0.17374104 -0.017216593 0.14993125 0.055823416 -0.062947914
-0.016876161 -0.26254815 -0.006629467 -0.0948343 -0.09660666 -0.1159457 -0.06311427 -0.21312237
0.016940027 -0.011731863 -0.07603003 0.25059074 0.19373468 0.0815275 -0.10632551 0.0368194
-0.19862369 0.20114484 0.26963103 -0.0431004 0.22262812 0.27092123 -0.01734519 -0.107192606
0.0145689845 0.04770565 -0.26721856 -0.018008083 -0.10437551 0.19263166 -0.008286625 0.18992954
0.25677258 -0.09046942 0.062138468 -0.024693966 -0.12580465 -0.16013694 0.0066799223 0.08770704
-0.050772414 0.04902345 0.18039927 0.12034333 0.11904153 0.08112821 -0.22191018 -0.1746499
-0.21407522 0.18969923 -0.25425598 -0.21551877 0.19011042 0.1706379 -0.27288997 0.1668014
-0.06586926 0.0621939 -0.18083611 -0.043820858 0.0641599 0.22011155 0.17505208 -0.15697555
-0.18935283 -0.01756695 0.090598285 0.15828016 -0.28766564 -0.023589939 0.010208368 -0.13481662
0.22768879 -0.07662861 -0.27522212 -0.17236142 0.009255797 -0.21482313 0.065936655 0.28082395
0.011817396 -0.0711163 0.27196276 0.2131111 0.19182995 0.021897525 0.013197154 -0.22387536
0.029385328 0.28078103 0.015260667 -0.25760943 0.15844369 0.2590744 0.24200886 0.01361531
0.054231435 0.04671645 -0.11831412 -0.042120874 0.23550308 0.02945149 0.27207214 -0.19169964
-0.042189047 0.0033828318 -0.17181012 0.22288162 0.20161396 -0.15571222 0.25431824 0.26918095

actor.30.bias f4 [12]
00000000: 4bcf 2dbe a022 23bc 844b 933e 39e8 3fbe
00000010: 803d 39bd 8adc 4abe 884b 553e 38ae 3f3d
00000020: 481e f63d ca1d 543e 189b 3bbd 9fbd 93be
-0.16973607 -0.009956986 0.2876855 -0.1874093 -0.045224667 -0.19810691 0.20829594 0.046797007
0.120174944 0.20714489 -0.045802206 -0.28855607

actor.33.weight f4 [12, 12]
00000000: 009b 673c a002 b7bc 5c69 d63d 2efc 093e
00000010: c5fe 12be ccdf e8bd 8e58 3a3e 984d a83d
00000020: a06e 873d 109d 033e 0274 093e f896 55be
00000030: d0d5 bc3c 4013 e23c 74c5 8ebe 40ed 7a3d
00000040: 016e 7cbb 184a 653e 7913 8dbe 3408 8b3e
00000050: 1ba9 10be 7e25 2e3e 1062 5a3e 50b4 12bd
00000060: 473c 17be c44e 44bd 0c5b 38be 6027 123d
00000070: 1483 f83d 405e 743d ea3a 2abe 9c84 213e
00000080: 4ea1 873e e8e1 b3bd ec7e 193e 10e0 9bbc
00000090: b04c ee3d 91d1 52be 756a 7cbe 8045 06bc
000000a0: 8012 79be 48f8 d43d b45c 8a3e fce3 67bd
000000b0: 0081 363b d0d0 333d 01d9 0ebe 40fc 71bc
000000c0: e84e 983d b80d 6f3e f83e 75be 803e bbbb
000000d0: 4a2a 71be d05d d1bc c075 f9bb 7c86 f6bd
000000e0: 6e4f 353e 7ad0 4a3e d659 e5bd 0cd8 24bd
000000f0: a232 b5bd 00c7 fe3b b8dd c23d 0aa6 883e
00000100: 8f91 87be c41c f03d a003 32be 6d65 71be
00000110: 88a5 633e ae22 b0bd 65c2 25be 1c2e a23d
00000120: f409 76bd 3549 87be 5630 1abe 72c1 f9bd
00000130: c06f b8bc b424 43be bb58 8ebe 0869 243e
00000140: 94d6 7dbe e825 0fbd 9cbc 7d3e 9e9a d9bd
00000150: 127c 43be 14df 9d3d 4afb 803e c065 02bd
00000160: 5089 8bbc de1e 0a3e 081c 143d a882 623d
00000170: 386d 1c3e 0e5c 063e 68b2 53be 7065 e9bd
00000180: e6ef 493e 1076 363d 50b8 893d f8f6 8d3e
00000190: 8afa 363e 60ea eb3d b86e 8d3e 0503 82be
000001a0: 187e 373d dc5d 9a3d a099 4dbd 1bd0 0abe
000001b0: 6841 5a3d 3458 74be b2de fbbd a480 603e
000001c0: 1a36 d9bd ee34 aabd 3497 043e 4e92 95bd
000001d0: 38a9 2d3d 7fb8 93be 1a52 283e dc7c 83be
000001e0: 8881 1d3d 7ca3 92be 0cb6 7dbe e8ce 6d3e
000001f0: 2ac5 22be 803b 23bc 20b1 523c 98ff 873e
00000200: 3cbe bc3d 164b 103e 68ec fcbd 58b5 cabd
00000210: 8a07 573e 30bc d83d 5c43 943d 04eb 5ebe
00000220: c3eb 6bbe 70bc 6e3d 1ad5 5dbe 5641 4f3e
00000230: c450 763e 4eda f4bd 0287 3ebe ba13 8f3e
0.014136076 -0.022340119 0.104693145 0.13475105 -0.14355 -0.11370811 0.18197843 0.08217925
0.06612897 0.12852883 0.1342316 -0.20858371 0.023051172 0.02759707 -0.2788502 0.061261415
-0.0038517716 0.22391546 -0.2755392 0.27154696 -0.14127009 0.1700649 0.2132647 -0.03581649
-0.14769088 -0.04792668 -0.18003482 0.035682082 0.12134376 0.059660196 -0.16624036 0.15773243
0.26490253 -0.087833226 0.14989823 -0.01902774 0.11635721 -0.20587756 -0.24649985 -0.008195281
-0.24323463 0.103989184 0.27023852 -0.056613907 0.0027847886 0.04390031 -0.13949968 -0.014769614
0.07436925 0.23345077 -0.23949802 -0.0057142377 -0.23551288 -0.025557429 -0.007612914 -0.120373696
0.17706081 0.1980609 -0.111987755 -0.0402451 -0.08847548 0.0077751875 0.09514946 0.26689178
-0.2647824 0.117242366 -0.17384195 -0.23573847 0.22231114 -0.086003646 -0.16187437 0.07918951
-0.060068086 -0.2642304 -0.15057501 -0.121951 -0.022514224 -0.1905697 -0.2780207 0.16055691
-0.24788886 -0.03494826 0.2477898 -0.10625194 -0.19090298 0.077085644 0.25191718 -0.031835318
-0.01703325 0.13488337 0.036159545 0.055300385 0.15276039 0.13121054 -0.20673525 -0.11396301
0.1972042 0.044546187 0.06724608 0.27727485 0.1786901 0.11519313 0.27623534 -0.2539293
0.044797987 0.075374335 -0.050195336 -0.13555948 0.053285033 -0.23861772 -0.12298335 0.21924073
-0.10606022 -0.08310877 0.12948304 -0.07303296 0.042397708 -0.28851697 0.1643757 -0.25681198
0.03845361 -0.28640354 -0.24776477 0.2322346 -0.15895525 -0.009962916 0.012859613 0.2656219
0.09215972 0.14091143 -0.123497784 -0.0989787 0.2099897 0.10582769 0.0723941 -0.21769339
-0.23039155 0.058285177 -0.21663323 0.20239767 0.24054247 -0.11955701 -0.18606189 0.27944738

actor.33.bias f4 [12]
00000000: 72b6 1dbe 699a 6bbe 9a8c 56be 6866 4d3d
00000010: c09e 653d 94e0 3e3e 1c0b 6e3e 4c22 fc3d
00000020: a8cb 283d e67d 853e 56fb f3bd c459 4fbd
-0.15401629 -0.23008122 -0.20952073 0.05014649 0.0560596 0.18640357 0.23246425 0.12311229
0.041209847 0.26072615 -0.11913173 -0.050622717

actor.36.weight f4 [12, 12]
00000000: f850 7a3e 3cfd c6bd 7e7b 1e3e 8093 7d3d
00000010: acae d03d 7a2c 87bd cbc4 7bbe 24fa 533e
00000020: d461 733e 0dbd 6abe ad58 0abe 2094 483c
00000030: 1c77 123e c45c 27bd d499 01be b408 663e
00000040: 9165 14be f44b 863e 00de a03b 0c2f 1b3e
00000050: ac00 8b3d 001e 503d dc85 593e 0009 6dbc
00000060: 5691 503e a82c c33d bffd 24be 58c0 413e
00000070: 7f03 52be 12e8 193e a852 7dbd 1073 b73d
00000080: c87b 0dbd 10ba 693d 9c90 b2bd c004 f53d
00000090: c4fb 093e e630 87be 2450 823e 7661 6ebe
000000a0: bbf0 03be 8cbd e83d a43a 883e 9c3c c03d
000000b0: d0f3 24be 5814 503d e065 31be 9e11 0b3e
000000c0: c0bc 713c 90a2 e63c 0fc0 62be 0cc3 1d3e
000000d0: 666d 8c3e fb11 4dbe 681a c93d 635b 02be
000000e0: 8676 9ebd 7ed9 823e a557 8abe e847 5fbd
000000f0: f8a1 d43d 7641 063e d612 e7bd a960 21be
00000100: 3064 6e3d 388d 86be b8fa 1c3d 54f6 3abe
00000110: 880c 58bd bc0a 853e c477 75be 9e34 12be
00000120: d96b 63be 4430 303e 3c28 743e fa28 3fbe
00000130: 8c83 3a3e 0e5a 3d3e dcfa 7dbe 90bc c93d
00000140: b85a 063e 8402 53bd 84db 463e f0d1 92bc
00000150: d885 19bd 58d7 253e 9422 87be da2a 91be
00000160: 28ac 5b3d f04b 023d f079 a73c 221d 35be
00000170: c08e 6b3e 8ec9 36be 94bc 02be 527e 79be
00000180: ea33 93be 7c06 8f3d 4a3e eebd 2eee 343e
00000190: 16af 8e3e 2c05 c03d d238 813e 26c0 4dbe
000001a0: dcb7 1b3e 7cab 203e a6a1 ecbd 50d9 a7bc
000001b0: 2062 31be d0c3 e33c f232 8dbe e97f 30be
000001c0: f7d0 7ebe 1836 15bd 7008 f13c 2aaa 6dbe
000001d0: 4239 d9bd 067f 313e c019 653c f82a 4f3d
000001e0: 178b 02be 72e2 adbd 0809 83be c0ae 893e
000001f0: d076 063d 1827 083e e0cf 2c3e d096 813e
00000200: 8be6 4bbe 6802 a53d be1b 80be 9813 dc3d
00000210: 1cb0 17be b438 e63d 77a4 59be 206a 1c3e
00000220: 14af 533e ea7d 223e 3737 78be 5cdb 383e
00000230: 7b91 3bbe 633d 8abe 9e6b 403e 785b 493d
0.2444495 -0.097162694 0.15476796 0.061908245 0.10189566 -0.0660028 -0.2458679 0.2070089
0.23767787 -0.2292368 -0.1351039 0.012242347 0.14303249 -0.040859953 -0.12656337 0.22464257
-0.1449187 0.26229823 0.004909277 0.15154666 0.067872375 0.05080986 0.2124247 -0.014467478
0.20367941 0.09530002 -0.16112421 0.1892103 -0.20509146 0.15029934 -0.061846405 0.08957493
-0.034541875 0.05706221 -0.08718988 0.119637966 0.13474947 -0.26404494 0.25451767 -0.23279366
-0.128848 0.11364278 0.2660724 0.0938656 -0.16108632 0.05080065 -0.17324018 0.13580939
0.014754474 0.028153688 -0.22143577 0.15406436 0.27427214 -0.2002639 0.0981949 -0.12730174
-0.0773745 0.25556558 -0.27019992 -0.054511935 0.103824556 0.13110909 -0.112828895 -0.15759529
0.058201015 -0.26279616 0.03832504 -0.18258029 -0.052746326 0.25984752 -0.23971468 -0.14277884
-0.2220911 0.17205912 0.23843473 -0.18667975 0.18214244 0.18491384 -0.24802727 0.098504186
0.13120544 -0.05151607 0.19419676 -0.017922372 -0.03748116 0.16195428 -0.2639357 -0.28353006
0.053630978 0.0318107 0.020443887 -0.17686895 0.23003674 -0.17850325 -0.1276725 -0.24364594
-0.28750545 0.06983659 -0.116329744 0.17668983 0.27867955 0.093759865 0.25238663 -0.2009283
0.15206856 0.15690416 -0.115542695 -0.020489365 -0.17322588 0.027803332 -0.2757793 -0.17236294
-0.24884401 -0.03642854 0.029422969 -0.23209444 -0.10606624 0.17333612 0.01398319 0.050578088
-0.12748371 -0.08490457 -0.25592828 0.26891136 0.032828152 0.13296163 0.16876173 0.25310373
-0.19912164 0.080570996 -0.25021166 0.10745925 -0.14813274 0.11241284 -0.21254145 0.15274858
0.20672256 0.15868345 -0.24239813 0.18052429 -0.18317215 -0.2699996 0.18791053 0.049159497

actor.36.bias f4 [12]
00000000: e0e1 cdbd 9530 81be a4fe 973d 8c8f ffbd
00000010: a264 6abe c866 14bd 9cbc 7bbe 16a0 113e
00000020: 3cc6 42be 7e3c c9bd 9537 92be 0477 24bd
-0.10052848 -0.25232378 0.07421616 -0.12478551 -0.22889951 -0.036230832 -0.24583668 0.14221224
-0.19020933 -0.09825991 -0.2855803 -0.040152565
