gigala/topology/topology_optimiz/HRL/preTrained/T0-h-v1/2level/HAC_T0-h-v1_solved_level_0_crtic.pth (torch, 5451 bytes, 13 tensors)

critic.0.weight f4 [3, 20]
000000 78 35 8a bc 3c 37 5a be 34 e1 09 bd 10 8e 15 3e
       -0.016871199 -0.21310133 -0.033662036 0.14604974
000010 d4 e5 d2 3d 52 9d 1c bb b8 6a 21 3e 1b e9 50 be
       0.102977425 -0.002389748 0.15763366 -0.20401423
000020 3e df 1e 3e 82 4a 63 3e 0a 3b 0b be 68 74 44 3d
       0.15514848 0.22196391 -0.1359674 0.047962576
000030 98 b1 13 bd 08 4c 41 be 94 78 00 bb ec 77 99 bd
       -0.03605804 -0.1887666 -0.001960312 -0.074935764
000040 8c 93 43 be 84 d8 26 be b7 e0 9f 3b a2 68 52 3e
       -0.19099253 -0.16293532 0.004879083 0.20547727
000050 ff f5 a3 3d 82 4a 2f be 40 ef 1d 3e ac 5d 96 3c
       0.080059044 -0.17118266 0.15423298 0.018355213
000060 31 bd 5f be b5 cb 2d 3c fe fc 12 3e fd a2 06 be
       -0.21849515 0.01060765 0.14354321 -0.13148113
000070 a7 8d 28 bc b3 27 e4 bd df 8b 34 be db 1a 02 be
       -0.010287679 -0.111403845 -0.17631482 -0.12705557
000080 67 fd b7 3c 26 03 14 3e c6 30 2a bd fc ea 4d be
       0.022459699 0.14454326 -0.04155042 -0.2010917
000090 93 c6 fa ba be 24 47 be 68 36 57 3c 33 e9 13 3e
       -0.0019132666 -0.1944761 0.01313553 0.14444427
0000a0 d0 71 c3 3d 8b 8f 0b be 9c 22 4a bd ac 5f b7 3d
       0.095431924 -0.13628976 -0.049349412 0.08953795
0000b0 88 77 78 3d 9e 14 57 be c2 7e 05 be 0c f5 a1 bd
       0.06066087 -0.21003959 -0.13036636 -0.07908067
0000c0 78 4a a8 3d a0 96 4c 3e 3c 11 cc 3d 6c fe ac 3d
       0.08217329 0.19979334 0.09964225 0.084469646
0000d0 38 4c 42 be 4e 29 14 3e 14 02 a4 3d 18 42 93 bd
       -0.18974388 0.14468881 0.08008209 -0.07190341
0000e0 3b ba db bd c0 30 82 3d 74 3a f8 bd b2 be ce 3d
       -0.1072888 0.063569546 -0.12120524 0.10094966

critic.0.bias f4 [3]
000000 d6 1c 2f 3e 7d 14 17 be bc d4 0e be
       0.17100844 -0.1475391 -0.13948339

critic.3.weight f4 [3, 3]
000000 ec 9c 75 be a7 16 fd be 08 9b 87 bd c0 a9 b7 3e
       -0.23985642 -0.49431345 -0.06621367 0.35871696
000010 48 79 59 3e a7 74 43 be 48 ca 92 bd 00 8c 80 be
       0.21237671 -0.19087468 -0.07167488 -0.25106812
000020 80 9f ee be
       -0.46606064

critic.3.bias f4 [3]
000000 fa 5c 21 be a3 72 00 3e 5f e8 95 be
       -0.15758124 0.1254373 -0.29278848

critic.6.weight f4 [3, 3]
000000 7a 75 dd be ef 5e 57 40 c8 2b ae 3d 62 e6 37 be
       -0.4325369 3.3651693 0.08504444 -0.17958978
000010 40 22 40 c0 90 99 08 3f f0 21 01 3d e4 99 ca be
       -3.0020905 0.5335932 0.031526506 -0.39570534
000020 fe ac 08 3f
       0.53388965

critic.6.bias f4 [3]
000000 9c 2c d3 3e 83 7c 61 bd 72 86 85 be
       0.41244972 -0.055050384 -0.26079136

critic.9.weight f4 [3, 3]
000000 8c f7 8d bf d4 e1 be be 74 6b 9a 3e 69 03 98 be
       -1.109117 -0.37281668 0.30160105 -0.29690102
000010 40 3d 9f ba 70 87 f2 3d 90 65 0e 40 d0 7f 04 40
       -0.0012148991 0.11842239 2.224949 2.070301
000020 07 b6 9a be
       -0.30217

critic.9.bias f4 [3]
000000 5d c3 90 bc d4 54 23 be b9 7e 47 be
       -0.017671281 -0.15950328 -0.19481935

critic.12.weight f4 [3, 3]
000000 a6 87 92 be 6c 55 8f be 70 49 8b be 1d d0 4b bf
       -0.28619117 -0.2799486 -0.27204466 -0.7961443
000010 f8 e8 f9 be ca 10 7a bf be 16 fd 3e 0a b3 52 3e
       -0.48810554 -0.9768187 0.49431413 0.2057611
000020 93 1f 9c 3e
       0.3049284

critic.12.bias f4 [3]
000000 fc 50 6d 3e 7e 36 61 be 2c 45 b8 be
       0.23175424 -0.21993443 -0.35990274

critic.15.weight f4 [3, 3]
000000 5b 0d c3 be 88 55 16 bd c0 a5 78 3e 12 73 0a bf
       -0.38096127 -0.036702663 0.24281979 -0.54081833
000010 7a 19 e3 be 67 a4 a1 3e 18 9c 97 3d 06 2c c3 3e
       -0.44355375 0.31570742 0.074028194 0.38119525
000020 aa 59 ec 3e
       0.46162158

critic.15.bias f4 [3]
000000 fe 4e 79 3e 08 4f 32 bd 69 8e af be
       0.2434654 -0.0435324 -0.34288338

critic.18.weight f4 [1, 3]
000000 59 68 50 3d c1 5b e1 3e 02 b7 0d bf
       0.050880764 0.44015315 -0.5535737
