gigala/topology/topology_optimiz/HRL/preTrained/T0-h-v1/2level/HAC_T0-h-v1_level_1_actor.pth (torch, 5083 bytes, 14 tensors)

actor.0.weight f4 [3, 4]
000000 fc 58 c5 be d4 85 cb be 14 44 39 3e 0a 39 82 3e
       -0.38544452 -0.3975054 0.18092376 0.25434142
000010 48 4b 2f 3e 94 e5 14 3e 8c aa 1a be 00 23 46 3c
       0.17118561 0.14540702 -0.15104121 0.012093306
000020 48 0e e2 be f4 fc a6 be 40 9c 27 3c a0 be ea bd
       -0.4415152 -0.32614863 0.010230124 -0.1146214

actor.0.bias f4 [3]
000000 d8 2f 9f bd 20 87 91 3e 14 3b 40 3e
       -0.07772797 0.28423405 0.18772537

actor.3.weight f4 [3, 3]
000000 48 99 fa bd 9e 93 42 be 08 e1 d5 be 70 25 98 3e
       -0.12236267 -0.19001624 -0.41773248 0.29716063
000010 4e cc cf be 44 4c 37 3e 00 fa d6 bd d0 26 e6 3e
       -0.4058556 0.17900187 -0.104969025 0.44951487
000020 d4 9b bc be
       -0.36837637

actor.3.bias f4 [3]
000000 30 2d c1 be c8 7d 88 3d 00 f9 8a 3c
       -0.37729788 0.06664616 0.016964436

actor.6.weight f4 [3, 3]
000000 b0 4d 7e be fc 9d 13 3f 26 ee fc be 2a 30 a0 3e
       -0.24834323 0.5766294 -0.49400443 0.31286746
000010 24 e8 8f 3e 36 67 08 be a0 70 51 3e d0 a3 c6 bd
       0.28106797 -0.13320622 0.2045312 -0.096992135
000020 b3 28 de be
       -0.43390426

actor.6.bias f4 [3]
000000 50 a2 c3 3e 1e b9 1a be 60 b6 ad bd
       0.38209772 -0.15109679 -0.08482051

actor.9.weight f4 [3, 3]
000000 7e d3 10 3f cc 20 0f 3f 32 0a dc be 24 e0 1a be
       0.5657271 0.5590942 -0.42976528 -0.15124565
000010 58 64 a7 3e f6 36 b7 3e 16 e6 d7 be 02 05 d7 be
       0.32693744 0.3578412 -0.4216773 -0.41996008
000020 e0 bc 77 3e
       0.24193144

actor.9.bias f4 [3]
000000 5a d7 c9 be c8 f2 d4 3e 7f 3d e2 be
       -0.39422113 0.41591477 -0.44187543

actor.12.weight f4 [3, 3]
000000 50 51 ad be 48 80 66 3e d8 26 a2 3e 88 da 4f be
       -0.338511 0.22509873 0.3167026 -0.20298207
000010 ed 15 ab be d4 8f 62 3e 70 88 3e 3e 24 9a 17 3e
       -0.33415166 0.22125179 0.18606734 0.14804894
000020 61 49 08 bf
       -0.5323697

actor.12.bias f4 [3]
000000 a0 40 32 be 20 dc 58 be fc a9 c3 3b
       -0.17407465 -0.21177721 0.0059711915

actor.15.weight f4 [3, 3]
000000 b8 6b 04 3f 18 a3 d6 be 51 4f fc bb 68 bf 62 3e
       0.51726866 -0.41921306 -0.007699885 0.22143328
000010 14 5f a6 3e 32 65 12 bf 60 da c2 3c a8 f3 e8 3e
       0.32494414 -0.5718566 0.02378577 0.45498395
000020 71 df c0 be
       -0.37670472

actor.15.bias f4 [3]
000000 98 df b7 3e 00 a9 a8 bd 09 0b 05 3f
       0.35912776 -0.08235359 0.51969963

actor.18.weight f4 [2, 3]
000000 2b 07 fe be d0 6c cf 3d 47 8c d6 3e 36 f1 d5 3e
       -0.49614844 0.10128176 0.41903898 0.41785592
000010 c0 d3 93 be ff a1 f1 be
       -0.2887249 -0.47193906

actor.18.bias f4 [2]
000000 8f 8a 4f 3c 31 fa 8e be
       0.012667312 -0.27925256
