gigala/topology/topology_optimiz/HRL/preTrained/T0-h-v1/2level/HAC_T0-h-v1_level_1_crtic.pth (torch, 21959 bytes, 33 tensors)

critic.0.weight f4 [12, 6]
0.0048667393 0.10377001 0.32903787 0.5383653 -0.28518483 -0.71495676 0.04419771 -0.125878
0.36967355 -0.07962042 0.0036769807 0.19386631 0.110162795 -0.092710614 0.21142739 -0.23333451
-0.31946075 0.27621824 -0.07573351 -0.034703255 -0.10151106 -0.15010506 -0.24996457 0.12747693
0.12928677 -0.3488334 0.39204168 -0.21081805 -0.35875437 0.08371568 -0.11572182 -0.3382917
-0.30939505 -0.330154 -0.042525202 -0.34140566 0.10962563 -0.23494022 0.3768328 0.52028656
-0.042578027 0.38341448 0.2914029 3.4539063 -0.35859847 0.4112224 -0.019090109 -0.5455941
0.0482876 0.2138553 0.39559352 0.07378967 0.36842373 -0.36965597 0.117758766 -0.19302821
-0.18639739 0.20392871 0.2615632 -0.321387 -0.22460373 -0.11455286 -0.20799151 0.4093858
-0.0648418 -0.13691284 0.08932033 -0.3645755 0.34609073 -0.36438343 -0.31753674 -0.08155322
00000000: 2b79 9f3b 5f85 d43d a777 a83e 4fd2 093f
00000010: bf03 92be 6807 37bf a808 353d 2ae6 00be
00000020: da45 bd3e 0810 a3bd 80f9 703b e484 463e
00000030: 089d e13d 10df bdbd 6c80 583e 3eef 6ebe
00000040: 5c90 a3be 7a6c 8d3e 2c1a 9bbd 0025 0ebd
00000050: 08e5 cfbd 24b5 19be b6f6 7fbe 5089 023e
00000060: c063 043e 4b9a b2be b0b9 c83e b0e0 57be
00000070: a7ae b7be 2073 ab3d 90ff ecbd 9234 adbe
00000080: 0769 9ebe f209 a9be e82e 2ebd b9cc aebe
00000090: 6783 e03d 2b94 70be 3bf0 c03e 8031 053f
000000a0: 4c66 2ebd e74e c43e c332 953e cd0c 5d40
000000b0: 389a b7be be8b d23e dc62 9cbc 0eac 0bbf
000000c0: 38c9 453d e2fc 5a3e 3c8b ca3e 0a1f 973d
000000d0: 09a2 bc3e 8c43 bdbe 822b f13d 30a9 45be
000000e0: f5de 3ebe b0d2 503e 9deb 853e d68c a4be
000000f0: 85fe 65be b19a eabd bafb 54be 049b d13e
00000100: c7cb 84bd e132 0cbe 94ed b63d a4a9 babe
00000110: ce32 b13e 7790 babe 2d94 a2be 6005 a7bd

critic.0.bias f4 [12]
-0.40833873 0.07925692 -0.015958548 0.033792853 -0.085460365 0.30856806 0.14137855 0.11836643
-0.41148102 0.30511016 -0.07678036 -0.2411682
00000000: c611 d1be 7451 a23d 80bb 82bc 606a 0a3d
00000010: d805 afbd a2fc 9d3e 8ac5 103e 196a f23d
00000020: a4ad d2be 6637 9c3e 053f 9dbd ccf4 76be

critic.3.weight f4 [12, 12]
0.19661987 0.0579423 0.23022199 -0.21343356 -0.07104927 0.22000575 -0.35303873 0.022635207
0.15083882 -0.036714494 -0.3248392 0.08885199 0.40186352 0.20281139 0.25207806 0.11826447
0.092350245 0.18403563 -0.47354063 0.0059893746 0.04648835 0.20776653 -0.2942402 -0.1745157
0.24306376 -0.13314568 0.28521806 0.09067103 -0.022196293 -0.17230749 -0.2486753 0.0015858042
0.24418549 -0.029649466 0.18516429 -0.24836816 -0.26734698 0.28203702 0.18581033 -0.2548421
-0.19184548 0.27741623 -0.21035118 0.027991693 0.13283074 -0.010439434 -0.019756809 0.019516587
-0.06843468 0.17538258 -0.01645565 0.2651273 0.25440472 0.049313813 -0.048640665 -0.02886782
0.0026217322 0.13553968 -0.15587488 0.26460046 0.056027144 -0.26541755 0.15624526 0.15773323
-0.0851683 -0.117960915 -0.3228178 0.042478073 -0.048085064 -0.1832226 -0.14299771 -0.090728894
0.0064471504 -0.2540428 -0.13001546 -0.05612807 -0.2443888 0.06886113 0.043419402 0.043056477
-0.11382556 -0.037506007 0.23176584 0.2277562 0.38885143 -0.10969868 -0.0956779 -0.17441067
0.064302474 -0.19920376 -0.06765935 0.007274546 0.07923472 -0.06767349 -0.32421845 -0.22400406
0.5353095 -0.10105471 -0.07713169 -0.2127886 -6.887317e-05 -0.2085356 0.0996358 -0.01607341
0.17256774 0.33018732 -0.12762147 0.12139404 -0.18219878 0.15053326 -0.24085873 0.17520007
0.13700366 0.27044076 -0.009129296 -0.0005540637 -0.22668144 0.30654985 0.048020173 0.22375399
0.22272389 -0.25261915 0.25698423 0.004622102 0.06880146 -0.19883275 -0.17129092 -0.091930784
-0.07393681 -0.024328597 0.13007173 0.08305007 -0.00093370845 0.16963571 0.27643484 -0.044292048
0.15977386 0.12950596 -0.1197557 -0.24720198 -0.012500878 -0.1445374 -0.17923959 -0.19594696
00000000: b856 493e e854 6d3d 50bf 6b3e 548e 5abe
00000010: 4882 91bd 3049 613e 7ec1 b4be 786d b93c
00000020: 7e75 1a3e f061 16bd 5351 a6be 08f8 b53d
00000030: 0ec1 cd3e caad 4f3e 6010 813e a434 f23d
00000040: 2022 bd3d d673 3c3e eb73 f2be 8442 c43b
00000050: 916a 3e3d c0c0 543e a7a6 96be 3eb4 32be
00000060: b5e5 783e 5757 08be 1a08 923e bcb1 b93d
00000070: 00d5 b5bc 6071 30be bda4 7ebe c2da cf3a
00000080: c30b 7a3e 70e3 f2bc b59b 3d3e 3954 7ebe
00000090: b4e1 88be 2867 903e 1045 3e3e aa7a 82be
000000a0: 2473 44be 8009 8e3e 4d66 57be d64e e53c
000000b0: c804 083e 290a 2bbc 08d9 a1bc 40e1 9f3c
000000c0: 7b27 8cbd 7e97 333e 00ce 86bc c4be 873e
000000d0: 5641 823e 48fd 493d 6f3b 47bd 357c ecbc
000000e0: 5ed1 2b3b eaca 0a3e aa9d 1fbe b679 873e
000000f0: b87c 653d cfe4 87be c2fe 1f3e d284 213e
00000100: b86c aebd 7e95 f1bd 6048 a5be 7dfd 2d3d
00000110: d8f4 44bd b59e 3bbe fe6d 12be 12d0 b9bd
00000120: 9e42 d33b e611 82be c622 05be 8ce6 65bd
00000130: 0f41 7abe 1007 8d3d 8bd8 313d fd5b 303d
00000140: 601d e9bd e69f 19bd 0654 6d3e ec38 693e
00000150: 8917 c73e b4a9 e0bd c6f2 c3bd b698 32be
00000160: 04b1 833d 12fc 4bbe fc90 8abd 515f ee3b
00000170: d045 a23d 6698 8abd f6ff a5be 5261 65be
00000180: 0b0a 093f c6f5 cebd 38f7 9dbd 41e5 59be
00000190: 0070 90b8 5b8a 55be db0d cc3d 62ac 83bc
000001a0: 99b5 303e 500e a93e 34af 02be 709d f83d
000001b0: 5192 3abe 6425 1a3e aca3 76be a667 333e
000001c0: b04a 0c3e 3677 8a3e 0b93 15bc 963e 11ba
000001d0: 2e1f 68be 1af4 9c3e cdb0 443d c41f 653e
000001e0: bb11 643e 4c57 81be 7093 833e 0075 973b
000001f0: c8e7 8c3d d09a 4bbe e366 2fbe 3546 bcbd
00000200: 2f6c 97bd c44c c7bc 8631 053e 2816 aa3d
00000210: 1dc4 74ba fcb4 2d3e de88 8d3e 946b 35bd
00000220: c29b 233e 369d 043e 7a42 f5bd 8422 7dbe
00000230: 7cd0 4cbc 9d01 14be 958a 37be 52a6 48be

critic.3.bias f4 [12]
-0.2945731 -0.2143127 -0.11786777 -0.023368528 0.17416418 0.09022045 0.14233701 -0.09780867
0.033258382 0.28114504 0.13714583 0.1742124
00000000: 49d2 96be ca74 5bbe a864 f1bd 5b6f bfbc
00000010: 1858 323e 80c5 b83d cbc0 113e e94f c8bd
00000020: f139 083d 3ef2 8f3e f56f 0c3e bc64 323e

critic.6.weight f4 [12, 12]
0.03241521 0.39491147 0.013359313 0.013544234 -0.09522811 -0.2050243 0.09452594 0.33252555
0.20872323 0.0121539105 -0.22407809 -0.20668851 -0.010090497 0.09424887 -0.0763749 -0.21562196
0.012414076 0.09715334 -0.078537606 0.13855377 -0.12871103 -0.2025589 0.07550401 -0.24623385
0.10194441 0.056638747 0.25611454 -0.16056012 -0.056062356 -0.15612793 0.07935698 -0.24700004
-0.22148241 -0.037051514 0.2930551 -0.040511396 -0.02835159 -0.27252063 -0.25853878 0.0068523707
-0.06846404 0.13367036 -0.16437295 -0.00524642 -0.013598828 -0.17925066 -0.015829295 -0.16444708
0.05799506 0.02655062 -0.21979308 -0.20985474 -0.22811839 0.09306719 0.16960627 -0.1859233
-0.14811595 -0.29748932 -0.24093728 0.124914765 0.16757376 0.4503896 0.2384942 -0.15911834
0.033043366 0.3212726 -0.096749224 0.043868408 0.06912675 -0.03203007 0.203948 -0.16354373
-0.13689654 -0.05782297 -0.06980577 0.1570566 -0.1572329 -0.2492381 0.00012194446 -0.07076323
-0.047153473 0.21121433 -0.20770082 -0.11834696 0.06323519 -0.06330129 0.37968737 0.2799111
-0.12000535 0.02246109 -0.045528404 -0.17834516 0.34042576 0.27217707 -0.058117513 0.26838273
-0.13942814 -0.27326682 0.22084948 0.13729279 -0.06608595 -0.18980254 0.19363979 -0.14380261
-0.23948894 -0.08710831 -0.14917107 -0.13864347 0.123198204 0.3778687 -0.15452409 0.0738781
0.06624039 0.050769813 0.039029825 0.28653476 -0.17874916 -0.12511401 0.1920713 0.16339618
0.21944752 0.3541038 0.22061297 -0.041486155 -0.16348484 -0.11731806 -0.14534716 0.2574029
0.08227907 0.14077747 0.17126474 -0.123326115 0.3962546 -0.14655502 -0.16521963 0.1062017
0.056889143 0.32602027 -0.2761965 0.073572986 0.26305586 0.17313984 -0.119246505 -0.16442078
00000000: d0c5 043d d631 ca3e 05e1 5a3c a3e8 5d3c
00000010: f506 c3bd e4f1 51be d196 c13d ca40 aa3e
00000020: 8bbb 553e 3221 473c ba74 65be 27a6 53be
00000030: 9d52 25bc 8d05 c13d 726a 9cbd 01cc 5cbe
00000040: 6964 4b3c 55f8 c63d 53d8 a0bd 0ae1 0d3e
00000050: d3cc 03be 9a6b 4fbe d9a1 9a3d ba24 7cbe
00000060: 3bc8 d03d 08fe 673d 7221 833e df69 24be
00000070: a4a1 65bd 00e0 1fbe ea85 a23d 94ed 7cbe
00000080: 49cc 62be 54c3 17bd 510b 963e 47ef 25bd
00000090: 9841 e8bc d387 8bbe 325f 84be da89 e03b
000000a0: e036 8cbd e2e0 083e 6251 28be 29ea abbb
000000b0: 9ecd 5ebc 7c8d 37be 70ac 81bc d164 28be
000000c0: 3a8c 6d3d b080 d93c 7011 61be 29e4 56be
000000d0: de97 69be 039a be3d 44ad 2d3e ad62 3ebe
000000e0: b5ab 17be 8550 98be 43b8 76be 50d3 ff3d
000000f0: 7598 2b3e 7799 e63e d337 743e ebef 22be
00000100: 7b58 073d d87d a43e 7524 c6bd 5caf 333d
00000110: 5392 8d3d f631 03bd bfd7 503e 0278 27be
00000120: 9b2e 0cbe c7d7 6cbd 54f6 8ebd 72d3 203e
00000130: a901 21be 4638 7fbe 6fbc ff38 50ec 90bd
00000140: 0024 41bd 9248 583e 86af 54be e45f f2bd
00000150: 7481 813d 1ba4 81bd 6266 c23e 8250 8f3e
00000160: 5dc5 f5bd 5200 b83c fe7b 3abd 1da0 36be
00000170: 494c ae3e cb5a 8b3e a10c 6ebd 7669 893e
00000180: 40c6 0ebe a1e9 8bbe 5e26 623e 7b96 0c3e
00000190: 1258 87bd 995b 42be 8249 463e fe40 13be
000001a0: 973c 75be d765 b2bd 4dc0 18be 8ef8 0dbe
000001b0: 574f fc3d 0278 c13e 903b 1ebe 674d 973d
000001c0: 0ba9 873d 02f4 4f3d bddd 1f3d afb4 923e
000001d0: 050a 37be e31d 00be 57ae 443e 5451 273e
000001e0: dab6 603e 184d b53e 5ee8 613e 63ed 29bd
000001f0: 9268 27be 7344 f0bd e3d5 14be 50ca 833e
00000200: ee81 a83d f827 103e 0660 2f3e 6792 fcbd
00000210: e2e1 ca3e 8512 16be 562f 29be 4780 d93d
00000220: 9704 693d 21ec a63e a169 8dbe 6fad 963d
00000230: 42af 863e 924b 313e 8337 f4bd ec5d 28be

critic.6.bias f4 [12]
-0.10359226 -0.14723659 0.11967934 -0.200096 -0.2843715 0.20802258 -0.18150929 -0.052017555
-0.18402196 -0.17255054 -0.002211845 -0.068157725
00000000: 2e28 d4bd 30c5 16be 711a f53d f7e5 4cbe
00000010: 2499 91be df03 553e 92dd 39be 5c10 55bd
00000020: 4170 3cbe 17b1 30be 9af4 10bb 4796 8bbd

critic.9.weight f4 [12, 12]
-0.09335965 -0.24555409 0.12953031 -0.26170284 -0.089599885 -0.1119152 -0.10518544 0.35933608
-0.038156286 0.07827106 -0.20650451 0.045083623 0.063555285 -0.21540762 -0.25170034 0.12301908
-0.18444915 0.019236153 0.11694478 0.282935 0.20372143 -0.094471745 -0.03450196 0.28357366
0.25579986 -0.25576243 0.19105148 0.07341011 0.017000243 -0.028157122 -0.05316114 -0.20613913
-0.17910497 -0.16719227 -0.24389505 -0.13404517 0.34731767 0.014021389 0.0052513825 0.057174917
0.1667983 0.11417103 -0.18768242 -0.07093555 -0.24871555 0.21483764 0.20148598 -0.07470328
-0.18841778 -0.015725734 -0.032273047 -0.205051 0.17163986 -0.27929845 -0.08811834 -0.2550312
0.24627486 -0.3024888 0.17634359 0.18861133 -0.054645248 0.13322744 0.027665261 -0.116264716
-0.058148958 0.1002148 -0.2151032 -0.23656593 -0.24907 0.38899982 0.22274998 -0.078021124
0.18868697 -0.08574308 -0.13515832 -0.27854103 0.027305575 0.16942933 0.15877993 0.31698677
-0.12134638 0.12488044 0.21009512 0.2606834 0.28729838 0.08728263 0.21370973 0.10330587
-0.26293135 0.19878736 0.16542438 0.046665367 0.16993612 0.17402947 0.32996678 0.03556175
-0.12123402 -0.27280807 -0.25164223 0.02211334 0.23782378 -0.056236625 -0.03192594 -0.1300812
0.13378145 -0.100953 0.14932437 0.115388624 -0.030991407 -0.19428621 0.12071974 0.116582826
-0.16021438 0.48092136 0.11122156 0.00810694 0.11924678 -0.12238454 0.35982704 0.1526874
0.16091044 -0.1258635 -0.040337678 0.16444764 -0.11370128 -0.1936268 -0.24698146 -0.056530833
0.03995987 -0.094094604 -0.24279647 0.23919381 0.0989428 -0.15821238 -0.09514403 -0.25209635
0.092019156 -0.2783544 -0.100584 -0.21016832 -0.22422476 -0.072302006 0.15628186 0.28548056
00000000: 5833 bfbd 8872 7bbe 98a3 043e eafd 85be
00000010: 2580 b7bd cc33 e5bd 776b d7bd e6fa b73e
00000020: c449 1cbd 944c a03d eb75 53be 9ba9 383d
00000030: 4629 823d d193 5cbe dede 80be 6df1 fb3d
00000040: 3de0 3cbe 2395 9d3c bf80 ef3d dbdc 903e
00000050: 5a9c 503e 677a c1bd ed51 0dbd 9130 913e
00000060: 33f8 823e 4bf3 82be 00a3 433e 0a58 963d
00000070: 1844 8b3c c4a9 e6bc 7fbf 59bd 2316 53be
00000080: 4b67 37be 7334 2bbe a0bf 79be 2343 09be
00000090: 9fd3 b13e f8b9 653c ca13 ac3b 3f30 6a3d
000000a0: 2ccd 2a3e 80d2 e93d d22f 40be a846 91bd
000000b0: 4aaf 7ebe 66fe 5b3e 5752 4e3e 09fe 98bd
000000c0: 97f0 40be 41d3 80bc be30 04bd e4f8 51be
000000d0: 5cc2 2f3e 3500 8fbe 6377 b4bd 7393 82be
000000e0: 7a2f 7c3e d0df 9abe 6a93 343e 5423 413e
000000f0: b2d3 5fbd c66c 083e 42a2 e23c 321c eebd
00000100: 9a2d 6ebd 6b3d cd3d 0344 5cbe 573e 72be
00000110: 350c 7fbe fc2a c73e 9218 643e 8ac9 9fbd
00000120: 2837 413e 119a afbd f166 0abe ee9c 8ebe
00000130: f1af df3c e27e 2d3e 3597 223e 174c a23e
00000140: 7384 f8bd 51c1 ff3d 2d23 573e 4b78 853e
00000150: c618 933e 3cc1 b23d b9d6 5a3e 0792 d33d
00000160: f09e 86be ea8e 4b3e 0265 293e 2f24 3f3d
00000170: bc03 2e3e c834 323e 68f1 a83e 33a9 113d
00000180: 8b49 f8bd 80ad 8bbe 40d7 80be 0927 b53c
00000190: 1488 733e 6058 66bd c6c4 02bd 0234 05be
000001a0: 01fe 083e 72c0 cebd 7de8 183e df50 ec3d
000001b0: b1e1 fdbc f7f2 46be e93b f73d fac2 ee3d
000001c0: 3d0f 24be 533b f63e 21c8 e33d f9d2 043c
000001d0: a837 f43d bfa4 fabd 403b b83e 165a 1c3e
000001e0: b5c5 243e 5de2 00be 1f39 25bd f664 283e
000001f0: 37dc e8bd 1b46 46be b5e8 7cbe e08c 67bd
00000200: f6ac 233d acb4 c0bd a39f 78be 39ef 743e
00000210: 86a2 ca3d 6d02 22be e0da c2bd c612 81be
00000220: 8a74 bc3d 7884 8ebe fcfe cdbd 5d36 57be
00000230: 2d9b 65be 1313 94bd 5a08 203e 822a 923e

critic.9.bias f4 [12]
0.17533259 0.015743075 -0.055040546 0.096566334 0.002170276 -0.21548067 -0.28090727 0.014071507
-0.1514086 -0.24750477 0.20382626 -0.06716254
00000000: 638a 333e 9ff7 803c 3272 61bd 92c4 c53d
00000010: 303b 0e3b f7a6 5cbe 14d3 8fbe 2e8c 663c
00000020: db0a 1bbe e471 7dbe d5b7 503e 848c 89bd

critic.12.weight f4 [12, 12]
-0.22026142 -0.07129176 0.25057656 -0.22367476 0.26823205 0.07895602 -0.23917085 -0.111570716
0.043683294 0.20309886 -0.057408452 0.19978085 0.12322923 0.1648073 -0.027303042 -0.067569815
-0.22054294 -0.28850225 -0.19210342 -0.16452791 0.046405863 0.15963612 -0.03695435 -0.064561866
-0.08000592 0.26548156 0.1911486 -0.25602216 0.15262619 -0.07662207 -0.16147988 0.13234174
0.16007845 0.29322618 0.0024248245 0.10816975 0.06589731 0.24760973 -0.1948084 -0.22610724
0.10011755 0.11315154 0.19769914 0.28819358 -0.052038714 -0.21371369 -0.08597158 0.013574565
-0.1910501 0.07370549 0.20007025 0.10759026 0.1253646 0.23244968 0.37291375 0.10609115
-0.035024423 0.14041908 -0.10200926 0.2550586 0.049192674 -0.23051642 -0.1753194 -0.047428805
0.050139472 0.012381791 0.21277444 0.30397087 -0.0433413 0.03183305 0.2722987 -0.025721142
0.2019832 -0.17966117 0.019425077 0.28823882 -0.2540059 -0.14408249 0.0014881097 -0.21447483
0.2771867 0.09528395 0.11643233 -0.27773643 -0.19155173 -0.0902033 -0.032772597 -0.22604872
0.064288214 0.16601452 -0.2792291 -0.21067329 0.025375446 0.027459955 -0.18827419 0.20107228
0.00024756117 0.19576219 -0.20412868 0.12021132 -0.17056365 0.07650851 0.25995886 0.2168173
-0.25800925 0.23948047 -0.21669473 -0.116063505 0.18549576 0.20011327 0.16768876 0.10215148
0.024432298 -0.15255159 -0.22463813 -0.037202377 -0.18762194 0.3631225 0.10339365 0.07013774
0.16321231 0.1851519 -0.0052772015 0.22498548 -0.23132074 0.36285502 0.28281504 0.23559034
0.15368205 0.24858667 0.10826517 0.1477105 -0.03040384 0.007834626 -0.24123226 -0.06837321
0.04793388 -0.27793074 -0.14667277 -0.042245287 0.24883561 0.22561792 0.25608835 0.042884525
00000000: 368c 61be 6a01 92bd 924b 803e ff0a 65be
00000010: b655 893e b2b3 a13d 34e9 74be 307f e4bd
00000020: 41ed 323d 26f9 4f3e 2025 6bbd 5a93 4c3e
00000030: 9b5f fc3d 3fc3 283e a1aa dfbc 0b62 8abd
00000040: 02d6 61be 91b6 93be c2b6 44be 017a 28be
00000050: 1314 3e3d a777 233e 725d 17bd 0339 84bd
00000060: 25da a3bd 33ed 873e 75bc 433e 5615 83be
00000070: 0a4a 1c3e 08ec 9cbd fb5a 25be 9884 073e
00000080: 9beb 233e be21 963e cee9 1e3b 1a88 dd3d
00000090: 2bf5 863d 688d 7d3e da7b 47be a888 67be
000000a0: 6e0a cd3d ffbb e73d a571 4a3e 1c8e 933e
000000b0: 8c26 55bd c3d7 5abe de11 b0bd da67 5e3c
000000c0: a3a2 43be e7f2 963d 37df 4c3e 4858 dc3d
000000d0: 945f 003e 4a07 6e3e 8dee be3e 5146 d93d
000000e0: c575 0fbd 05ca 0f3e 3bea d0bd 0a97 823e
000000f0: 427e 493d 7f0c 6cbe ee86 33be b544 42bd
00000100: 0c5f 4d3d ffdc 4a3c 8be1 593e 12a2 9b3e
00000110: a686 31bd 5f63 023d bc6a 8b3e 25b5 d2bc
00000120: afd4 4e3e 19f9 37be 5721 9f3c 0a94 933e
00000130: 100d 82be 5c8a 13be ad0c c33a 4a9f 5bbe
00000140: 6aeb 8d3e 3b24 c33d 1374 ee3d 7833 8ebe
00000150: 2326 44be 82bc b8bd 8f3c 06bd 5179 67be
00000160: 8aa9 833d b6ff 293e 1ef7 8ebe bdba 57be
00000170: 2be0 cf3c b3f3 e03c f3ca 40be e4e5 4d3e
00000180: 19cb 8139 e275 483e 1c07 51be 5a31 f63d
00000190: 3da8 2ebe 7eb0 9c3d 5419 853e 5b05 5e3e
000001a0: ca19 84be 5e3a 753e 39e5 5dbe b4b2 edbd
000001b0: 9af2 3d3e 7eea 4c3e 9ab6 2b3e cc34 d13d
000001c0: 3e26 c83c 7c36 1cbe 8a07 66be 8561 18bd
000001d0: f71f 40be 31eb b93e 0dc0 d33d 60a4 8f3d
000001e0: 2121 273e 7698 3d3e 60ec acbb 9862 663e
000001f0: 58df 6cbe 22c8 b93e 22cd 903e 983e 713e
00000200: d45e 1d3e 818d 7e3e 21ba dd3d 6c41 173e
00000210: 7911 f9bc ce5c 003c 9705 77be 4107 8cbd
00000220: 5156 443d f04c 8ebe 6331 16be 6509 2dbd
00000230: c3ce 7e3e 6208 673e 031e 833e afa7 2f3d

critic.12.bias f4 [12]
-0.2274866 -0.20710951 0.06219376 0.009289405 0.08933972 -0.2978416 -0.1701093 -0.1785916
0.19702625 -0.28172326 -0.18300357 0.20233816
00000000: 3ff2 68be 8414 54be e2be 7e3d 9732 183c
00000010: bef7 b63d b27e 98be 2231 2ebe b7e0 36be
00000020: 40c1 493e 083e 90be 4a65 3bbe bc31 4f3e

critic.15.weight f4 [12, 12]
-0.052177012 -0.21787304 -0.22888844 0.062766954 0.27334625 0.1667994 0.1274936 -0.14564233
0.020120867 -0.20414792 -0.18714286 -0.15732566 0.17692202 -0.07942078 -0.16344677 0.22554688
0.09069939 0.16146624 0.16436414 -0.026288277 0.15843625 0.27934128 0.028813168 0.27377003
0.096469335 0.03400886 -0.15590549 0.276006 0.19554792 0.2889832 0.08086564 0.15501446
0.27404532 0.11469115 0.16614614 -0.21787287 -0.044558555 -0.18051465 0.3194653 0.095689915
-0.15053968 -0.0031433068 -0.071705036 0.23920423 0.20183606 0.18208642 0.33611283 -0.13813655
0.15136081 -0.11420567 0.07321037 -0.046929713 0.21039326 0.37927085 0.29159066 -0.13725144
0.25937822 -0.003082767 0.073818296 -0.0704162 -0.22869286 -0.09414564 -0.025888793 -0.25936538
0.20611009 0.0028088065 0.07881809 -0.23761514 0.100439966 -0.06909332 -0.21387082 0.049043823
-0.2456892 -0.2438324 -0.075215496 0.29645285 -0.034396965 -0.02363059 0.06484805 0.28310373
0.33399048 -0.08122125 0.024063678 -0.25964472 -0.102331504 0.18747695 -0.2741551 -0.2157298
0.18874885 -0.23583226 -0.1117062 -0.22770092 -0.2591404 -0.05867861 0.18756205 -0.13403808
-0.10831166 -0.052201763 -0.047236405 0.29659376 0.15229455 -0.22145234 -0.25601375 0.28047124
0.055843763 -0.038866337 0.41600093 -0.021374676 0.030953754 -0.2885387 -0.2847473 -0.2871061
0.04705047 0.14183024 -0.16069095 0.1268651 0.2723255 0.060271654 -0.0053800372 -0.08478958
0.055042777 0.24006651 0.24801546 -0.26872647 0.18284036 -0.107733876 0.25342107 -0.20429048
-0.2530933 0.20429431 -0.038812976 0.044967953 -0.032469466 0.029413292 -0.0920565 0.040868334
-0.14180398 0.16117269 0.11540621 -0.16636012 -0.079231106 -0.0015079521 -0.047415596 0.2217611
00000000: 90b7 55bd 1c1a 5fbe bb61 6abe f68b 803d
00000010: 0af4 8b3e 76cd 2a3e af8d 023e 4323 15be
00000020: 84d4 a43c 270c 51be 61a2 3fbe fa19 21be
00000030: 0c2b 353e 5da7 a2bd 975e 27be c3f5 663e
00000040: 9ac0 b93d 6857 253e 134f 283e 835a d7bc
00000050: 1d3d 223e d205 8f3e 9809 ec3c 962b 8c3e
00000060: b791 c53d e04c 0b3d b0a5 1fbe a950 8d3e
00000070: b73d 483e 9bf5 933e e29c a53d 1cbc 1e3e
00000080: ab4f 8c3e 32e3 ea3d 3722 2a3e 111a 5fbe
00000090: 0883 36bd d5d8 38be f590 a33e 13f9 c33d
000000a0: 1327 1abe f0ff 4dbb 17da 92bd f4f1 743e
000000b0: 1dae 4e3e dd74 3a3e fb16 ac3e ab73 0dbe
000000c0: 54fe 1a3e aae4 e9bd 52ef 953d 5f39 40bd
000000d0: 5571 573e ca2f c23e 5f4b 953e a48b 0cbe
000000e0: 39cd 843e 3f08 4abb 0c2e 973d 5e36 90bd
000000f0: 762e 6abe 6ecf c0bd bc14 d4bc 8acb 84be
00000100: 860e 533e f413 383b 616b a13d 6251 73be
00000110: 78b3 cd3d cc80 8dbd f400 5bbe 2de2 483d
00000120: f395 7bbe 33af 79be 950a 9abd abc8 973e
00000130: d5e3 0cbd f094 c1bc 0ecf 843d f9f2 903e
00000140: cd00 ab3e 5457 a6bd 3121 c53c 27f0 84be
00000150: 2e93 d1bd f5f9 3f3e 0f5e 8cbe 46e8 5cbe
00000160: 6147 413e 037e 71be 38c6 e4bd 6e2a 69be
00000170: 0dae 84be fb58 70bd 4410 403e 4741 09be
00000180: 81d2 ddbd 84d1 55bd f67a 41bd 23db 973e
00000190: 1af3 1b3e 67c4 62be 3c14 83be ed99 8f3e
000001a0: 6ebc 643d 4f32 1fbd 13fe d43e f219 afbc
000001b0: ba92 fd3c 58bb 93be 66ca 91be 92ff 92be
000001c0: feb7 403d f23b 113e 2b8c 24be ede8 013e
000001d0: 3f6e 8b3e 69df 763d 064b b0bb 29a6 adbd
000001e0: 8974 613d ffd3 753e c4f7 7d3e 8496 89be
000001f0: 813a 3b3e 94a3 dcbd 68c0 813e 8631 51be
00000200: 7295 81be 8732 513e 5bfa 1ebd 5130 383d
00000210: b4fe 04bd 25f4 f03c 1e88 bcbd 8e65 273d
00000220: 1035 11be 740a 253e 175a ec3d 4f5a 2abe
00000230: eb43 a2bd 7aa6 c5ba db36 42bd 5815 633e

critic.15.bias f4 [12]
-0.1094138 0.113350146 -0.22463886 -0.02724366 -0.21193713 -0.05216975 0.08750554 -0.06298239
0.18163761 -0.05318193 0.14727493 -0.022394143
00000000: 5814 e0bd 1f24 e83d bb07 66be 192e dfbc
00000010: 0c06 59be f3af 55bd 1b36 b33d e9fc 80bd
00000020: 36ff 393e 4cd5 59bd 3dcf 163e ec73 b7bc

critic.18.weight f4 [12, 12]
-0.18411717 0.13181528 -0.017954119 0.25986153 -0.011650626 -0.20094727 0.29431254 -0.27499056
0.1036608 0.32901132 -0.1776888 -0.27570134 0.28659275 0.1565485 0.27804142 0.19592157
0.10940208 0.13720326 -0.23586397 0.15148665 -0.036354166 -0.09310451 0.14239772 0.05015102
0.26518813 -0.1582518 -0.22196774 0.08263185 0.07097242 -0.1467021 -0.101569615 0.24903257
0.31261656 -0.12466478 -0.06395869 -0.081861526 -0.07779542 0.047533713 0.23416512 -0.08855715
0.0058911107 -0.25160223 0.21658656 -0.06386025 -0.1696098 0.32614067 0.11524457 0.17215075
0.2015759 0.099813126 -0.15046874 -0.2679879 -0.104062386 -0.07837247 -0.05445705 0.16311967
-0.2723936 0.15483932 0.1622139 0.02857644 -0.066493064 0.14400735 -0.19875196 -0.041584563
0.057093304 0.061938446 0.0023329982 0.06817389 -0.2284339 0.14844327 -0.22497791 0.10599441
0.015002322 -0.0726568 0.12708421 0.030524824 0.3798056 0.26921752 0.12051608 0.0050611063
0.2598383 -0.20665762 0.29512402 0.1424986 0.23743886 0.31420788 -0.0063854815 0.092953265
0.10584012 -0.1786821 0.31361717 -0.011312737 0.10798123 -0.15953717 0.28317913 0.06794394
-0.14446346 0.26584032 0.223331 0.27609423 0.10417796 0.09472256 -0.16642512 0.27990326
0.23857196 0.042257167 -0.20295557 -0.16547535 -0.14276849 0.18492681 -0.18720725 -0.14186247
-0.12203172 -0.22961727 0.1082613 0.09570043 -0.2502098 0.20800671 0.008978067 -0.17206016
0.08054403 0.15511273 0.16755398 -0.07439525 0.3804478 0.25716075 0.29415488 0.008918102
0.05828749 -0.15285234 0.3168844 -0.020392027 -0.07337525 -0.07494675 -0.18758497 -0.23963124
-0.009464965 -0.23765697 -0.15064028 0.18588698 0.11281203 -0.21188675 -0.047742814 -0.11997697
00000000: 3689 3cbe 96fa 063e 8414 93bc 920c 853e
00000010: 44e2 3ebc 1fc5 4dbe 22b0 963e 90cb 8cbe
00000020: 1d4c d43d 2c74 a83e 0ef4 35be ba28 8dbe
00000030: 49bc 923e 404e 203e 725b 8e3e aa9f 483e
00000040: 330e e03d 037f 0c3e 5386 71be 511f 1b3e
00000050: 1be8 14bd 94ad bebd b5d0 113e 286b 4d3d
00000060: bdc6 873e c30c 22be 834b 63be e33a a93d
00000070: fd59 913d 1339 16be bb03 d0bd 6502 7f3e
00000080: 470f a03e 4050 ffbd c6fc 82bd 04a7 a7bd
00000090: 3553 9fbd b6b2 423d fbc8 6f3e 735d b5bd
000000a0: 380a c13b 02d2 80be dec8 5d3e 2ac9 82bd
000000b0: 31ae 2dbe e9fb a63e 5805 ec3d 4948 303e
000000c0: ea69 4e3e d36a cc3d 7a14 1abe b635 89be
000000d0: a91e d5bd bf81 a0bd 5b0e 5fbd d808 273e
000000e0: 2d77 8bbe 338e 1e3e 671b 263e 2319 ea3c
000000f0: 842d 88bd aa76 133e a285 4bbe 9354 2abd
00000100: abda 693d 2bb3 7d3d 37e5 183b c19e 8b3d
00000110: 94ea 69be 8301 183e 9c60 66be 9913 d93d
00000120: 4dcc 753c 17cd 94bd 5d22 023e 320f fa3c
00000130: e175 c23e e1d6 893e 22d1 f63d a3d7 a53b
00000140: 8709 853e 0e9e 53be 7f1a 973e 27eb 113e
00000150: 2c23 733e dbdf a03e 4d3d d1bb 485e be3d
00000160: b4c2 d83d 71f8 36be 6e92 a03e 0f59 39bc
00000170: 4325 dd3d b65d 23be dbfc 903e 3126 8b3d
00000180: 3bee 13be 391c 883e e2b0 643e 395c 8d3e
00000190: 415b d53d e7fd c13d 596b 2abe 7b4f 8f3e
000001a0: 354c 743e da15 2d3d 96d3 4fbe 5f72 29be
000001b0: e731 12be 745d 3d3e 42b3 3fbe 6544 11be
000001c0: c4eb f9bd ca20 6bbe 1ab8 dd3d 96fe c33d
000001d0: 801b 80be b6ff 543e be18 133c 8a30 30be
000001e0: 45f4 a43d dfd5 1e3e 4593 2b3e 895c 98bd
000001f0: 0eca c23e 93aa 833e 789b 963e 3b1d 123c
00000200: ddbe 6e3d 5385 1cbe ac3e a23e 2e0d a7bc
00000210: c345 96bd af7d 99bd 4616 40be e461 75be
00000220: f112 1bbc 595c 73be 7241 1abe 2859 3e3e
00000230: fe09 e73d d7f8 58be f88d 43bd 7cb6 f5bd

critic.18.bias f4 [12]
0.067547455 -0.047026493 0.0837185 0.058009762 0.05877338 0.20527436 0.07116278 -0.28110346
0.17942165 -0.23134857 0.12041813 -0.026278242
00000000: 5256 8a3d da9e 40bd 9b74 ab3d a59b 6d3d
00000010: 5bbc 703d 7133 523e cbbd 913d cbec 8fbe
00000020: 4fba 373e a4e6 6cbe c89d f63d 7845 d7bc

critic.21.weight f4 [12, 12]
0.14149952 -0.09186841 -0.03062969 -0.079814315 0.26909745 -0.17120513 0.19067292 -0.23166288
0.09478323 -0.2418362 -0.17090678 0.15503904 0.19747801 -0.015349314 -0.23876461 -0.21875405
0.055411685 0.16505009 0.14703825 -0.24538943 -0.102546886 0.116502576 0.2340681 0.14493632
-0.062061235 -0.00022029558 -0.0939258 -0.098449565 -0.049977656 0.097447224 -0.0006966058 0.08930571
-0.007851629 0.15484853 -0.1106325 0.03178923 -0.016760932 -0.19715807 -0.001646439 0.05910589
0.05062743 0.06452473 -0.14751053 -0.21937677 0.09029755 0.023904538 -0.13892569 0.28770456
0.19264592 0.3708108 -0.19152735 0.13609155 -0.25137433 -0.13610949 0.19919264 0.3208499
0.17914654 0.15387377 -0.024909949 -0.101981685 -0.06331065 0.051136248 0.03279724 -0.13824557
0.21841274 -0.27708855 0.14191961 -0.2867907 -0.2862094 -0.0020068719 0.24375235 -0.01914389
0.07404764 0.30414966 0.16272178 0.3100479 0.23497497 -0.060996108 0.24787427 0.034020845
0.27271783 -0.08633633 0.3496513 -0.18026385 0.13536365 0.1240084 0.28640932 0.2599203
-0.18555298 -0.18020093 -0.041256238 -0.051962286 0.12981111 -0.09328056 0.18062024 0.23870286
-0.18990561 -0.2504161 0.11101103 -0.22809884 -0.25947022 -0.21549001 0.06261651 -0.28406537
0.011286307 0.28435242 0.0013164056 0.19642419 0.23619458 -0.09845633 0.1599432 0.15824324
0.062020063 -0.26371372 0.29994753 -0.1062608 0.29572296 -0.2539054 0.10045269 0.24068972
-0.015422587 -0.24372879 -0.14449887 0.2546729 -0.024523905 0.19044603 0.038346175 0.24968594
-0.05362956 0.21128474 0.0071963645 0.17552996 0.08289856 0.3261559 0.3169763 -0.21999261
0.13299614 0.10091972 0.07619946 0.28918353 0.21633725 -0.09662195 0.32728812 0.17626381
00000000: 40e5 103e 8125 bcbd 1eeb fabc b075 a3bd
00000010: 24c7 893e 6650 2fbe c33f 433e 0939 6dbe
00000020: b61d c23d e9a3 77be 3002 2fbe 8ec2 1e3e
00000030: ad37 4a3e b07b 7bbc b67e 74be 1001 60be
00000040: 5df7 623d e402 293e 3291 163e 5e47 7bbe
00000050: 1a04 d2bd e798 ee3d 8caf 6f3e 306a 143e
00000060: ec33 7ebd 25ff 66b9 2b5c c0bd ed9f c9bd
00000070: 5fb5 4cbd 6992 c73d 6d9c 36ba e9e5 b63d
00000080: 1ea4 00bc 9d90 1e3e 4b93 e2bd 6c35 023d
00000090: 394e 89bc cee3 49be 53cd d7ba 0519 723d
000000a0: b55e 4f3d 8b25 843d 000d 17be 4ea4 60be
000000b0: eced b83d 73d3 c33c 8942 0ebe 034e 933e
000000c0: f944 453e eada bd3e bf1f 44be 955b 0b3e
000000d0: 23b4 80be 4960 0bbe 28f9 4b3e 7046 a43e
000000e0: 3172 373e 1691 1d3e f30f ccbc c6db d0bd
000000f0: 04a9 81bd 3e74 513d 6656 063d 3f90 0dbe
00000100: 97a7 5f3e 8dde 8dbe 6053 113e 3bd6 92be
00000110: 0a8a 92be b985 03bb 379a 793e a6d3 9cbc
00000120: 4aa6 973d 81b9 9b3e 8aa0 263e 99be 9e3e
00000130: 479d 703e 0ed7 79bd c1d2 7d3e 7159 0b3d
00000140: aca1 8b3e 1ad1 b0bd 7f05 b33e 1697 38be
00000150: c59c 0a3e 1ef8 fd3d 3ea4 923e 4614 853e
00000160: 9a01 3ebe 9886 38be 4dfc 28bd 68d6 54bd
00000170: 34ed 043e e109 bfbd 83f4 383e 866e 743e
00000180: 9e76 42be 8a36 80be c059 e33d be92 69be
00000190: 48d9 84be 6aa9 5cbe 163d 803d 0471 91be
000001a0: 34ea 383c a496 913e 3e8b ac3a 6c23 493e
000001b0: fedc 713e 79a3 c9bd 26c8 233e 840a 223e
000001c0: c008 7e3d 7c05 87be b992 993e 439f d9bd
000001d0: 0069 973e e3ff 81be 24ba cd3d 5e77 763e
000001e0: 05af 7cbc 0a94 79be 83f7 13be 7d64 823e
000001f0: 5be6 c8bc 4904 433e e110 1d3d acad 7f3e
00000200: abaa 5bbd 075b 583e 7bcf eb3b 20be 333e
00000210: b8c6 a93d e8fd a63e b84a a23e be45 61be
00000220: 2430 083e 00af ce3d 760e 9c3d dd0f 943e
00000230: 8387 5d3e bbe1 c5bd 4f92 a73e 807e 343e

critic.21.bias f4 [12]
0.118231505 -0.19951533 0.28437868 0.19689317 -0.045288604 -0.22948554 -0.10433848 0.17671691
-0.20205839 0.067369565 -0.18558219 -0.11982927
00000000: 5c23 f23d bf4d 4cbe 159a 913e 5d9e 493e
00000010: 8b80 39bd 42fe 6abe 6aaf d5bd 47f5 343e
00000020: 65e8 4ebe 0ef9 893d 4209 3ebe 0c69 f5bd

critic.24.weight f4 [12, 12]
0.10553279 0.1813152 -0.16666707 -0.20903556 0.15989186 0.0009345935 -0.21334039 -0.052541465
-0.263458 0.11348122 0.25158444 0.014469295 0.029390493 0.07688565 -0.13299811 0.229273
0.016505674 0.17447081 -0.18710963 0.056507234 -0.26145145 -0.034641698 0.0802301 -0.19853066
-0.19025813 -0.17617747 -0.1245919 0.1794829 0.23892102 -0.128254 0.18666418 -0.1451871
-0.20458749 0.021356856 -0.087827526 0.23644218 0.055941135 -0.24794717 -0.14198188 -0.12292837
-0.2137213 0.11240892 0.012801411 -0.04915089 -0.1155264 0.28462875 -0.24830905 -0.17948925
-0.26207414 0.10239877 -0.20838481 0.03846807 -0.14445572 -0.24893995 -0.26405808 -0.11676468
0.09749608 -0.19487685 -0.020550378 0.017400919 0.079512775 -0.097426675 -0.21155924 0.11420095
0.20448144 0.05343379 0.16830786 0.25987715 0.11629753 0.19652325 -0.046837557 0.2921378
-0.051592328 0.24037896 -0.13248114 -0.24046338 -0.18928914 0.0011005702 0.039375518 0.01376136
0.27293178 -0.22124512 0.037462253 0.3469471 0.010933535 -0.21162044 0.036634944 -0.24862382
-0.05727197 -0.123314366 0.41424555 0.2105061 -0.12686083 0.282948 -0.16103098 -0.06567654
0.016136032 -0.024043122 0.14476502 0.15318565 0.41634846 -0.033995 0.2802431 0.040375095
-0.18136974 0.027297098 0.13917075 0.2819617 0.24001053 -0.2208487 0.25843608 0.1534201
0.035890386 -0.27634516 0.05273407 0.025303595 -0.14026159 -0.1484087 -0.23264672 -0.03634532
0.044406276 0.28765303 0.20331857 -0.0933234 0.15047848 0.28294703 0.24399765 0.11183941
0.19054279 -0.062060047 0.083869494 0.24060258 0.19902271 -0.075032584 -0.2668228 -0.04730289
-0.07649597 0.028959235 -0.29269624 -0.21658163 0.15048066 0.11372247 0.010903412 -0.045001887
00000000: 9321 d83d b1aa 393e c6aa 2abe 6b0d 56be
00000010: b1ba 233e 82ff 743a e775 5abe b835 57bd
00000020: f8e3 86be d868 e83d adcf 803e 9f10 6d3c
00000030: 55c4 f03c 3976 9d3d a830 08be 8bc6 6a3e
00000040: e836 873c 7aa8 323e ab99 3fbe 2174 673d
00000050: f7dc 85be 74e4 0dbd ae4f a43d 9f4b 4bbe
00000060: 07d3 42be de67 34be 0a2a ffbd 5eca 373e
00000070: b6a7 743e 0455 03be e524 3f3e edab 14be
00000080: 627f 51be 93f4 ae3c ebde b3bd e61d 723e
00000090: 8822 653d dde5 7dbe b363 11be dfc1 fbbd
000000a0: c2d9 5abe a636 e63d 02bd 513c 7252 49bd
000000b0: 1b99 ecbd dcba 913e ba44 7ebe 08cc 37be
000000c0: 952e 86be 72b6 d13d d462 55be b290 1d3d
000000d0: 33ec 13be 1dea 7ebe 9f32 87be 5222 efbd
000000e0: 06ac c73d cc8d 47be 4459 a8bc 5f8c 8e3c
000000f0: 98d7 a23d a387 c7bd fca2 58be 30e2 e93d
00000100: 9563 513e 64dd 5a3d e558 2c3e 9e0e 853e
00000110: 662d ee3d 643d 493e bdd8 3fbd 1693 953e
00000120: 7a52 53bd e725 763e 23a9 07be 083c 76be
00000130: 03d5 41be 0241 903a 3948 213d 5477 613c
00000140: b7bd 8b3e 158e 62be 0572 193d 0da3 b13e
00000150: 9222 333c 07b3 58be 860e 163d 3e97 7ebe
00000160: 0396 6abd 3e8c fcbd fe17 d43e e98e 573e
00000170: cee7 01be 8fde 903e 4ee5 24be 6c81 86bd
00000180: b62f 843c 15f6 c4bc 483d 143e b3dc 1c3e
00000190: a02b d53e 573e 0bbd 067c 8f3e 5b60 253d
000001a0: fdb8 39be 2a9e df3c c782 0e3e 495d 903e
000001b0: 52c5 753e 2926 62be bc51 843e 291a 1d3e
000001c0: cc01 133d 1d7d 8dbe aeff 573d 7c49 cf3c
000001d0: bca0 0fbe 73f8 17be f13a 6ebe d5de 14bd
000001e0: 5be3 353d 4247 933e be32 503e 5720 bfbd
000001f0: 0817 1a3e 6fde 903e 85da 793e 100c e53d
00000200: a61d 433e ad32 7ebd c5c3 ab3d 8660 763e
00000210: 9ccc 4b3e afaa 99bd ff9c 88be adc0 41bd
00000220: eba9 9cbd eb3b ed3c 48dc 95be 93c7 5dbe
00000230: 9a17 1a3e 54e7 e83d 39a4 323c e653 38bd

critic.24.bias f4 [12]
0.24575046 -0.26675695 -0.011367026 0.2571715 0.25473234 -0.1295338 0.018398589 -0.21633339
-0.03075291 0.10964301 0.038297996 -0.11478167
00000000: 02a6 7b3e 5e94 88be c33c 3abc fcab 833e
00000010: 476c 823e 82a4 04be a3b8 963c 8086 5dbe
00000020: 87ed fbbc 848c e03d 5cde 1c3d a712 ebbd

critic.27.weight f4 [12, 12]
-0.2361587 0.029782893 -0.18660946 0.099652156 -0.23825222 0.27123222 -0.17614621 0.11596743
0.22861163 0.25145543 0.41700882 0.021762146 0.18848838 -0.054052535 0.1899334 0.22329888
-0.12457987 0.11014493 -0.07502471 0.12939483 0.25318524 -0.28245524 -0.18763173 -0.2615159
-0.2053291 0.20051412 0.1403256 -0.16562107 0.10079139 0.2815692 -0.17882918 0.13661939
-0.1521863 0.061618343 -0.24916337 -0.1282668 0.10334552 -0.20642179 -0.1051321 0.15954988
-0.16255821 0.27980825 0.17255293 0.17143598 0.26755995 -0.109957084 -0.13752016 -0.21533763
-0.22607656 -0.14067578 0.099683486 -0.20725848 -0.19474655 0.14147577 -0.012499857 0.14619495
0.11716322 -0.0035086554 -0.21004757 0.13606088 0.08027658 -0.15587653 0.09882386 0.24235564
0.007638249 0.062135473 0.0073636137 0.06206446 -0.16219473 0.07642649 -0.19263828 -0.21692525
0.29661068 0.22968179 0.31181243 -0.15045738 0.2487003 -0.20133165 -0.052371725 0.09287545
0.27222136 -0.27068374 0.36260557 0.055841237 0.114594296 -0.0019676778 0.3020827 0.0044061993
0.034861445 -0.100705124 -0.12994637 0.20645386 -0.09110409 -0.07483047 0.13663974 -0.24677841
0.20177846 0.20615909 0.307528 0.043354783 -0.16796331 0.29595846 0.25909477 0.34036034
-0.21367991 -0.16471739 -0.14394298 -0.17216873 0.28803018 -0.26533818 0.17130233 -0.051644377
0.25608146 0.26852164 0.21180496 -0.046444733 0.21430594 0.12777735 0.13597193 -0.22242369
0.031239834 -0.09518852 -0.1610517 0.049808893 0.21620566 -0.26891938 0.09582883 -0.045403775
-0.050463412 0.2692026 -0.02525834 -0.13262783 -0.0711179 -0.06864891 -0.2124205 -0.20506734
0.12135009 -0.25024873 -0.07148612 0.2052581 -0.020864105 -0.08102209 -0.08882144 -0.069594845
00000000: 96d3 71be 41fb f33c 8d16 3fbe 6e16 cc3d
00000010: 64f8 73be f3de 8a3e ac5f 34be 5580 ed3d
00000020: 2b19 6a3e c4be 803e 2e82 d53e 8746 b23c
00000030: 1903 413e 3166 5dbd e77d 423e 76a8 643e
00000040: bb23 ffbd aa93 e13d 8ea6 99bd 1480 043e
00000050: 7fa1 813e f99d 90be 8822 40be 69e5 85be
00000060: cb41 52be 9353 4d3e 84b1 0f3e 9298 29be
00000070: b76b ce3d d729 903e ff1e 37be f4e5 0b3e
00000080: bad6 1bbe 8463 7c3d af24 7fbe 5f58 03be
00000090: d1a6 d33d 3c60 53be 804f d7bd 0b61 233e
000000a0: a975 26be 0743 8f3e b7b1 303e ea8c 2f3e
000000b0: 9efd 883e 2e31 e1bd 16d2 0cbe 7881 5cbe
000000c0: 9d80 67be 500d 10be db26 cc3d 913b 54be
000000d0: a46b 47be 06df 103e 33cc 4cbc 21b4 153e
000000e0: 45f3 ef3d 78f1 65bb b616 57be 8b53 0b3e
000000f0: 0c68 a43d 199e 1fbe 2a64 ca3d 142c 783e
00000100: 474a fa3b c481 7e3d 784a f13b 4e37 7e3d
00000110: 6016 26be 7e85 9c3d f842 45be a721 5ebe
00000120: 5bdd 973e b431 6b3e e1a5 9f3e 8011 1abe
00000130: 4bab 7e3e e229 4ebe bc83 56bd 7c35 be3d
00000140: 9960 8b3e 0f97 8abe 70a7 b93e c8b9 643d
00000150: 6ab0 ea3d 28f4 00bb 95aa 9a3e e161 903b
00000160: e0ca 0e3d 7d3e cebd a910 05be a468 533e
00000170: c894 babd b840 99bd 4aeb 0b3e 7bb3 7cbe
00000180: 039f 4e3e 5e1b 533e 4f74 9d3e c994 313d
00000190: 93fe 2bbe de87 973e 12a8 843e b643 ae3e
000001a0: e8ce 5abe adab 28be ca65 13be 004d 30be
000001b0: b178 933e 68da 87be e169 2f3e 0e89 53bd
000001c0: 1c1d 833e ab7b 893e 66e3 583e d53c 3ebd
000001d0: 0473 5b3e 11d8 023e 3a3c 0b3e 09c3 63be
000001e0: aeea ff3c 33f2 c2bd bdea 24be 6904 4c3d
000001f0: 0465 5d3e cdaf 89be e841 c43d 4ff9 39bd
00000200: b9b2 4ebd ecd4 893e 94ea cebc 97cf 07be
00000210: 43a6 91bd cd97 8cbd c284 59be 2cfd 51be
00000220: 6586 f83d 9a20 80be 5167 92bd 2e2f 523e
00000230: 33eb aabc e9ee a5bd 04e8 b5bd be87 8ebd

critic.27.bias f4 [12]
-0.19682287 -0.25721112 -0.025515458 0.01796446 0.21945556 -0.05219011 -0.14401938 0.101656154
-0.22919829 -0.012465179 0.1915069 -0.042288244
00000000: ef8b 49be 2db1 83be cb05 d1bc 342a 933c
00000010: f5b8 603e 4cc5 55bd d179 13be 1a31 d03d
00000020: f5b2 6abe c03a 4cbc 631a 443e 7036 2dbd

critic.30.weight f4 [12, 12]
0.22179784 -0.20564789 -0.09788134 0.18315722 0.30007356 0.21753399 0.12866119 -0.23806421
-0.045858316 -0.25298563 -0.21008416 -0.10142977 -0.07072018 0.2957562 -0.24632712 0.21188924
0.1233821 -0.19806023 -0.0044088587 -0.18383873 0.06963976 0.08746977 -0.1589543 0.22868812
-0.17323309 -0.05042749 -0.011342741 -0.2096665 -0.058001906 -0.183127 0.0071486686 0.016026039
-0.2610656 0.21092163 0.023336569 0.27138567 0.110250294 -0.056513302 -0.077808425 -0.008598004
-0.0511331 0.08376656 0.045684133 -0.10450244 0.17969237 0.33553618 -0.039171293 0.09553991
-0.21109514 -0.19830307 -0.2867973 -0.15285791 0.1457807 0.25019976 0.2564584 0.022896681
-0.15042831 -0.035343792 0.12152849 0.15211138 -0.07411747 -0.034214254 -0.25063467 0.11205885
0.038618326 -0.2005101 0.06133268 0.06192777 -0.19967355 0.30994648 -0.15798499 0.14096686
-0.09392135 -0.18038757 -0.085623264 -0.00055219355 -0.056885123 0.15164454 -0.25680557 -0.16576765
-0.06460538 -0.22275433 -0.14660256 -0.2517587 0.2214681 -0.03277385 0.20133618 0.28158855
-0.1799435 0.2459782 0.12553741 0.337136 0.19817458 0.13554113 -0.07172992 0.072484635
0.05532016 0.1561293 0.07008174 -0.16629165 0.28424546 -0.21142934 0.3547072 -0.15696175
0.11316908 0.26211214 -0.23429789 -0.16394708 0.29152784 -0.14885312 0.1907798 0.20165196
-0.18645619 -0.16998751 -0.26943398 -0.0590592 -0.088290304 0.1821995 -0.221999 -0.2795356
0.0867318 -0.0016061533 0.2629215 0.28224888 0.08618026 0.13561872 0.37146884 0.112572685
0.25121036 0.23835471 -0.2773456 0.19420256 0.18404314 0.028156843 0.11993138 0.26548555
-0.06949015 -0.21849155 0.05659745 0.27165124 0.17257069 -0.049788732 -0.047984958 0.06208303
00000000: f91e 633e 5c95 52be 0376 c8bd 918d 3b3e
00000010: 3ea3 993e 3bc1 5e3e c2bf 033e 1bc7 73be
00000020: eed5 3bbd 5587 81be 4d20 57be 69ba cfbd
00000030: bed5 90bd 5b6d 973e 2d3d 7cbe 7ef9 583e
00000040: c1af fc3d 4dd0 4abe 3078 90bb 3840 3cbe
00000050: 4a9f 8e3d 5a23 b33d ebc4 22be 382d 6a3e
00000060: 0464 31be 0e8d 4ebd e7d6 39bc d1b2 56be
00000070: 6893 6dbd a585 3bbe 613f ea3b 0a49 833c
00000080: 64aa 85be d7fb 573e 552c bf3c 10f3 8a3e
00000090: e8ca e13d 7e7a 67bd 065a 9fbd a4de 0cbc
000000a0: f170 51bd cd8d ab3d 491f 3b3d 6005 d6bd
000000b0: 4701 383e 66cb ab3e 1472 20bd 6eaa c33d
000000c0: 5329 58be f60f 4bbe 19d7 92be c986 1cbe
000000d0: 8947 153e 2f1a 803e 844e 833e d291 bb3c
000000e0: e109 1abe a7c4 10bd eee3 f83d 16c3 1b3e
000000f0: e6ca 97bd 3f24 0cbd 3053 80be 1c7f e53d
00000100: 402e 1e3d 8552 4dbe fa37 7b3d f9a7 7d3d
00000110: 3977 4cbe 4eb1 9e3e d1c6 21be 9e59 103e
00000120: d659 c0bd 85b7 38be 405b afbd 15c1 10ba
00000130: 6000 69bd b548 1b3e 057c 83be ffbe 29be
00000140: d34f 84bd b619 64be fb1e 16be 84e6 80be
00000150: 89c8 623e df3d 06bd 122b 4e3e 602c 903e
00000160: 1c43 38be b6e1 7b3e e18c 003e 179d ac3e
00000170: 47ee 4a3e 4bcb 0a3e 23e7 92bd d372 943d
00000180: 6497 623d 5ce0 1f3e 0487 8f3d 5c48 2abe
00000190: 9f88 913e ef80 58be 2f9c b53e 95ba 20be
000001a0: 31c5 e73d 9033 863e c9eb 6fbe bee1 27be
000001b0: 2343 953e f46c 18be c85b 433e da7d 4e3e
000001c0: 5fee 3ebe 3511 2ebe 40f3 89be 0fe8 71bd
000001d0: 8cd1 b4bd 8192 3a3e b553 63be 4a1f 8fbe
000001e0: 71a0 b13d 9085 d2ba a69d 863e ed82 903e
000001f0: 477f b03d a2df 0a3e 2a31 be3e 828c e63d
00000200: a59e 803e 4213 743e 3e00 8ebe 09dd 463e
00000210: ce75 3c3e 2ea9 e63c 959e f53d b9ed 873e
00000220: da50 8ebd 40bc 5fbe bad2 673d df15 8b3e
00000230: 5fb6 303e 45ef 4bbd e08b 44bd c64a 7e3d

critic.30.bias f4 [12]
0.00467782 0.047286402 0.075807095 -0.008115367 -0.11489467 -0.18128571 -0.08950599 0.15823075
0.021053 -0.0685533 -0.06409994 -0.10419684
00000000: 6648 993b 63af 413d c040 9b3d 51f6 04bc
00000010: e64d ebbd f6a2 39be eb4e b7bd 3e07 223e
00000020: 5777 ac3c ac65 8cbd d446 83bd 2765 d5bd

critic.33.weight f4 [12, 12]
0.17474057 -0.13574524 0.07194349 0.20610476 -0.17057532 0.32741386 -0.23585495 0.2837878
0.2521429 0.06382906 -0.13337892 0.06728223 -0.08332688 0.03694987 0.27849966 0.27006987
0.20864452 -0.18608792 0.25998846 0.13167962 -0.15546755 0.081794955 -0.19424187 -0.19493562
0.02923949 0.1981159 -0.21464087 0.01001004 0.065279886 -0.041618455 0.16291878 -0.087890044
0.2509228 -0.06265881 0.10090357 0.14340653 0.09464857 0.193246 -0.153323 0.16827275
-0.221056 -0.0033330587 -0.115852766 0.117691755 0.017409258 0.13451782 0.26824024 0.22377913
0.29206958 0.15035747 0.1857741 0.2382835 0.077506565 0.08800257 -0.01972767 0.26364496
0.12935977 0.07779229 0.34554383 -0.03914831 -0.18339722 -0.20857698 0.027738258 0.30414465
-0.037351582 -0.010475725 0.0971412 0.05707843 0.19561215 -0.10241089 -0.23492023 0.06810788
-0.17801839 0.030234778 -0.06401734 0.2373429 0.066358685 0.24829212 0.04936511 -0.07984714
-0.20052317 0.05600165 -0.21256346 -0.043478306 0.036839202 -0.19240753 -0.023949645 -0.1342802
0.18703505 -0.21231787 0.28404593 0.2538444 0.007952832 0.10408385 0.23329099 -0.036406048
0.25305662 0.2324413 -0.026482636 0.17380589 0.24397497 0.0028820501 0.12495104 0.21839285
0.009104488 -0.18945156 -0.15575396 0.040251717 -0.19320561 0.23680227 -0.1319919 0.25946376
-0.20445488 -0.09872337 0.19827619 -0.020308973 0.21373673 0.1479232 0.22718833 -0.08343057
0.15616558 -0.24031132 -0.19873509 -0.07419992 -0.123598404 0.21295016 -0.21110517 -0.15012367
0.027341317 -0.28288752 -0.2851374 0.18215242 -0.023532482 -0.2657949 -0.25338873 0.30623573
-0.12173217 0.18926576 -0.14618261 -0.24255906 -0.10156498 0.17950468 -0.16517034 0.17878497
00000000: 31ef 323e cd00 0bbe 1c57 933d 200d 533e
00000010: 4cab 2ebe caa2 a73e f683 71be a24c 913e
00000020: e018 813e cfb8 823d 7c94 08be 44cb 893d
00000030: 49a7 aabd bf58 173d 8297 8e3e 9946 8a3e
00000040: e9a6 553e d58d 3ebe 351d 853e 06d7 063e
00000050: e332 1fbe 1d84 a73d 57e7 46be 349d 47be
00000060: a887 ef3c e5de 4a3e d1ca 5bbe 2701 243c
00000070: 76b1 853d 1d78 2abd 2ed4 263e b2ff b3bd
00000080: f478 803e 4353 80bd 88a6 ce3d 29d9 123e
00000090: 1cd7 c13d 48e2 453e b400 1dbe b14f 2c3e
000000a0: 815c 62be 726f 5abb 3744 edbd 6008 f13d
000000b0: dc9d 8e3c 0abf 093e c956 893e 5b26 653e
000000c0: 258a 953e 4ff7 193e 913b 3e3e 9700 743e
000000d0: c3bb 9e3d b13a b43d ec9b a1bc 79fc 863e
000000e0: e376 043e 9051 9f3d 1feb b03e fa59 20bd
000000f0: 7bcc 3bbe 3495 55be 583b e33c d9b8 9b3e
00000100: f9fd 18bd 60a2 2bbc f7f1 c63d 12cb 693d
00000110: 8d4e 483e cdbc d1bd ee8e 70be 257c 8b3d
00000120: 744a 36be edae f73c 861b 83bd 040a 733e
00000130: 10e7 873d 4a40 7e3e 1233 4a3d e686 a3bd
00000140: f255 4dbe fc61 653d 3caa 59be 4f16 32bd
00000150: b4e4 163d 7b06 45be 0c32 c4bc c080 09be
00000160: 1e86 3f3e db69 59be 786e 913e e5f7 813e
00000170: 984c 023c ea29 d53d d5e3 6e3e 821e 15bd
00000180: a390 813e 1805 6e3e 1df2 d8bc 2cfa 313e
00000190: 93d4 793e c7e0 3c3b 55e6 ff3d 60a2 5f3e
000001a0: fe2a 153c 97ff 41be f77d 1fbe fcde 243d
000001b0: b1d7 45be 4b7c 723e e228 07be 6fd8 843e
000001c0: 9f5c 51be 7a2f cabd ea08 4b3e 015f a6bc
000001d0: cddd 5a3e 2e79 173e 0fa4 683e a6dd aabd
000001e0: dfe9 1f3e 2c14 76be 3681 4bbe 21f6 97bd
000001f0: 2921 fdbd 9b0f 5a3e f42b 58be 05ba 19be
00000200: e6fa df3c a2d6 90be 87fd 91be 2a86 3a3e
00000210: 31c7 c0bc 4516 88be 2bbc 81be eeca 9c3e
00000220: b74e f9bd e2ce 413e e5b0 15be 6761 78be
00000230: 4d01 d0bd 13d0 373e 6a22 29be 6813 373e

critic.33.bias f4 [12]
-0.039290473 0.16188729 0.060993858 0.037802238 -0.057112962 -0.16345575 -0.23469391 0.15672608
0.12145062 0.11686051 0.2395863 -0.09467184
00000000: 0cef 20bd c8c5 253e b2d4 793d 85d6 1a3d
00000010: 48ef 69bd f260 27be 9a53 70be cd7c 203e
00000020: 1abb f83d 9054 ef3d 1c56 753e 4fe3 c1bd

critic.36.weight f4 [12, 12]
0.20788053 -0.16428116 0.21947706 0.1792181 -0.1647703 0.1093184 -0.002130711 0.24409235
0.1812951 0.12628667 0.27331933 -0.11596318 0.06352037 -0.26010776 0.044558764 -0.01768053
0.16225669 -0.23116314 -0.122465886 -0.22500736 -0.16162722 0.1891097 -0.08426692 -0.2529672
0.24218853 0.2609131 0.19976196 -0.03565852 0.21252169 0.059661817 -0.07411488 0.1211879
0.2128134 0.17260113 -0.14265919 0.26933575 0.17731445 -0.1581977 -0.048002306 0.28382874
-0.10619582 0.1768647 -0.12504712 0.026578749 -0.21775948 -0.15335797 0.0010584043 0.10438602
0.122607686 -0.19405405 0.16831714 0.12835018 0.141014 0.027719878 -0.23680216 0.13826603
0.09550438 0.23098616 0.0011163271 0.13930121 -0.16563466 0.1213713 -0.016775213 -0.2501876
0.2843515 -0.02715855 -0.2765963 0.04978585 -0.0367738 0.19488853 -0.11635982 -0.27986875
0.23152776 0.17126207 -0.23361015 0.28265613 0.033150095 0.08188583 0.2885725 0.04701082
0.11927476 -0.18152724 -0.05059308 0.2572846 -0.08922694 0.26019436 -0.009311516 0.11879585
0.03107208 -0.18792136 0.1386575 -0.15745142 0.24175014 -0.1886626 0.11852247 0.08583516
0.24057806 0.15171748 -0.04505275 -0.15423638 0.02660867 0.27598405 -0.07357336 0.13382187
-0.06822934 0.037044015 0.1807082 0.20971128 0.038745545 0.033844214 0.107692435 0.25747237
0.387313 -0.056701582 0.20175545 0.2835096 -0.17786413 -0.19666107 0.060567547 -0.06293038
0.035667416 0.10273741 0.096845426 -0.1709631 -0.16889173 0.046726797 0.17225856 0.18870726
0.19903468 0.13536088 -0.10162206 0.14697886 0.19512708 0.12697019 0.063832924 -0.2746572
-0.007200192 -0.20309864 0.25727427 0.17586596 -0.020884048 0.14971359 -0.22964971 -0.26752663
00000000: a2de 543e 5239 28be 98be 603e f384 373e
00000010: 8cb9 28be 53e2 df3d 66a3 0bbb 58f3 793e
00000020: 6ca5 393e 4b51 013e 83f0 8b3e 1b7e edbd
00000030: f816 823d d82c 85be 4083 363d c2d6 90bc
00000040: 9e26 263e 08b6 6cbe 65cf fabd 5468 66be
00000050: 9b81 25be f9a5 413e 2394 acbd eb84 81be
00000060: 4500 783e 6796 853e 668e 4c3e ab0e 12bd
00000070: 499f 593e f35f 743d 8bc9 97bd 5d31 f83d
00000080: c2eb 593e 5abe 303e 4015 12be 60e6 893e
00000090: eb91 353e 94fe 21be 119e 44bd 0052 913e
000000a0: 327d d9bd 051c 353e 5a0c 00be adbb d93c
000000b0: 57fc 5ebe df09 1dbe 28ba 8a3a 56c8 d53d
000000c0: bd19 fb3d 1bb6 46be 545b 2c3e 3b6e 033e
000000d0: f965 103e cc14 e33c 447c 72be 9c95 0d3e
000000e0: cd97 c33d a387 6c3e b951 923a faa4 0e3e
000000f0: 229c 29be 8491 f83d 2c6c 89bc 9718 80be
00000100: 8596 913e 9c7b debc 089e 8dbe 3fec 4b3d
00000110: 20a0 16bd dc90 473e 0f4e eebd f54a 8fbe
00000120: 9d15 6d3e 535f 2f3e 8037 6fbe 4eb8 903e
00000130: 65c8 073d c2b3 a73d c6bf 933e 6b8e 403d
00000140: 5346 f43d 47e2 39be b13a 4fbd cfba 833e
00000150: 9dbc b6bd 3238 853e 548f 18bc 3d4b f33d
00000160: e08a fe3c 756e 40be 3bfc 0d3e f23a 21be
00000170: 598d 773e c530 41be e9bb f23d 58ca af3d
00000180: 185a 763e d45b 1b3e 3b89 38bd 24f0 1dbe
00000190: 6dfa d93c c84d 8d3e a1ad 96bd 9a08 093e
000001a0: d3bb 8bbd 77bb 173d 920b 393e 8ebe 563e
000001b0: a6b3 1e3d 3ba0 0a3d da8d dc3d 6bd3 833e
000001c0: e44d c63e eb3f 68bd fb98 4e3e 2c28 913e
000001d0: 0422 36be 8561 49be ad15 783d a5e1 80bd
000001e0: ff17 123d fe67 d23d e556 c63d f310 2fbe
000001f0: f4f1 2cbe 9964 3f3d 8c64 303e 7a3c 413e
00000200: bfcf 4b3e 0b9c 0a3e 3a1f d0bd a081 163e
00000210: 65cf 473e 7904 023e d6ba 823d de9f 8cbe
00000220: 97ef ebbb 17f9 4fbe 74b9 833e 3516 343e
00000230: 0615 abbc 854e 193e 4b29 6bbe 40f9 88be

critic.36.bias f4 [12]
-0.12478967 0.12782197 0.11209801 0.023686336 -0.012233992 0.06545223 -0.032946944 0.044822283
0.25188228 -0.084837146 -0.25651792 0.14992759
00000000: ba91 ffbd c3e3 023e a493 e53d d909 c23c
00000010: 1571 48bc d20b 863d 60f3 06bd 9297 373d
00000020: b7f6 803e 19bf adbd 5156 83be 9e86 193e
