gigala/topology/topology_optimiz/HRL/preTrained/T0-h-v1/2level/HAC_T0-h-v1_level_1_crtic.pth (torch, 12141 bytes, 27 tensors)

critic.0.weight f4 [7, 6]
000000 a0 24 23 bc d0 d7 0b bd 44 bf 4d 3e 7f 18 cf be
       -0.009957463 -0.03414136 0.20092493 -0.40448377
000010 4c 2a ba 3d 34 fa 98 be e5 3c 74 be a9 1b d4 be
       0.09090099 -0.2987839 -0.23851354 -0.41427353
000020 ed a7 26 3d 8c cd 2b bc 7d 57 aa 3e e9 b5 f0 bd
       0.04068749 -0.010486018 0.33269873 -0.117534466
000030 0e 16 9a be ad 9b 84 be 42 04 ac be 76 91 b8 bd
       -0.3009495 -0.2590002 -0.33596998 -0.090121195
000040 f0 bc c9 be a4 39 4e 3d a4 a1 2a 3e 80 50 b5 be
       -0.3940196 0.05034794 0.16663224 -0.3541298
000050 80 b7 fa bd 10 4d a2 bc 28 d0 15 be 46 88 b0 3e
       -0.12242031 -0.019812137 -0.14630187 0.34478968
000060 ca 4a ab be fc 13 12 c0 9c 90 74 be bb 34 23 bf
       -0.33455497 -2.2824697 -0.23883289 -0.63752335
000070 8d a7 83 be 0f 34 08 bf d7 34 bc be 84 05 ce bd
       -0.2571377 -0.53204435 -0.36759064 -0.10059646
000080 ac 1a f3 bd 2c 7c 8d be 98 4d 2e 3e 4c fa 0f 3e
       -0.11870322 -0.27633798 0.17021787 0.14060324
000090 ee 73 ca 3e 1a 74 9f be 08 33 99 be 16 50 7d be
       0.39541572 -0.31143266 -0.29921746 -0.24737582
0000a0 e4 7e 36 3e 0e 46 2c be
       0.17821842 -0.16823599

critic.0.bias f4 [7]
000000 f8 db b8 3d 63 07 a0 bd 44 61 80 3e 20 2a 17 3e
       0.09026331 -0.07813909 0.25074208 0.14762163
000010 c0 37 bb 3e 18 d4 73 be e8 bd dc bd
       0.3656597 -0.23811376 -0.10778409

critic.3.weight f4 [7, 7]
000000 98 ef 7e 3d 3e e8 27 bf 10 81 b7 be 09 27 b0 3e
       0.062240213 -0.6558875 -0.35840654 0.3440478
000010 db fd bb be 48 a9 7f bd b0 17 a1 be 59 05 9e 3e
       -0.36717114 -0.0624173 -0.31463385 0.30863455
000020 31 83 24 be f5 2c 9e be 54 90 f2 3d 56 00 97 bd
       -0.1606567 -0.30893674 0.11843935 -0.07373111
000030 8d 06 93 3e c2 28 29 3e 26 b6 97 be 1f ba fa bb
       0.28715935 0.16519454 -0.29631156 -0.007651582
000040 89 9a 5a 3f 3e 3d 52 3e 2a dd 44 3f a2 0d 71 be
       0.8539205 0.20531175 0.7689997 -0.23540357
000050 6d 53 be 3e 3e 84 4f 3e e3 8d ea 3c 0d b9 92 be
       0.37173024 0.2026529 0.02863211 -0.28656808
000060 6c 1a 88 3d 5a ef a0 3e 35 db 4e be 9e b0 13 3e
       0.066456646 0.3143261 -0.20200808 0.14422843
000070 c0 1a ad 3b 57 32 2f be ee 5e 7c be c5 49 17 be
       0.00528273 -0.17109047 -0.24645588 -0.14774235
000080 73 f9 80 be c7 6a a2 be 00 00 41 3d 87 90 a7 be
       -0.25190315 -0.3172209 0.04711914 -0.32727453
000090 c8 41 f5 bd 28 32 a5 be 82 eb 0f 3e 98 86 81 be
       -0.119754374 -0.3226483 0.14054683 -0.25298
0000a0 5e 11 3a 3e d8 87 73 be e0 17 28 bd 7f 6e 24 3e
       0.18170688 -0.23782289 -0.041038394 0.16057776
0000b0 d2 8c 5a c0 18 44 8a bd 44 01 f2 be 7e 50 01 3e
       -3.414845 -0.06751269 -0.4726659 0.12628362
0000c0 76 e9 19 be
       -0.15030465

critic.3.bias f4 [7]
000000 2a 88 9e 3e 4e c4 46 be da 92 2c bd 14 dc 6b be
       0.3096326 -0.19410822 -0.042132236 -0.23033172
000010 cc 03 3e 3e ab e4 aa 3e cf a1 3a bd
       0.18556136 0.33377585 -0.04556447

critic.6.weight f4 [7, 7]
000000 ac a1 ee 3d 7e 9a 14 3e 99 4a 8a 40 be 86 0b bd
       0.1165193 0.14512059 4.321606 -0.034064047
000010 48 72 b9 bd 16 0a a3 be 2d 08 73 3f 71 8c 95 bd
       -0.090550005 -0.31843632 0.9493435 -0.07302178
000020 23 ec 03 3f 93 80 ca 3e c3 0a 38 bd 36 f2 11 3e
       0.5153219 0.3955122 -0.04493214 0.14252552
000030 27 9a bc 3e e6 d7 04 be 42 2c 9b be 0f 62 c2 3d
       0.3683636 -0.12972984 -0.30307204 0.094913594
000040 a3 7a c4 be 8e 47 43 be d5 28 a1 be 72 23 8a be
       -0.38374814 -0.19070265 -0.31476465 -0.26980168
000050 22 72 ae 3d d0 d5 62 be 5b fa 7c 3e 09 95 54 c0
       0.08517863 -0.22151875 0.24704878 -3.3215964
000060 77 b9 b3 3e 6b 6b 6c 3e a0 19 d4 be 88 4e 2b bf
       0.35102436 0.23087852 -0.414258 -0.66916704
000070 6e 06 4b be 6b 0c 74 3e e4 5e d4 bf c7 9e 37 bb
       -0.19826671 0.23832862 -1.6591458 -0.0028018223
000080 e8 60 ba bd 50 9a a5 bc 23 d8 1d bd cc 98 3d 3d
       -0.09100515 -0.020215183 -0.038536202 0.046288297
000090 e3 81 c9 bc dd 6d 17 bf e4 20 9b bd 60 12 3c 3c
       -0.024598068 -0.59152013 -0.07574633 0.01147899
0000a0 2e cb 46 be 40 88 68 3e f0 51 8a 3e 14 c8 b7 3d
       -0.19413444 0.22708225 0.27015638 0.08973709
0000b0 73 1c 75 be 37 ea 76 be dd 44 46 3e d0 a8 d1 3d
       -0.23936634 -0.24112783 0.19362207 0.102372766
0000c0 92 87 64 3d
       0.055793352

critic.6.bias f4 [7]
000000 99 26 b1 bd f7 25 b4 be a9 3c 1d 3e a4 85 83 bd
       -0.0864994 -0.35185215 0.15355171 -0.06421974
000010 b3 af 69 be 81 e1 7f be 87 41 4a bd
       -0.2282093 -0.24988367 -0.049378898

critic.9.weight f4 [7, 7]
000000 8d 89 a9 bf 8b 9b f0 be fd b8 0c be 0a 00 12 3e
       -1.3245102 -0.4699367 -0.13742442 0.14257827
000010 09 25 3d 3e 15 e0 ce bc 5c 0f ae bd c1 f4 61 be
       0.18471159 -0.025253335 -0.08499023 -0.22066022
000020 69 26 0f 3f 1f ee 5a be 5a 7b 6b bd a2 37 43 be
       0.55917984 -0.21379898 -0.057490684 -0.19064191
000030 e6 40 d4 bd dd cb 7b be ff 7b 0d be f1 19 da bd
       -0.10363941 -0.24589486 -0.13816832 -0.10649479
000040 22 78 4a 3e 3e 85 45 3e fb a3 af 3d 08 56 32 3e
       0.1977239 0.19289109 0.08576199 0.17415631
000050 cc 3c de bd 63 a8 7b 3f 05 e6 01 3f 8f 23 c6 3d
       -0.1085144 0.9830381 0.50741607 0.09674751
000060 19 8c 95 bd a9 fb 99 bc b4 19 21 3e 6a 52 5e 3e
       -0.07302112 -0.018796759 0.15732461 0.21711126
000070 63 4a 56 40 b4 d4 a9 3e 2c 1d ed bd d9 f5 39 40
       3.3482902 0.33170092 -0.1157783 2.9056304
000080 35 dd 37 3e 9c b1 65 be 4c f7 37 3e 53 4a c6 be
       0.17955478 -0.22431034 0.1796543 -0.3872858
000090 08 8a b1 3d f9 67 52 be e4 6e 1d be 6f d2 0d be
       0.086689055 -0.20547475 -0.15374333 -0.13849805
0000a0 ae cb a5 be 19 c0 7a 3e 35 e6 d2 bc 95 f3 92 be
       -0.32381958 0.24487342 -0.025744537 -0.28701463
0000b0 4d 21 4b 3e 1f 80 89 bd be 99 c9 bd d2 f9 2b be
       0.19836922 -0.0671389 -0.09843777 -0.16794518
0000c0 5b 19 1c be
       -0.15244047

critic.9.bias f4 [7]
000000 fe 87 5f 3f c1 6e c5 bc 98 70 40 be 92 0a a6 be
       0.8731688 -0.024100663 -0.18792951 -0.3242994
000010 e2 51 8f bc 33 82 90 be 50 0f 86 be
       -0.0174951 -0.28224334 -0.26183558

critic.12.weight f4 [7, 7]
000000 39 50 54 be 5f 85 41 bd 02 2c 72 3e bc 43 1a bf
       -0.20733728 -0.047246333 0.236496 -0.60259604
000010 14 25 44 3e a2 ed 40 3e 70 8f a3 3e 96 df 3b 3e
       0.19154769 0.1884065 0.31945372 0.1834701
000020 e1 a7 2c 3e da ad a9 3e f2 aa d7 3e 7b 1b 2a 3d
       0.16860916 0.3314045 0.42122608 0.041530114
000030 3c 6b ba bd d4 96 6e be fc c0 a0 be df 74 07 be
       -0.091024846 -0.23299724 -0.31397235 -0.13228177
000040 84 37 5f bc 27 23 08 be 22 17 97 3d 3c 56 0a bd
       -0.013624076 -0.1329466 0.07377459 -0.033773646
000050 48 ed 8c 3b 85 7a 23 3f 98 25 9c 3e b6 2b 11 be
       0.004300747 0.63858825 0.30497432 -0.1417683
000060 c8 10 95 3f 08 96 86 3f 59 61 18 3d a9 a2 9f 3d
       1.1645746 1.0514536 0.037202213 0.07794697
000070 11 0a 2d be 79 14 7f be 7b b7 be 3e 7f 1d 6f bd
       -0.16898371 -0.24910153 0.3724936 -0.05837774
000080 ba c0 fe 3e 5a 6f 97 bd 48 39 9a be 4d 96 32 be
       0.49756414 -0.073942855 -0.30121827 -0.17440148
000090 a4 a6 90 3e 19 67 5d be ef a4 d6 bb f6 eb 85 3e
       0.28252137 -0.2162136 -0.0065504233 0.26156586
0000a0 30 64 e1 3e b5 96 97 bd 9c 04 6a be f3 14 c6 bd
       0.4402175 -0.07401792 -0.22853321 -0.096719645
0000b0 b6 90 bc 3c 18 db 51 bf c5 ed be be 68 2f ca 3d
       0.023018222 -0.81974936 -0.3729078 0.09872323
0000c0 ae 32 71 3e
       0.23554489

critic.12.bias f4 [7]
000000 04 a4 89 bc 23 82 f1 bd 48 ed 22 3d 44 63 7b 3f
       -0.016801842 -0.117924 0.03977707 0.9819834
000010 0e f5 8c be de 3d ab be 3a a1 37 3f
       -0.27530712 -0.33445638 0.7173039

critic.15.weight f4 [7, 7]
000000 6c c4 dd be e9 d2 10 3e b6 83 31 3e 4b ca 6f 3d
       -0.4331392 0.14142956 0.173354 0.05854253
000010 5d 29 fd bb cb 48 a2 be 81 5d 53 3e 13 91 16 40
       -0.007725878 -0.31696162 0.20641138 2.3526046
000020 95 85 37 3e a8 e3 4e 3d 63 39 8b 40 1a eb 21 be
       0.17922051 0.05051008 4.350755 -0.1581234
000030 aa f4 83 be e6 72 f6 3f 4e e5 27 bf 92 2e 86 3e
       -0.257726 1.9253814 -0.65584266 0.26207405
000040 4c 59 c6 be d7 2e a3 bf 8d 23 be be 33 4d 7e 3f
       -0.38740003 -1.2748669 -0.37136498 0.99336547
000050 73 1c 56 bf 02 4d 49 be 9c e0 57 3e e3 95 17 3d
       -0.8363716 -0.19658282 0.21081775 0.037008177
000060 61 37 97 3d 5c f6 a2 3e 15 c7 d7 3e 49 f5 9c be
       0.073836096 0.31828582 0.42144075 -0.30655888
000070 d2 3f 75 be 6e be 9d 3c 10 9e 11 bc 50 52 f3 39
       -0.23950127 0.019255843 -0.008887783 0.000464099
000080 63 2a b5 be b8 2f 54 be 7c a9 1a 3e f1 26 95 be
       -0.353839 -0.20721328 0.15103716 -0.29131272
000090 1b 4a 19 be c6 1d 53 be 58 d7 c5 be 1b 91 0e be
       -0.14969675 -0.20616826 -0.38640857 -0.13922541
0000a0 26 4f fc bd ef 3d 8d 3e 6b 83 0d be 67 b8 9b be
       -0.12319784 0.27586314 -0.13819663 -0.30414125
0000b0 58 4f ec 3d ce d8 ce be c6 5e b9 be 90 a1 11 bd
       0.11538571 -0.40399784 -0.3620512 -0.03555447
0000c0 e6 da 90 be
       -0.28292006

critic.15.bias f4 [7]
000000 5c 84 4a be 74 84 92 3f 9f ee 29 bf be a8 d0 be
       -0.19777054 1.1446671 -0.6637973 -0.4075374
000010 bb e4 08 be b5 93 61 bd 26 c1 25 3d
       -0.13368504 -0.055072505 0.040467404

critic.18.weight f4 [7, 7]
000000 94 c3 4c 3e 38 f3 c5 bd 55 8a 6e bd 95 0d 2c 3e
       0.19996482 -0.09665531 -0.058237392 0.16802056
000010 ca 51 4d 3d ce 5d 82 3d 4b 2d a6 be ed ff 6c 3e
       0.05012683 0.06365548 -0.3245643 0.23144503
000020 bb 5b 0b be 2b 55 7e 3e 02 aa 88 bd c7 e6 44 bc
       -0.13609211 0.24837177 -0.066730514 -0.012017912
000030 ed 5e 43 3d c0 1f e8 3d e6 86 8b 3c 30 d7 9f bd
       0.04769795 0.11334181 0.017032098 -0.07804716
000040 bd 0b 21 be de b1 4f be d4 48 87 3e 49 71 f3 bc
       -0.15727134 -0.20282695 0.2642275 -0.029717105
000050 2a e4 27 be 97 20 62 3e 04 8f 28 40 f9 ac c6 40
       -0.16395631 0.22082745 2.633729 6.208615
000060 07 7c 85 be fa ef a2 3e 3b 79 08 3d b8 e8 16 3e
       -0.26071188 0.31823713 0.03331874 0.14737213
000070 22 d0 9d 3e 5f 4e a7 3e 18 99 79 be c6 f3 b1 be
       0.30822855 0.3267698 -0.24374807 -0.34756297
000080 33 ea 4d 3e 4d 4e bf 3d b5 68 b9 3e 7e a5 a0 be
       0.20108871 0.093411066 0.36212698 -0.3137626
000090 a0 9b 57 be b4 f9 8f be d5 1b 00 be e3 40 39 bd
       -0.2105546 -0.28120196 -0.12510617 -0.045227896
0000a0 ed 05 a8 3e 19 57 b1 be af 39 7b be dc dd 40 be
       0.3281702 -0.34636763 -0.24533723 -0.18834633
0000b0 2f 59 84 be 72 18 58 3f 53 af 42 be ae fc 4f be
       -0.25849292 0.844123 -0.19012193 -0.20311233
0000c0 79 c7 2e 3d
       0.0426707

critic.18.bias f4 [7]
000000 6f ed bb be ae ba aa be 02 ec b6 bc 22 eb 25 3c
       -0.36704585 -0.3334555 -0.022329334 0.010126861
000010 94 9e 53 bb 80 15 a4 bc 64 c8 9a be
       -0.0032290565 -0.020029783 -0.3023101

critic.21.weight f4 [7, 7]
000000 8d d7 09 bd 27 89 19 bd ed a0 cc bd 40 7e 10 be
       -0.03365283 -0.037484314 -0.09991632 -0.1411066
000010 74 b3 42 bd eb 7d 9f 3e bc 8a 38 be 4e 6b a4 3d
       -0.04753442 0.31150755 -0.18021673 0.08028279
000020 9b 89 48 bd 9d 00 f9 3d 46 a5 d7 bd 07 5b 2b bd
       -0.048959356 0.1215832 -0.1052957 -0.041834857
000030 8b cb 7a bd 14 9b b2 be 2f 38 c8 3e 1c f8 35 3e
       -0.06122927 -0.3488394 0.39105365 0.17770427
000040 bd 23 a4 3e e6 dd e5 3f 88 a1 33 3d b8 56 ae 3d
       0.32058516 1.7958343 0.04385522 0.08512634
000050 d2 7b bc 3f 74 71 c2 3e d1 a8 1a 3f ef 89 25 3e
       1.4725287 0.37977183 0.60413843 0.16165899
000060 e0 bd a5 bd 1e 9f ac 3c 15 0e 36 be 52 35 b7 be
       -0.080928564 0.021071967 -0.1777881 -0.35782868
000070 08 58 b6 be 36 2e 57 be 4e bb 71 3e 9d c9 a8 bf
       -0.35614038 -0.21013722 0.23606607 -1.3186527
000080 de 50 e4 be 40 2c 57 bd 96 c3 83 bf 02 46 45 be
       -0.44592947 -0.052532434 -1.0294063 -0.19264987
000090 3a 94 43 bc 24 c2 6e 3b 9e 24 fb bd fa 34 40 be
       -0.011937195 0.0036431635 -0.122628435 -0.18770209
0000a0 cb d8 b6 bc f1 3c 77 3c 6c b3 98 3e da 0a d1 3e
       -0.022320172 0.015090213 0.29824388 0.40828592
0000b0 85 93 98 3e 8d c1 e4 be d9 ce ca be 32 1a 98 be
       0.29800048 -0.44678918 -0.39610937 -0.29707485
0000c0 e6 5c d3 3e
       0.41281813

critic.21.bias f4 [7]
000000 59 34 95 bc 69 16 b1 bc 31 98 ac be ea 36 6c be
       -0.018213438 -0.021617131 -0.33709863 -0.23067823
000010 ab 97 03 be d7 1e 83 3d d8 1a c7 3c
       -0.12850825 0.064023666 0.024304792

critic.24.weight f4 [7, 7]
000000 3a d9 c2 bd 27 95 d6 3e fa f6 58 40 da e2 20 be
       -0.09514089 0.4191067 3.3900743 -0.15711537
000010 63 04 83 40 d5 77 99 bb 1c 01 90 3c 00 23 8c be
       4.0942855 -0.0046834745 0.017578654 -0.27370453
000020 29 56 8c 3d 24 c4 81 bf 5c 50 1e 3f 04 b8 f0 bf
       0.06852371 -1.0137982 0.6184137 -1.8806157
000030 3e 45 82 be 5a 7d 00 3f d8 60 bd be fe 55 29 be
       -0.25443453 0.5019127 -0.36987948 -0.1653671
000040 10 37 b5 3c a0 d6 5d be 04 26 76 be 98 d5 ea bd
       0.022120982 -0.21663904 -0.2403794 -0.11466521
000050 fc 28 92 3e 32 bd 4c 3e e5 a4 76 be 14 4c 18 be
       0.28546894 0.19994047 -0.2408634 -0.14872772
000060 b0 07 ba be d8 49 b2 3e da 50 75 be d9 38 f0 3d
       -0.3633399 0.34821963 -0.23956624 0.11729593
000070 70 21 94 3e 4c 02 98 3e 53 42 71 bd 74 99 b4 bd
       0.2893176 0.29689252 -0.058901142 -0.08818331
000080 84 73 c0 bd 9f 6c 9d be e9 ed 8b be 3f b4 bb bd
       -0.09397033 -0.30746934 -0.2732995 -0.091652386
000090 ab 83 08 bf 07 69 16 bf 99 25 3d bf f6 98 ad be
       -0.5332591 -0.5875401 -0.73885494 -0.33905762
0000a0 c4 11 60 be 56 90 61 bf 2f 10 a9 3e 11 4b 5d 3e
       -0.21881777 -0.88110864 0.3302016 0.21610667
0000b0 58 29 b7 bc 42 91 d9 3e 04 7c b5 be 9c 48 72 be
       -0.022358581 0.42493635 -0.3544618 -0.23660511
0000c0 6a 14 a3 be
       -0.31851512

critic.24.bias f4 [7]
000000 f8 0e 9d bc 5f 36 8a be c7 75 7c bd 85 41 36 bd
       -0.019172177 -0.26994607 -0.06163576 -0.044496078
000010 42 54 8b be df fc 3c be 9f 5c f1 bd
       -0.2721272 -0.18455838 -0.11785244

critic.27.weight f4 [7, 7]
000000 a8 84 61 3f 2d 29 e1 3e c0 eb 73 be d5 0b 9a be
       0.8809304 0.43976727 -0.238204 -0.30087152
000010 98 9b 91 be ce 7a 53 be 35 f4 9c be 66 e4 b2 be
       -0.2843902 -0.20652315 -0.30655065 -0.3493988
000020 23 3c 8d 3d f5 52 f6 bd 1e cf 8e be 85 b7 62 3d
       0.06896236 -0.120275415 -0.27892393 0.0553508
000030 e9 34 8e 3e 7e 11 b8 be d0 8e 90 be 3a 34 51 bd
       0.27774742 -0.35950845 -0.28233957 -0.051075198
000040 0d 5c a5 3d cf 7c c3 bd dc c5 c7 be e6 69 f4 3d
       0.08074198 -0.0954529 -0.39018142 0.11934261
000050 88 3c 95 be c0 ab 16 3f d0 d7 00 3e 50 e2 f7 bc
       -0.29147744 0.5885582 0.12582326 -0.030259281
000060 cc 5e 92 bc 97 8a 58 be 15 5f 1e be 60 43 91 bd
       -0.017867468 -0.21146618 -0.15465958 -0.07092929
000070 6a fa ad be 9d b7 39 3d 6d 19 78 bb 11 61 31 c0
       -0.33980113 0.045341123 -0.0037856952 -2.7715495
000080 b1 08 57 3b d1 8e 16 bc 81 c3 89 3f d9 e1 ce 3f
       0.0032811577 -0.0091893235 1.0762788 1.6162673
000090 9d 46 e3 3f e4 2c ee bd 3b 26 b9 3e c2 bc 6a bd
       1.7755924 -0.11629656 0.3616198 -0.05730892
0000a0 0d f3 8e be 90 60 d8 3e a7 78 00 bd 72 ec ad bd
       -0.27919808 0.4226117 -0.031365063 -0.08492364
0000b0 c3 9e 9e 3e ac a3 ae 3e 03 ac 3f 3e da 6e 87 be
       0.309805 0.34109247 0.18717961 -0.2645176
0000c0 5e 11 66 bd
       -0.056168906

critic.27.bias f4 [7]
000000 8f bb 50 3e 8a 05 69 be 93 21 79 3c 55 75 27 3d
       0.20384048 -0.22756019 0.015205759 0.04088338
000010 96 c1 8a bd 3a 18 f1 be 9b 20 ab be
       -0.06775205 -0.47088796 -0.33423313

critic.30.weight f4 [7, 7]
000000 bc 52 a2 be 65 15 7a 3e 40 d4 25 3e 13 b4 da 3e
       -0.31703746 0.24422224 0.16194248 0.4271551
000010 71 18 b7 bd 16 e0 12 bf 61 36 4e be b8 b2 46 be
       -0.08940209 -0.5737318 -0.20137931 -0.19404113
000020 50 71 1f be ba 6e 2e 3e 9d 7f 1e be 48 16 fb be
       -0.15570569 0.17034426 -0.15478368 -0.49040437
000030 21 1a bb be 4b fa 86 3e 4a d5 98 be 44 d7 98 be
       -0.36543372 0.26362833 -0.29850227 -0.29851735
000040 73 88 5f be c3 75 87 be 88 25 9c be 0e 83 c7 bd
       -0.21829395 -0.26457033 -0.30497384 -0.097417936
000050 d7 96 94 bd 62 70 a0 be 9c 67 2f 3e 81 f9 3b 3e
       -0.07255333 -0.3133574 0.17129368 0.18356897
000060 b5 35 3d bf c4 f9 89 bf f5 16 43 bf 63 a5 b2 bd
       -0.73910075 -1.0779347 -0.76206905 -0.08722951
000070 49 ea 90 bf b8 db 9a be bf 4a ec bd 7c 85 e2 be
       -1.1321498 -0.30245757 -0.11537694 -0.44242465
000080 09 dc 56 bc db 3a 93 bf 16 6e be bd 20 7a 09 3e
       -0.013113984 -1.1502336 -0.09298341 0.13425493
000090 28 43 6e 3e 1d 33 b4 3e 56 d4 49 3e 4d 58 e7 3e
       0.23267806 0.35195246 0.19709906 0.45184556
0000a0 bb 85 18 40 16 61 9a be 02 f6 b9 be 0a 7f 01 be
       2.3831623 -0.30152196 -0.36320502 -0.12646118
0000b0 40 5e a1 bd fd ca 1b bd 23 25 97 be 64 f6 7d be
       -0.07879305 -0.03803538 -0.2952052 -0.24801022
0000c0 73 4c 98 bc
       -0.018591141

critic.30.bias f4 [7]
000000 e5 72 47 be df d1 38 3e 7f 08 a6 3e d8 49 4b 3e
       -0.19477423 0.1804881 0.32428357 0.19852388
000010 66 78 ac be ee 9b 20 bf 1a fe b6 3d
       -0.33685607 -0.6273793 0.08935185

critic.33.weight f4 [7, 7]
000000 f8 50 08 be 52 53 6a 3e 70 ea 14 be 9f 68 f8 3d
       -0.13312137 0.22883347 -0.14542556 0.1212933
000010 23 cb 53 bd 6e f9 d4 bf 18 26 24 be 68 fd 64 3f
       -0.0517074 -1.663862 -0.16030157 0.8944917
000020 35 4f f3 bb 8c 6a 42 3e a5 e3 51 be 96 7a 88 bc
       -0.0074252137 0.18985957 -0.20496996 -0.016660016
000030 33 b6 53 3f 94 d6 89 bc 91 c3 c7 be da 1c b5 3d
       0.8269989 -0.016825952 -0.39016393 0.088433936
000040 ca 51 23 3f 58 3e 87 3e 22 5a bd 3e 0c d4 84 be
       0.63796675 0.26414752 0.36982828 -0.2594303
000050 21 1c 84 3e 68 b0 9b be 4c 7a f9 bd 47 c4 fc 3e
       0.2580271 -0.30408025 -0.121815294 0.49368498
000060 b3 63 a0 3e 16 a4 4c be b7 20 19 be 62 b8 4e 3e
       0.31326064 -0.19984469 -0.14953886 0.20187524
000070 26 eb a6 be 79 71 05 3e 02 c0 d9 3c 12 cb 80 bd
       -0.3260128 0.13031568 0.026580814 -0.062887326
000080 3a 9b 4d bf 2a f9 ad bf 80 12 2d 3b bc 98 ac bf
       -0.8031498 -1.3591664 0.0026408732 -1.3484111
000090 31 9e a8 be 05 ef ac 3d ff cf a3 be 3b 7c 35 bd
       -0.3293319 0.08444027 -0.31994626 -0.04430793
0000a0 7a d4 27 c0 d5 0d ba 3e 9d be 02 be 32 12 f5 bd
       -2.6223435 0.36338678 -0.12768026 -0.11966361
0000b0 49 86 33 3e 2e 88 f2 3d fd f1 08 be 74 3d 7f be
       0.17531694 0.118423805 -0.13373561 -0.24925786
0000c0 af f0 6a 3e
       0.22943376

critic.33.bias f4 [7]
000000 8d e1 8d bd 43 2f 05 bf e8 4e b6 be 82 a0 da be
       -0.06927786 -0.5202524 -0.35607076 -0.42700583
000010 1a 86 9e be 33 bf b1 3e 4a 29 8e bd
       -0.30961686 0.34716186 -0.06941469

critic.36.weight f4 [7, 7]
000000 51 89 b3 be 15 45 8e be 1b a8 b6 be 40 9d fa bd
       -0.35065702 -0.2778708 -0.3567513 -0.12237024
000010 cc 68 b1 be d9 73 78 be 8a a8 0f 3e cd f8 3e be
       -0.34650266 -0.24262942 0.14029136 -0.18649597
000020 e7 a7 42 be 07 de 87 bc 75 83 45 3e a8 7b 25 be
       -0.19009362 -0.016585363 0.19288428 -0.16160452
000030 88 bd c2 be 11 75 b8 3d 8f 78 2e bd 69 0c 13 40
       -0.38035226 0.09006704 -0.042595442 2.2976325
000040 64 9e c6 be 8e cf 5e be bc c6 49 3e 7e 1c c5 3e
       -0.38792717 -0.21758863 0.19704717 0.384983
000050 3c 90 0e 3e 36 31 84 bd a9 a2 80 bd 3e ef e5 3d
       0.13922209 -0.06454699 -0.06281025 0.112272725
000060 0c 28 48 3f 16 bd 1f 3e 2b f3 46 be 05 aa 84 3d
       0.78186107 0.15599474 -0.19428699 0.06477741
000070 ab cf 22 3e 8c 39 99 be 52 d3 c0 be a8 f4 62 3e
       0.15899532 -0.29926717 -0.37661225 0.22163641
000080 4b ab 4e be 82 f7 73 be 04 31 8e 3e df c7 14 bd
       -0.2018253 -0.23824885 0.2777177 -0.036323424
000090 2c d1 bb be d0 b0 8c 3e 86 d2 3a be ca 67 2a 3e
       -0.36683023 0.27478647 -0.18244371 0.16641155
0000a0 88 d4 d3 be 99 c7 8a 3e 10 31 6c be 80 8c 56 ba
       -0.41373086 0.27105406 -0.23065591 -0.0008184388
0000b0 9a 48 20 3f c2 98 01 3f ff db 40 3d af a5 67 3e
       0.6261078 0.50623715 0.047084805 0.22621797
0000c0 be 08 33 3e
       0.17483804

critic.36.bias f4 [7]
000000 f6 5e 17 be 70 0a c2 bc 4d 61 10 bf 98 02 7b be
       -0.14782318 -0.023686618 -0.5639847 -0.24512708
000010 58 23 a8 bd f3 1b 66 bd 17 98 8f be
       -0.08209866 -0.056179 -0.28045723

critic.39.weight f4 [1, 7]
000000 df c6 b8 3e f9 d5 d4 3e d6 27 96 c0 2e 7c 80 3e
       0.36089227 0.41569498 -4.692363 0.25094742
000010 fa aa 4c 3e 61 94 b0 3e b5 0c 38 3f
       0.19987097 0.34488204 0.7189439
