gigala/topology/topology_optimiz/HRL/preTrained/T0-h-v1/2level/HAC_T0-h-v1_level_0_crtic.pth (torch, 8433 bytes, 23 tensors)

critic.0.weight f4 [2, 20]
0	0xbe25b65c	-0.16182846
1	0xbe24e27a	-0.16102019
2	0xbe0a7a02	-0.13523105
3	0x3ce61fd0	0.028091341
4	0x3e6435b0	0.22286105
5	0xbe10a30b	-0.14124696
6	0x3df407f4	0.119155794
7	0xbdfd77d4	-0.12376371
8	0xbe5748cb	-0.21023862
9	0xbd42a9e8	-0.047525316
10	0x3e03ed84	0.12883574
11	0x3e5492b8	0.20759094
12	0xbe0e338b	-0.1388685
13	0x3d46c258	0.048525184
14	0x3e45926e	0.1929414
15	0x3e17bae2	0.14817384
16	0x3e0eb394	0.13935691
17	0x3e22b746	0.15890226
18	0x3e10d454	0.14143497
19	0x3d6c9268	0.05775681
20	0xbe1c939c	-0.15290684
21	0xbe404846	-0.1877757
22	0xbdd1d733	-0.10246124
23	0xbcd54dd8	-0.026038095
24	0xbe0c5988	-0.13706028
25	0x3da78aa0	0.081807375
26	0x3d8dba9c	0.069203585
27	0xbd4f6400	-0.050632477
28	0x3db001f0	0.085941195
29	0x3d94005c	0.07226631
30	0x3e0bcc12	0.13652065
31	0x3e1a335e	0.15058658
32	0xbd9b15bc	-0.07572505
33	0x3e5fb67c	0.21846956
34	0xbcd3c4c8	-0.025850669
35	0xbbfbbb40	-0.007682234
36	0xbe581f97	-0.211058
37	0xbe135ef8	-0.14391696
38	0xbe05c45c	-0.13063186
39	0xbdc3dfd2	-0.09564175

critic.0.bias f4 [2]
0	0x3e22cb08	0.15897763
1	0xbd95a5f8	-0.07307047

critic.3.weight f4 [2, 2]
0	0xbf0745b8	-0.5284076
1	0x3e8b4b5a	0.27205926
2	0x3e67d3d8	0.22639406
3	0x3eea7d32	0.4579864

critic.3.bias f4 [2]
0	0xbebb584d	-0.36590806
1	0x3e1cfda8	0.15331137

critic.6.weight f4 [2, 2]
0	0xbe83cce7	-0.25742266
1	0xbe22ae90	-0.15886903
2	0xbf1041f4	-0.56350636
3	0xbea500ca	-0.32227165

critic.6.bias f4 [2]
0	0xbe5dc118	-0.2165569
1	0x3e9ad20e	0.30238384

critic.9.weight f4 [2, 2]
0	0x3e044800	0.12918091
1	0x3e32dbe8	0.174667
2	0x3f34ad25	0.705767
3	0x3f306d29	0.68916565

critic.9.bias f4 [2]
0	0x3ef6ed6e	0.4822802
1	0x3cb87520	0.022516787

critic.12.weight f4 [2, 2]
0	0xbefa748a	-0.48917037
1	0x3f0d77e7	0.5526108
2	0xbe3510b4	-0.17682153
3	0xbd6a2730	-0.05716628

critic.12.bias f4 [2]
0	0xbf1bf2ae	-0.60917175
1	0xbe0f06a8	-0.13967383

critic.15.weight f4 [2, 2]
0	0xbee982b2	-0.45607525
1	0x3f2656f9	0.6497646
2	0xbf1c7eba	-0.6113087
3	0xbf0d19f8	-0.5511775

critic.15.bias f4 [2]
0	0xbcc4b220	-0.024010718
1	0xbec3c289	-0.38234356

critic.18.weight f4 [2, 2]
0	0x3e818aaa	0.25301105
1	0xbe8b5ba3	-0.2721835
2	0xbeaa0b89	-0.33211926
3	0x3d240a40	0.040048838

critic.18.bias f4 [2]
0	0x3efdc0ef	0.4956126
1	0xbefeaaa6	-0.4973957

critic.21.weight f4 [2, 2]
0	0x3e9ce0b2	0.3064018
1	0x3ee896b2	0.4542747
2	0x3f311297	0.6916899
3	0xbefd66ed	-0.4949259

critic.21.bias f4 [2]
0	0x3dfb6754	0.12275568
1	0xbf05d9be	-0.52285373

critic.24.weight f4 [2, 2]
0	0x3f17f9d5	0.5936559
1	0xbe8c6fe5	-0.2742912
2	0x3ece9fa0	0.4035616
3	0x3cac7460	0.021051586

critic.24.bias f4 [2]
0	0xbda5bd12	-0.08092703
1	0xbda16c54	-0.0788199

critic.27.weight f4 [2, 2]
0	0x3df62da8	0.12020427
1	0x3eaaa9e2	0.33332735
2	0x3d861fc0	0.065490246
3	0x3e3bea71	0.18351151

critic.27.bias f4 [2]
0	0xbf22d4d4	-0.63606
1	0x3e28effb	0.16497795

critic.30.weight f4 [2, 2]
0	0x3f1dd301	0.6165009
1	0x3f0aea07	0.5426335
2	0x3f05d047	0.5227093
3	0xbe60367f	-0.21895789

critic.30.bias f4 [2]
0	0xbea766a5	-0.326955
1	0x3fb171f3	1.38629

critic.33.weight f4 [1, 2]
0	0xbf07b697	-0.53012985
1	0x3fa875d7	1.3160962
