gigala/topology/topology_optimiz/HRL/preTrained/T0-h-v1/2level/HAC_T0-h-v1_level_0_actor.pth (torch, 5339 bytes, 14 tensors)

actor.0.weight f4 [3, 4]
00000000: 40e5 ea3d 88af f3bd b467 0c3e 0037 d1bc
00000010: 58b8 5a3e 58c9 f33d e062 6bbd 6af7 cebe
00000020: 40cb e93d f2a5 e2be 1095 863d 101b 083d
0.11469507 -0.11898714 0.13711435 -0.025538921 0.21359384 0.11903638 -0.05746734 -0.40423137
0.1141572 -0.4426723 0.065714 0.033228934

actor.0.bias f4 [3]
00000000: 082d e1bd 9654 d13e 50ad 083d
-0.10994917 0.40884846 0.03336841

actor.3.weight f4 [3, 3]
00000000: 2029 753e 1032 7a3e c062 aebe bc47 63be
00000010: be24 0e3f b5c4 10bf 709d 20bd 7069 3bbd
00000020: 9aac d13e
0.23941469 0.2443316 -0.34059715 -0.22195333 0.55524814 -0.5655015 -0.039212644 -0.04575485
0.40951997

actor.3.bias f4 [3]
00000000: b0d2 60bd d9ac 1b3e 600a e3bc
-0.054888427 0.15202655 -0.027714908

actor.6.weight f4 [3, 3]
00000000: aa85 a5be 8a8b a7be 349d 8fbe 8143 06bf
00000010: 61d7 bfbe cc23 0b3e d88c c23e 60fe e83c
00000020: 6580 87be
-0.3232854 -0.32723647 -0.28049624 -0.5244675 -0.3746901 0.13587874 0.3799808 0.028441608
-0.26465145

actor.6.bias f4 [3]
00000000: b3e9 813e b4f2 62be a4f6 02be
0.2537361 -0.22162896 -0.12789398

actor.9.weight f4 [3, 3]
00000000: 490d a2be f0a3 39be f7f3 08bf 0d43 7c3e
00000010: e0e1 653e f0dd ea3d bc22 913e 7c92 7a3e
00000020: 2041 d13c
-0.3165076 -0.18128943 -0.5349726 0.24634953 0.22449446 0.114681125 0.28346813 0.24469942
0.02554375

actor.9.bias f4 [3]
00000000: 2173 7a3d ad95 343d 0abc 9d3e
0.06114495 0.044088054 0.30807525

actor.12.weight f4 [3, 3]
00000000: 1292 c63e 4649 d43e 5655 ab3e 4c24 10be
00000010: a08d d2bc f84a f0bd 3ef6 ab3e 1a51 833d
00000020: c0cb 083f
0.38783318 0.41462153 0.33463544 -0.14076346 -0.025702298 -0.11733049 0.33586305 0.06411953
0.534359

actor.12.bias f4 [3]
00000000: 8ded 953e dca3 fcbe 2cf3 2c3e
0.292828 -0.49343765 0.16889638

actor.15.weight f4 [3, 3]
00000000: d004 0e3f b048 033f 80a6 14bc 8722 443e
00000010: 45a5 0abf 337a 3cbe 4526 903e 50a4 06bf
00000020: f5c3 003f
0.55476093 0.5128279 -0.0090729 0.19153796 -0.5415843 -0.1840599 0.28154197 -0.5259447
0.50299007

actor.15.bias f4 [3]
00000000: 5b65 c2be ddf3 3a3e c201 b3bc
-0.37967953 0.18257089 -0.021851424

actor.18.weight f4 [16, 3]
00000000: 905c d03d 3b1d 653d 782b 0abf 88fb fdbd
00000010: b2da babe 184f fb3e 0824 91bd 342b 13bf
00000020: 8d30 0f3e 2a5f 803e 4d54 84be 9fd9 5dbd
00000030: b495 7f3e 25ed b7be 1f43 9cbe 4020 64bd
00000040: aa96 cfbe 63ad b53e 006c 413d 53dc b03e
00000050: c140 9e3e 65cf e3be 833f b8be f12f cabe
00000060: ac03 3ebe 8b0a 58be 2885 bebd c1fb 0ebf
00000070: 1faa 793e a6b2 a73e 7c5f 3b3e dfd7 bb3e
00000080: 9d10 de3e fae7 11bf de9c b23d 481a 093f
00000090: 873a d6be 749e 83be c70f f9bc d2e3 b7be
000000a0: 73dd debd b2ba aebd e0af 033f 10b3 14bd
000000b0: 194c a03e 8c76 d83e a5b2 833e 9788 00bf
0.10173905 0.05593608 -0.5397258 -0.124014914 -0.36494976 0.4908378 -0.070869505 -0.574878
0.13983364 0.25072604 -0.25845566 -0.054162618 0.24959451 -0.35923114 -0.3051996 -0.05569482
-0.40544635 0.35483846 0.047222137 0.34543094 0.30908778 -0.44494167 -0.35985956 -0.394897
-0.18556088 -0.21097772 -0.09302741 -0.55852896 0.24381302 0.32753485 0.18298143 0.36688134
0.4337205 -0.56994593 0.08721326 0.53555727 -0.41841528 -0.25706828 -0.030403031 -0.35916
-0.10882082 -0.08531703 0.5144024 -0.03630358 0.31308058 0.42277944 0.25722232 -0.5020842

actor.18.bias f4 [16]
00000000: c88d dd3e 3af0 c23e 25e8 d3be 44d0 52be
00000010: 9f31 c93e b7ad 0fbf 178b 01bf 5c58 c8be
00000020: e638 383e 6f6d 71be 3ed1 03bf 502d 653e
00000030: 8686 953e c370 5d3e 7544 fdbe c9ea 0f3f
0.43272233 0.38073903 -0.4138805 -0.2058726 0.3929567 -0.5612444 -0.5060286 -0.39129913
0.17990455 -0.23576902 -0.51491153 0.22380567 0.29204196 0.21625046 -0.4946629 0.5621763
