gigala/topology/topology_optimiz/HRL/preTrained/T0-h-v1/2level/HAC_T0-h-v1_solved_level_1_actor.pth (torch, 7459 bytes, 18 tensors)

actor.0.weight f4 [6, 4]
0	0xbb19cd01	-0.002346814
1	0xbe1f6607	-0.15566264
2	0xbefe266a	-0.49638683
3	0x3ee2ac1f	0.44271943
4	0xbe0c7b50	-0.13718915
5	0x3e449f7f	0.19201468
6	0xbecf80d0	-0.40527964
7	0xbed22394	-0.4104277
8	0x3eac23f6	0.33621186
9	0xbec4aa38	-0.38411117
10	0x3c839600	0.016062737
11	0x3dac0590	0.083994985
12	0x3da9d2e0	0.08292174
13	0xbec92906	-0.3928911
14	0x3e915862	0.28387743
15	0xbd2270b0	-0.03965825
16	0x3e3040d4	0.1721223
17	0x3ec053be	0.3756389
18	0xbebb5ce8	-0.3659432
19	0x3d66f791	0.05638844
20	0x3e49d0a0	0.1970849
21	0xbe414d80	-0.1887722
22	0x3ea6f1b0	0.32606268
23	0x3ed09eb1	0.40746072

actor.0.bias f4 [6]
0	0xbe8bb174	-0.27283823
1	0xbdb50b58	-0.08840054
2	0x3e364fa0	0.17803812
3	0xbe844c62	-0.25839525
4	0xbeff4f92	-0.49865395
5	0x3ef7fea8	0.48436475

actor.3.weight f4 [6, 6]
0	0xbd52b018	-0.051437467
1	0x3e93a8ec	0.28839815
2	0x3e3c1124	0.18365914
3	0xbd1267d8	-0.035743564
4	0xbe77b1b7	-0.24188887
5	0x3de11900	0.109910965
6	0xbe57f4e5	-0.21089514
7	0x3e01e23a	0.12683955
8	0xbeade208	-0.3396151
9	0xbd6bd4f8	-0.05757615
10	0xbe034024	-0.12817436
11	0xbe99d810	-0.30047655
12	0xbeac3f79	-0.33642176
13	0xbe1eb2e7	-0.15497933
14	0xbe09fc36	-0.13475117
15	0x3e47dafc	0.1951713
16	0x3e4bf75f	0.19918583
17	0xbe79405b	-0.24340956
18	0xbe16fa5c	-0.14743942
19	0x3eb05138	0.34436965
20	0xbead2a98	-0.3382156
21	0xbdc28a48	-0.09499031
22	0x3e17bfeb	0.14819305
23	0xbec1e565	-0.37870327
24	0xbec4bd87	-0.38425848
25	0x3e4a1091	0.19732882
26	0xbe4fcbda	-0.20292607
27	0x3eb020da	0.34400064
28	0x3e8b80ac	0.27246606
29	0x3ea98ee6	0.33116835
30	0xbe985ff7	-0.29760715
31	0xbe129f52	-0.14318588
32	0x3e65e97c	0.22452348
33	0xbea847b8	-0.32867217
34	0x3cc0114c	0.023445748
35	0x3e93ef7a	0.28893644

actor.3.bias f4 [6]
0	0x3de56d0f	0.11202442
1	0x3e4d8064	0.20068508
2	0xbe3e777e	-0.1860027
3	0x3cd0b2c5	0.025475869
4	0xbe8b51a2	-0.27210718
5	0x3e08b21a	0.1334919

actor.6.weight f4 [6, 6]
0	0xbb943a9b	-0.004523588
1	0x3e86946a	0.26285106
2	0xbdd7ac9a	-0.10530968
3	0xbe664e1a	-0.22490731
4	0x3eaca848	0.33722138
5	0x3ea822df	0.32839105
6	0x3e5123ec	0.2042386
7	0xbe86c48e	-0.26321834
8	0xbe7259cd	-0.23667069
9	0xbdb59d54	-0.088678986
10	0xbeae4592	-0.34037453
11	0x3df30de8	0.11867887
12	0x3e8dec5f	0.277194
13	0x3ead1566	0.33805388
14	0xbe0bf356	-0.13667044
15	0xbe96e959	-0.29474905
16	0xbeb3e491	-0.3513532
17	0xbb700b05	-0.0036627662
18	0x3ebc625f	0.367938
19	0xbd9cebe7	-0.07662182
20	0x3eacd62e	0.33757156
21	0xbd928682	-0.071545616
22	0xbe9ab98c	-0.30219686
23	0x3dc35e4b	0.09539469
24	0xbe161492	-0.14656284
25	0xbe2ab334	-0.16669923
26	0x3ecfa689	0.40556744
27	0xbe84d803	-0.25946054
28	0xbebc4606	-0.36772174
29	0x3ec06635	0.37577978
30	0xbcfe2a71	-0.031026097
31	0xbd81aa08	-0.06331259
32	0xbe46a58d	-0.1939909
33	0xbe3b8896	-0.18313822
34	0xbe86def8	-0.26341987
35	0xbc3c26c3	-0.011483851

actor.6.bias f4 [6]
0	0xbe28ba4d	-0.16477318
1	0x3ecffe16	0.4062354
2	0xbd45e160	-0.048310637
3	0x3dc55990	0.09636223
4	0xbe7a4516	-0.24440417
5	0x3c8cbe26	0.017180514

actor.9.weight f4 [6, 6]
0	0xbdc03048	-0.09384209
1	0x3aba5000	0.0014214516
2	0xbe629f7e	-0.22131154
3	0xbdd8c818	-0.1058504
4	0xbbaf5140	-0.005350262
5	0x3e7831d0	0.24237752
6	0xbd96ba66	-0.073597714
7	0x3e945796	0.28973073
8	0x3ebb5785	0.3659021
9	0xbea58bc8	-0.32333207
10	0xbb8ac000	-0.004234314
11	0xbe09f336	-0.13471684
12	0x3ea5ea71	0.32405427
13	0xbe5d10d9	-0.21588458
14	0x3d947056	0.07247989
15	0xbeb37f35	-0.3505799
16	0xbec4a429	-0.38406494
17	0x3ea3f10e	0.32019848
18	0xbecdb0be	-0.40173906
19	0x3db671b8	0.08908409
20	0x3dfb572f	0.12272488
21	0x3c485f96	0.012229821
22	0xbe81a1f6	-0.2531888
23	0xbe53886a	-0.20657507
24	0xbea0fd00	-0.31443024
25	0xbe80a468	-0.25125432
26	0xbdc8bd20	-0.09801698
27	0x3e894fa5	0.26818576
28	0xbe23d4d5	-0.15999158
29	0x3c725040	0.014789641
30	0xbdfd04e8	-0.123544514
31	0x3d20289e	0.039101236
32	0x3ec651a1	0.38734153
33	0x3c565de3	0.013083908
34	0xbe8bf3d8	-0.27334476
35	0xbeb44b28	-0.3521359

actor.9.bias f4 [6]
0	0xbe41254d	-0.18861885
1	0x3eb62af8	0.35579658
2	0xbe3d5c3b	-0.18492214
3	0xbec7fe60	-0.3906126
4	0xbd8e1418	-0.06937426
5	0x3cc5609d	0.02409392

actor.12.weight f4 [6, 6]
0	0x3ec6ee6c	0.38853776
1	0x3da1e475	0.07904903
2	0x3d248305	0.040164012
3	0xbeac69af	-0.3367438
4	0xbe04d34f	-0.12971233
5	0xbd5213a0	-0.051288247
6	0xbc22c420	-0.009934455
7	0x3dee1473	0.11624994
8	0x3e3ea3e9	0.18617214
9	0x3c4cbe5e	0.012496559
10	0x3d4c54d5	0.04988559
11	0x3dad5079	0.084626146
12	0x3ebcd950	0.36884546
13	0xbd196a39	-0.037454817
14	0x3ea7bfd6	0.32763547
15	0xbec49241	-0.38392833
16	0x3e1bd9ae	0.15219757
17	0xbe1ada6b	-0.15122382
18	0xbea8b49d	-0.32950297
19	0x3da19db3	0.07891407
20	0x3e3a4b51	0.18192793
21	0xbe51e890	-0.20498872
22	0xbe3448d1	-0.17605902
23	0x3e34560c	0.1761095
24	0x3e39badc	0.18137687
25	0xbe9d32e4	-0.3070289
26	0x3bcf09cf	0.006318308
27	0xbd1f4c93	-0.038891386
28	0x3e9df02e	0.30847305
29	0x3e89899b	0.26862797
30	0xbe6576a8	-0.22408545
31	0xbde20206	-0.11035542
32	0xbd0cd953	-0.034386944
33	0xbecf28e4	-0.40460885
34	0x3c75f905	0.015012984
35	0x3ea1ce9e	0.3160295

actor.12.bias f4 [6]
0	0x3ec1a519	0.37821272
1	0x3d8d3312	0.068945065
2	0x3e13e79a	0.14443818
3	0x3d469e82	0.04849101
4	0x3e05e85f	0.13076924
5	0x3da9488f	0.082657926

actor.15.weight f4 [6, 6]
0	0x3e762918	0.24039114
1	0x3e8d8d64	0.27646935
2	0x3e2a892b	0.16653888
3	0xbecbb7e2	-0.3978873
4	0xbebdfd18	-0.37107158
5	0x3db36c27	0.08760863
6	0xbe7756c8	-0.24154198
7	0xbe23fdd6	-0.160148
8	0xbe5af1a1	-0.21381237
9	0xbd823e76	-0.0635957
10	0x3eb6d8ad	0.35712186
11	0xbdee972c	-0.116499275
12	0x3d22890a	0.039681472
13	0xbe760eda	-0.24029103
14	0xbeb609f7	-0.35554478
15	0xbe7ce51d	-0.24696775
16	0xbea7dec0	-0.32787132
17	0xbe946445	-0.2898275
18	0xbd65221c	-0.055940732
19	0x3e46247e	0.19349858
20	0x3db8100f	0.08987438
21	0x3ead683b	0.33868584
22	0x3eb5de11	0.35520986
23	0x3e700c20	0.23442125
24	0x3e034278	0.12818325
25	0xbe507baf	-0.20359682
26	0x3e9670e3	0.29383
27	0x3e2eebd2	0.17082146
28	0xbec5d70c	-0.3864063
29	0x3e996ef9	0.29967478
30	0xbeaaf6dd	-0.33391467
31	0x3e53fa2d	0.20700903
32	0x3eadc8cb	0.33942255
33	0x3e31a77b	0.17349045
34	0xbeb84a2d	-0.35994092
35	0x3dd454ea	0.103677586

actor.15.bias f4 [6]
0	0x3d975d18	0.07390803
1	0x3dd0c734	0.10194245
2	0xbc95a548	-0.018267289
3	0xbeb6f410	-0.3573308
4	0xbe3ecb7e	-0.18632314
5	0xbd98c7b8	-0.07459968

actor.18.weight f4 [6, 6]
0	0x3d83c8cb	0.064347826
1	0x3ec92dc4	0.3929273
2	0xbdd34b74	-0.10317126
3	0xbe07a41d	-0.13246198
4	0x3dc99c9d	0.09844325
5	0xbeb67530	-0.35636282
6	0x3e56bf02	0.20971301
7	0xbe508ae9	-0.2036549
8	0xbe9126e4	-0.28349984
9	0xbeba4a51	-0.36384824
10	0x3eac2855	0.3362452
11	0x3ec7adf6	0.3899991
12	0x3e3f3a4e	0.18674585
13	0xbdcf4b06	-0.101217315
14	0x3eaee092	0.3415571
15	0xbd87df68	-0.06634408
16	0xbe24c18c	-0.16089457
17	0xbdde3fd1	-0.10852016
18	0x3ebee432	0.37283474
19	0xbea3eea9	-0.3201802
20	0xbec9edf3	-0.39439353
21	0x3e363a80	0.17795753
22	0x3ea67a68	0.32515264
23	0xbeafeb8e	-0.343594
24	0xbe86d51d	-0.26334468
25	0xbd6162d3	-0.055025887
26	0x3e0956c0	0.13411999
27	0x3e8d79c8	0.27631974
28	0xbe516bd1	-0.20451285
29	0xbe4aba4d	-0.1979763
30	0x3dac5145	0.084139384
31	0x3e9a0726	0.3008358
32	0xbc8f4fc0	-0.017494082
33	0xbd9106e9	-0.07081396
34	0xbdd21df7	-0.102596216
35	0x3ec4f20f	0.38465926

actor.18.bias f4 [6]
0	0xbe910c41	-0.2832966
1	0xbea75126	-0.326791
2	0x3eb9e41d	0.3630685
3	0x3d336e8c	0.043806598
4	0xbe582c0c	-0.21110553
5	0xbec8ee3d	-0.3924426

actor.21.weight f4 [6, 6]
0	0xbd7a1a02	-0.06105996
1	0x3cc5a07b	0.024124375
2	0xbd165700	-0.036704063
3	0x3d47c567	0.048772242
4	0x3e8ab1cd	0.27088776
5	0x3ed017d9	0.40643194
6	0x3d94f344	0.07272962
7	0xbe2d84f3	-0.16945247
8	0xbdd8c983	-0.1058531
9	0xbea9a560	-0.33133984
10	0xbd258c3d	-0.040416945
11	0x3e911f72	0.28344303
12	0x3e668c18	0.22514379
13	0xbe9ef40e	-0.31045574
14	0x3ea012b3	0.31264266
15	0xbd76b498	-0.06023082
16	0xbdc9d01c	-0.09854147
17	0x3e9733d2	0.29531723
18	0x3e154d31	0.14580227
19	0xbe4c98ad	-0.19980116
20	0xbec46433	-0.38357696
21	0xbe9806f9	-0.2969282
22	0x3eae171a	0.34002
23	0xbe578498	-0.21046674
24	0x3e4f6974	0.20255071
25	0xbe121f8b	-0.14269845
26	0x3e9f58ad	0.31122342
27	0x3e9620c1	0.29321864
28	0x3e31e8f3	0.1737402
29	0xbe1a0765	-0.15041883
30	0x3e375d2f	0.1790664
31	0x3e77156b	0.24129264
32	0xbe392b02	-0.18082812
33	0xbdede257	-0.116154365
34	0x3e821e55	0.25413767
35	0x3ec5eb25	0.38655964

actor.21.bias f4 [6]
0	0xbe5f623a	-0.21814814
1	0x3dee3c6c	0.11632618
2	0x3e81e5eb	0.25370726
3	0x3ea3edea	0.32017452
4	0x3d957abc	0.072988
5	0x3eb35cd8	0.35031772

actor.24.weight f4 [2, 6]
0	0xbeb851a0	-0.35999775
1	0xbec641dc	-0.38722122
2	0x3d23ed8c	0.040021464
3	0xbd45ebd2	-0.0483206
4	0x3e4bd8ab	0.19906871
5	0x3db1ca37	0.086811475
6	0x3ce50cb5	0.02796016
7	0xbe7347a1	-0.23757793
8	0xbd30bde6	-0.04314985
9	0x3d2900cf	0.041260537
10	0x3da8c5a3	0.08240821
11	0xbe1da386	-0.1539441

actor.24.bias f4 [2]
0	0x3e6ae061	0.22937156
1	0xbde572c1	-0.11203528
