gigala/topology/topology_optimiz/HRL/preTrained/T0-h-v1/2level/HAC_T0-h-v1_solved_level_1_crtic.pth (torch, 5259 bytes, 13 tensors)

critic.0.weight f4 [3, 6]
00000000: f0df ef3d 248d 12be 5452 a33e 6c72 96bd
00000010: 28c0 223e 2082 943d 8cdd 313e 4a10 0ebe
00000020: d0d3 4b3e 20ff 91be f0d5 bc3d 616c 8dbe
00000030: 5b16 cebe b187 a0be b023 a53e 84a4 6c3e
00000040: 0f3b c43e 655d b13e
0.117126346 -0.14311653 0.3189875 -0.07346043 0.15893614 0.07251382 0.1736967 -0.13873401
0.19905019 -0.28514957 0.09220493 -0.2762175 -0.4025143 -0.31353524 0.3225379 0.23109633
0.38326308 0.34641567

critic.0.bias f4 [3]
00000000: caaa babe d6a4 8ebe be6f 86bd
-0.36458427 -0.27860135 -0.06564282

critic.3.weight f4 [3, 3]
00000000: 6ff9 bfbe 1444 cd3e 7a7a dfbe ad39 90be
00000010: 38ca 0ebf d6d3 a7be 8820 f33e 3807 f23e
00000020: f0db d83e
-0.3749499 0.40091002 -0.4364813 -0.28169003 -0.5577731 -0.32778805 0.47485757 0.47271132
0.423553

critic.3.bias f4 [3]
00000000: a5e3 e63e af28 053f 53be 16be
0.45095554 0.52015203 -0.1472104

critic.6.weight f4 [3, 3]
00000000: 5564 843e b8d6 043f 4b95 473e 1b1c 143f
00000010: 7742 9a3e e931 bc3e eeea 4ebe b0d6 8d3e
00000020: b9e7 903d
0.25857797 0.51890135 0.19490544 0.57855386 0.30128834 0.36756828 -0.20206806 0.27702856
0.070754476

critic.6.bias f4 [3]
00000000: 0849 02be 3367 a4be a28d a5be
-0.12723172 -0.32109985 -0.3233462

critic.9.weight f4 [3, 3]
00000000: e11e e6be fb83 c93e 5670 d23e d2e6 92bd
00000010: c2f3 acbe bb58 e43e cd2a bd3e 64b8 313d
00000020: e58b 8bbe
-0.44945434 0.39358506 0.4110133 -0.07172932 -0.33779722 0.44598946 0.36946717 0.04338874
-0.2725517

critic.9.bias f4 [3]
00000000: 3646 033f eaff 503e e053 e0be
0.5127901 0.20410123 -0.43813992

critic.12.weight f4 [3, 3]
00000000: b775 033f 6980 da3e dae2 57be b8e6 b43e
00000010: bd20 a7be 144d b9bd e3e6 003f b4a9 d73c
00000020: b702 d1be
0.51351494 0.42676094 -0.21082631 0.35332274 -0.32642165 -0.090479046 0.50352305 0.026326038
-0.40822384

critic.12.bias f4 [3]
00000000: e406 83be 108a 05be 8878 b7bd
-0.25591195 -0.13040948 -0.089585364

critic.15.weight f4 [3, 3]
00000000: d1f3 843d b0df 0a3f 6967 273d 6f84 b6be
00000010: 7d73 ea3c 73b7 8c3e 1824 763e 6c7f 07bf
00000020: c79b 10be
0.06491817 0.5424757 0.040870104 -0.35647914 0.028619522 0.2748371 0.24037206 -0.52928805
-0.14121924

critic.15.bias f4 [3]
00000000: 27e7 d6be cfcd 7dbe 4104 67bd
-0.4197323 -0.24785541 -0.05640054

critic.18.weight f4 [1, 3]
00000000: d3de d3be 4bc8 5a3e 9e40 dd3e
-0.4138094 0.21365468 0.43213362
