gigala/topology/topology_optimiz/HRL/preTrained/T0-h-v1/2level/HAC_T0-h-v1_level_1_actor.pth (torch, 4733 bytes, 12 tensors)

actor.0.weight f4 [5, 4]
00000000: 8a11 b23e d2b0 a2be a866 9bbe acb1 a3be
00000010: c9cb f63e c7bd ff3c 72fa 563e b15a f63e
00000020: 5820 ffbd cb97 953d 90d0 81be ae30 91be
00000030: 865b b33e e8d4 5fbe ec21 fcbe 604f 38bd
00000040: 1859 a7be bb22 dd3e bb02 dbbe 4e3a 023e
0.34779006 -0.31775528 -0.30351758 -0.3197149 0.4820235 0.031218423 0.20993975 0.48116067
-0.12457341 0.07304343 -0.25354433 -0.28357452 0.35030764 -0.21858561 -0.4924463 -0.044997573
-0.3268516 0.4319056 -0.4277552 0.12717554

actor.0.bias f4 [5]
00000000: c0d8 d8bc b5f7 313e 8e05 833e 0c2a f9be
00000010: aaa4 99be
-0.026470542 0.17379649 0.25590175 -0.48664892 -0.3000844

actor.3.weight f4 [5, 5]
00000000: 535b 6abe 7ca7 ddbe b092 83be f896 883d
00000010: 64d1 a73e e0c7 26bc 060f d53e 068a e63b
00000020: 2086 e0bd bfd3 10be 2caf 6e3e 1403 c93e
00000030: b965 993e aaa8 26be c41c 2cbe 5a4c b6be
00000040: 350b d3be 0914 153e 1432 333e 5c51 2b3e
00000050: 4580 51be 813a 8fbe 40cd 9e3d a880 823d
00000060: 54ac a9be
-0.228864 -0.43291843 -0.2569785 0.0666942 0.3277694 -0.01017949 0.41613024 0.0070354966
-0.10963082 -0.14143275 0.2330901 0.3926016 0.2996042 -0.16275278 -0.16807848 -0.35605127
-0.41219488 0.14558424 0.17499572 0.16730255 -0.20459087 -0.27974322 0.07753992 0.063721955
-0.33139288

actor.3.bias f4 [5]
00000000: 203f c9be 3e38 03bd 94ec 113d 9f43 c73e
00000010: 11ef 10bd
-0.39305973 -0.03203606 0.03562601 0.38918778 -0.03538424

actor.6.weight f4 [5, 5]
00000000: f29c 3b3e 03f1 71bc f93d 273e 55c0 dfbe
00000010: 4aed 31be f7a7 733d 1314 6d3e efd8 d13e
00000020: 147c a73e 7557 863e 730c 0f3e 00b0 a83e
00000030: c6b9 88be 4c97 b9bb 6dfb a43e 667f d53e
00000040: 9810 e13e da98 e53d c9fc de3e d69b 5a3e
00000050: e937 833e 9c5e 93be 7fd2 913e 56b9 8b3e
00000060: 31cc fd3d
0.18321589 -0.014766934 0.16332234 -0.43701425 -0.17375675 0.059486356 0.23152189 0.4098582
0.32711852 0.262386 0.13969593 0.32946777 -0.26704234 -0.005663788 0.32223073 0.4169876
0.43957973 0.11210795 0.43552235 0.21348509 0.25628594 -0.2878312 0.28480908 0.27289838
0.12392462

actor.6.bias f4 [5]
00000000: b37c 903e 7791 8fbe d4f4 20bd b647 3a3e
00000010: c69e a9be
0.28220138 -0.28040668 -0.039295986 0.18191418 -0.33128947

actor.9.weight f4 [5, 5]
00000000: 308c 243e 7e22 e0ba 5c4a be3d e489 abbe
00000010: 6266 49be ecb7 1e3e 4f89 06bd f66c 333d
00000020: 2804 dd3e e445 c53d 3d1b 2ebe 5cf8 43bc
00000030: dceb e53d 5e19 1b3e c4e0 ad3d b107 e53d
00000040: 1076 a03e 4c5e bc3e 9799 a0be cf65 1e3d
00000050: c452 dcbe ddb8 2dbe 3e03 723e 37f2 1bbe
00000060: f5c5 bfbd
0.16069102 -0.0017100123 0.09291527 -0.3350364 -0.19667962 0.15499848 -0.03284579 0.043805085
0.43167233 0.09632471 -0.17002578 -0.011961069 0.11226627 0.15146396 0.08490136 0.11183108
0.31340075 0.36790693 -0.3136718 0.03867131 -0.43031895 -0.16965051 0.2363405 -0.15229116
-0.09363929

actor.9.bias f4 [5]
00000000: f0e6 793e e1ed 96be 2c33 ad3e 034f b9be
00000010: 7942 a63d
0.24404502 -0.29478362 0.33828104 -0.36193094 0.081181474

actor.12.weight f4 [5, 5]
00000000: c11a dcbe 6d80 e33d 35c6 e83d ddc9 cebd
00000010: 455e cd3e edcb 803e 8fc7 d53d 845a 193e
00000020: aeea d5be 6131 303d ba50 e13e ad77 7e3e
00000030: 0def 433e ae1a 4dbe 6465 613e fb64 143e
00000040: f3e8 72be 97d1 c2be 142b e03e 40d5 393e
00000050: 6a69 a93d 946f 89be 0c9c 623d 09d8 bc3e
00000060: 178f 9d3d
-0.42989162 0.1110848 0.1136593 -0.10097096 0.40110984 0.25155583 0.104384534 0.14975935
-0.4178061 0.04301584 0.44006902 0.2485034 0.1913416 -0.20029709 0.22011334 0.14491646
-0.23721676 -0.3805053 0.43782866 0.18147755 0.08272059 -0.2684294 0.0553246 0.36883572
0.07693308

actor.12.bias f4 [5]
00000000: 6644 dfbc 1a18 bf3e 70cd 71be cb08 0cbe
00000010: 5c07 a03d
-0.027254295 0.37323076 -0.23613524 -0.13675229 0.07813904

actor.15.weight f4 [2, 5]
00000000: 1bbc b7be f60a 943e b666 3e3e f34a ae3e
00000010: 038e 593d 7acd b83d 43c4 403e e654 d1be
00000020: 3822 113e fcb5 903e
-0.358857 0.28914613 0.18593869 0.34041557 0.05311395 0.090235665 0.18824868 -0.40885085
0.1417321 0.28263843

actor.15.bias f4 [2]
00000000: 62c8 acbe b167 c83e
-0.3374663 0.3914161
