gigala/topology/topology_optimiz/HRL/preTrained/T0-h-v1/2level/HAC_T0-h-v1_level_0_crtic.pth (torch, 8791 bytes, 17 tensors)

critic.0.weight f4 [8, 20]
0	0x3dda3cdc	0.10656139
1	0xbe219448	-0.15779221
2	0xbdc8e89c	-0.09809992
3	0xbe06e762	-0.13174203
4	0x3dc742f0	0.09729564
5	0xbe0c2650	-0.1368649
6	0xbd319904	-0.043358818
7	0xbe12d812	-0.14340237
8	0x3dd0d2b8	0.101964414
9	0xbe1ab28f	-0.15107177
10	0xbe4d1a10	-0.20029473
11	0xbe621889	-0.22079672
12	0xbe51778b	-0.20455758
13	0xbd988e76	-0.07449047
14	0xbdd803fd	-0.10547636
15	0xbc9c7490	-0.01909855
16	0xbdd29ac5	-0.10283426
17	0x3dde10b8	0.108430326
18	0xbe2bfb67	-0.16795121
19	0xbdb34daa	-0.087550476
20	0xbf839df4	-1.0282578
21	0x3fc22733	1.5168213
22	0x3fc4454e	1.533365
23	0xbfa3b91d	-1.2790867
24	0xbfad963e	-1.3561475
25	0xbfd433d8	-1.6578321
26	0x3fb67878	1.4255514
27	0xbfc31493	-1.5240654
28	0xbfc005cb	-1.5001768
29	0xbfca8a6d	-1.5823494
30	0xbfcdef5e	-1.6088674
31	0xbfa77909	-1.3083812
32	0x3fc5368c	1.5407271
33	0x3f9b98f7	1.2156056
34	0x3fa713f0	1.305296
35	0x3fac626c	1.3467536
36	0x3fbc8b2e	1.4729974
37	0xbfa87f11	-1.3163778
38	0x3fabfa59	1.3435775
39	0xbfc7c629	-1.5607349
40	0x3fd1ec24	1.6400189
41	0xbfa3095c	-1.2737231
42	0x3fc96616	1.5734279
43	0x3fc484f1	1.535307
44	0x3f87f6f2	1.0622237
45	0x3fc5c74f	1.5451449
46	0x3fd7a09c	1.6845889
47	0x3fb5e97c	1.4211879
48	0x3fbe8718	1.4884977
49	0x3fa7ced8	1.3109999
50	0x3fae93a6	1.3638809
51	0x3fa1ee6f	1.2650889
52	0x3fac3638	1.3454046
53	0x3fa955ff	1.3229369
54	0x3fbb2849	1.4621669
55	0x3fa99ae0	1.3250389
56	0x3fce0730	1.6095943
57	0x3fd39b12	1.6531699
58	0x3fa23c4d	1.2674652
59	0x3fc5726a	1.5425541
60	0xbfc903f9	-1.5704337
61	0x3fd64f1b	1.6742891
62	0xbfca593d	-1.5808483
63	0xbfbed7cc	-1.4909606
64	0xbfa2aae7	-1.2708405
65	0xbfad85c4	-1.3556447
66	0xbfd75ccd	-1.6825196
67	0xbfd0ffe4	-1.6328092
68	0xbfc87636	-1.5661075
69	0xbfb391c2	-1.4028857
70	0xbfd09a23	-1.6297039
71	0xbfaa8a7c	-1.3323512
72	0x3fcdcaaa	1.6077473
73	0x3fa69488	1.3014078
74	0xbfad1982	-1.3523409
75	0xbfc98e9f	-1.574665
76	0xbfb643fc	-1.4239497
77	0xbfa14c6c	-1.2601447
78	0xbfad82c7	-1.3555535
79	0x3fd367c2	1.6516039
80	0x3fa649e6	1.2991302
81	0x3fd89ab4	1.6922212
82	0x3fb2cbc6	1.3968437
83	0x3fd6a183	1.676804
84	0x3fcb79d4	1.5896554
85	0x3fd5a46d	1.6690804
86	0x3fa5ac76	1.2943256
87	0x3fa844ed	1.3146034
88	0x3fba7a74	1.456862
89	0x3fb32792	1.3996451
90	0x3fb6dacf	1.4285525
91	0x3fb0d292	1.3814261
92	0x3fd806d5	1.6877085
93	0x3fa84d6e	1.314863
94	0x3fc0c967	1.5061463
95	0x3fbd9b55	1.4813029
96	0x3fa1c091	1.2636892
97	0x3fa12639	1.258979
98	0x3fbf2e8d	1.4936081
99	0x3fa74146	1.3066795
100	0x3fb4e4a4	1.4132276
101	0x3fb56747	1.4172143
102	0x3fc0eba0	1.5071907
103	0x3fc82061	1.5634881
104	0x3e213318	0.15742147
105	0x3fabc4ed	1.3419472
106	0x3fd71ab5	1.6805025
107	0x3fa04843	1.2522053
108	0x3fa7e031	1.3115293
109	0x3fb2d26b	1.3970464
110	0x3fcbbad8	1.5916395
111	0x3fb42617	1.4074124
112	0xbf9b0ca9	-1.2113239
113	0x3fbf0ab4	1.4925141
114	0x3fcaa352	1.5831091
115	0x3fd84f05	1.6899115
116	0x3fafc22e	1.3731134
117	0x3fd08585	1.6290747
118	0x3fa7d3ac	1.3111472
119	0xbfb0df9a	-1.3818238
120	0xbf6b573c	-0.91929984
121	0xbfc6ddac	-1.5536399
122	0xbfa31a6e	-1.2742441
123	0xbfad33ed	-1.3531471
124	0xbfb544d2	-1.4161627
125	0xbfc83ade	-1.5642965
126	0xbfbc9ec2	-1.4735949
127	0xbfb5dd1e	-1.4208105
128	0xbfa3c55e	-1.2794607
129	0xbfbec9e3	-1.4905361
130	0xbfbc6a95	-1.4720026
131	0xbfc5c985	-1.5452124
132	0xbfc5ca3b	-1.5452341
133	0xbfc88703	-1.5666202
134	0xbfb04eb1	-1.3774015
135	0xbfc823f3	-1.5635971
136	0xbfa28e3c	-1.2699656
137	0xbfc07253	-1.5034889
138	0xbfd2986f	-1.6452769
139	0xbfb18e69	-1.3871585
140	0xbdc285e8	-0.09498197
141	0xbe45af20	-0.19305086
142	0x3dff1394	0.12454906
143	0xbe14d326	-0.14533672
144	0xbe3c5251	-0.18390776
145	0xbe61884a	-0.22024646
146	0xbe156b8c	-0.14591807
147	0x3dbb0320	0.091314554
148	0xbe3c8cb6	-0.18413052
149	0x3d331e10	0.04372984
150	0x3e0a739c	0.13520664
151	0xbe086643	-0.1332026
152	0x3d9d3f6c	0.076781124
153	0x3e63919a	0.22223511
154	0x3e5d8d50	0.21635938
155	0xbe20351a	-0.15645257
156	0xbd8fb8cc	-0.07017669
157	0x3d6f9c38	0.05849859
158	0x3ddeccc8	0.10878903
159	0xbd0feed8	-0.03513989

critic.0.bias f4 [8]
0	0x3a36ae00	0.0006968677
1	0x3fa3ee73	1.2807144
2	0x3fa859fd	1.3152462
3	0xbfcac587	-1.584153
4	0x3fce1d9a	1.6102784
5	0x3fabc5e2	1.3419764
6	0xbfb2ae96	-1.3959529
7	0x3e5d30be	0.21600625

critic.3.weight f4 [8, 8]
0	0xbe6d5d16	-0.2318004
1	0x3fbd89ea	1.4807713
2	0x3fc7aa2d	1.5598809
3	0x3fe8ab68	1.8177309
4	0x3f95ff96	1.1718624
5	0x3f9df09b	1.2339052
6	0x3fbe5180	1.4868622
7	0x3daaca44	0.0833936
8	0xbe0dede8	-0.13860285
9	0x3fd91f06	1.6962593
10	0xbfe50c4e	-1.789438
11	0xbeab335f	-0.3343763
12	0xbea49921	-0.32148078
13	0xbe9bf9b3	-0.30463943
14	0xbf996140	-1.1982803
15	0x3ea6ed5f	0.32602975
16	0xbe6466d9	-0.22304858
17	0xbfb1c11a	-1.3887055
18	0xbfd93ac6	-1.6971061
19	0xbfb247f0	-1.3928204
20	0x3fb2db92	1.3973258
21	0xbfded1a4	-1.7407727
22	0xbf9ad96d	-1.2097603
23	0xbdd4582e	-0.103683814
24	0x3e19a88e	0.15005705
25	0xbfb4fa3d	-1.4138867
26	0xbdc526d0	-0.096265435
27	0xbe21c9d4	-0.15799648
28	0xbe17cf7e	-0.14825246
29	0xbe6efe75	-0.23339255
30	0x3e60fc9a	0.2197136
31	0xbe5fadf8	-0.21843708
32	0xbe7cc940	-0.24686146
33	0x3f9383c2	1.1524584
34	0xbfb0c4aa	-1.3810017
35	0xbfb253be	-1.3931806
36	0x3fd69685	1.6764685
37	0xbfc05bdc	-1.5028033
38	0xbf9bd835	-1.2175356
39	0xbe00dffd	-0.12585445
40	0xbe3c701b	-0.1840214
41	0xbfbe2888	-1.4856119
42	0xbfb36cae	-1.4017541
43	0xbfa4f6d6	-1.2887828
44	0xbfc79fd4	-1.5595651
45	0x3f9c305a	1.2202256
46	0x3fa039ee	1.2517679
47	0xbe1dce80	-0.15410805
48	0x3eb2599b	0.3483399
49	0x3fe6f0be	1.8042219
50	0x3fa7a721	1.3097879
51	0xbfba3a5a	-1.4549057
52	0x3fd35fad	1.6513573
53	0xbf9415ad	-1.1569115
54	0xbfbe9d50	-1.4891758
55	0x3b474b00	0.0030409694
56	0xbdb20b7c	-0.08693597
57	0x3e928731	0.28618768
58	0xbe7552f8	-0.23957431
59	0xbda801b8	-0.08203453
60	0xbe6c9b27	-0.23106061
61	0xbce3a860	-0.027790248
62	0xbe92f9a0	-0.28706074
63	0xbe7d458a	-0.24733558

critic.3.bias f4 [8]
0	0xbfd5970d	-1.6686722
1	0x3f87d0c2	1.0610583
2	0xbfd8d314	-1.6939416
3	0xbf92c899	-1.1467468
4	0x3fbbe10c	1.4678054
5	0xbfb00786	-1.3752296
6	0xbfe6fdf2	-1.8046248
7	0xbe36253a	-0.17787638

critic.6.weight f4 [8, 8]
0	0xbe5e3b5c	-0.21702331
1	0x3e402caa	0.18767038
2	0x3dc68f48	0.096952975
3	0xbbf482c0	-0.0074618757
4	0xbe9fa5c1	-0.31181148
5	0xbe2d1f33	-0.16906433
6	0x3da9dc58	0.0829398
7	0xbeaf0bd5	-0.34188715
8	0xbfcc034b	-1.5938505
9	0xbfe23e05	-1.7675177
10	0xbfb4206a	-1.4072392
11	0xbfba4561	-1.4552423
12	0xbfda4e84	-1.7055211
13	0xbfcc02d9	-1.5938369
14	0xbf934128	-1.1504259
15	0xbea7b1c7	-0.3275282
16	0xbd776ba8	-0.060405403
17	0xbde24e36	-0.11050074
18	0xbe38e393	-0.18055563
19	0xbead3d5f	-0.33835885
20	0xbeaa4fb2	-0.33263928
21	0xbe0f41e2	-0.13989976
22	0xbeb38909	-0.35065487
23	0xbd235d50	-0.03988391
24	0xbfdd8faf	-1.7309474
25	0x3fc2d41e	1.5220983
26	0xbfbd6a54	-1.4798074
27	0x3fa54713	1.2912315
28	0xbfae61b2	-1.3623564
29	0xbfdfa757	-1.7472943
30	0xbfbba652	-1.4660132
31	0x3e4c4312	0.1994746
32	0xbfae6b25	-1.3626448
33	0xbe6d4462	-0.23170617
34	0x3f977243	1.1831745
35	0x3e8bc529	0.2729886
36	0x3fcb8a1d	1.5901524
37	0x3fdb3116	1.7124355
38	0xbfb92b87	-1.4466408
39	0x3dd49dc4	0.10381654
40	0xbfca8ade	-1.5823629
41	0xbe6805a2	-0.22658399
42	0xbfe91c86	-1.821183
43	0xbddfd17a	-0.10928626
44	0xbfc38b80	-1.5276947
45	0xbf927b71	-1.1443921
46	0xbfd00a0a	-1.6253064
47	0xbe47dcd2	-0.1951783
48	0x3fe7d346	1.811135
49	0xbe8b97f0	-0.27264357
50	0xbfd75392	-1.6822379
51	0xbe9b0c81	-0.30282977
52	0x3f9a98dc	1.2077899
53	0xbfe92eae	-1.821737
54	0x3fa10620	1.2579994
55	0x3e9cb8b3	0.30609664
56	0x3fc80923	1.5627788
57	0xbfb3883d	-1.4025952
58	0x3fd82f11	1.6889364
59	0xbfe47052	-1.7846777
60	0x3f9c3553	1.2203773
61	0x3fa801e6	1.3125579
62	0xbfb91b6c	-1.4461493
63	0x3ea990eb	0.33118376

critic.6.bias f4 [8]
0	0xbfb4e45a	-1.4132187
1	0x3ff7fe87	1.937455
2	0xbdded48e	-0.10880385
3	0xbf4fa7a9	-0.81115204
4	0x4098537e	4.760192
5	0x4008eab8	2.139326
6	0x40422bb3	3.0339172
7	0xbfb52b98	-1.4153929

critic.9.weight f4 [8, 8]
0	0x3d72cf60	0.0592798
1	0xbe0b020e	-0.13575003
2	0xbe2b0613	-0.16701536
3	0xbd7d4350	-0.061831772
4	0xbe0f01f5	-0.1396559
5	0xbe7ec146	-0.24878415
6	0xbfb1211a	-1.3838227
7	0xbe959a9b	-0.29219517
8	0xbd0695e0	-0.032857776
9	0x402e1d4c	2.7205381
10	0xbde81968	-0.11332971
11	0xbe0327c0	-0.12808132
12	0x3fc20780	1.5158539
13	0x3fb63613	1.4235252
14	0x3feb044d	1.8360687
15	0xbfe6d494	-1.8033624
16	0xbe732568	-0.23744738
17	0x402f2d74	2.7371492
18	0x3cb0ae10	0.021567374
19	0xbfa013a7	-1.2505997
20	0x3fc1f2e2	1.5152247
21	0xbfac46ca	-1.3459103
22	0x3de23330	0.110449195
23	0x3fae58f2	1.3620894
24	0x3e8b8b3b	0.27254662
25	0xbfc1175f	-1.5085257
26	0x3ca7ec60	0.020498455
27	0x3fc03050	1.5014744
28	0xbfb5bbc4	-1.4197927
29	0xbfb7edb6	-1.4369419
30	0xbfb37b98	-1.4022093
31	0x3f9ddd8f	1.2333239
32	0x3fa0f7a2	1.2575572
33	0x3fd0fc0e	1.6326921
34	0x3d396d10	0.045270026
35	0x3fa23500	1.2672424
36	0xc0416662	-3.021874
37	0xbe9fbb04	-0.3119737
38	0xbe08b4db	-0.13350241
39	0xbfc12466	-1.5089233
40	0x3d9dc038	0.077026784
41	0xbe25dd46	-0.1619769
42	0xbce4eb70	-0.027944297
43	0xbdac3598	-0.0840866
44	0xbe845f10	-0.25853777
45	0xbc3adb40	-0.011404812
46	0xbde910e6	-0.11380176
47	0xbe8ded5f	-0.27720162
48	0xbe850151	-0.25977567
49	0xbfa39c12	-1.2782004
50	0x3e9929db	0.29914746
51	0xbfdaa499	-1.7081481
52	0xbfc8bee6	-1.5683258
53	0xbd973db4	-0.07384816
54	0x3fcf9bfd	1.6219479
55	0x3fae5ff0	1.3623028
56	0xbcaf0110	-0.021362811
57	0x3fc056a9	1.5026447
58	0x3e451796	0.19247279
59	0x4088b520	4.27211
60	0x3fc5c45b	1.5450548
61	0x3fbd8c90	1.4808521
62	0xbfbdc640	-1.4826126
63	0x3fc708b8	1.5549536

critic.9.bias f4 [8]
0	0xbfcc99d0	-1.598444
1	0x4010eb60	2.2643661
2	0x408a8cd8	4.329693
3	0xbfcc58f6	-1.5964649
4	0x3fc8435c	1.5645556
5	0xbe5c499f	-0.21512459
6	0xbfe09cd3	-1.7547859
7	0x3fd021c2	1.6260302

critic.12.weight f4 [8, 8]
0	0xbe674111	-0.22583415
1	0x3fb738c7	1.4314202
2	0x40416966	3.022058
3	0x3fba425a	1.4551499
4	0x4025c03c	2.589858
5	0xbd971fa0	-0.07379079
6	0xbfd8fe54	-1.6952615
7	0x406c9086	3.696321
8	0x3d75e440	0.06003213
9	0x3fadc3ec	1.3575416
10	0xbfb55424	-1.4166303
11	0xbfd2290b	-1.6418775
12	0x3f5624a6	0.8364967
13	0x3da5109c	0.080598086
14	0x3fbba792	1.4660513
15	0x3fd95eca	1.6982052
16	0x3fd18928	1.6369982
17	0x3f117de0	0.56832695
18	0x3db75520	0.08951783
19	0xbfb4aab3	-1.4114593
20	0x3ed48884	0.41510403
21	0xbd8792b4	-0.06619778
22	0x3faee9e6	1.366513
23	0xc009900d	-2.1494172
24	0x3e3edff2	0.18640116
25	0xbfcc35d9	-1.5953933
26	0xbf9de0b5	-1.23342
27	0xbf94cc1c	-1.1624789
28	0xbb76ab80	-0.0037638843
29	0xbe3a4849	-0.18191637
30	0xbfca7efb	-1.5820001
31	0xbfdb1eb8	-1.711875
32	0x3e9c0e41	0.30479625
33	0x4046f2ce	3.1085696
34	0x403187ca	2.773913
35	0x3fb10db4	1.3832307
36	0xbe295218	-0.16535223
37	0x3ab37800	0.0013692379
38	0xbfe87dd9	-1.8163406
39	0x400d6c42	2.2097325
40	0xbe496ffe	-0.19671628
41	0xbf877e68	-1.0585451
42	0xbf9d9b95	-1.2313105
43	0xbe8f66ea	-0.28008205
44	0x3f8ee546	1.1163719
45	0xbdff8190	-0.12475884
46	0xbe25b48d	-0.16182156
47	0x3f70c902	0.94056714
48	0xbfa6d915	-1.3034998
49	0xbfb55e84	-1.4169469
50	0xbfdb6ff4	-1.714354
51	0xbf904935	-1.1272341
52	0xc0456d56	-3.0847983
53	0xbeaa39ae	-0.3324713
54	0xbfc1b550	-1.5133457
55	0xbfd57283	-1.6675571
56	0xbfac223e	-1.344795
57	0x3fd59797	1.6686887
58	0xbed80068	-0.4218781
59	0x3fbdc309	1.4825145
60	0xbfb9f3c5	-1.4527518
61	0xbe17b0d0	-0.14813542
62	0xbfb20678	-1.3908224
63	0x3fd3c515	1.654452

critic.12.bias f4 [8]
0	0x4074488b	3.8169277
1	0xc0127e71	-2.2889674
2	0xbf27ffcc	-0.6562469
3	0xbca94cc0	-0.02066648
4	0xbf990876	-1.1955707
5	0xc0296feb	-2.647456
6	0xbf99ec9d	-1.2025334
7	0xbf73e9f0	-0.95278835

critic.15.weight f4 [8, 8]
0	0x402fafb8	2.7451
1	0xbe0595f8	-0.1304549
2	0x3fbb46b0	1.4630947
3	0x3f5b9d58	0.8578696
4	0x3ef14e00	0.47129822
5	0x3eec2094	0.46118605
6	0x3fb1a167	1.3877381
7	0x3fe001d4	1.7500558
8	0xbfa39689	-1.2780315
9	0x3fc7447b	1.5567774
10	0xbfe14d4d	-1.7601715
11	0xbfc6023e	-1.5469434
12	0x3ff52794	1.9152703
13	0x3e2be25f	0.16785572
14	0xbfc53fda	-1.5410111
15	0xbf988263	-1.1914791
16	0xbf7ebf13	-0.99510306
17	0xbfa9f9b1	-1.3279325
18	0xbfc4b41c	-1.5367465
19	0xbeb1a5c0	-0.3469677
20	0xbf9bebf6	-1.2181385
21	0x405e26b0	3.4711113
22	0xbfa93b92	-1.3221304
23	0x404452a3	3.0675437
24	0x4049009e	3.1406627
25	0x3ff02298	1.8760557
26	0xbe2f6f28	-0.17132246
27	0x402fdb86	2.7477736
28	0xbea0e5dc	-0.3142537
29	0xbe77f078	-0.24212825
30	0xbf706684	-0.93906426
31	0xbf9d1395	-1.2271601
32	0x3fdf62d7	1.7452039
33	0x3fb06e7b	1.3783716
34	0x3f364558	0.7119956
35	0xbe8908a8	-0.26764417
36	0xbf096a08	-0.53677416
37	0x3d669f60	0.056304336
38	0x3fbfa878	1.4973288
39	0x3e861cc4	0.2619382
40	0xbfc7f012	-1.5620139
41	0xbfa78f24	-1.3090558
42	0xbfdb025c	-1.7110095
43	0xbe15d28e	-0.14631101
44	0xbeab4f31	-0.33458856
45	0xbdfca31a	-0.12335797
46	0xbe9fe79f	-0.312314
47	0xbfb585d0	-1.4181461
48	0x3fabba04	1.3416142
49	0xbfdb0e3a	-1.7113717
50	0xbfaec048	-1.365243
51	0xbfb112f2	-1.3833907
52	0x3fcda0a9	1.6064655
53	0x3f95208a	1.1650555
54	0xbfa86537	-1.3155888
55	0xbfd78db4	-1.6840119
56	0x405dd4f4	3.4661226
57	0xbfe15fdf	-1.7607383
58	0x402fe0e0	2.7481003
59	0x3d87fd50	0.066401124
60	0x4046a74c	3.103961
61	0x3ffae728	1.9601793
62	0x404f9767	3.2436159
63	0x402848c8	2.6294422

critic.15.bias f4 [8]
0	0xc063b632	-3.5579953
1	0x40782d46	3.8777633
2	0x40b2a604	5.5827656
3	0x4044439e	3.066627
4	0xc0872656	-4.2234297
5	0xbfe82a8f	-1.8137988
6	0xbfb849e6	-1.4397552
7	0x40fba405	7.863772

critic.18.weight f4 [8, 8]
0	0xbe8db710	-0.27678728
1	0xbfc368b0	-1.5266323
2	0x3f9bcc95	1.2171808
3	0xbe758768	-0.23977435
4	0xbfa99b46	-1.3250511
5	0xbe781e16	-0.24230227
6	0x3f0872ee	0.5330037
7	0x3db915e3	0.09037378
8	0xbfac33ee	-1.3453348
9	0x3ff8320c	1.9390273
10	0x4055a56b	3.3382213
11	0x3fca3f31	1.5800534
12	0xbfbecb7c	-1.4905849
13	0x3f9a9412	1.2076437
14	0x3f10eb9e	0.56609523
15	0x4050cd73	3.2625396
16	0x3d019920	0.031640172
17	0xc040d512	-3.0130048
18	0x3f978ac6	1.1839225
19	0x3e07f110	0.13275552
20	0xbecc5f3c	-0.39916408
21	0xbd6c92d0	-0.0577572
22	0x4000509a	2.0049195
23	0x403a2530	2.9085197
24	0x3fd9ead6	1.7024791
25	0x40415d91	3.0213358
26	0x403b49fe	2.9263911
27	0xbfcf8d9f	-1.6215094
28	0x3fc66180	1.5498505
29	0xbfc67b67	-1.550641
30	0xbdc58b85	-0.09645752
31	0xbe6d15e6	-0.23152885
32	0x3f9ea22e	1.2393243
33	0xbfcf9248	-1.6216516
34	0x3fa257de	1.2683065
35	0xbfdfa90c	-1.7473464
36	0x3ddb2450	0.107002854
37	0x3fdeb092	1.7397635
38	0xbfe2b122	-1.7710307
39	0xbfb79654	-1.4342752
40	0xbe65ea08	-0.22452557
41	0xc08c36df	-4.381698
42	0x3e49bef7	0.19701754
43	0x3f8d8cab	1.1058553
44	0xbeb09054	-0.34485114
45	0xbf9867c2	-1.1906664
46	0x3ebe0dbe	0.3711986
47	0x40047d4e	2.070148
48	0xc002e6a8	-2.0453281
49	0xbfb04b6e	-1.3773019
50	0xbfbff549	-1.499673
51	0xbf9d2b1e	-1.2278783
52	0x3d081660	0.033224463
53	0xbe893089	-0.26794842
54	0xbfc4ac10	-1.5365009
55	0xbfa3dcf4	-1.2801805
56	0x406eb312	3.7296796
57	0xbfdba526	-1.7159774
58	0x40125626	2.286508
59	0x40c3748a	6.107976
60	0x3e517b92	0.20457295
61	0xbfab20ce	-1.3369386
62	0x4036bdb3	2.8553283
63	0x40b0a13a	5.519681

critic.18.bias f4 [8]
0	0xbe0ea7dd	-0.13931222
1	0x3f8edce3	1.1161159
2	0xbd9b2600	-0.07575607
3	0xc038822a	-2.8829446
4	0xbfb2b76e	-1.3962228
5	0xc04a3b3f	-3.159866
6	0xbfa60254	-1.296946
7	0x401760a1	2.3652728

critic.21.weight f4 [8, 8]
0	0x3fe7a3b8	1.8096838
1	0x4043eee1	3.061455
2	0x3fbad37f	1.4595793
3	0x4053eafa	3.3112168
4	0x3f9d2ea4	1.2279859
5	0x4042bb43	3.0426795
6	0x3fa430ff	1.2827452
7	0x3fe16571	1.7609082
8	0xbf95e3c7	-1.1710137
9	0xbfd652b5	-1.674399
10	0xbfdbe7b8	-1.718009
11	0xbf99fb43	-1.2029804
12	0xbfdc5b12	-1.7215292
13	0xbf9903f9	-1.1954337
14	0xbfc985de	-1.5743978
15	0xbf9768b5	-1.1828829
16	0x3f973316	1.1812465
17	0x3fa9c5d7	1.3263501
18	0x40b40732	5.6258783
19	0x3e22f848	0.15915024
20	0x3f92e6a0	1.1476631
21	0x4043c0ac	3.0586348
22	0x3f9cd095	1.2251154
23	0x403e3355	2.971883
24	0xbfcd796b	-1.6052679
25	0xbfaa5c26	-1.3309371
26	0xbfd62ae5	-1.673184
27	0xbfd56098	-1.6670103
28	0xbfc662ad	-1.5498863
29	0xbfa97bc4	-1.3240895
30	0xbfc4fd57	-1.5389813
31	0xbfa7093e	-1.3049695
32	0x3faad156	1.3345134
33	0x4005f1b1	2.0928767
34	0x3f4246a8	0.7588906
35	0x3faa71be	1.3315961
36	0x3fbede93	1.4911674
37	0x3fc1b1b2	1.5132353
38	0x3fd3dbbb	1.6551431
39	0x3fb6b986	1.4275367
40	0x3fe0b102	1.7554018
41	0x4039feda	2.90618
42	0x3fd7ce63	1.6859859
43	0x408d9a46	4.425082
44	0x3f9dd196	1.2329586
45	0x3fb9df7b	1.4521326
46	0x40034919	2.0513365
47	0x40016d68	2.0223026
48	0xbf617f6d	-0.8808506
49	0xbfaab9dd	-1.3337971
50	0x3ffce222	1.975651
51	0xbf214f16	-0.630113
52	0xbe277870	-0.16354537
53	0xbe79ce08	-0.24395001
54	0x3f933d6c	1.150312
55	0x40b1058b	5.5319266
56	0xbfc35b4b	-1.5262235
57	0xbfa9be88	-1.326127
58	0xbfbed9f0	-1.4910259
59	0xbfcb0826	-1.5861862
60	0xbfe26454	-1.7686868
61	0xbfdc71dd	-1.7222248
62	0xbfbe1576	-1.4850299
63	0xbfadb0da	-1.3569596

critic.21.bias f4 [8]
0	0x40a5afae	5.1776953
1	0xbfa727fb	-1.3059076
2	0x40467da8	3.1014194
3	0xbfdf7570	-1.7457714
4	0x408719a2	4.221879
5	0x408c4827	4.3838077
6	0xc01f68f8	-2.4907818
7	0xbfa41c8c	-1.2821212

critic.24.weight f4 [1, 8]
0	0x4082ced6	4.0877485
1	0x3fb3f406	1.4058845
2	0x408585e8	4.172596
3	0x3fb748e4	1.431912
4	0x404b27bc	3.1743002
5	0x409c8fa6	4.892535
6	0x400c99ba	2.1968827
7	0x3fa68b07	1.3011178
