gigala/topology/topology_optimiz/HRL/preTrained/T0-h-v1/2level/HAC_T0-h-v1_level_0_crtic.pth (torch, 7861 bytes, 19 tensors)

critic.0.weight f4 [5, 20]
00000000: 64ad 98bd 43b5 d6bd 8696 a3bd 207a d2bd
00000010: fc2b c9bd 2076 1abe d4b4 6ebd c89d 963d
00000020: 4c60 083e 8c28 5e3e 380d 3dbe ee98 5e3e
00000030: 78f9 cabd 4f34 4abe 604a 05bd fe2b 4e3e
00000040: 58a6 713d 1415 863d 8cbb 123e 5b25 4ebe
00000050: e572 6a3c 921b 19bc 086f 573d 61e5 05bd
00000060: 0e69 243e dc81 493e d455 4ebe 3a9c 86bd
00000070: ee7a c33d e919 0fbe 2689 cd3d 8444 d9bc
00000080: e692 b13d 5dd8 cc3c 9e36 f9bd b3e2 b23d
00000090: 6eb3 3d3e dd4f ee3d f28c d13d 919a 89bd
000000a0: 9af1 3ebe b8a1 b6be d68c 09be 62a2 34be
000000b0: dc2d 1ebe 1598 b63d 8e69 f1bd 6fcc 15be
000000c0: 42f7 cfbd 1e16 f23d 1e06 9c3d f646 aebd
000000d0: 4b62 353c bffa 5c3e ede1 2c3e 15c7 133e
000000e0: e13b 2dbe 7131 4bbe f1ef dfbc 843d 7a3e
000000f0: f10b ce3d 8b29 51be 4b4e 03be 48c8 9f3d
00000100: 4503 503e 59b9 e3bd d3d5 cbbd 95d7 81bd
00000110: b9c8 cabd 9c23 1abe 0a74 53bd b210 ce3d
00000120: fdf6 c9bd ff3e 87bd b86e b9bd 36c6 33be
00000130: 46c4 2e3e 6dfd 473e 20c7 e23d 0662 08bc
00000140: 4633 563e c313 62be 9459 06bd 25ca 45be
00000150: d492 353e f43a f6bd 5c2b 52be 70ae cfbc
00000160: c456 563e c032 8dbb 08d0 ed3d 1c8c 96bd
00000170: 8007 203e cc68 a13d 1011 043e b804 afbc
00000180: 2689 21be a2fb 1e3e ac72 963d e389 64be
-0.07454947 -0.10483792 -0.079876944 -0.102772 -0.098228425 -0.15084124 -0.05827792 0.07354313
0.13317984 0.21695155 -0.18462074 0.21738026 -0.09910864 -0.19746517 -0.032541633 0.20133969
0.05899653 0.06546989 0.14329356 -0.20131437 0.01430962 -0.009344952 0.052596122 -0.032689456
0.160557 0.19678444 -0.20149928 -0.065727666 0.09544931 -0.13974728 0.100359246 -0.026521929
0.08670597 0.025005514 -0.121686205 0.08734646 0.18525478 0.116363265 0.10231961 -0.06718934
-0.18646851 -0.35670257 -0.13432631 -0.17640069 -0.15447181 0.08915726 -0.11787711 -0.14628766
-0.101545826 0.11820625 0.07618354 -0.085096285 0.011070798 0.21580027 0.16883059 0.14431413
-0.16917373 -0.19843079 -0.027336093 0.24437529 0.100608714 -0.20426004 -0.12822835 0.078018725
0.20313747 -0.11119337 -0.09952893 -0.06339947 -0.09901566 -0.15052646 -0.051624335 0.10061778
-0.098615624 -0.066038124 -0.09054321 -0.1755608 0.1706706 0.19530268 0.11073136 -0.008324152
0.20917997 -0.22077851 -0.032800272 -0.19315393 0.17731792 -0.12022963 -0.20524353 -0.025351733
0.20931536 -0.0043090284 0.116119444 -0.073509425 0.15627861 0.078813165 0.12897134 -0.021364555
-0.15774974 0.15525678 0.07346091 -0.22318225

critic.0.bias f4 [5]
00000000: 30c5 593e 257e afbc 3173 38be d637 b83d
00000010: 80c0 153c
0.21266627 -0.021422455 -0.18012692 0.08995025 0.009140134

critic.3.weight f4 [5, 5]
00000000: 1cdf 6d3e 96a3 5b3e 1abd 21be 063d 863e
00000010: b86f 723e bc78 96be 419d d5be 38a9 2b3e
00000020: 066b d33c fcee 143e 5084 e33e f623 3f3d
00000030: 1976 56be d816 bc3e e226 e4be 28e1 ca3e
00000040: efe5 36be 3d2f c93e 1fbe b03e 08d0 373e
00000050: b012 c9be 492c 6fbe a0a9 893e 700c 5b3e
00000060: ccda 173e
0.2322964 0.21449122 -0.15794793 0.26218432 0.2367543 -0.29388988 -0.41721538 0.1676377
0.025807869 0.1454429 0.44436884 0.046665154 -0.20943488 0.36736178 -0.44560915 0.39624906
-0.1786115 0.39293852 0.3452005 0.17950451 -0.3927207 -0.23356737 0.26887226 0.21391463
0.14829558

critic.3.bias f4 [5]
00000000: 7dac b43e 664b d53d 1d0c c1be 52b4 00be
00000010: d8c0 9e3d
0.35287848 0.10414772 -0.37704554 -0.12568787 0.07751626

critic.6.weight f4 [5, 5]
00000000: 1d80 8d3e c389 9cbe 2507 833d f6cc f7be
00000010: a8fa aa3e 0bf7 08be adb6 4bbe b304 d2be
00000020: cece 4c3e b6de 3fbe aaf5 b4be 9541 cb3d
00000030: c59c d93e 4f84 e1be 6418 c4bd b42e ba3e
00000040: 2262 a8bc 5bfb bd3e ef27 763e faba 733e
00000050: c756 9a3e 9e37 e3be bdf1 91be 96ec 3ebe
00000060: dd6c a8be
0.27636805 -0.30573854 0.06397847 -0.4839856 0.3339436 -0.1337549 -0.19893904 -0.4101921
0.20000765 -0.18737301 -0.35343677 0.09924618 0.42502418 -0.44046256 -0.09574965 0.36363757
-0.020554606 0.37105832 0.24038671 0.23801795 0.3014433 -0.4437837 -0.28504744 -0.18644938
-0.32895556

critic.6.bias f4 [5]
00000000: fd61 0b3e 74f5 9cbe e0c1 89bc 6eac 0d3c
00000010: 379a cf3e
0.13611598 -0.30656016 -0.01681608 0.0086470675 0.40547344

critic.9.weight f4 [5, 5]
00000000: 1232 4ebd 9a41 b5bd 0eb9 e03e 8f71 87bd
00000010: 526e 75bd 3123 c6bd 4d33 bdbe ac09 39be
00000020: 4cb1 273f ed3c 94be aa7d ae3e bfcc b7be
00000030: 3e01 d6be 8c4c 50bd 3d95 9b3e e1a4 bdbe
00000040: 2290 3abe b09e f6bc 0439 aabe 71e8 9abe
00000050: ecd5 8f3d 2747 c43e 6110 303e f5e2 d7be
00000060: 5ece c93e
-0.05034072 -0.08850403 0.43891186 -0.066134565 -0.059919663 -0.09674681 -0.36953202 -0.18070096
0.6550491 -0.28952733 0.3408025 -0.35898396 -0.41797823 -0.05085425 0.30387297 -0.37039855
-0.18219045 -0.030104965 -0.33246624 -0.30255464 0.07023224 0.38335535 0.17193748 -0.42165342
0.39415258

critic.9.bias f4 [5]
00000000: a2a4 93bd b7af 823d df00 a8be 22dd e2be
00000010: 5f4b af3d
-0.072091356 0.06381171 -0.32813165 -0.44309336 0.08559298

critic.12.weight f4 [5, 5]
00000000: 00a3 313f d41c 2a3f 0ea6 b1be be12 1fbe
00000010: fee0 ec3e 5eab a5be e6e2 69bd 2428 943e
00000020: a0dd bdbd a086 cbbe 199e c53e 03b3 c4be
00000030: d88e 85be 68d8 413e 89fc b6be aa26 cf3c
00000040: e871 f93e 4a4b 42bd c0e9 7c3c eae4 dfbd
00000050: 4041 dc3d 01d1 b9bd 56fb 2fbd b50a b8be
00000060: f1f9 53be
0.69389343 0.6645024 -0.34697002 -0.15534493 0.46265405 -0.32357305 -0.057101153 0.28936875
-0.09270787 -0.39751148 0.3859718 -0.38417825 -0.26085544 0.18930209 -0.35739544 0.025286991
0.48719716 -0.047435082 0.01543659 -0.10932334 0.10754633 -0.090730675 -0.042964302 -0.3594567
-0.20700814

critic.12.bias f4 [5]
00000000: 0d6d 6b3e 589a 8fbe f039 023e b03d 093e
00000010: 3640 87be
0.22990818 -0.28047442 0.12717414 0.13402438 -0.26416177

critic.15.weight f4 [5, 5]
00000000: c346 7c3e c302 c2be d42c dd3e d849 8e3e
00000010: 0c10 933e 9f38 063f a853 02be 2014 97be
00000020: 4790 a43d f662 cfbe 382b 223e 4d30 673e
00000030: 38b6 46be a942 fe3d 62b0 723e bc2b 393f
00000040: c11c d43d 3c1e 663c 401d 9ebd 2d0e 6a3e
00000050: f66c 55be ba01 aebe b303 263e e4d9 9e3d
00000060: 1637 0fbd
0.24636368 -0.37892732 0.43198264 0.27790713 0.2872318 0.52430147 -0.12727225 -0.29507542
0.08035331 -0.4050519 0.15836799 0.22577019 -0.19405448 0.12415058 0.23700097 0.7233236
0.10357047 0.014045294 -0.07720423 0.2285697 -0.20842347 -0.33985692 0.16212349 0.07756403
-0.034964643

critic.15.bias f4 [5]
00000000: 30be 10be 95c4 c1be e4e1 99be 7f5e d9bb
00000010: 8310 6fbe
-0.14135051 -0.37845293 -0.30055153 -0.0066335793 -0.23346142

critic.18.weight f4 [5, 5]
00000000: a11e c03e 2273 a73d b59a c4be f609 c63e
00000010: 2b29 a3be c433 91bd 2df2 81bd 67e4 513d
00000020: 9c37 08bf 211f 4bbd bae5 913e 6855 053f
00000030: 2cc4 ccbc ced2 f63e c3e8 d13e d41b 33be
00000040: a705 f1be 22a8 c8bd 22ea 6a3e 34f4 443e
00000050: 2616 a73e 8fd4 babe 112a db3e 6f7f 47be
00000060: 1e08 cfbe
0.37523368 0.08176257 -0.38399282 0.38679475 -0.31867346 -0.07089952 -0.063450195 0.051243212
-0.53209853 -0.049590234 0.2849558 0.52083445 -0.024995886 0.48207706 0.40997896 -0.17491084
-0.47074625 -0.09797694 0.22940877 0.19233781 0.32634085 -0.36490294 0.42805532 -0.19482206
-0.4043588

critic.18.bias f4 [5]
00000000: 2086 143e fe49 6b3d 550e 6ebe e0cb 83be
00000010: eab9 2ebe
0.1450429 0.05744361 -0.23247655 -0.25741482 -0.17063108

critic.21.weight f4 [5, 5]
00000000: 3091 cbbd 1472 93be 30c6 063f 60f3 b53e
00000010: 0aa7 2cbd 706b db3e 1c0b dfbe 8ac6 11bd
00000020: febf e9bc 008f 7d3e ea5a 96be 2fc0 e1be
00000030: 0211 1abe 4298 8c3e 8f43 07be e513 2c3e
00000040: eb97 a0be 23d7 61be 7fbc 8ebb 5eff a23d
00000050: 1fb3 103e a384 023e 5c68 893e fd1f d13e
00000060: 19d0 b33d
-0.09939802 -0.28797972 0.5264616 0.35537243 -0.04215149 0.42855406 -0.43563163 -0.035589732
-0.028533932 0.24761581 -0.29366237 -0.44091937 -0.1504555 0.27459913 -0.13209365 0.16804464
-0.31365904 -0.22054724 -0.0043559666 0.07958864 0.1413083 0.1274591 0.26837432 0.40844718
0.08779926

critic.21.bias f4 [5]
00000000: 1ec9 d5bd 9721 8b3e 4082 82be 41e4 92bd
00000010: ee13 b9bd
-0.10438751 0.27174065 -0.25489998 -0.07172442 -0.090370044

critic.24.weight f4 [5, 5]
00000000: 2448 9a3e b6f1 263e 5de5 dcbe fec4 40be
00000010: 0798 823d eac5 8c3e 784e 45be cc05 9dbe
00000020: 29c8 19be 5dd8 c53e 7a40 e9bd 857c 6cbd
00000030: b4d7 82bd 9549 7abe ff99 98be c72b 72be
00000040: 362d c33e 7ca1 663d a71c 48be 3f92 563e
00000050: 78a9 cf3e e745 eabd 9cb1 8ebe 486e e93e
00000060: d7f8 c03e
0.30133164 0.16303143 -0.4314374 -0.18825147 0.06376653 0.27494746 -0.19268215 -0.30668485
-0.15017761 0.38641635 -0.11389251 -0.05773594 -0.06388798 -0.24442132 -0.2980499 -0.23649512
0.3812043 0.056306347 -0.1954218 0.20954226 0.40558982 -0.11439114 -0.2786988 0.4559195
0.3768985

critic.24.bias f4 [5]
00000000: 751e c33e 365f a63d 4ff2 243e bcbc d5bd
00000010: 3608 fb3d
0.38109174 0.08123629 0.16108058 -0.10436389 0.122574255

critic.27.weight f4 [1, 5]
00000000: 5186 aebe 7090 ccbe f2c2 87bd 62fd 95bd
00000010: c560 00be
-0.3408685 -0.39953947 -0.0662898 -0.073237196 -0.12536915
