gigala/topology/topology_optimiz/hierarchical_rl/HRL_jax_mps/preTrained/T0-h-v1/2level/HAC_T0-h-v1_level_0_crtic.pth (torch, 22097 bytes, 29 tensors)

critic.0.weight f4 [12, 48]
000000 22 cb 57 3f 49 7e 5e 3f 3b 5a 45 3f 5c b5 37 3f
       0.8429433 0.86911446 0.77090806 0.7176111
000010 df 44 ca bd f6 b0 4b 3d 4c 58 66 3f 8c d1 53 3f
       -0.09876417 0.04972931 0.8997848 0.8274162
000020 d5 54 31 bd 18 3e 48 3f 6d d2 3f 3f eb 7f aa bd
       -0.043293793 0.7821975 0.7493046 -0.0832518
000030 ba a5 6c 3f 3d 24 f7 bd da df df 3d bc aa 68 3f
       0.9244038 -0.12067459 0.10931368 0.9088552
000040 b4 0b 1b 3f df 25 16 3f b6 17 18 3f 46 78 06 3f
       0.6056473 0.58651537 0.5941118 0.5252727
000050 2d b3 f6 3e af 2c e5 3e 86 cf 1f 3f 40 20 19 3f
       0.48183575 0.44760653 0.6242603 0.59814835
000060 3a 5e d9 3e 12 25 e8 3e 44 09 41 3f 24 5c 3f 3f
       0.42454702 0.45340782 0.75404763 0.7474997
000070 ac f4 46 3f ba de f4 3e 3c 6f 30 3f 46 59 2f 3f
       0.7771709 0.47826177 0.6891973 0.68495595
000080 44 67 6f 3f 0a fb 59 3f 12 08 58 3f 22 27 6f 3f
       0.93516946 0.8514868 0.84387314 0.93419087
000090 a0 ee 20 3d 56 79 fe bd 62 1b 6d 3f 4e d6 77 3f
       0.03929007 -0.12425487 0.9261991 0.9681138
0000a0 82 3c a5 bd 2a 1c 31 3f d0 c4 4d 3f d8 6b 07 be
       -0.080681816 0.691836 0.8037844 -0.13224733
0000b0 83 db 78 3f d8 0c 5b bd d7 60 bd bd 8a ce 6b 3f
       0.9720995 -0.053479046 -0.09246986 0.9211203
0000c0 c4 5b 34 3f d6 16 31 3f a0 6e 47 3f 9f bb 01 3f
       0.70452523 0.6917547 0.77903175 0.5067691
0000d0 71 0f 90 3d f3 85 89 bd ad a7 32 3f 2a ef 18 3f
       0.07034195 -0.06715002 0.697871 0.59739935
0000e0 5f 95 07 3e d2 1c 1f 3f f2 c9 29 3f 2d 4f e7 bd
       0.13240574 0.6215335 0.6632377 -0.112943985
0000f0 c8 a1 3c 3f 66 bc 11 be 82 c2 a3 3d aa 51 40 3f
       0.7368436 -0.14232025 0.07996084 0.7512461
000100 5a de f8 3e f8 39 7a 3e aa 98 3a 3e 69 39 83 3e
       0.4860714 0.24436176 0.18222299 0.25629738
000110 96 33 86 3e 48 e6 97 3c 62 64 d7 3e e0 17 74 be
       0.26211232 0.018542424 0.42068774 -0.23837233
000120 bc c5 82 3e 29 5b ff 3e 2d c9 a7 3e 0d 1d 80 3e
       0.25541484 0.49874237 0.32770672 0.25022164
000130 83 40 00 3f 3e 98 0c 3e 78 e5 b6 3e 81 b2 94 3e
       0.5009844 0.13729951 0.35721946 0.29042438
000140 13 36 6d 3e 34 7f d9 3d 89 1e b4 3e d4 11 d1 3d
       0.23165159 0.10619965 0.35179546 0.102084786
000150 6b 52 b6 3e 28 22 b6 3e ec 1b f6 3e 90 a2 be 3d
       0.35609755 0.35572934 0.48068178 0.0930835
000160 bf a9 8e 3e 83 60 b6 3e aa 7b a9 3e 7f 1d b8 3e
       0.2786388 0.35620508 0.3310216 0.35960004
000170 30 49 40 3d 49 39 bc 3e 88 67 ec 3e 5a 27 4b 3e
       0.046944797 0.36762455 0.46172738 0.1983923
000180 42 f9 97 be ad 52 9c be 82 43 17 be d5 da 41 be
       -0.29682356 -0.30531827 -0.14771846 -0.18931134
000190 f4 ad 1d 3c 32 98 ae 3d d8 87 a4 be cc 31 b6 be
       0.009623993 0.08525123 -0.3213489 -0.35584867
0001a0 d3 ad 05 bd 3a e2 0f be f0 8d c5 be bd e7 92 bd
       -0.032636475 -0.14051142 -0.38584852 -0.07173107
0001b0 fc 50 58 be 66 91 5e 3d 3f d3 93 3d ee 6c 4f be
       -0.21124643 0.05433788 0.07218026 -0.20256397
0001c0 70 8d 92 be ae 6e 40 bd fc 2c 80 3d da ab cb 3c
       -0.28623533 -0.046980552 0.0625858 0.024862219
0001d0 e0 88 4c bb 42 27 0d be 44 92 ab bd 53 b2 75 bd
       -0.0031209514 -0.13784507 -0.08377507 -0.059984516
0001e0 a7 b1 8d bd 26 e6 ce bc e8 59 80 be 22 68 49 bd
       -0.0691865 -0.025256228 -0.25068593 -0.049171574
0001f0 88 58 e2 bc 60 ee 6b bd 90 26 1f be 00 75 2b be
       -0.027630106 -0.05760038 -0.15542054 -0.1674385
000200 84 1b 31 be e3 28 c7 be 33 28 72 be 32 68 c1 be
       -0.17295653 -0.38898382 -0.23648147 -0.37774807
000210 cf a5 0e 3e cc 70 fb bd e7 5f a7 be 1e 84 1a be
       0.13930438 -0.12277374 -0.32690355 -0.15089461
000220 94 41 9c 3d a2 ea 07 be bc a8 53 be 3b ee 04 be
       0.076296955 -0.13273099 -0.20669836 -0.12981503
000230 60 e4 b1 be 7c 46 ca 3d 67 fa 0f be 02 18 ee bd
       -0.3474455 0.09876725 -0.14060365 -0.11625673
000240 ba d5 ad be 66 d1 93 be aa 7d a4 be 8f f2 b3 be
       -0.33952123 -0.28870696 -0.32127124 -0.35145995
000250 4a 6f 11 bd f3 d3 2f 3d 66 4d ae be 40 d3 94 be
       -0.035506524 0.04292674 -0.34043425 -0.2906742
000260 df 7e f7 3d 2e ab 9a be 04 59 db be 07 05 e0 bd
       0.120847456 -0.30208725 -0.4284135 -0.10938459
000270 c2 ab 64 be 9a 40 4e 3d 2a f8 e1 3c e2 31 c6 be
       -0.22331145 0.050354578 0.027584154 -0.38709933
000280 8d 95 8a be 50 df 15 be 4e 6b 98 be 5e e0 11 be
       -0.27067223 -0.14635968 -0.29769367 -0.14245746
000290 e8 d4 4b be 6a 10 37 bd 37 3e a6 bc de 2d a8 bd
       -0.19905436 -0.044693388 -0.020293338 -0.082118735
0002a0 d4 43 37 be 42 a9 78 be 7c 4a ed bd 4c 40 a6 be
       -0.17896968 -0.24283317 -0.115864724 -0.3247093
0002b0 a3 5c 56 3e 80 a3 64 be ec 66 21 be f6 bb c9 3d
       0.20933776 -0.22327995 -0.15761918 0.09850304
0002c0 e1 76 2d be fa 95 aa be 72 d4 93 be 64 e9 c6 be
       -0.1693988 -0.33317548 -0.2887302 -0.38849938
0002d0 ac 54 e7 3c 54 5b fa 3d 54 8e 94 be 61 73 bf be
       0.028238617 0.12224451 -0.29014838 -0.37392715
0002e0 ee 85 62 3e 32 ee 7c be 32 ed b2 be 29 70 8b 3e
       0.22121403 -0.2470024 -0.3494659 0.2723401
0002f0 ea bd 39 be b0 7e 91 3d 07 35 2d 3e 0b 8e 50 be
       -0.18138853 0.07104242 0.1691476 -0.20366685
000300 b0 99 0a 3e d4 f8 d8 bd fa 5c ec 3d 6f 77 92 38
       0.1353519 -0.10594335 0.11541171 6.984069e-05
000310 c4 da 1d 3c 18 ae d3 b9 bc e7 be bd 6a ea 57 bd
       0.009634677 -0.00040374766 -0.093215436 -0.05271379
000320 dc 8f f0 bd fa c5 99 bc 46 2e 13 3d aa 0d d2 bd
       -0.11746189 -0.01877116 0.0359328 -0.102565125
000330 2c ff 63 3d 92 02 11 be 25 b4 8e 3d a9 1b 11 be
       0.055663273 -0.14161137 0.069679536 -0.14170708
000340 3f 18 96 bb ce bc d9 3d aa 17 06 be dd fa e8 bd
       -0.004580527 0.10631715 -0.13094965 -0.113759734
000350 4a 9a 8e bd 50 88 6b bd 26 56 a0 bd 1e 81 01 3e
       -0.06963022 -0.057503045 -0.078289315 0.1264691
000360 39 b4 d4 bd 95 c9 85 3d 6a 0e d4 bd 49 3f 3f bd
       -0.10385937 0.06532589 -0.10354312 -0.046691213
000370 c6 d0 ec bd ee 50 0d be 53 31 a0 bd d8 5f 9e 3b
       -0.11563258 -0.13800403 -0.07821908 0.004833203
000380 c2 3a 9f 3d 8e 4c 67 3d e3 0a 6c 3d 57 87 fa 3d
       0.07774879 0.056469493 0.05762757 0.12232845
000390 f4 a7 c7 bb a9 a0 10 3e 5d f2 00 be 20 6b 8a bd
       -0.0060930196 0.14123787 -0.12592454 -0.06758714
0003a0 90 98 ed bd 75 b4 cb bd 28 f3 db bd 01 07 0c be
       -0.116013646 -0.09946529 -0.10739738 -0.13674547
0003b0 f9 db 0a 3e b1 98 e2 3c 48 c7 94 3d 83 8b 3f bd
       0.13560475 0.0276607 0.072645724 -0.046763908
0003c0 d7 09 bb 3d 8e b5 9b bc 16 2b ad bd 50 7f 92 3d
       0.09132736 -0.01900747 -0.084554836 0.07153189
0003d0 ff 42 b5 3d 57 eb bb bc 57 ff d4 3d 96 05 f4 3d
       0.08850669 -0.022939367 0.10400265 0.11915128
0003e0 ae 0e d7 3d bc c7 9f bd 20 aa a4 ba d6 0e 1d 3c
       0.10500847 -0.07801768 -0.0012562908 0.009586057
0003f0 a9 14 4a 3e 13 c7 0e 3e c8 50 c8 bd 53 7d 16 bd
       0.19734444 0.13943128 -0.09781033 -0.036740612

critic.0.bias f4 [12]
000000 22 13 32 3f c6 6e 47 3f 8c da ad be 97 ac 93 be
       0.69560444 0.779034 -0.339558 -0.28842613
000010 d8 81 83 bd 80 04 bc bc f1 28 b8 bc fc 3a 9d 3b
       -0.0642125 -0.022951365 -0.02248046 0.0047982913
000020 9c 47 0b bf bd dc b9 3e af 6e 02 3f 52 b9 30 3f
       -0.5440614 0.36301222 0.5095014 0.69032776

critic.3.weight f4 [12, 12]
000000 c6 19 0c bf 12 ff 8c 3d ad 39 88 be 26 51 4f bd
       -0.5472683 0.06884588 -0.26606503 -0.0506145
000010 69 b0 74 3e ab f9 fd bc 8f 37 d6 bd d1 d6 1f be
       0.2389542 -0.03100284 -0.10459816 -0.1560929
000020 f4 48 ef be 86 b8 c5 be 64 6b 54 be ba 69 03 be
       -0.46735346 -0.38617343 -0.20744091 -0.128333
000030 b8 88 39 bd 11 2e e3 be 1a ac 37 3e 09 59 89 be
       -0.0452964 -0.44371083 0.17936745 -0.2682574
000040 c3 de 41 3b be d4 79 3e c4 60 85 3d f0 42 70 be
       0.002958224 0.24397561 0.06512597 -0.23463035
000050 7e 43 93 3e fb 59 48 3e b4 2b 38 3e b0 43 92 bc
       0.2876243 0.19565575 0.17985421 -0.017854542
000060 51 52 84 be fa 8f 27 be 8a 19 90 be 7c 35 90 3d
       -0.25844052 -0.16363516 -0.28144485 0.07041451
000070 8a 85 7d be a6 2d b4 bd 31 40 df bc dd f5 32 bd
       -0.24757972 -0.08797769 -0.027252289 -0.043691505
000080 e2 5c 9a be c1 e3 61 be ee b5 d9 be 89 d4 29 be
       -0.3014899 -0.22059537 -0.42521614 -0.16584982
000090 2e ec b2 be b4 89 ab be 01 e9 52 bd f6 f1 77 be
       -0.34945816 -0.33503497 -0.05149174 -0.24213395
0000a0 d4 d6 80 3d 52 1f 2f bd 05 5d ab 3c e5 e8 b7 3c
       0.06290975 -0.04275448 0.020918379 0.02244992
0000b0 16 a9 30 be 36 50 0a bf 88 36 15 bf b8 73 0e bf
       -0.17252001 -0.5402864 -0.58286333 -0.5564532
0000c0 87 25 59 be 58 10 0a bf dc 60 0e be d7 92 77 be
       -0.21205722 -0.5393119 -0.13904136 -0.24177109
0000d0 55 8c ca bc db 14 8a be 58 d9 54 3d c2 33 5f 3e
       -0.024725119 -0.26969036 0.051965088 0.21797088
0000e0 d1 f4 58 be d6 eb db be 06 6a e3 be db a6 7a be
       -0.2118714 -0.42953366 -0.44416827 -0.24477713
0000f0 56 9f 67 3f 7d 86 10 3f 09 8a f8 3d 8f 95 b0 3d
       0.904775 0.5645521 0.12135703 0.08622276
000100 3f 6a 43 3e 62 95 92 3e d9 a6 da 3d c6 e8 42 bd
       0.19083498 0.28629595 0.10676355 -0.04758527
000110 dc 19 d5 3e fc 56 c7 3d e8 f8 3a bc 50 b4 33 3f
       0.41621292 0.09733388 -0.011411883 0.7019701
000120 63 e0 ef be cc eb a0 be b6 11 44 be e8 71 83 bb
       -0.4685088 -0.314299 -0.19147381 -0.0040113814
000130 ed 66 91 3a fa 2d 37 be d2 be 55 be 49 dc 09 3e
       0.0011093296 -0.17888632 -0.20873573 0.13462938
000140 30 ef 1c 3d 8a b6 83 3e 34 9a 61 3d 78 df e0 3d
       0.038314044 0.25725204 0.0550787 0.10980123
000150 13 6a 88 be 58 63 e5 be 18 fb 3f bc 94 26 94 3c
       -0.26643428 -0.44802356 -0.01171758 0.018084802
000160 fb 78 53 3d e0 5a f8 3d 65 59 87 be 65 2b 34 3d
       0.051629048 0.12126708 -0.2643539 0.043986697
000170 87 db 5d be c8 ec 8c be a6 48 84 be 01 40 5d be
       -0.21665774 -0.275244 -0.25836676 -0.21606447
000180 24 4e 62 3e ae 0e 7d 3f 2d 9a 77 be e8 fd 9e bc
       0.22100121 0.98850524 -0.24179907 -0.019408181
000190 b8 c2 ba 3d 07 26 44 bd 1b c2 8f be 22 78 49 be
       0.09119171 -0.04788783 -0.28077778 -0.19674733
0001a0 80 79 81 3e 26 5a 59 be 30 06 c4 3d 71 05 74 3f
       0.2528801 -0.21225795 0.09571493 0.953208
0001b0 61 3c 02 be fc 6f de 3c b7 ec 7e be 64 61 fd bd
       -0.12718345 0.027153008 -0.24894987 -0.123720914
0001c0 97 b3 6e 3e 2d 23 f6 3d e3 e5 a5 bb 55 50 ef bd
       0.23310696 0.12018428 -0.005062805 -0.11685244
0001d0 64 f5 62 be 11 71 14 3e 95 a9 02 be 40 66 1f bc
       -0.22163922 0.14496256 -0.12760003 -0.009728968
0001e0 37 e6 12 bf 3f 0c 01 bf 13 c0 4d 3c 20 61 80 be
       -0.5738253 -0.5040931 0.012558001 -0.250741
0001f0 3b 8f a8 bc bc 82 2a bd 55 77 e6 3d 18 a4 64 3d
       -0.02057611 -0.041628584 0.112532295 0.055820554
000200 b6 9e 26 be 58 6c 3a be c4 1c 2a bf bc c4 de be
       -0.16271481 -0.18205392 -0.6645014 -0.4350947
000210 b9 ac 85 3f 0a d3 70 3e a1 be 10 3c d0 74 96 3c
       1.0443336 0.23518005 0.008834512 0.018366247
000220 40 fb 4d be df b5 8c 3e 52 73 8e bd ef 87 5b be
       -0.20115376 0.27482507 -0.06955589 -0.21438573
000230 f0 da 5b 3d 81 6c b4 bd 90 1c 63 3d b3 e1 82 3f
       0.053675592 -0.08809758 0.05544716 1.0225128

critic.3.bias f4 [12]
000000 d0 b5 19 be 80 f2 bb be 72 95 0b bf bc 9f 95 be
       -0.15010762 -0.3670845 -0.5452491 -0.2922343
000010 8e 18 f8 be ee 73 8d 3f c4 43 87 be 6c 32 fe be
       -0.48456234 1.1051004 -0.2641889 -0.49647844
000020 4f 82 0c 3f 43 91 b7 bd 05 47 72 be 96 9e 47 3f
       0.54886335 -0.08963253 -0.23659904 0.7797636

critic.6.weight f4 [12, 12]
000000 97 ae 87 be f4 71 6f be 3c 0c 25 be c0 4c e3 bd
       -0.2650039 -0.23383313 -0.16117948 -0.11098623
000010 c6 bd e8 3e 3a 35 c6 be 92 a7 1c be 58 e7 87 bd
       0.45457286 -0.38712484 -0.15298298 -0.06635922
000020 d6 11 19 bf 44 01 90 be a0 70 ca bb be c8 f2 be
       -0.5979284 -0.28125966 -0.0061779767 -0.4741878
000030 c2 b4 9c be d4 9a 64 be cc e2 b6 bd 5a e3 12 be
       -0.30606657 -0.22324687 -0.08929977 -0.1434454
000040 fe 10 c3 be 06 d9 40 be a2 4f 75 be 47 67 9c be
       -0.38098902 -0.18832788 -0.23956159 -0.30547544
000050 21 71 0a be df bd 86 be 28 a1 0c bf 5c dd 77 be
       -0.13519718 -0.26316735 -0.54933405 -0.24205536
000060 4b 15 b1 be a3 58 52 3e f2 39 1b be 43 ff cb be
       -0.34586558 0.20541625 -0.15158823 -0.39843187
000070 99 23 b7 be 5a 22 8e be f6 bb 06 be a9 4a 88 3c
       -0.35769346 -0.27760583 -0.13157639 0.016637163
000080 d3 02 a1 bd 01 40 2e 3e 46 a4 8c be 80 c6 64 bc
       -0.07861867 0.17016603 -0.2746908 -0.013963342
000090 32 b7 08 3f 47 bf d8 be 61 97 4d be 14 f9 b1 3e
       0.53404534 -0.42333433 -0.20077278 0.34760344
0000a0 54 f4 fd bd 30 91 44 bd a6 64 c0 be e0 9a 86 3d
       -0.124001175 -0.047990024 -0.3757679 0.06572509
0000b0 bc 80 6a be 56 0c 89 3e 5c dd 90 bd fe 6b 12 bf
       -0.22900671 0.26767224 -0.07073471 -0.57196033
0000c0 00 0f b2 3e dd 9f e0 be 68 ff b6 3d 87 2c 89 be
       0.3477707 -0.43871966 0.089354336 -0.26791784
0000d0 79 c9 f3 bd 3e a2 6a be 5b 52 5d be 04 2c 59 be
       -0.11903662 -0.22913453 -0.21613447 -0.21208197
0000e0 f2 36 b1 be 51 6f 12 3d c2 b1 0b be 14 39 d1 be
       -0.34612232 0.03575069 -0.13642028 -0.4086386
0000f0 e6 ca 28 3f f6 59 21 3f 5c ad 1e 3e 4c 22 c3 3e
       0.659346 0.63027894 0.15495819 0.38112104
000100 bc 45 b4 3e 24 82 83 3f 40 59 53 3e 58 aa ad 3e
       0.35209453 1.0274091 0.20639515 0.33919024
000110 32 9f 39 3f 54 f2 28 3e 73 a1 8e 3e 32 2c 42 3f
       0.7250854 0.16498691 0.2785755 0.75848687
000120 1d 2d 34 3e a5 94 96 3e c8 90 cf 3e da 22 8b 3e
       0.17595334 0.29410282 0.40540147 0.27175027
000130 9f 90 cf 3e ac 77 93 3f 51 3d ea 3e 63 e3 b6 3e
       0.40540025 1.1520896 0.45749906 0.35720357
000140 7c 8e 0d 3f a1 6d 52 be b0 2e fd 3d d6 bc 66 3f
       0.5529554 -0.20549633 0.123624206 0.9013189
000150 93 9e fd bc 82 1f 06 3e 12 c2 71 bc e0 1b 56 3e
       -0.030959403 0.13097957 -0.014755743 0.20909071
000160 5b de 50 be 0b 84 17 be 67 cd 82 be 88 03 74 be
       -0.20397322 -0.14796464 -0.25547335 -0.23829472
000170 82 aa 64 3e 44 e0 7c bd ba c8 14 be 46 24 bc bd
       0.22330669 -0.061737314 -0.14529696 -0.09186606
000180 12 df c4 bc 4b 88 b3 bd 97 89 8c be 13 ab 49 3e
       -0.02403215 -0.0876623 -0.27448723 0.19694166
000190 6b 05 85 bc 04 d1 54 be e4 16 a9 3d 38 26 b9 bd
       -0.016237935 -0.20782858 0.08256319 -0.09040493
0001a0 64 a6 9f bd a6 e0 6a be 32 7b 90 be 62 da b0 3d
       -0.07795408 -0.22937259 -0.2821899 0.08635403
0001b0 b4 7b ce 3d cd 3a 5e be f0 ed b3 bc 1c 64 98 3e
       0.10082188 -0.21702118 -0.021964043 0.29763877
0001c0 40 84 17 bb 4e 33 cf 3d 2e c7 11 bf 7c c3 0e 3e
       -0.0023119599 0.101172075 -0.5694455 0.13941759
0001d0 00 c7 c4 bd c7 c4 09 3d a6 48 76 3e ca a9 1b be
       -0.09608269 0.033634927 0.2405115 -0.15201488
0001e0 7f ca 2c be 1e b5 d4 bc c5 52 1c 3e 7c 4f 01 be
       -0.16874121 -0.02596527 0.15265949 -0.12627977
0001f0 76 ca ba bd cc f8 c1 be 1e 32 4f be da dc 63 be
       -0.091206476 -0.3788513 -0.20233962 -0.22252217
000200 8f 0f 52 bb 1d a0 61 3e e9 36 72 be 7c 98 85 be
       -0.003205273 0.22033735 -0.23653759 -0.260929
000210 6b 87 88 3e db 56 97 be f3 32 17 3e 91 a7 59 bd
       0.26665816 -0.29558453 0.1476553 -0.05313832
000220 30 ea 57 3e bf 1b 11 bf 92 ca 82 be 43 71 92 3e
       0.21085429 -0.5668296 -0.25545174 0.28602037
000230 ae a7 91 be c7 00 ce bd cb f5 1b 3c cb b4 71 be
       -0.28448242 -0.10058742 0.009519051 -0.23604123

critic.6.bias f4 [12]
000000 3a 4d 50 bf 50 3a 15 bf 1c 00 c4 be f8 ac 7c bd
       -0.8136784 -0.582921 -0.38281333 -0.061688393
000010 16 78 51 be 29 fc 36 3f 17 14 6d 3f 4a 6c 7e be
       -0.20455965 0.71478516 0.9260878 -0.24845996
000020 6e 90 7d be a0 c5 23 3f 70 b0 f2 be fc c6 2b bf
       -0.24762127 0.63973427 -0.47400236 -0.671005

critic.9.weight f4 [12, 12]
000000 5c 9d 96 be 4a 94 3c be e3 07 84 bc 31 fa 84 be
       -0.2941693 -0.18415943 -0.016117042 -0.2597213
000010 a6 5f 19 bf 44 5c 2a bf 71 8b ce be ea 14 11 be
       -0.5991157 -0.66547036 -0.4034076 -0.14168134
000020 ba 3b 8a bd 93 0b 6d be c9 76 78 3d 94 59 b5 be
       -0.06749673 -0.23148946 0.060660157 -0.35419905
000030 a0 cb 10 bc 81 c0 36 be 87 a5 4c be b1 67 0a 3f
       -0.0088376105 -0.17846872 -0.19985019 0.5406447
000040 4e d0 2f 3e d4 c7 21 3f f2 bf 24 3f ad cf 34 be
       0.17169306 0.6319554 0.64355385 -0.17657347
000050 a4 01 fc 3d 98 13 75 3e 9b 1e 8e 3e 58 73 00 3f
       0.123050004 0.23933256 0.27757725 0.50176
000060 4d d1 a6 3d ca e0 19 3e af 37 22 bd 82 3f 18 bd
       0.0814539 0.15027156 -0.039603885 -0.03716994
000070 8e 48 1f bd 6a c4 07 be 3c 6d 78 be 49 03 1c bd
       -0.038887553 -0.1325852 -0.2426042 -0.03808907
000080 b2 20 b3 bd dd 7c 71 3e 1d 03 87 3e c3 d0 83 be
       -0.087464705 0.23582788 0.26369563 -0.2574521
000090 31 ad 32 be f7 89 f3 be 90 54 6d 3d cb 89 fd 3d
       -0.1744888 -0.47566196 0.057941973 0.123797975
0000a0 7c 16 d5 bc 3c eb ba be 74 b6 b7 be ba b4 47 bd
       -0.026011698 -0.36507595 -0.35881388 -0.04875634
0000b0 22 14 8f be 1f f1 5d 3e 0c 2e 8c 3d 31 ec 27 be
       -0.27945048 0.21674012 0.0684472 -0.16398694
0000c0 71 52 2c be 1f fd 57 3e 75 60 cd bd 51 f2 6f bd
       -0.16828324 0.21092652 -0.10028163 -0.0585807
0000d0 e0 0d 65 be 5d c9 c2 bd 49 ec 1e 3d 91 c0 81 3d
       -0.22368574 -0.09511063 0.038799558 0.06335557
0000e0 c5 ff 85 3e be bd f4 3d a4 a8 c9 bc 53 49 5a 3e
       0.261717 0.11950253 -0.024616547 0.21317033
0000f0 26 c7 6c 3e 17 96 b7 3e 11 38 99 3e 90 f3 bf 3e
       0.23122844 0.35856697 0.29925588 0.3749051
000100 c4 a7 a8 3e 1a db 3b 3f 48 bb 75 3f cd 55 8e bc
       0.32940495 0.733812 0.95988894 -0.017374897
000110 ab 48 c0 bd 21 30 08 3f 18 0a f2 bd a6 fb 1a 3e
       -0.0938886 0.5319844 -0.118183315 0.15135059
000120 19 38 63 bd 75 14 6b be 9f d3 04 be a1 e2 66 3e
       -0.05547342 -0.22957022 -0.12971352 0.2254739
000130 e4 1c 8b be a5 2a 42 3e c8 38 21 bc 73 75 1f be
       -0.2717048 0.1896158 -0.009840198 -0.15572147
000140 14 07 8a 3e 44 43 76 3e f5 b7 25 be f8 ad 3b 3c
       0.26958525 0.24049097 -0.16183455 0.011455052
000150 a6 b4 0e bf f0 95 89 be cb 57 19 3e de e3 90 be
       -0.557444 -0.26872206 0.14974897 -0.2829885
000160 95 18 47 be ae 85 1e bf 40 d1 05 bf bb c1 1b 3e
       -0.19442971 -0.6192273 -0.52272415 0.15210621
000170 63 27 25 be 08 a7 44 be 5a 26 c2 3b 9d d5 c7 be
       -0.16128306 -0.19204342 0.005924982 -0.39030161
000180 d6 13 d6 3d 32 04 31 3e 42 c0 98 3d 98 88 2d be
       0.10453002 0.17286757 0.07458545 -0.16946638
000190 ff 89 84 3e 0c ae 02 be d4 ed 12 3d 9c 0a 93 be
       0.25886533 -0.12761706 0.03587134 -0.28719032
0001a0 be 15 fd bd ea 52 57 3e 47 ba 0d 3d 86 95 d5 3c
       -0.123576626 0.21027723 0.034601476 0.026072275
0001b0 2f 8b c8 3e 7c ce 1b 3e d3 1c 28 be 1e 98 2f 3e
       0.3916869 0.15215486 -0.16417246 0.17147872
0001c0 ad 4d 3b 3f 14 6a 1c 3f 54 9e 8e 3f 54 dc 2f 3c
       0.731654 0.6109936 1.1142068 0.010733683
0001d0 11 ef 3c be a8 d7 a5 3e 69 14 03 be f8 e1 93 3e
       -0.18450572 0.32391095 -0.12800755 0.28883338
0001e0 fe ca 86 3e 23 e0 b2 be 16 ed 98 be 76 ee 1a 3f
       0.26326746 -0.34936628 -0.29868382 0.6052011
0001f0 4b f8 b9 3e a4 01 67 3f fd 2b 8b 3f 84 30 cc 3d
       0.36322245 0.9023688 1.0872799 0.09970191
000200 16 49 de bd a8 3b 0c 3f ea 89 05 3e f1 6e fb 3e
       -0.10853784 0.5477853 0.13040891 0.4910808
000210 18 58 41 be bb 4f 97 be 06 6d 1b bf c3 af 45 3e
       -0.18881261 -0.29553017 -0.6071323 0.19305329
000220 c0 c7 8c be 06 f7 29 bf 91 8e 0c bf 59 10 59 3e
       -0.27496147 -0.6639255 -0.5490504 0.21197642
000230 4f 1d 09 3e 52 7f 21 bf 2a 6b 24 be f7 5f 96 bd
       0.13390087 -0.630849 -0.16056505 -0.073425226

critic.9.bias f4 [12]
000000 38 cd 09 bf 74 b7 17 be fb cb 12 be ba 48 2e be
       -0.53828764 -0.14816076 -0.14335625 -0.1701993
000010 83 60 36 be 40 aa 59 3f 6a cd ce bd b4 b1 2f bf
       -0.17810254 0.85025406 -0.100977734 -0.6863053
000020 7b 74 2f be ab 4e 21 3f d8 c9 4b 3f 52 62 c5 be
       -0.17134278 0.6301066 0.79604864 -0.38551575

critic.12.weight f4 [12, 12]
000000 23 df a3 3d 5a e7 c6 bd a3 16 28 bc f9 16 ba be
       0.08001544 -0.097120956 -0.010259303 -0.36345652
000010 fc 3e 19 bd 7f c1 58 be f0 b3 80 3e e0 6f 83 3e
       -0.037413582 -0.21167563 0.2513728 0.2567129
000020 40 2d 85 3e 22 32 35 bf c5 70 06 bf cf 24 69 be
       0.26011086 -0.7077962 -0.5251582 -0.22767948
000030 0c 94 41 3e 8e 66 e5 3c 9e 1a b7 3d 55 c7 cf be
       0.18904132 0.028003003 0.08940624 -0.40581766
000040 e7 3b 35 3d 29 da 0a bf 5d 8a e0 bc 39 84 16 3e
       0.04424658 -0.54239136 -0.027409727 0.14698876
000050 a5 79 8b 3e 4a 2d 01 bf c5 4d 7d be 66 80 17 be
       0.27241245 -0.5045973 -0.24736698 -0.14795074
000060 d4 9f 8f 3d b4 26 38 3e fb 17 1a 3e d9 1d 81 be
       0.07012907 0.17983514 0.1504821 -0.25218084
000070 c9 04 34 be f0 b2 08 3d 03 2e 09 be 4e ac b4 bd
       -0.1757995 0.033373773 -0.13396458 -0.08821927
000080 02 e9 a5 bd a3 dc 71 be 5f 13 de bd 90 92 53 3d
       -0.08101083 -0.23619322 -0.108435385 0.051653445
000090 28 44 40 bd a7 5f 3f be b6 20 4b be 6e 22 21 3f
       -0.04694 -0.18688832 -0.19836697 0.6294316
0000a0 81 04 7e 3e 29 fe 0d be 48 44 4a be 1e 32 7a bd
       0.24806406 -0.13866486 -0.1975261 -0.06108295
0000b0 2a eb 2a be 9d f2 d2 be 5d b8 58 be 58 a3 7a 3d
       -0.1669127 -0.41200724 -0.21164079 0.061190933
0000c0 f4 22 b0 3e e4 ce 06 3f 0c 56 ea 3d 26 4a d8 3e
       0.34401667 0.5265944 0.114421934 0.4224407
0000d0 bf a7 d8 bd ec 2f 8a 3f 76 67 04 be fd 8e 61 3e
       -0.1057887 1.0795875 -0.12930092 0.22027202
0000e0 08 fc e3 3d fa 70 3f 3f ac a8 81 3f 41 f6 fd 3e
       0.111320555 0.74781764 1.01296 0.4960194
0000f0 12 b3 80 be af f5 0d be ab 4f 42 3d 6e 2f 15 3c
       -0.2513662 -0.13863252 0.04743926 0.009105546
000100 c0 eb 5c 3d 62 f0 86 bc 4f c6 86 bd 5b 82 32 bd
       0.053935766 -0.016472045 -0.06580793 -0.043581348
000110 80 4b 0e 3e 85 20 ec bd 9e d7 c4 bd ef 99 86 3e
       0.13895988 -0.1152964 -0.09611438 0.26289317
000120 a8 69 84 bd 48 37 cf bd 89 46 7e 3e a5 b0 08 3e
       -0.06465465 -0.10117966 0.24831595 0.13348635
000130 42 8d a0 bd a6 f1 68 bf 40 82 91 bd 38 23 2e be
       -0.07839443 -0.90993726 -0.07104921 -0.17005622
000140 56 08 8a 3e 7a af d3 be 78 56 3e 3e d2 43 d9 be
       0.26959485 -0.41344815 0.18587673 -0.42434555
000150 38 39 6c 3e 07 7b 7b 3d f1 41 3b be ef 9b 42 3e
       0.23068702 0.061396625 -0.18286873 0.19004796
000160 e4 38 37 be ff 1b f5 bd ba 33 15 be 91 75 03 3e
       -0.17892796 -0.119682305 -0.14570513 0.12837817
000170 a3 58 db 3d db 11 1c be a6 56 30 be 65 e6 44 3d
       0.107102655 -0.15241186 -0.17220554 0.048071284
000180 20 bd 07 3e 2d 73 23 3e 20 3c 70 be 0c fa c8 3d
       0.13255739 0.15961905 -0.23460436 0.09813318
000190 9a 77 85 be 43 42 e7 bc 8e 51 83 bc 47 0b 86 be
       -0.2606781 -0.028229838 -0.0160301 -0.2618048
0001a0 e7 4d 2c 3e 90 15 58 be 0c a3 b6 3d 78 53 15 be
       0.16826592 -0.21101975 0.089178175 -0.14582622
0001b0 0e 4a 0e 3e 10 e4 a7 3d 1b 1b 09 3e 25 35 f0 bc
       0.13895437 0.08197796 0.13389246 -0.029322216
0001c0 71 82 04 be f2 33 e5 bd 59 c6 56 3e b4 27 8c 3d
       -0.12940384 -0.111915484 0.20974101 0.0684351
0001d0 25 e6 06 be 84 62 15 be 68 2c 83 bd 2d dd e0 bd
       -0.1317373 -0.14588362 -0.06404954 -0.10979686
0001e0 ff bb dd bd 78 4e 8a 3e 98 b2 1a be 2c 01 1b be
       -0.10826873 0.27012992 -0.1510719 -0.15137166
0001f0 9c 2b 75 3e 1c 23 1c bf 79 14 03 3e 43 2f 86 be
       0.23942417 -0.6099107 0.12800778 -0.26207933
000200 6e a6 f1 3c b5 07 20 bf d2 92 1f bf 7e 21 a3 be
       0.029498305 -0.6251176 -0.62333405 -0.3186149
000210 fc 72 fd 3d ec ef 95 bd 01 5d 13 bd 67 44 d2 3d
       0.12375447 -0.07321152 -0.035977367 0.10266953
000220 de 8b 8d be 2f 6f 39 3c 97 e6 8e be 0e 7c c5 bd
       -0.27645773 0.011318012 -0.279103 -0.09642802
000230 61 74 80 3e d7 fb d2 bd 98 4f 02 be ed 33 8a be
       0.2508879 -0.10301941 -0.12725675 -0.2699274

critic.12.bias f4 [12]
000000 64 1f 29 be ce 63 af be 73 4f 6b be a6 c5 b8 3e
       -0.16515881 -0.34255832 -0.22979526 0.36088294
000010 32 76 3d 3f 06 11 8e be 50 bc 10 3e 58 e4 59 be
       0.74008477 -0.27747363 0.14134336 -0.21278512
000020 a7 a6 5c be 0d 6f 7d bd af 65 a9 be 8a 41 92 be
       -0.21547948 -0.061873484 -0.3308539 -0.28565627

critic.15.weight f4 [12, 12]
000000 c0 ba 92 3e 25 e3 5a 3e 54 fd af bd 90 66 9a be
       0.28658104 0.21375711 -0.085932404 -0.30156374
000010 3e 8f 84 3f e5 58 4d 3a 48 05 38 3d f6 32 81 be
       1.0356214 0.0007833376 0.04492691 -0.25234193
000020 84 8d 0c bb 36 54 8f be 90 12 3e 3e 36 ab f1 3d
       -0.0021446655 -0.27993935 0.18561769 0.11800234
000030 46 1f 1a 3e 04 4f e9 3e 70 76 c3 3d cf 68 5d be
       0.15050992 0.45568097 0.095440745 -0.21622013
000040 94 05 23 3f bf e3 80 bd 92 69 e8 3e 61 ce 27 be
       0.63680387 -0.06293439 0.45393044 -0.16387321
000050 c0 d3 5f be f8 93 42 be af c8 17 3f 5c cb d5 3c
       -0.2185812 -0.19001758 0.59290594 0.026097946
000060 5d 29 f0 be a3 ce db be 65 ce ef bd 51 7a 70 3d
       -0.46906558 -0.4293109 -0.117092885 0.0587104
000070 c9 be ec be 8f e1 f8 bc cc 90 71 3e c6 ee 41 be
       -0.46239308 -0.030380992 0.23590392 -0.18938741
000080 d8 47 18 3d 6e da 8b 3c 40 0b 25 3e 88 63 80 3e
       0.03717789 0.017071929 0.16117573 0.25075936
000090 c9 48 13 3f d9 56 1e 3f ee 74 ae 3d a0 b9 12 be
       0.57532936 0.6185127 0.08518396 -0.14328623
0000a0 db f5 0a 3f 10 29 09 3e 22 d2 86 3e f0 a1 bf bd
       0.54281396 0.1339457 0.26332194 -0.09357059
0000b0 62 9d 1a be 76 c6 2b bc bc 31 2b 3f 29 50 21 be
       -0.150991 -0.0104843285 0.66872764 -0.15753235
0000c0 1b d0 ed bd 4f 33 12 be ca 22 77 be e6 05 e4 3d
       -0.116119586 -0.14277385 -0.24134365 0.111339375
0000d0 d1 08 2a bd d1 f9 eb 3c 64 27 90 3e 63 a2 3b 3d
       -0.041512314 0.028805645 0.28155053 0.04580916
0000e0 0a 5f 66 3e 13 ee 3e 3d 77 9e fb bc 59 1c 34 3e
       0.22497192 0.046613764 -0.03071521 0.17588939
0000f0 d8 4f b6 be 40 74 f4 be 90 c1 1e 3c 46 ba e7 bd
       -0.3560779 -0.47744942 0.009689704 -0.11314826
000100 bf a5 ef be e5 1f 44 3e 21 cc 17 3f 67 0c 88 3e
       -0.46806142 0.19152792 0.5929585 0.26571962
000110 09 ae 57 be 79 6e fb bb f7 e1 a6 be 1e cc 48 3e
       -0.21062483 -0.0076730815 -0.32594272 0.19609115
000120 cf 1a 23 be 5c aa 6b be 18 27 2b 3d db 04 2a be
       -0.15928195 -0.23014206 0.04178533 -0.16603415
000130 68 eb 7d 3d 75 f3 38 be bc 91 7e 3d c1 1b b6 bd
       0.06199208 -0.18061621 0.062150702 -0.088920124
000140 3e 7e 85 be 7c 1b 90 be 9d 63 00 3e c5 4a b4 bd
       -0.26072878 -0.2814597 0.12538 -0.08803324
000150 93 39 3e be 0c 3d c3 bd 1b 5f 2d 3e 01 a2 42 3e
       -0.1857665 -0.09533128 0.16930811 0.19007112
000160 bb df 0c bf 8a 14 6b bc 1b cd 82 3d 90 11 08 bd
       -0.55028886 -0.014348159 0.06386777 -0.033219874
000170 02 05 0e 3e 9a d4 8f bd cc df d3 be 24 78 f7 bc
       0.13869098 -0.070229724 -0.4138168 -0.030208655
000180 54 b9 a6 3e a2 b8 63 3e 60 b9 70 bb 1e 97 5e be
       0.3256327 0.222384 -0.0036731586 -0.21737334
000190 35 8d 4b 3f 5c 39 01 be 9e 34 6f 3f bb 28 40 bd
       0.7951234 -0.12619537 0.9343966 -0.046913844
0001a0 c4 7c 6f 3e 85 44 ad 3d 30 bf 70 3e 49 10 93 3e
       0.23387438 0.08460335 0.23510432 0.28723362
0001b0 4a 42 b5 3e de 4f 4c 3e 21 34 f7 3d 60 2c 23 3d
       0.35402137 0.19952342 0.1207049 0.03983724
0001c0 5c 5a 89 3f 2f 8b 62 3e 20 7c 40 3d 08 d7 e9 bd
       1.07307 0.22123407 0.046993375 -0.11417967
0001d0 75 c6 8e 3d 20 cb 13 3e 19 fa 2a 3f c2 5e 97 3d
       0.069714464 0.14432955 0.6678787 0.073911205
0001e0 69 a1 b5 3c 7c 5b 81 3e 88 b5 88 3d 7c c7 6f be
       0.022171693 0.2526511 0.06675249 -0.23415941
0001f0 99 0e 9b bd 32 b4 8a bc 8b 1c c9 3d 4e d6 8d be
       -0.07571144 -0.016931627 0.09819897 -0.27702564
000200 ea f5 92 be 0a 64 28 be 7f 51 17 3d 37 8e 48 3e
       -0.28703243 -0.16444412 0.036942955 0.195855
000210 49 3f 76 be a4 03 f5 3d 69 f2 76 3c f1 77 82 3e
       -0.24047579 0.11963585 0.0150724435 0.25482133
000220 21 03 25 be b8 43 b8 bd d5 b1 bf 3d b2 c9 8c be
       -0.16114475 -0.08997291 0.09360091 -0.2749763
000230 57 94 3b 3e b8 7e f1 bd e5 c2 67 3d 34 6b 38 be
       0.18318306 -0.11791748 0.05658235 -0.18009645

critic.15.bias f4 [12]
000000 ae f0 90 3f 07 36 0d 3f a8 b5 d0 be de aa 3e 3f
       1.132345 0.55160564 -0.40763593 0.7447947
000010 e9 cf 56 be f5 ca d8 be 4e dc 5c be 89 2e e1 be
       -0.20977749 -0.42342344 -0.21568415 -0.43980816
000020 de 16 99 3f 36 43 7c 3f 20 a8 a2 bd af 79 d6 bd
       1.1960104 0.98540056 -0.079422235 -0.10472428

critic.18.weight f4 [12, 12]
000000 6e 27 82 3f 00 74 2e 3c c8 c4 6c be d2 2e d8 3e
       1.0168283 0.010647774 -0.23121941 0.4222322
000010 bf 13 2d 3e 0f 16 26 be 78 b5 31 bd 42 e5 05 be
       0.16902064 -0.16219352 -0.043385953 -0.13075736
000020 62 ce 89 3f 21 a3 41 3f df d9 29 bd 08 8a 09 3e
       1.0766108 0.7563954 -0.041467544 0.13431561
000030 82 ea f5 bd 8b a3 8d 3e 09 1c 1f be 21 c5 ca bd
       -0.120076194 0.27663836 -0.15538038 -0.099008806
000040 67 bc a0 3c e4 13 0b be fb ea 90 be 80 20 60 be
       0.019621087 -0.13581806 -0.28304276 -0.21887398
000050 22 1d 85 be 88 44 84 3e 25 f5 9f 3c c4 b9 11 be
       -0.2599879 0.25833535 0.019526074 -0.1423102
000060 f4 4a 01 be 82 cd 82 be 03 a2 10 be 3e 99 41 3e
       -0.12626249 -0.25547415 -0.14124303 0.18906114
000070 75 33 40 be 76 0c 4f be f0 1f f3 3c f9 7c 12 3e
       -0.1876963 -0.20219597 0.029678315 0.14305486
000080 66 53 b0 bd 98 b4 1e be 98 59 f8 bd 38 64 8e be
       -0.08609657 -0.15498579 -0.12126464 -0.27810836
000090 7b 2a 24 3f 07 84 b2 3e 5b 65 41 3e 80 90 4b bd
       0.6412732 0.34866354 0.1888632 -0.049698353
0000a0 1e d6 f0 bd 4e cc f6 bb f0 98 67 3e 92 86 73 bc
       -0.117595896 -0.0075316792 0.22616935 -0.014863627
0000b0 30 04 61 3f 36 2b 02 3f 34 e9 8a 3d d9 81 3d be
       0.87897015 0.50847185 0.06782761 -0.18506564
0000c0 6f 48 9a 3f 55 29 46 3f 13 22 75 be e8 d7 32 3f
       1.2053355 0.7740682 -0.2393878 0.69860697
0000d0 de c7 5f 3e c1 05 62 3e c1 d2 f6 3d e7 a9 4a 3e
       0.21853587 0.22072507 0.12051917 0.19791375
0000e0 71 90 9c 3f da 3c 83 3f 6d 70 8d 3e 32 5f 93 be
       1.223158 1.0252945 0.27624837 -0.28783566
0000f0 69 40 b0 3e 58 1f 06 3e 82 ed 40 3e 0e f5 bb 3d
       0.3442414 0.13097894 0.18840602 0.091776
000100 25 de 87 be 98 48 f2 3d c1 71 54 be f2 04 e4 bd
       -0.2653667 0.118302524 -0.20746519 -0.11133756
000110 40 be cc 3c 71 1e a3 bd dc d8 42 bd ec 3d 4d 3e
       0.024993062 -0.079647906 -0.047570094 0.20043153
000120 38 a1 83 3f 34 00 80 3e 28 06 3e be b4 d6 6c 3f
       1.0283575 0.25000155 -0.18557036 0.9251511
000130 fa 5f 0c 3d c7 97 f0 3e 54 28 12 be fe a9 24 bf
       0.034271218 0.46990797 -0.14273196 -0.6432189
000140 9a 2e 98 3f fb 90 a4 3f c6 b3 72 be 8e 79 83 3e
       1.1889222 1.2856745 -0.2370139 0.25678676
000150 76 2c a7 3f 9b a5 22 3f 18 d0 95 bd 7c fb 88 3f
       1.3060443 0.63533944 -0.07315081 1.0701747
000160 19 4a 17 3d ba fa 9c 3e 5d 93 2a be 8b 8b 0b 3e
       0.0369359 0.3066004 -0.16657777 0.1362745
000170 48 fa 9c 3f c0 d0 a4 3f 67 75 64 3d 8a 31 41 be
       1.226388 1.2876205 0.055776026 -0.18866554
000180 ec c2 78 be 32 07 21 be 1d 93 81 be 1d 4b 91 3e
       -0.24293107 -0.15725401 -0.2530755 0.2837762
000190 17 45 8a 3d 8f d7 6d 3e ad 8c 99 3c b9 43 87 3e
       0.06751459 0.2322676 0.018743837 0.26418856
0001a0 e3 f8 e7 be 98 e7 0e bf b6 25 0f 3e 2f 5b 5f 3d
       -0.45307073 -0.55822134 0.1397923 0.05453032
0001b0 cb 0e e3 bd d0 fe 84 bd 98 15 06 3e 52 5b 4b 3e
       -0.11086806 -0.06493914 0.13094175 0.19859055
0001c0 4d c4 66 be b9 af 4b be 54 c0 3a 3e 38 7d 54 3e
       -0.2253582 -0.19891252 0.1823743 0.20750892
0001d0 68 59 21 bd 71 d6 da bd 09 bc cb 3d 19 4f 6f 3e
       -0.039391905 -0.10685433 0.09947974 0.23370017
0001e0 94 e9 81 3e f9 38 3a 3e b4 25 88 be 5b 23 00 3f
       0.25373518 0.18185796 -0.26591265 0.5005395
0001f0 e1 72 8a 3e 52 7a 32 bf 66 09 64 3d 7b 17 b7 3e
       0.2704077 -0.69717896 0.055673026 0.35760102
000200 a0 a5 16 bf fd 08 02 3f 83 fb 86 bd 95 17 82 3e
       -0.58846474 0.50794965 -0.06590941 0.25408617
000210 15 85 50 be a6 b3 1d 3d cc 8e d9 bd 56 7d 20 3e
       -0.20363267 0.038501404 -0.106229395 0.15672812
000220 a6 59 60 3e 7f 31 49 3e a0 7c be 3d ed 36 88 be
       0.21909198 0.19647788 0.09301114 -0.26604405
000230 20 ec 1f 3d 51 bc 26 be 52 72 b8 3d 37 93 25 3d
       0.039043546 -0.16282775 0.0900618 0.0404236

critic.18.bias f4 [12]
000000 2f c9 14 3f 60 9b 52 be 30 5f 30 be b5 f3 5a 3e
       0.5811948 -0.20567083 -0.17223811 0.2138203
000010 3c 76 43 3f ae 7b 2d bd 7e 73 3a 3f 6c 6b 42 3f
       0.76352286 -0.04235428 0.7283248 0.7594516
000020 4f e2 19 bf 1f 35 20 bd 9b 5f c1 be d9 d8 96 bd
       -0.60110945 -0.03911316 -0.37768254 -0.07365579

critic.21.weight f4 [12, 12]
000000 34 cb 8e 3d 67 9d d0 bc 97 a5 82 be 5f 99 75 3e
       0.06972352 -0.02546568 -0.2551696 0.23984288
000010 29 00 55 be b7 19 03 be 77 92 fc 3c bf ab b4 3d
       -0.20800842 -0.12802778 0.030831559 0.088218205
000020 a1 e3 bf 3d bd 4c a0 3d 2d 6b 6d be 68 93 70 be
       0.09369589 0.07827137 -0.23185416 -0.23493731
000030 ca a4 80 3f fe b3 75 be 09 d8 af bd a6 27 ff 3e
       1.005029 -0.23994443 -0.08586127 0.49834937
000040 bd b6 89 3f 57 6b 4a 3e 8e 73 45 3f 6c db 7c 3f
       1.0758892 0.1976751 0.7712945 0.9877231
000050 ce e9 99 3e 95 f0 4a be f6 d4 49 be 36 24 b0 3c
       0.3006119 -0.19818337 -0.19710144 0.021501642
000060 95 52 96 3f c7 4f c2 bd f5 47 b8 3d 86 f7 50 3f
       1.1743952 -0.094878726 0.089981 0.8162769
000070 03 b5 89 3f 47 f2 fa 3d 38 f0 d4 bd 40 4f bd 3f
       1.0758365 0.12253242 -0.103973806 1.478981
000080 86 56 18 3e de 6b a8 3c 67 fb cf be 6b 11 88 bd
       0.14876756 0.020559248 -0.40621492 -0.06643947
000090 ca 80 22 be 76 92 8b be e0 7a 3b be 9b 53 3f be
       -0.15869442 -0.27260178 -0.18308592 -0.18684237
0000a0 d5 a9 05 bf f1 96 4c 3d cd 35 d5 be 2e 02 55 be
       -0.5221227 0.049948636 -0.4164261 -0.20801613
0000b0 52 ca c0 be fe 07 b3 bd fa 9f dc bd 14 3b be bd
       -0.37654358 -0.08741759 -0.107727006 -0.09288612
0000c0 7f 7e 4e be 68 e1 cf 3d 73 53 a7 be d1 25 3b be
       -0.20165442 0.10150415 -0.32680854 -0.18276145
0000d0 05 2a 42 be 54 f8 78 bd 29 f2 c5 3d f6 55 4b be
       -0.18961342 -0.0607837 0.09665329 -0.1985701
0000e0 21 35 8f 3e 97 55 88 be 08 fb 9d bd 1b fa 20 3b
       0.27970222 -0.266278 -0.07713896 0.0024563137
0000f0 e2 80 2d 3e 71 1d c8 3d c0 81 7d be 38 c7 69 be
       0.16943696 0.097712405 -0.24756527 -0.22829902
000100 e8 db fb 3d 1b 6e 84 bd 59 60 04 be 80 6f 00 be
       0.12297803 -0.064663135 -0.12927379 -0.12542534
000110 95 7a 45 be 99 b0 fd 3d 5c c2 6f be 05 41 14 be
       -0.19285043 0.12387199 -0.23413986 -0.14477928
000120 f4 ce 8b be c5 99 f9 3d 9a 5b 88 3e 02 40 34 bf
       -0.2730633 0.12187532 0.26632386 -0.7041017
000130 a4 ba e9 bd 13 0d 73 3e a9 8b 15 bf 38 0a 44 be
       -0.11412552 0.23735456 -0.5841623 -0.19144523
000140 08 25 05 bf e7 fe 4c 3e 74 52 07 3f 28 03 6c be
       -0.5200963 0.20019113 0.5286019 -0.23048079
000150 a0 82 98 3d 76 f4 17 be 80 0b a2 bd 6d d9 17 3c
       0.0744679 -0.14839348 -0.0791235 0.009268147
000160 fe 28 55 be 63 6d e1 3d 32 12 7a be 19 16 02 bf
       -0.20816419 0.11007192 -0.24421003 -0.5081497
000170 7e 92 07 3e 81 16 82 be a2 51 d4 be 7d 65 1a be
       0.13239476 -0.25407794 -0.4146853 -0.15077777
000180 7f 28 0d 3c cb ab c2 bd 17 9e 20 be a3 72 93 bd
       0.008615612 -0.09505423 -0.15685306 -0.071995996
000190 13 f8 87 be 0b 8f 04 be 7e a6 07 be af 49 8f 3e
       -0.26556453 -0.12945192 -0.13247105 0.27985904
0001a0 1f e2 13 be fd 9b f4 bb ae 0c a9 bd 06 b0 68 be
       -0.14441727 -0.0074648843 -0.082543716 -0.22723398
0001b0 f4 5e 78 3f b6 91 59 be ca 05 e1 3d c8 e7 a6 3e
       0.97019887 -0.2124699 0.10987432 0.3259871
0001c0 dc 9b 81 3f 27 4e 42 3e ca 15 84 3f 28 dc 8f 3f
       1.012569 0.18975125 1.031915 1.1239061
0001d0 ce d6 bc 3e 99 81 92 be cf af b2 3e d6 9b 8e be
       0.36882633 -0.286145 0.34899756 -0.27853268
0001e0 5c 5a c3 3e 9e 7f 85 be 36 8f 40 bd 1c 1e 00 3f
       0.38154876 -0.26073927 -0.047011577 0.50045943
0001f0 c3 b2 b1 3e 78 21 0a 3c 76 02 37 3f 59 98 9b 3e
       0.34706697 0.008430831 0.7148813 0.3038967
000200 c3 06 89 be 86 d6 1c 3e 9f b2 7c be 01 3c c6 bc
       -0.2676297 0.15316209 -0.24677514 -0.024198534
000210 de c2 69 be be cc 7e 3d c8 37 7c bd b3 10 4d be
       -0.22828242 0.062206976 -0.061576635 -0.20025901
000220 c7 94 25 be d9 08 d6 3a 98 be 8c be b3 73 e5 be
       -0.16170035 0.0016329541 -0.27489161 -0.44814834
000230 b8 ca 8b 3e 1c ca 8a 3e df ba 03 3f 60 a9 34 be
       0.273031 0.27107322 0.5145702 -0.17642736

critic.21.bias f4 [12]
000000 51 19 0f be 76 9d 07 3f 34 99 c3 be f6 69 0c bf
       -0.13974501 0.5297464 -0.38202822 -0.54849184
000010 6b 71 b5 be 03 00 97 bd ca 1c dc be 84 e5 b3 be
       -0.35438094 -0.07373049 -0.42990714 -0.35136044
000020 86 39 1d be 16 f0 c4 3e 93 ec 11 3f 72 27 c6 be
       -0.15353975 0.3846442 0.5700161 -0.3870197

critic.24.weight f4 [12, 12]
000000 05 42 51 3b 3d 31 28 3e 56 c9 51 be 94 86 9a 3d
       0.003193022 0.16425033 -0.2048696 0.075452
000010 5c eb ae 3c c7 48 8d be d8 5c ae 3d aa 44 46 be
       0.021352462 -0.27594587 0.08513802 -0.19362131
000020 e6 6a 98 bd 9f 06 0b be 4c bc 8a be fc 23 3f 3e
       -0.07442264 -0.13576744 -0.27096784 0.1866607
000030 a4 e0 2e 3e fa 22 0b 3d 35 14 40 be 12 7a 84 3e
       0.17077881 0.033968903 -0.18757708 0.25874382
000040 04 0f d3 bd 39 dc 4b be f8 a3 58 be 3a c3 26 3d
       -0.103055984 -0.19908227 -0.21156299 0.040713526
000050 c7 56 2a be a0 cf 29 bd 3c 9b 8f be b3 08 9b bd
       -0.16634665 -0.041457772 -0.28048122 -0.075700186
000060 3b 66 8a be 3e 07 53 be 5d 1d 71 be ae f5 3b be
       -0.2703112 -0.20608231 -0.23546357 -0.18355438
000070 57 ab 11 be 29 2b b8 bd e8 63 ea be ac c6 8c 3e
       -0.14225517 -0.08992607 -0.45779347 0.27495325
000080 ac 02 cc 3c ee a0 71 be 76 b5 65 be 45 29 c2 be
       0.024903618 -0.23596546 -0.22432503 -0.3792211
000090 1c 92 50 be f3 7f f2 3d 1c 15 7c be 8b 59 84 be
       -0.20368236 0.118408106 -0.24617428 -0.25849566
0000a0 35 86 f9 3e a9 79 ff bb 0f 95 8f 3e 99 30 a5 bd
       0.48735204 -0.0077964854 0.2804341 -0.0806591
0000b0 49 36 4f be cf 6d 44 3e b6 e5 46 bd d1 9e 18 3f
       -0.20235552 0.19182514 -0.048558913 0.59617335
0000c0 d8 ce a1 bd 00 6a 9d bb 25 0c bb 3e 9e e3 8e 3e
       -0.079007804 -0.004803896 0.36532703 0.27908033
0000d0 43 20 67 3d 15 f5 94 3d cb 47 a8 3e c8 64 8a 3e
       0.05642725 0.07273308 0.32867274 0.27030015
0000e0 da 80 69 3e 8a 17 1a 3f 2a 37 fc 3e 4a cd 8e 3e
       0.22803059 0.6019217 0.49260837 0.27890998
0000f0 9b 38 53 3e 48 9a 73 3e 58 c7 c4 be c8 33 83 3e
       0.20627062 0.23789322 -0.38433337 0.25625443
000100 95 86 57 be 45 3e 6e 3e ee 11 d5 be 0e 37 0d bf
       -0.21047433 0.23265941 -0.41615242 -0.5516213
000110 cb 8c 3e bd 83 ab 17 bf 33 d2 98 be d3 e5 85 3e
       -0.04652099 -0.5924608 -0.2984787 0.26151904
000120 12 42 c9 3d e5 9f 85 3f ae fa 58 3f 14 b5 34 3f
       0.09827055 1.0439421 0.84757507 0.70588803
000130 98 b6 0a be 94 ad 20 3e b0 5c 23 3f 49 82 32 be
       -0.13546216 0.15691215 0.63813305 -0.17432512
000140 43 c3 6f bb 4c cf 8d 3f 78 ad 6b bd 7b 1c 19 be
       -0.003658489 1.1078887 -0.05753848 -0.1495227
000150 de 98 91 be af bb 7b be 16 ec 80 be 3f c8 45 3d
       -0.2843694 -0.24583314 -0.2518012 0.048286673
000160 35 a9 52 3d 6a 63 8e be 0d e6 05 3e 60 4d 0e be
       0.0514309 -0.27810222 0.13076039 -0.13896704
000170 e1 87 1e 3e 8e ee 21 bf f4 72 48 be fd 9d 4f 3e
       0.15481521 -0.6325463 -0.19575101 0.20275111
000180 6f 27 a7 3d 95 cb ab bd 7c 04 3f be 28 85 81 be
       0.08161818 -0.083884396 -0.18654054 -0.25296903
000190 8e e6 b1 3e c3 9f c9 bd d6 4b ea 3d d6 f7 2f 3e
       0.34746212 -0.09844925 0.11440246 0.17184386
0001a0 69 0c 92 bd 1f e8 0a be 9d c4 24 be 02 4e 80 3e
       -0.07131273 -0.1356511 -0.16090627 0.25059515
0001b0 0c d9 fc bc a1 4f 5f 3f 26 c8 1d 3f c6 a8 3e 3e
       -0.030865215 0.8723088 0.6163353 0.1861907
0001c0 8c 72 15 3e 13 4f 99 bc 79 2b 48 3e b4 66 af 3e
       0.14594477 -0.018714463 0.19547834 0.34258044
0001d0 85 84 99 3b 36 fc 96 3f 09 68 3a 3f 69 69 ad 3e
       0.004684987 1.1795719 0.72814995 0.33869484
0001e0 58 81 49 be 6f 8d 66 3e 4a e5 4a be 30 4c 2b 3e
       -0.19678247 0.2251489 -0.1981403 0.16728282
0001f0 66 e4 24 bf 2d 1a 47 3d 70 34 4f be d1 7d b8 be
       -0.6441101 0.048608948 -0.20234847 -0.3603349
000200 15 d1 4b be 3f 1f d8 be 80 57 aa 3e 06 ad 1c 3f
       -0.19903977 -0.4221134 0.33269882 0.6120151
000210 90 5f 42 be 52 f8 30 3f 61 24 76 3f fa 58 8f 3d
       -0.18981767 0.69128907 0.9614926 0.06999393
000220 4a 5d 82 3e 5b 5f c3 3c db d9 b5 3e a7 6f 69 3e
       0.254618 0.02384918 0.35517773 0.22796498
000230 3e 38 1f 3d 10 21 86 3f 92 12 10 3f 0e a2 30 3f
       0.038871996 1.047884 0.56278336 0.68997276

critic.24.bias f4 [12]
000000 4a 6e 15 be 82 22 93 be 79 a3 a6 be b8 4c bd bc
       -0.14592853 -0.28737265 -0.32546595 -0.023107871
000010 9e 01 1d 3f b3 c6 b7 be 70 7a 3c 3f 92 f2 25 bf
       0.6133059 -0.35893783 0.73624325 -0.6482326
000020 e0 21 67 be bf 49 0b 3f 89 bc bf be 37 0b f4 3e
       -0.22571516 0.544094 -0.37448528 0.47664806

critic.27.weight f4 [12, 12]
000000 c3 5a a7 bd 55 18 81 3e 48 a9 62 3e bf 92 85 be
       -0.08171608 0.25213876 0.22134888 -0.2608852
000010 aa 15 21 bf c8 81 bd be 6a 56 49 be 31 b8 30 3d
       -0.6292368 -0.37013078 -0.1966187 0.04314441
000020 cf 92 80 3d 58 8b 28 bf 8d 31 7d be 5e b7 22 bf
       0.062780015 -0.6583762 -0.24725933 -0.63561046
000030 0f 8d 38 be a9 50 43 bd 05 ad 04 be a5 46 c0 3c
       -0.1802256 -0.047684345 -0.12956627 0.023471186
000040 e9 84 20 bf f9 e1 87 be cc b5 8b be 00 22 bd bd
       -0.62702805 -0.2653959 -0.27287138 -0.092350006
000050 9e 02 99 3d 9f 45 b8 be ca 62 9b be cd 75 06 bf
       0.07471202 -0.35990617 -0.30348808 -0.525235
000060 eb 8a 59 3d 34 9c 75 be 29 3e 8a 3e d7 a1 d8 3e
       0.053110998 -0.23985368 0.2700055 0.42310974
000070 0e ac 3f 3e 11 38 83 3e f5 68 06 3f 40 8e 45 3e
       0.18717977 0.25628713 0.525039 0.19292545
000080 70 66 13 3f fd 48 9e 3e b9 63 9f 3e e0 89 86 3f
       0.5757818 0.3091506 0.3113077 1.0510826
000090 43 a5 aa bd b5 3d 9b 3d 88 79 81 3e 1a 0f 63 3e
       -0.083323024 0.07580129 0.25288033 0.2217373
0000a0 02 43 2f 3f fd 29 80 be 4f 03 39 3f b1 d5 09 3f
       0.6846162 -0.25032035 0.72270674 0.5384169
0000b0 5a ae bd 3d 8c 3a c0 3e 69 94 2a be 29 3e 7b 3e
       0.092617705 0.37544668 -0.16658176 0.24535431
0000c0 84 85 9a 3c c3 e7 63 be 21 fe 8d be 6b 84 54 3e
       0.018862493 -0.22256379 -0.27732947 0.20753638
0000d0 ac fa 0d bf 0c 2f 32 bf 1e c7 8e be 58 d5 77 3d
       -0.5546062 -0.6960304 -0.2788629 0.060506195
0000e0 d1 96 41 be 28 b7 08 bf ea 44 21 bf 0b 11 15 bf
       -0.18905188 -0.53404474 -0.6299578 -0.5822913
0000f0 b5 ef 21 3e 75 c3 93 3e 49 fd 1a 3e 0d 49 95 3c
       0.15814097 0.2886006 0.15135683 0.01822331
000100 8f a7 d7 be 59 59 63 3e a4 16 af bd 34 4e 26 3e
       -0.42120025 0.22202052 -0.0854924 0.1624077
000110 a5 da 48 be 66 dd 93 be c9 e9 1d bf 6e af 35 bf
       -0.19614656 -0.2887985 -0.6168485 -0.7097081
000120 74 42 cf 3d ea 02 8b 3e 98 78 7c bd ae 53 17 bf
       0.10120097 0.2715066 -0.061638445 -0.5911206
000130 45 5a 79 be 7a 5e 54 be cd 7b 75 be 52 21 46 3e
       -0.24350841 -0.20739165 -0.23973008 0.19348648
000140 40 02 33 bd 3e a4 38 bb 00 1d 26 be 23 a4 28 bf
       -0.043703318 -0.0028174068 -0.16222 -0.6587545
000150 70 40 65 3e cf f0 64 3e 0c fd 90 3e 18 00 9c 3d
       0.22387862 0.22357486 0.2831806 0.076172054
000160 50 be 20 3f 7a cd 88 3e be 61 41 3f ba 27 c6 3d
       0.62790394 0.26719266 0.7553977 0.09675546
000170 9f b1 11 3d 28 8c 0e 3f 24 84 0e 3f 86 cc 3f 3f
       0.035569783 0.5568261 0.5567038 0.74921453
000180 c6 fa 6a be d6 d8 b6 3d e4 12 56 be 57 af 84 3d
       -0.22947225 0.08928077 -0.20905644 0.06478756
000190 e2 36 26 3f 8e 3e 20 bf d2 bf f9 bd 40 6b 46 be
       0.64927495 -0.6259545 -0.1219479 -0.1937685
0001a0 86 14 7f 3e a4 ad d4 3e d8 31 0e bf 35 71 d4 3e
       0.24910173 0.41538727 -0.55544806 0.4149262
0001b0 34 c0 b2 3b ad 61 20 be af ae 98 bd 70 be 36 be
       0.0054550413 -0.1566226 -0.07455193 -0.17846084
0001c0 ba 77 8b 3f d2 7d 72 3e cc 6a 81 3f 85 4c ba 3e
       1.0895913 0.23680809 1.0110717 0.36386505
0001d0 6d d3 16 be ba 6f 8b 3f 25 7c 38 be aa ae 48 3e
       -0.1472909 1.0893471 -0.18016107 0.19597879
0001e0 d5 73 18 3e 9d 89 52 3e 9e 8f 58 3e d9 ec 6e 3d
       0.14887936 0.20560308 0.21148536 0.058331344
0001f0 8d 8e c7 bc 9e ff 92 be 34 e0 75 bd a9 56 0e 3e
       -0.024359966 -0.28710645 -0.06002827 0.13900246
000200 b8 eb fa bd 09 01 d4 bd d0 63 1c 3e 27 99 be bd
       -0.12251991 -0.1035176 0.1527245 -0.09306555
000210 b6 e7 2c 3c 70 e3 8e be 7a 26 58 bd 3c 3d b1 3d
       0.010553291 -0.27907896 -0.05277107 0.08654258
000220 a5 7e 2e 3f 65 ac ff 3e 4f e8 15 3f 94 62 2a 3f
       0.68161994 0.49936214 0.585576 0.6655667
000230 7f 54 1d 3e c9 94 2e 3f e5 50 3b 3f fa a5 3c 3f
       0.15364264 0.6819578 0.7317031 0.7369076

critic.27.bias f4 [12]
000000 fa 8b 70 be 32 6b 8c be 55 16 0a 3f 24 47 ac 3e
       -0.23490897 -0.27425534 0.53940326 0.33648026
000010 68 f7 77 be 72 c2 2e be 2e 77 cb be 40 39 0f 3f
       -0.24215472 -0.17066363 -0.39739364 0.5594673
000020 f9 80 57 be 22 78 21 3f 7a bc d6 bd 6c 49 33 3f
       -0.21045293 0.63073933 -0.10485168 0.7003391

critic.30.weight f4 [12, 12]
000000 84 68 fe be a0 d9 b3 be b3 6c c3 3d fc 27 81 3d
       -0.49689114 -0.35126972 0.09542217 0.063064545
000010 10 95 36 be 9c 6b 47 be 4c 0a 76 be de 43 be be
       -0.178303 -0.19474643 -0.24027365 -0.37161154
000020 40 c2 bb be 24 62 27 3d 5e 90 c1 bd dc 29 a8 be
       -0.36671638 0.04086508 -0.09451364 -0.32844436
000030 74 f3 b7 3e 66 84 16 3f 57 68 bd 3e ec 8e 03 3f
       0.35927927 0.58795774 0.36993667 0.51389956
000040 63 1b d9 3e 98 87 bd 3e 5f 15 64 3e 9f d1 21 3f
       0.42403707 0.37017512 0.22273777 0.6321048
000050 7a b2 0c 3f c4 b7 8d be 64 44 f3 3d 3f a2 f1 3e
       0.54959834 -0.27679265 0.11878279 0.47194096
000060 34 67 25 3e 46 44 28 3e bf 76 fe 3e 08 c4 cb 3e
       0.1615265 0.16432294 0.4969997 0.39797997
000070 24 f8 2a 3f 36 4c ef 3e b9 b3 6b be dd 35 cd 3e
       0.6678488 0.46737832 -0.23017778 0.40080157
000080 fc a4 1a 3f 4e 8b 72 3f 11 6d 84 3e d1 b4 54 3f
       0.60407996 0.9474381 0.2586446 0.83088404
000090 11 d1 09 3f 0e 4f 36 3f 3f a8 1e bf 40 f6 d7 be
       0.53834635 0.7121438 -0.61975473 -0.4218006
0000a0 e2 a2 b3 3e ec 77 c0 3e 8c 8d 1f 3d a4 66 25 3f
       0.35085207 0.37591493 0.03895335 0.6460974
0000b0 89 9f c7 3e 4a 50 aa be 2a c5 64 3e ba 3b a0 3d
       0.38988903 -0.3326438 0.22340837 0.07823892
0000c0 25 e6 f7 be 6c dd 28 bf 91 5c 24 be f1 5f 10 3c
       -0.48417774 -0.6596286 -0.16050936 0.008811937
0000d0 2e 83 c7 be 15 1a f9 be 34 1d 85 be 88 4e 1e bf
       -0.3896727 -0.48652712 -0.25998843 -0.6183858
0000e0 40 5f 8e be a7 ad 75 bc 28 9f 92 be ad 08 36 bf
       -0.27807045 -0.014995015 -0.28637052 -0.7110699
0000f0 ba 61 a0 3e 4c 74 3f 3e 7c 59 9e bc ea f3 5c be
       0.3132456 0.18696707 -0.019329779 -0.21577421
000100 4a dc d4 3e bb c5 23 3f 34 fd a1 3e 51 78 ad 3e
       0.41574317 0.6397359 0.3163849 0.33880857
000110 ce b6 db 3e b9 12 0c bf 4a c9 be bd fd 29 d9 3e
       0.42912906 -0.5471607 -0.093157366 0.42414847
000120 ba fc 40 bc 9d 10 05 3e 78 d4 10 3f ae cd 17 3f
       -0.011779005 0.12994619 0.565742 0.5929822
000130 aa 86 96 3c 5b db 7c 3c 9a 7a 2b 3e 97 ad 85 3e
       0.01837476 0.015433158 0.16745988 0.26109
000140 14 3c 63 3b ff ed 06 3f 61 c2 a5 bc 18 30 c3 3e
       0.003467326 0.52706903 -0.020234289 0.3812263
000150 d7 09 17 3f a2 8c 11 3f 08 47 1d 3e 59 80 82 3e
       0.5899939 0.56855214 0.15359128 0.25488546
000160 e2 0a 8c 3e 04 40 19 3f 26 cd 3d 3d ab 19 f5 3e
       0.27352053 0.59863305 0.046338223 0.47871146
000170 33 4e 16 3f 02 97 a9 bc 13 11 44 3e b2 0c cc 3e
       0.5871307 -0.020701889 0.19147138 0.39853436
000180 06 2b 93 be 3a fe a3 be e2 76 81 3e da 48 2d bd
       -0.28743762 -0.32029897 0.25286013 -0.042305805
000190 bc 0c d1 be 4a cf 3a bf b7 70 76 3e e3 4d d9 be
       -0.40830028 -0.7297255 0.24066435 -0.42442235
0001a0 7a 2f b3 be 45 94 85 be e4 00 38 bd 10 ed 51 be
       -0.3499716 -0.26089683 -0.044922724 -0.20500588
0001b0 14 fc 9d 3e 8f 36 07 3f 0f fa 5f 3f 20 79 1b 3f
       0.30856383 0.52817625 0.87490934 0.607317
0001c0 87 04 37 3f 4a 05 9b 3e 5c 87 f5 3d 3c f7 07 3f
       0.71491283 0.30277473 0.119887084 0.53111625
0001d0 b8 a7 ce 3e c3 ab 78 3e aa fb 89 be 75 39 85 3f
       0.40362334 0.24284272 -0.26949817 1.040816
0001e0 00 1b 95 3e 0a a1 32 3f 8d 52 57 3e d8 36 1a 3f
       0.29122162 0.69776976 0.21027584 0.60239935
0001f0 58 96 ac 3e 5b ba 27 3f 08 47 41 3e 04 7b 32 3f
       0.33708453 0.6551873 0.18874753 0.69718957
000200 07 d2 99 3e e7 e4 bb 3e 87 e3 3b be 5a e4 53 3f
       0.3004305 0.36698076 -0.18348514 0.8277031
000210 f9 4e b3 3d 17 fa 4a 3e e2 3e 9e 3e fd f5 21 3f
       0.08755297 0.19821964 0.3090735 0.63265973
000220 ed 01 75 bd 69 04 d4 3b 91 1d 42 be 51 df 8a 3d
       -0.05981629 0.0064702523 -0.18956591 0.067808755
000230 03 9e 14 3d 46 90 22 3f 0f ff 53 3e 2f b5 2e 3f
       0.036283504 0.63501394 0.20702766 0.68245214

critic.30.bias f4 [12]
000000 b9 d7 8e be 4d e4 e1 3e 31 20 1f 3f 31 db 26 3f
       -0.27898958 0.44119492 0.62158495 0.6517821
000010 39 fe 77 be f1 16 21 3f 9e d1 23 3f 01 11 eb 3e
       -0.24218072 0.6292563 0.63991725 0.4591141
000020 9b 76 10 bf ba 0d 19 3f 80 cf c8 3e fe 0e 25 3e
       -0.5643098 0.5978657 0.3922081 0.16119
