gigala/topology/topology_optimiz/hierarchical_rl/HRL_without_dropout/preTrained/T0-h-v1/2level/HAC_T0-h-v1_level_1_actor.pth (torch, 127775 bytes, 48 tensors)

actor.0.weight f4 [35, 4]
0.46589404 -0.15865844 -0.07505381 0.17096114 -0.040807903 0.33800763 -0.07483035 0.21575719
-0.002713859 -0.4901073 0.208906 0.43074495 -0.36195678 -0.17014396 0.20201778 0.35841995
0.36928535 0.17562513 0.2053554 0.3543272 -0.3811633 -0.11985451 0.05843067 0.13059431
-0.26016986 0.12075068 0.22381312 -0.35529196 -0.13444048 0.059974104 0.19302845 -0.08514177
0.2800582 -0.1337722 0.1276393 0.09804833 -0.07055056 -0.25993186 0.09315735 0.19150585
-0.24541146 -0.43230158 0.4796183 -0.27982414 -0.19473588 0.2558215 -0.022250593 0.1377129
-0.041188896 0.4710132 -0.26799405 -0.4267711 0.1623534 0.4812396 -0.3387478 0.21266788
-0.37963778 0.37708914 0.10785687 0.26001453 0.48334175 -0.033063304 -0.0013154745 0.39417285
0.2731666 0.37040278 0.35532308 0.2283706 0.32147717 0.088829815 0.3718754 -0.18042344
0.14295691 -0.49685585 -0.24224776 0.25320315 -0.40968972 0.29755384 0.29846567 -0.100486636
-0.24259615 -0.4300589 -0.0774703 -0.030411601 0.05304563 -0.104708314 -0.09673345 -0.050602257
0.17213541 -0.3529411 -0.12044495 -0.10861677 0.39266664 0.012283639 -0.24154902 -0.13679886
0.34912485 -0.10806948 0.09508878 -0.47426593 0.06420946 -0.19920874 -0.32855892 -0.35134512
-0.18299568 0.13387315 0.405661 -0.38217342 0.3356225 0.47544432 -0.22901338 0.014402902
-0.27112776 0.4059997 -0.19947565 0.2399376 0.06502104 -0.40957516 0.34473753 0.48732185
0.31746882 0.29376653 0.49838787 -0.017786087 -0.28435057 0.08780306 -0.23313951 0.40586096
0.38461864 0.33757138 0.18310946 -0.060809378 -0.10872221 -0.16298735 -0.39200985 -0.4409163
-0.47256655 -0.40700936 -0.2988776 0.05684811
00000000: aa89 ee3e 5c77 22be d0b5 99bd 7010 2f3e
00000010: 3026 27bd 560f ad3e a840 99bd 74ef 5c3e
00000020: 00db 31bb 58ef fabe 74eb 553e 9a8a dc3e
00000030: 6652 b9be 383a 2ebe c0dd 4e3e d282 b73e
00000040: f812 bd3e 13d7 333e b048 523e 606a b53e
00000050: d627 c3be 4876 f5bd 0055 6f3d 84ba 053e
00000060: fc34 85be 224c f73d 442f 653e d4e8 b5be
00000070: c4aa 09be 68a7 753d 40a9 453e cf5e aebd
00000080: ca63 8f3e 94fb 08be e0b3 023e 90cd c83d
00000090: d07c 90bd ca15 85be 48c9 be3d 1c1a 443e
000000a0: 244d 7bbe a256 ddbe 8890 f53e 1c45 8fbe
000000b0: d868 47be 09fb 823e e046 b6bc 9c04 0d3e
000000c0: b0b5 28bd a428 f13e 8436 89be be81 dabe
000000d0: f83f 263e 0965 f63e 5a70 adbe 9cc5 593e
000000e0: e25f c2be d411 c13e 10e4 dc3d a020 853e
000000f0: 9278 f73e 636d 07bd 006c acba 06d1 c93e
00000100: 7edc 8b3e 6fa5 bd3e e8ec b53e fcd9 693e
00000110: a898 a43e 68ec b53d 7466 be3e ecc0 38be
00000120: 4c63 123e e463 febe cc0f 78be d8a3 813e
00000130: dac2 d1be fa58 983e 7ed0 983e f0cb cdbd
00000140: 206b 78be ae30 dcbe c0a8 9ebd c021 f9bc
00000150: 6046 593d 5071 d6bd 301c c6bd 5044 4fbd
00000160: 4444 303e b2b4 b4be d8ab f6bd 7872 debd
00000170: 9a0b c93e 5141 493c a058 77be 0015 0cbe
00000180: 7ec0 b23e 8853 ddbd e8bd c23d fcd2 f2be
00000190: 4080 833d 60fd 4bbe e038 a8be 82e3 b3be
000001a0: 3863 3bbe 0b16 093e ccb2 cf3e 3cac c3be
000001b0: b6d6 ab3e 706d f33e 7c82 6abe 26fa 6b3c
000001c0: 42d1 8abe 31df cf3e 5843 4cbe 34b2 753e
000001d0: c029 853d d6b3 d1be 7081 b03e 4082 f93e
000001e0: 468b a23e 9168 963e b22c ff3e 21b4 91bc
000001f0: 6696 91be 17d2 b33d 20bc 6ebe 02cd cf3e
00000200: bcec c43e 28d6 ac3e 0c81 3b3e 4113 79bd
00000210: c0a9 debd 28e6 26be 84b5 c8be c8bf e1be
00000220: 3ef4 f1be 8863 d0be 7c06 99be 90d9 683d

actor.0.bias f4 [35]
0.14878839 0.3977611 -0.20679998 0.3619601 -0.093508065 -0.051947117 -0.020669281 -0.1469779
-0.3060096 -0.15806174 0.42729282 -0.33505487 -0.025941372 0.28059703 -0.48281103 0.36989993
-0.29937822 0.30464315 0.17216146 0.26144445 0.48400187 0.05611396 0.27791274 0.09809935
-0.07481909 0.4788856 0.2721839 -0.111895025 -0.009665132 -0.07497609 0.20050126 0.3882764
0.19497538 -0.44137025 0.33044374
00000000: fc5b 183e 58a7 cb3e 60c3 53be d652 b93e
00000010: 2881 bfbd 80c6 54bd a052 a9bc 6081 16be
00000020: 4aad 9cbe f0da 21be 20c6 da3e 508c abbe
00000030: 0083 d4bc 6aaa 8f3e 0233 f7be 8663 bd3e
00000040: 1a48 99be 30fa 9b3e 184b 303e 0cdc 853e
00000050: 18cf f73e c0d7 653d 944a 8e3e 50e8 c83d
00000060: c03a 99bd 7e30 f53e b05b 8b3e 3829 e5bd
00000070: 805a 1ebc 108d 99bd 3450 4d3e 2acc c63e
00000080: a0a7 473e 48fb e1be ec2f a93e

actor.2.weight f4 [35, 35]
-0.15757994 -0.06117144 0.0703714 -0.08807277 -0.008372985 0.050689016 -0.16709463 -0.028487867
-0.022279626 0.0815446 -0.12694927 0.08282281 0.14141898 -0.13613328 0.05771017 -0.16614956
-0.07219142 -0.09174678 -0.12798038 0.07202143 0.16277333 0.15448785 0.09169154 -0.12995006
0.09634177 -0.054161735 -0.13462143 0.14222978 0.04061367 0.062564805 0.060076673 -0.14456922
0.02745969 0.08042005 0.07275958 0.12627359 -0.097281784 0.16564687 -0.10840244 -0.10333826
-0.041045785 -0.032016523 0.09559324 -0.08129831 -0.14942811 0.15745473 -0.08027257 0.1013169
0.022267858 0.13549113 -0.051935095 0.05095247 -0.041817077 -0.005605461 0.13346954 -0.11612271
-0.06806035 -0.1376982 -0.10605734 0.007965334 0.01846514 0.06282244 -0.040581312 0.093500525
-0.15905692 0.024962999 0.1119251 -0.14915587 0.11373238 0.16749221 0.06004581 -0.03236047
-0.032801937 -0.0011563104 0.1577971 0.042866122 -0.07657056 0.0030712902 -0.030927783 0.06125735
-0.03123622 -0.004010222 0.10988095 -0.13027474 0.088197075 -0.09479558 -0.15267205 -0.06860964
-0.020633185 -0.14915423 -0.07756146 -0.04803225 0.11474872 -0.13773881 0.14632313 -0.01756143
0.07362886 -0.13234885 -0.033140115 -0.12172039 0.08361663 -0.039361425 -0.15833977 -0.09296806
0.110435575 -0.04583366 0.04530958 -0.07945433 0.013607367 -0.13733678 0.059068453 0.0497093
0.032174546 0.015510921 0.14185494 0.101878315 -0.054990426 0.1204944 0.123571716 0.07145731
-0.052976124 0.11556893 0.09565626 0.16733302 -0.06442854 -0.015206958 -0.106777616 0.05029079
0.110258006 0.13719003 0.057697322 -0.06521801 0.13817051 -0.14221162 -0.11812103 0.055794433
0.04968556 0.11579126 -0.1208082 -0.06180904 0.09283963 0.0072631086 0.16586085 -0.08265311
0.13747013 0.15922166 -0.09058534 -0.13664718 0.09370187 0.098032616 -0.16703574 -0.014512528
-0.16149928 0.168518 0.14357114 0.15391614 -0.043024924 0.12669455 0.09813524 0.07589991
0.15858574 0.16508104 -0.14948659 -0.061463024 -0.15909319 0.0300543 0.13107191 -0.08982125
-0.095345184 0.047998015 -0.097843006 -0.08744989 -0.020574307 0.09057023 0.039489396 0.15210858
-0.11485103 -0.1519965 -0.1454257 -0.16663797 -0.13287643 0.14888324 -0.080569014 0.03011378
-0.10219439 -0.035120767 -0.062229313 -0.04017538 0.09189637 0.078562126 0.12140331 0.1562406
0.0115277935 -0.03111675 -0.14559413 -0.13824129 -0.08285772 0.02509501 0.14953414 -0.13462506
-0.15156114 -0.15793431 0.0847269 0.15788522 0.081976354 -0.11287317 -0.08302125 -0.0003160288
0.06054803 -0.023833819 -0.00043473727 -0.055663217 -0.15598556 -0.1275265 0.07745438 -0.10793353
-0.037782367 0.095002756 -0.020668346 -0.16001077 0.14586447 0.008128771 -0.07106093 -0.0691949
-0.07806924 0.0008114424 0.027961373 -0.02128254 -0.08406388 0.12550241 -0.020517644 0.030516842
-0.0980893 -0.10736948 -0.14914815 0.15311375 0.123461396 -0.036192507 -0.006557168 0.14224835
-0.13912721 -0.108257435 -0.013424163 0.008465276 -0.103729844 -0.14617321 0.07112706 -0.10835996
0.14685357 -0.0016885926 -0.136693 -0.15519635 -0.11468736 -0.08023136 0.027161498 -0.092645325
00000000: a35c 21be e78e 7abd e11e 903d 7f5f b4bd
00000010: d82e 09bc 499f 4f3d db1a 2bbe 635f e9bc
00000020: c383 b6bc db00 a73d fdfe 01be 019f a93d
00000030: 23d0 103e 8666 0bbe 8061 6c3d 1c23 2abe
00000040: 18d9 93bd bce5 bbbd 4a0d 03be f97f 933d
00000050: 0dae 263e 1032 1e3e c6c8 bb3d a111 05be
00000060: d54e c53d b2d8 5dbd 33da 09be afa4 113e
00000070: 855a 263d fa21 803d f512 763d f409 14be
00000080: 25f3 e03c 44b3 a43d fa02 953d dd4d 013e
00000090: ac3b c7bd 559f 293e 1902 debd 02a3 d3bd
000000a0: a01f 28bd c223 03bd 63c6 c33d ba7f a6bd
000000b0: af03 19be d03b 213e f265 a4bd 3c7f cf3d
000000c0: 156b b63c 30be 0a3e e5b9 54bd 8ab3 503d
000000d0: 6248 2bbd 04ae b7bb 3dac 083e bed1 edbd
000000e0: 3a63 8bbd c200 0dbe 9734 d9bd 0881 023c
000000f0: 3544 973c 0da9 803d 9738 26bd 347d bf3d
00000100: d1df 22be 347f cc3c fd38 e53d 51bc 18be
00000110: 86ec e83d 1483 2b3e 98f2 753d 6a8c 04bd
00000120: 535b 06bd 578f 97ba 9095 213e 6394 2f3d
00000130: 07d1 9cbd b347 493b 435c fdbc fde8 7a3d
00000140: 1ae3 ffbc 2e68 83bb 4309 e13d be66 05be
00000150: aba0 b43d 2f24 c2bd 1056 1cbe 3683 8cbd
00000160: ed06 a9bc e3bb 18be 8bd8 9ebd 77bd 44bd
00000170: 6001 eb3d 670b 0dbe bbd5 153e fddc 8fbc
00000180: baca 963d 7586 07be eebd 07bd 8a48 f9bd
00000190: 323f ab3d 7239 21bd d223 22be 0a66 bebd
000001a0: 0c2c e23d 13bc 3bbd 8a96 393d f4b8 a2bd
000001b0: 6ff1 5e3c 03a2 0cbe c3f1 713d fb9b 4b3d
000001c0: 75c9 033d 8521 7e3c 6c42 113e 94a5 d03d
000001d0: a43d 61bd c5c5 f63d 2b13 fd3d 3658 923d
000001e0: 7efd 58bd 67af ec3d 6ee7 c33d 5959 2b3e
000001f0: 1cf3 83bd 9b26 79bc 39ae dabd b7fd 4d3d
00000200: f3ce e13d 8b7b 0c3e 0754 6c3d 0591 85bd
00000210: 927c 0d3e ec9f 11be 70e9 f1bd b488 643d
00000220: 1683 4b3d f823 ed3d 4a6a f7bd 7a2b 7dbd
00000230: b422 be3d 5fff ed3b 6dd7 293e 0946 a9bd
00000240: f8c4 0c3e 010b 233e cf84 b9bd 3ded 0bbe
00000250: c4e6 bf3d 53c5 c83d 6b0b 2bbe f4c5 6dbc
00000260: 1160 25be fc8f 2c3e 5004 133e 319c 1d3e
00000270: e73a 30bd 37bc 013e 21fb c83d 6971 9b3d
00000280: 4d64 223e 010b 293e 0313 19be a7c0 7bbd
00000290: 53e9 22be 6f34 f63c b737 063e 34f4 b7bd
000002a0: 5644 c3bd 9199 443d ea61 c8bd ee18 b3bd
000002b0: 738b a8bc e27c b93d a2bf 213d 5ac2 1b3e
000002c0: 0437 ebbd f8a4 1bbe 7aea 14be 25a3 2abe
000002d0: c210 08be d974 183e 5e01 a5bd 2db1 f63c
000002e0: 4b4b d1bd cbda 0fbd 2ae4 7ebd f08e 24bd
000002f0: 2a34 bc3d 2ee5 a03d 4ca2 f83d 89fd 1f3e
00000300: 12df 3c3c 8ee8 febc a116 15be 208f 0dbe
00000310: 4fb1 a9bd 0d94 cd3c 7a1f 193e 27db 09be
00000320: d832 1bbe 88b9 21be 4c85 ad3d aaac 213e
00000330: 38e3 a73d 0c2a e7bd 0c07 aabd abb0 a5b9
00000340: 3601 783d 243f c3bc 73ed e3b9 1dff 63bd
00000350: aeba 1fbe 4f96 02be 67a0 9e3d 410c ddbd
00000360: afc1 1abd ce90 c23d aa50 a9bc ddd9 23be
00000370: 7f5d 153e 892e 053c 6588 91bd 0eb6 8dbd
00000380: c4e2 9fbd fab6 543a 400f e53c b958 aebc
00000390: af29 acbd b483 003e 9e14 a8bc 75fe f93c
000003a0: 0be3 c8bd 88e4 dbbd 4bba 18be dac9 1c3e
000003b0: 54d9 fc3d 983e 14bd 83dd d6bb 8da9 113e
000003c0: 5d77 0ebe 13b6 ddbd 05f1 5bbc f1b1 0a3c
000003d0: 5070 d4bd 6eae 15be 10ab 913d d4eb ddbd
000003e0: c860 163e c453 ddba 40f9 0bbe cbeb 1ebe
000003f0: 35e1 eabd 5750 a4bd ca81 de3c d5bc bdbd

actor.2.bias f4 [35]
0.034300577 0.11673718 0.07224995 0.13024065 -0.13542837 -0.05446181 0.15314864 -0.089069895
-0.15111734 0.11913506 0.052253667 0.06237296 -0.0298881 0.043416098 0.036555752 0.03986328
-0.14753854 -0.002284713 0.13030648 -0.13617997 -0.078336716 -0.14088804 0.10788325 -0.028544376
0.13861574 -0.017012302 -0.06352659 -0.12315179 -0.123572804 0.10147088 0.13506584 -0.14521764
-0.071920395 0.02940307 -0.15748845
00000000: c37e 0c3d e713 ef3d c8f7 933d ce5d 053e
00000010: bcad 0abe 5913 5fbd ffd2 1c3e 476a b6bd
00000020: 81be 1abe 15fd f33d f107 563d ca7a 7f3d
00000030: e4d7 f4bc 14d5 313d 7cbb 153d ae47 233d
00000040: 5814 17be 20bb 15bb 106f 053e c372 0bbe
00000050: 006f a0bd f444 10be e5f1 dc3d e5d5 e9bc
00000060: 49f1 0d3e 625d 8bbc 3b1a 82bd 0137 fcbd
00000070: bd13 fdbd f7cf cf3d b34e 0a3e efb3 14be
00000080: 004b 93bd b5de f03c a744 21be

actor.4.weight f4 [35, 35]
0.0853553 -0.11390765 0.030582653 0.022947438 0.0058915513 -0.030220134 0.0038071095 0.035319827
-0.122728415 -0.07081859 -0.082791284 0.13579197 -0.09020433 -0.11154139 0.045693457 -0.04300149
0.10313799 -0.030788144 -0.13346227 -0.08982256 -0.086097926 -0.16270937 0.0037107521 0.06961484
-0.16433321 0.05543854 0.02163847 -0.015523677 0.16040078 0.017379435 -0.07415923 0.0968919
-0.016150001 -0.14106822 -0.021394271 0.016378844 -0.12681897 -0.029777175 0.03310387 0.16709596
0.07414671 -0.100466445 0.020612592 0.060927957 -0.13694091 0.15201044 -0.15593201 0.047863778
0.09938273 -0.053672954 -0.16707347 -0.10292721 0.14106192 -0.1598264 -0.039032172 -0.14297312
0.061017305 0.08839064 0.100853324 -0.04249256 -0.11317161 -0.064300634 -0.023203 -0.042553514
0.002943539 -0.16739582 0.024860645 -6.47824e-05 -0.16254403 -0.15826492 -0.12782833 -0.016601358
0.014212292 0.06479449 0.03832829 -0.1270187 -0.15195839 -0.049101472 0.09667164 -0.070389554
-0.10315409 -0.056253567 -0.12379645 0.108938105 -0.09670352 0.15051551 -0.068236075 0.066110715
0.009959205 -0.022274407 0.060766637 0.05506216 0.08894396 0.032108333 -0.060855437 -0.11083814
0.16210338 -0.14148045 0.15943255 -0.1686679 0.035717912 0.14749947 -0.016741002 -0.09512877
0.023170216 0.077370755 0.12942512 -0.022855775 0.008045193 0.08532785 -0.011774 0.13781415
0.042467345 -0.061274502 -0.09721319 0.06555327 -0.08535998 0.025765462 0.03807271 -0.09928299
0.16088188 -0.004520961 0.03874358 0.09007919 -0.06338358 0.09329627 0.030969873 0.14530648
-0.012562722 -0.15699701 -0.13397956 0.15659803 -0.13467968 -0.11762141 0.086846605 0.13435847
0.15894909 -0.096000224 0.0886742 -0.09585198 0.124461986 0.10967312 -0.04479821 0.16739696
0.07928786 0.1148927 0.023467027 -0.09167649 -0.06003595 -0.06989449 -0.083317704 0.16301508
-0.152599 0.035879496 0.06258244 0.042043492 -0.06001672 0.04772563 -0.08606062 0.16550602
0.08450698 -0.037751302 0.087477066 -0.017885765 0.05772695 -0.05405625 -0.1241337 -0.16152884
0.07587976 -0.08677297 0.16313927 -0.16466917 -0.16002722 -0.087260865 -0.095657915 0.036613863
0.033247054 -0.08058749 0.01759641 -0.01494666 0.067380466 -0.11207657 0.15052833 0.05773194
-0.06497439 -0.0660984 0.0066011352 0.10921614 -0.08238165 0.108836934 -0.030351412 0.1117466
-0.020643583 0.039416958 -0.11737431 -0.08612547 0.027199965 -0.11812683 0.084290504 -0.085015826
-0.11504087 0.02671453 0.14718652 0.06773098 -0.15196541 -0.1324515 -0.13752095 0.024976406
-0.16570744 -0.15704896 0.15700291 0.060136024 -0.013604828 0.093288414 -0.028606357 0.028224563
-0.1440093 0.037582066 -0.081410386 0.12410364 0.062293164 0.03987746 0.049078844 0.15897879
0.08118515 -0.018168457 -0.08251731 0.09197547 -0.12448419 -0.1349059 0.12461089 -0.095589556
-0.041664742 -0.16892937 0.14216748 -0.018796306 0.097150385 0.1493692 -0.12049495 -0.06461743
0.06113329 -0.16354391 -0.12807716 0.011323952 0.09011976 0.048920695 0.0016881274 -0.109844014
0.031779658 -0.0895511 0.020835087 0.086531915 0.16694133 -0.16008398 -0.027754428 -0.1673058
00000000: c2ce ae3d 6a48 e9bd 7988 fa3c 44fc bb3c
00000010: ea0d c13b 3790 f7bc b380 793b 86ab 103d
00000020: 0959 fbbd 5609 91bd 7a8e a9bd 0d0d 0b3e
00000030: 0cbd b8bd d06f e4bd 1029 3b3d 5522 30bd
00000040: 033a d33d 6b37 fcbc 55aa 08be e4f4 b7bd
00000050: 1c54 b0bd 499d 26be 1730 733b 3a92 8e3d
00000060: f746 28be 8613 633d 2943 b13c 0557 7ebc
00000070: 1a40 243e 515f 8e3c cbe0 97bd 436f c63d
00000080: 024d 84bc 3074 10be 0a43 afbc ed2c 863c
00000090: d5dc 01be 43ef f3bc ec97 073d 341b 2b3e
000000a0: 3bda 973d 5ac1 cdbd bddb a83c 988f 793d
000000b0: 3d3a 0cbe a0a8 1b3e a4ac 1fbe cf0c 443d
000000c0: 2c89 cb3d 2cd8 5bbd 4f15 2bbe 80cb d2bd
000000d0: 8972 103e 88a9 23be 33e0 1fbd 8c67 12be
000000e0: 48ed 793d 2706 b53d 308c ce3d ae0c 2ebd
000000f0: 84c6 e7bd 0db0 83bd 3814 bebc 984c 2ebd
00000100: 64e8 403b cf69 2bbe 8da8 cb3c c9db 87b8
00000110: f171 26be 3310 22be 6ee5 02be 92ff 87bc
00000120: acda 683c f9b2 843d 20fe 1c3d 3111 02be
00000130: fb9a 1bbe a01e 49bd c8fb c53d 6628 90bd
00000140: 7442 d3bd 246a 66bd fe88 fdbd f11a df3d
00000150: 7f0c c6bd bd20 1a3e 5bbf 8bbd 0e65 873d
00000160: ef2b 233c d178 b6bc 70e6 783d dc88 613d
00000170: 4028 b63d 0784 033d 8d43 79bd 1bff e2bd
00000180: 6efe 253e 40e0 10be 4942 233e 47b7 2cbe
00000190: f24c 123d 1a0a 173e 6d24 89bc dfd2 c2bd
000001a0: 77cf bd3c 8f74 9e3d 0588 043e 093c bbbc
000001b0: fccf 033c 5ec0 ae3d bce7 40bc 271f 0d3e
000001c0: 3df2 2d3d f9fa 7abd b517 c7bd cb40 863d
000001d0: 37d1 aebd 1712 d33c 21f2 1b3d e154 cbbd
000001e0: 38be 243e 9224 94bb 97b1 1e3d 707b b83d
000001f0: 40cf 81bd 1d12 bf3d 88b4 fd3c 39cb 143e
00000200: e0d3 4dbc d3c3 20be f031 09be 3c5b 203e
00000210: 78e9 09be 7ee3 f0bd a2dc b13d 4495 093e
00000220: 8dc3 223e c49b c4bd d29a b53d 0b4e c4bd
00000230: ede5 fe3d 4d9c e03d 547e 37bd 1c6a 2b3e
00000240: ac61 a23d dd4c eb3d ec3d c03c e2c0 bbbd
00000250: 42e8 75bd d824 8fbd 79a2 aabd 6ded 263e
00000260: ea42 1cbe 61f6 123d 392b 803d cc35 2c3d
00000270: 18d4 75bd f37b 433d 8d40 b0bd 697a 293e
00000280: ff11 ad3d 1ca1 1abd 2d27 b33d 2b85 92bc
00000290: 1873 6c3d 166a 5dbd cf39 febd d167 25be
000002a0: d966 9b3d 07b6 b1bd fb0d 273e 099f 28be
000002b0: 2dde 23be d3b5 b2bd 4ce8 c3bd 6bf8 153d
000002c0: 102e 083d 0e0b a5bd 5926 903c d6e2 74bc
000002d0: c5fe 893d 6788 e5bd 1924 1a3e 5478 6c3d
000002e0: 4b11 85bd 995e 87bd 564e d83b b6ac df3d
000002f0: b6b7 a8bd e6e5 de3d 86a3 f8bc 67db e43d
00000300: bb1c a9bc ad73 213d f161 f0bd 8d62 b0bd
00000310: 76d2 de3c 7bec f1bd 80a0 ac3d c71c aebd
00000320: 8c9a ebbd 6ed8 da3c 10b8 163e 8ab6 8a3d
00000330: d29c 1bbe 5ea1 07be 4bd2 0cbe 529b cc3c
00000340: 36af 29be 71d1 20be 5fc5 203e 3151 763d
00000350: c9e6 5ebc ff0d bf3d e157 eabc 3337 e73c
00000360: 2d77 13be a7ef 193d 7dba a6bd 0d2a fe3d
00000370: 1e27 7f3d 8c56 233d e606 493d 56cb 223e
00000380: 6644 a63d 04d6 94bc d6fe a8bd a35d bc3d
00000390: 91f1 febd c624 0abe ff33 ff3d 75c4 c3bd
000003a0: a6a8 2abd d2fb 2cbe 5a94 113e b6fa 99bc
000003b0: c8f6 c63d 3df4 183e 0ec6 f6bd 2556 84bd
000003c0: e766 7a3d 0e78 27be a926 03be 1988 393c
000003d0: b590 b83d 1161 483d 2844 dd3a e6f5 e0bd
000003e0: 632b 023d 9166 b7bd 58ae aa3c a537 b13d
000003f0: abf2 2a3e 0eed 23be 415d e3bc 3652 2bbe

actor.4.bias f4 [35]
-0.017939124 0.04422488 -0.081655644 0.07178567 0.1299259 0.1244319 -0.018521158 -0.09501585
0.15677257 0.10716597 -0.03932574 -0.16877173 -0.15929696 0.12198018 0.11978969 -0.07915035
-0.14008006 0.0543022 -0.13598591 -0.14011261 0.14931554 -0.14608435 0.15271835 -0.1246983
-0.13721418 0.05272572 -0.15725109 0.14135551 -0.10332118 -0.034977984 0.12780292 0.16845647
0.07515554 0.009664869 -0.13440496
00000000: 12f5 92bc 2625 353d 133b a7bd 5e04 933d
00000010: 4c0b 053e 27d6 fe3d afb9 97bc ac97 c2bd
00000020: fd88 203e d579 db3d 0714 21bd 7fd2 2cbe
00000030: be1e 23be bfd0 f93d 4c54 f53d 9419 a2bd
00000040: 2671 0fbe fc6b 5e3d e43f 0bbe ae79 0fbe
00000050: 2ce6 183e 2397 15be 3362 1c3e d361 ffbd
00000060: e081 0cbe edf6 573d 6e06 21be 80bf 103e
00000070: 0e9a d3bd 1345 0fbd c5de 023e da7f 2c3e
00000080: 26eb 993d 6659 1e3c 74a1 09be

actor.6.weight f4 [35, 35]
0.1354729 -0.031436432 0.053890835 -0.07794938 0.11066654 -0.06997098 -0.03984587 -0.14046939
0.09608461 -0.05921899 0.16107744 -0.029091852 0.015507476 -0.018374769 -0.02780527 0.10585418
-0.033167563 -0.12538819 0.031846646 0.13440758 0.058066875 0.043316778 -0.12788157 0.0012772108
-0.030836983 0.07734509 -0.01786974 -0.0028340637 -0.084100455 0.13616316 0.1626372 0.14229307
0.041912623 0.073400736 -0.13436386 -0.16864072 0.126283 -0.022577927 -0.009209439 0.015913323
-0.095258705 -0.0071162125 -0.1623188 -0.1288811 -0.15178649 -0.032660525 0.09156808 -0.099107645
0.12459524 0.05465785 -0.16664106 0.054583777 -0.09775362 0.09114157 0.06006469 -0.007504784
0.03221912 -0.024156637 -0.07055928 -0.036700387 0.14995919 -0.07330957 0.14410867 -0.09841398
-0.14151259 0.11197924 -0.045741998 0.098492585 -0.14024246 0.054359883 -0.12606774 -0.08910433
0.0950091 -0.049130972 -0.12926313 0.073041946 0.15404114 0.13893284 0.08232564 0.01046664
0.10195726 0.010201526 0.13645035 0.102080524 -0.12435722 -0.09570831 0.09926562 -0.029441234
-0.05681729 0.02429195 0.0084895175 0.16595748 -0.09129363 -0.1545188 -0.0736153 -0.07120551
0.062567465 0.16783945 0.10198801 -0.07338496 -0.08050671 0.019626247 0.0862966 -0.10908192
-0.021556016 0.0066336375 -0.13291201 -0.14031313 -0.11291836 0.06439586 0.15423067 -0.12789644
0.15656726 0.13938314 -0.057962134 0.13144656 -0.12644547 -0.15112424 -0.043658584 -0.09490249
-0.0025533938 -0.12614742 -0.1424725 -0.03599284 -0.16833757 -0.060603846 -0.017552868 0.036728214
0.1680347 -0.0886245 -0.07390985 -0.066021666 0.14291507 -0.12637997 0.0731028 0.123328224
-0.05945757 0.061280705 -0.08202332 -0.076532416 0.1047932 -0.1412936 -0.06697013 0.02357413
-0.063872166 0.06444126 -0.059245765 0.018233728 -0.052559875 0.16352978 0.09799042 0.07636354
-0.06914067 0.109565936 0.079879075 -0.10935973 -0.12904666 0.092090696 0.039653033 0.071504615
-0.15137085 0.05528103 -0.086670995 0.114557005 0.09251376 0.016116008 0.058263894 -0.058506448
-0.09468656 0.060985986 -0.04772156 -0.15873103 0.13625407 0.16341834 -0.1456813 0.037648953
-0.14150469 0.0135459695 0.06419172 0.08844535 0.09251628 -0.029205002 0.0890032 -0.09229666
-0.11916083 -0.03801097 -0.047978792 0.0063889953 0.11755025 -0.14719498 0.067819655 -0.06217464
-0.12796628 -0.11520557 0.1037925 0.066571645 0.0875476 0.05759503 0.14467259 0.015917415
-0.1197051 -0.057133585 0.035454713 0.03779516 0.15178797 0.1174282 -0.14970225 -0.06473795
-0.10121489 -0.13104446 0.15927237 0.044774733 -0.080932 -0.06604903 -0.055691447 -0.15193133
0.13284868 -0.10456803 -0.038168803 -0.078385815 0.08561614 -0.095923536 -0.056626067 -0.015019462
0.12605678 0.06665265 0.099051885 -0.1654797 -0.060845003 0.06597617 -0.1621994 0.041100133
-0.046244238 0.07099337 -0.13503379 -0.0888902 -0.09183841 0.10784166 -0.059009876 -0.15892388
-0.009456377 0.110298656 0.051418263 0.13335156 0.045976866 0.048094675 -0.07520975 -0.041730627
-0.10001778 0.038304333 -0.1322421 -0.05306795 0.1579811 0.14276803 0.003934498 -0.1683221
00000000: 68b9 0a3e 7dc3 00bd a3bc 5c3d eda3 9fbd
00000010: 24a5 e23d f24c 8fbd 6c35 23bd 35d7 0fbe
00000020: 02c8 c43d 9d8f 72bd 7cf1 243e 0952 eebc
00000030: 1213 7e3c af86 96bc e1c7 e3bc 14ca d83d
00000040: b6da 07bd c365 00be a171 023d 24a2 093e
00000050: 88d7 6d3d ef6c 313d 63f3 02be 1568 a73a
00000060: d79d fcbc 1a67 9e3d 9063 92bc b3bb 39bb
00000070: dc3c acbd 5b6e 0b3e 5e8a 263e 46b5 113e
00000080: 92ac 2b3d 2053 963d ae96 09be 27b0 2cbe
00000090: 5550 013e 58f5 b8bc 30e3 16bc a85c 823c
000000a0: ff16 c3bd 1e2f e9bb e636 26be 68f9 03be
000000b0: eb6d 1bbe 0bc7 05bd 0c88 bb3d f3f8 cabd
000000c0: ca2b ff3d e9e0 5f3d f4a3 2abe 3d93 5f3d
000000d0: 0d33 c8bd 6ea8 ba3d 6406 763d b1ea f5bb
000000e0: 32f8 033d 24e4 c5bc 6281 90bd 2553 16bd
000000f0: e78e 193e 5423 96bd 3991 133e 458d c9bd
00000100: ade8 10be 5f55 e53d f65b 3bbd 7bb6 c93d
00000110: b89b 0fbe 78a8 5e3d e717 01be 557c b6bd
00000120: 2294 c23d 8f3d 49bd 8e5d 04be 0497 953d
00000130: f6bc 1d3e 6944 0e3e 589a a83d 457c 2b3c
00000140: f8ce d03d 4d24 273c a4b9 0b3e 980f d13d
00000150: 00af febd b802 c4bd c64b cb3d be2e f1bc
00000160: 3fb9 68bd e9ff c63c 9e17 0b3c c2f0 293e
00000170: 28f8 babd 2d3a 1ebe 9ec3 96bd 32d4 91bd
00000180: 5f23 803d 1bde 2b3e 17df d03d db4a 96bd
00000190: b4e0 a4bd 39c7 a03c 46bc b03d 5766 dfbd
000001a0: 3e96 b0bc fc5e d93b 161a 08be 3fae 0fbe
000001b0: be41 e7bd fae1 833d a5ee 1d3e 49f7 02be
000001c0: 2b53 203e 74ba 0e3e b469 6dbd ed99 063e
000001d0: ec7a 01be 50c0 1abe 58d3 32bd 3d5c c2bd
000001e0: d756 27bb ca2c 01be 50e4 11be 3a6d 13bd
000001f0: af60 2cbe bd3b 78bd 08cb 8fbc 5370 163d
00000200: 4a11 2c3e c380 b5bd 0c5e 97bd 5e36 87bd
00000210: 5458 123e c069 01be ecb6 953d 8293 fc3d
00000220: c889 73bd 7a01 7b3d d8fb a7bd 07bd 9cbd
00000230: d19d d63d 45af 10be a327 89bd 891e c13c
00000240: 69cf 82bd c8f9 833d b0ab 72bd e65e 953c
00000250: 0649 57bd 5a74 273e 34af c83d 7d64 9c3d
00000260: a099 8dbd 1b64 e03d a497 a33d fef7 dfbd
00000270: cf24 04be 0c9a bc3d 386b 223d 0371 923d
00000280: f600 1bbe 5c6e 623d 9080 b1bd dd9c ea3d
00000290: db77 bd3d b805 843c 1fa6 6e3d 75a4 6fbd
000002a0: 07eb c1bd 71cc 793d af77 43bd 638a 22be
000002b0: 3086 0b3e 2357 273e 7b2d 15be ca35 1a3d
000002c0: 9be6 10be eaef 5d3c f376 833d d622 b53d
000002d0: 2d79 bd3d 543f efbc 4f47 b63d 0806 bdbd
000002e0: 980a f4bd 64b1 1bbd 6985 44bd c75a d13b
000002f0: 2fbe f03d 48ba 16be 08e5 8a3d d6aa 7ebd
00000300: 9809 03be e6f0 ebbd 2a91 d43d b756 883d
00000310: 284c b33d c4e8 6b3d 0d25 143e 3d65 823c
00000320: f327 f5bd e804 6abd f638 113d 19cf 1a3d
00000330: 4e6e 1b3e 327e f03d 8c4b 19be 5595 84bd
00000340: c149 cfbd 8530 06be 4c18 233e b665 373d
00000350: adbf a5bd b744 87bd b71c 64bd e393 1bbe
00000360: 7c09 083e c327 d6bd e456 1cbd be88 a0bd
00000370: 8457 af3d 8f73 c4bd bcf0 67bd 3114 76bc
00000380: 0715 013e 2f81 883d b7db ca3d 8373 29be
00000390: 9c38 79bd 841e 873d 9917 26be 9d58 283d
000003a0: 996a 3dbd f964 913d 4c46 0abe 110c b6bd
000003b0: c715 bcbd 17dc dc3d 57b4 71bd f1bc 22be
000003c0: ebee 1abc 43e4 e13d f59b 523d 508d 083e
000003d0: 3d52 3c3d ecfe 443d 9207 9abd bced 2abd
000003e0: 1fd6 ccbd 01e5 1c3d 796a 07be c75d 59bd
000003f0: ccc5 213e c831 123e f6ec 803b a15c 2cbe

actor.6.bias f4 [35]
-0.02149728 -0.12981485 0.13399175 -0.14832705 0.051161997 0.15965363 -0.15942919 0.032567132
0.0036819656 0.08365675 -0.07645847 -0.0936491 0.04382694 -0.062254377 -0.020340243 0.16151533
-0.12516327 -0.05764175 0.12587312 -0.10046896 0.09738127 0.14050056 0.12126794 0.088576585
-0.16592526 0.06477192 -0.13240185 -0.053935792 -0.094931126 -0.12428519 0.13661444 0.11648694
0.06859686 0.06509457 0.15493287
00000000: 101b b0bc 2fee 04be 2235 093e 0ce3 17be
00000010: 3e8f 513d 3e7c 233e 6841 23be 1d65 053d
00000020: 224d 713b 3b54 ab3d 4296 9cbd 19cb bfbd
00000030: e183 333d 72fe 7ebd 95a0 a6bc 4664 253e
00000040: cd2a 00be c119 6cbd e2e4 003e acc2 cdbd
00000050: d56f c73d 61df 0f3e 535b f83d a467 b53d
00000060: 50e8 29be 24a7 843d 5a94 07be c7eb 5cbd
00000070: 406b c2bd 3c89 febd a8e4 0b3e b490 ee3d
00000080: 837c 8c3d 4d50 853d b9a6 1e3e

actor.8.weight f4 [35, 35]
0.07494417 0.019151853 0.118820794 -0.059221976 -0.016812554 0.08698316 0.01020477 0.13765836
-0.0153339235 -0.0901014 0.06540929 0.13560337 -0.1663951 -0.14226449 0.05751045 0.098689266
0.006192049 -0.114181876 -0.13271032 -0.0025938149 0.05891672 -0.15206836 0.08336512 -0.15941279
0.05302467 -0.092523836 -0.13672514 0.041132733 -0.018789515 0.049121846 0.13928975 0.16842332
0.06427802 -0.149326 0.11596773 0.16415581 -0.11852116 0.15625253 -0.14287576 -0.16221562
0.09932373 0.10278001 -0.017128326 -0.13116215 0.045866605 0.055867054 0.053884752 0.10842431
-0.06898402 0.1303811 -0.090855375 0.06418594 0.06852316 -0.123728745 0.10345772 0.12573138
-0.14827317 -0.039226864 0.09805009 0.11785426 0.017110229 0.026722755 -0.059046045 0.0826371
-0.123308465 0.035565116 -0.03751556 -0.07057004 0.095373295 -0.0953899 0.16145347 0.095018476
0.07201097 0.08931784 -0.16347294 0.05369377 0.033960525 -0.14001045 0.0059818937 0.062221896
-0.12951574 -0.10681566 0.13383116 -0.09259881 0.1343035 -0.10094307 -0.1409741 0.1536441
0.14680026 0.16140026 0.07867037 0.12585065 0.07654871 -0.001392066 0.052361146 -0.029590907
0.071478814 -0.07702323 0.05451317 -0.1146837 -0.07999124 0.021147212 0.086823046 0.026100013
0.07931603 -0.057897005 -0.16745608 -0.031844813 -0.15313163 0.12019517 -0.16395709 0.14891975
0.08056115 0.13502946 0.1459679 0.05312828 0.021277139 0.11981494 -0.090619184 -0.021683164
0.10930006 -0.12169768 -0.009182216 0.13858405 0.0011930037 -0.046262927 -0.033973 -0.10524242
0.07002573 0.14213039 0.16829894 0.006887972 0.1162989 0.14562052 0.14849038 0.05501382
0.1221376 -0.012949952 -0.03923051 -0.13896798 -0.07119199 -0.13582966 -0.07710688 -0.032678742
-0.05451479 -0.12814324 0.10191624 -0.011892739 0.09145177 0.12908964 0.14134476 -0.106764704
0.047811553 -0.0107989535 0.08702519 0.04950266 0.017043293 0.08142852 0.12666346 0.061410572
0.064057 -0.13501708 0.046026535 0.025456138 0.111749604 -0.032196626 -0.055573728 0.019780071
0.022040252 -0.13962364 -0.16724372 -0.07783121 -0.08656382 -0.1129174 -0.13785048 0.13766748
-0.039548818 0.07064054 0.14645755 0.072539926 -0.049656525 0.13644412 0.103128165 0.028975083
-0.07575303 0.052742466 -0.041346546 -0.15332426 -0.047807336 0.10297986 -0.08486134 0.120330274
-0.0023273104 -0.0094205495 -0.1607869 -0.06641101 -0.04217312 -0.111394234 0.114779405 0.0040363967
-0.16543207 0.11702357 -0.03687259 0.07134853 -0.0855518 -0.16086201 0.079309456 0.16812314
-0.12059309 -0.11813195 0.037345465 -0.05928441 0.022089267 0.15125085 -0.059496846 0.02496089
0.0038035028 0.10612151 0.06594004 -0.03135705 -0.13685791 -0.05480583 -0.11445502 0.09596714
0.07635163 -0.15060641 0.079613276 0.15966393 0.02614249 0.071099564 -0.008954638 0.121676944
-0.07071406 -0.011061046 0.053546876 0.11347857 -0.023685364 -0.16211918 -0.045333046 -0.08774985
-0.056431476 0.061778694 -0.056972284 -0.16070674 -0.13314684 -0.1061763 0.15207908 0.11405257
0.14934778 -0.14956653 0.015488132 -0.05876707 -0.07563602 0.055433203 -0.04700716 0.08503223
00000000: 547c 993d 59e4 9c3c 5158 f33d be92 72bd
00000010: 7bba 89bc 3a24 b23d e831 273c 50f6 0c3e
00000020: 233b 7bbc 1587 b8bd 4ef5 853d 9cdb 0a3e
00000030: 7a63 2abe c8ad 11be 1490 6b3d 991d ca3d
00000040: ace6 ca3b 30d8 e9bd 37e5 07be fefc 29bb
00000050: a952 713d cfb7 1bbe 55bb aa3d 1b3d 23be
00000060: 6530 593d 237d bdbd ad01 0cbe cc7a 283d
00000070: 78ec 99bc fd33 493d f9a1 0e3e 2a77 2c3e
00000080: 32a4 833d eae8 18be 7d80 ed3d 7618 283e
00000090: 39bb f2bd aa00 203e 064e 12be da1b 26be
000000a0: 3d6a cb3d 537e d23d b450 8cbc 5f4f 06be
000000b0: 9fde 3b3d dad4 643d 42b6 5c3d 910d de3d
000000c0: 7e47 8dbd a082 053e 6212 babd eb73 833d
000000d0: df55 8c3d 7f65 fdbd a4e1 d33d babf 003e
000000e0: ecd4 17be 59ac 20bd 7cce c83d 935d f13d
000000f0: c02a 8c3c aee9 da3c 44da 71bd a43d a93d
00000100: 2689 fcbd baac 113d eaa9 19bd 0687 90bd
00000110: 1353 c33d c85b c3bd 0f54 253e 0c99 c23d
00000120: 7d7a 933d 46ec b63d 7365 27be 00ee 5b3d
00000130: 311a 0b3d e65e 0fbe c303 c43b 63dc 7e3d
00000140: c69f 04be 2bc2 dabd 090b 093e 72a4 bdbd
00000150: db86 093e 3ebb cebd 845b 10be e154 1d3e
00000160: cf52 163e 1c46 253e ee1d a13d fede 003e
00000170: 92c5 9c3d fc75 b6ba a478 563d a168 f2bc
00000180: 7c63 923d 5bbe 9dbd 3449 5f3d 4adf eabd
00000190: 72d2 a3bd eb3c ad3c 48d0 b13d b2cf d53c
000001a0: 7170 a23d 6925 6dbd 9b79 2bbe b56f 02bd
000001b0: 8ace 1cbe e328 f63d 5ee4 27be 6b7e 183e
000001c0: 3ffd a43d 2a45 0a3e 9c78 153e 0a9d 593d
000001d0: 654d ae3c 8961 f53d 8d96 b9bd e4a0 b1bc
000001e0: b6d8 df3d a23c f9bd 0171 16bc fae8 0d3e
000001f0: 905e 9c3a 327e 3dbd 4627 0bbd 5789 d7bd
00000200: a669 8f3d a18a 113e 8f56 2c3e 7fb4 e13b
00000210: 1e2e ee3d 8c1d 153e dd0d 183e 2c56 613d
00000220: 4723 fa3d 092c 54bc 2cb0 20bd 9f4d 0ebe
00000230: 1bcd 91bd ee16 0bbe 36ea 9dbd 25da 05bd
00000240: e74a 5fbd fb37 03be 76b9 d03d c3d9 42bc
00000250: 114b bb3d 1330 043e aebc 103e 74a7 dabd
00000260: 0cd6 433d 18ee 30bc 433a b23d 4dc3 4a3d
00000270: 609e 8b3c ffc3 a63d 11b4 013e a789 7b3d
00000280: 5130 833d eb41 0abe 5286 3c3d 6489 d03c
00000290: fadc e43d 9ce0 03bd 47a1 63bd d109 a23c
000002a0: c28d b43c 80f9 0ebe f041 2bbe f865 9fbd
000002b0: 5f48 b1bd 3d41 e7bd ad28 0dbe b4f8 0c3e
000002c0: f1fd 21bd fdab 903d f8f8 153e d08f 943d
000002d0: a464 4bbd 02b8 0b3e dc34 d33d 275d ed3c
000002e0: 6824 9bbd 7c08 583d ff5a 29bd 0901 1dbe
000002f0: a0d1 43bd 1be7 d23d c8cb adbd b86f f63d
00000300: ca85 18bb a658 1abc 52a5 24be 7f02 88bd
00000310: b9bd 2cbd a922 e4bd 7711 eb3d c043 843b
00000320: 0667 29be 0eaa ef3d b707 17bd 2e1f 923d
00000330: c835 afbd 03b9 24be ff6c a23d 7928 2c3e
00000340: 83f9 f6bd 2aef f1bd 8ff7 183d 36d4 72bd
00000350: 8df4 b43c 81e1 1a3e f7b2 73bd c87a cc3c
00000360: 3044 793b 3c56 d93d 920b 873d 4070 00bd
00000370: 7b24 0cbe 147c 60bd 6567 eabd 6b8a c43d
00000380: 3e5e 9c3d 9138 1abe 490c a33d f17e 233e
00000390: c628 d63c a69c 913d 79b6 12bc c331 f93d
000003a0: 88d2 90bd 6439 35bc f853 5b3d 7467 e83d
000003b0: cf07 c2bc 9202 26be 25af 39bd 31b6 b3bd
000003c0: b124 67bd a80b 7d3d c55b 69bd 4f90 24be
000003d0: a557 08be f672 d9bd 9eba 1b3e 6594 e93d
000003e0: a0ee 183e f827 19be efc1 7d3c bdb5 70bd
000003f0: 0fe7 9abd ed0d 633d 948a 40bd 6125 ae3d

actor.8.bias f4 [35]
-0.16428013 -0.030759174 0.104708195 0.06592333 0.1478929 0.025267716 -0.1442954 -0.022109115
0.08508184 0.10255356 -0.077999376 -0.006465086 0.06714895 -0.13299452 -0.02920165 -0.014248113
0.15932338 0.09741877 -0.16221224 -0.004768334 -0.15456274 0.0036075346 -0.023687609 -0.07269563
-0.08212968 -0.14992437 -0.121177055 -0.053291176 -0.02067889 -0.0059018424 0.115667015 0.12943004
-0.048832268 0.01948284 0.15710677
00000000: 0d39 28be aafa fbbc 4071 d63d d002 873d
00000010: 3d71 173e 3efe ce3c 2cc2 13be 2d1e b5bc
00000020: 633f ae3d 9a07 d23d 23be 9fbd 12d9 d3bb
00000030: 6485 893d b72f 08be 4c38 efbc eb70 69bc
00000040: ab25 233e 7e83 c73d f71a 26be af3f 9cbb
00000050: b245 1ebe 636c 6c3b 840c c2bc 72e1 94bd
00000060: 9b33 a8bd c685 19be ad2b f8bd d947 5abd
00000070: c766 a9bc 3e64 c1bb d4e2 ec3d 4f89 043e
00000080: 5804 48bd 7a9a 9f3c 99e0 203e

actor.10.weight f4 [35, 35]
0.091359064 -0.04201857 -0.03867469 -0.075580046 -0.043588523 0.16467947 0.16270824 0.05423778
-0.00248708 0.14907447 -0.09997287 0.02698448 -0.0011218135 -0.090210594 0.050427064 -0.13144197
0.122058585 -0.038517237 -0.04169057 -0.15103854 0.05259398 -0.10316867 0.09925599 0.1341397
-0.15819629 0.09516184 0.15808295 0.103288315 0.10209507 0.04338559 0.010586472 -0.16350849
0.15594591 -0.011600825 -0.08015201 -0.034871813 0.0019801017 -0.14527506 0.11458219 -0.058186445
0.035891786 0.031733666 -0.091117166 -0.06554376 0.03712006 -0.07303326 0.12832429 0.07035337
-0.030110694 0.029779533 -0.14777453 -0.11984288 0.13549611 0.0893332 0.12834471 0.096539885
-0.08517627 -0.16296497 -0.14057489 -0.16886637 0.07337293 0.13171859 0.07097189 -0.018686093
-0.16380164 -0.13449502 -0.044635624 -0.021707484 0.15565701 -0.14653358 -0.1523049 0.03780981
0.031910583 0.00706777 -0.059781924 -0.12226732 -0.06588005 0.06464455 0.13556127 -0.13860169
0.022459464 0.11691096 0.07788382 -0.08970648 -0.08767173 0.017121475 0.037572604 0.04840682
0.1610363 0.07753915 -0.084903516 -0.03797933 0.06355776 0.101566315 -0.010333669 -0.13606705
0.054810524 0.04929449 -0.058921922 0.10528716 -0.1451061 -0.045678545 0.094560824 -0.08615487
0.14348584 0.037138492 0.13450862 -0.06232215 0.1152113 0.14624134 -0.004911614 0.0060098185
0.092634745 0.13949257 -0.08917553 -0.009583078 -0.08278318 0.027284065 0.16315132 0.13724089
-0.038580872 -0.16669871 -0.05649497 0.12998848 -0.12598313 0.15121587 0.05724489 0.11040698
0.09702887 0.07256334 0.061617594 0.12547544 0.15626778 -0.16403444 0.036396712 0.112769775
0.056684878 -0.12386973 0.05238989 0.030965181 -0.1039631 0.019533154 0.026265062 -0.11589864
0.112630256 0.07058602 -0.13370666 -0.073493585 0.119448856 0.047405344 0.01966572 -0.111605525
0.0037735598 0.12140117 -0.0700164 -0.13226569 -0.09792838 -0.16360958 0.047987357 0.100019954
0.095456794 -0.050142504 -0.0075697885 -0.06962258 -0.092977054 0.03807571 0.03899592 -0.10639445
0.054933842 -0.11525301 -0.12977178 -0.022582924 -0.1483752 0.06295116 0.15850215 0.16765055
-0.065870166 0.037030093 -0.15425216 0.16813034 0.13725133 -0.042986903 0.03570693 -0.018750718
0.045751866 0.1047851 0.12735488 0.025732292 0.08190741 0.05530775 -0.12210893 -0.015239489
-0.020767365 0.08164531 0.12806845 -0.06932838 -0.111741915 0.13425197 -0.09645251 0.11313544
-0.077074945 -0.16739796 0.113463745 0.035222456 0.0017961018 0.16823994 0.15742648 -0.11368155
0.09415886 -0.11683181 0.06917241 -0.16857985 -0.013599408 -0.0923735 -0.13526481 0.049960066
-0.0014542893 0.0087396195 -0.13721818 0.14505708 -0.0505285 0.14845033 -0.05169716 -0.08999485
-0.08343726 0.11748096 0.11954634 0.0702242 0.12319501 -0.06393565 -0.12776987 0.13943745
0.06545467 -0.017403575 0.051991817 -0.148753 -0.027774965 -0.15346113 -0.07348616 0.13743797
0.0635793 -0.056299996 -0.0904809 -0.13497373 0.009469857 -0.061426833 0.11745374 0.12932679
0.010859873 -0.10317563 -0.004194736 0.080314025 -0.07420362 0.082594246 0.113890715 0.06912693
00000000: 761a bb3d aa1b 2cbd 5a69 1ebd b6c9 9abd
00000010: e189 32bd bca1 283e fd9c 263e 6f28 5e3d
00000020: 47fe 22bb faa6 183e 93be ccbd 8e0e dd3c
00000030: d109 93ba 55c0 b8bd 9c8c 4e3d b998 06be
00000040: daf9 f93d 40c4 1dbd bbc3 2abd d9a9 1abe
00000050: c96c 573d 184a d3bd b946 cb3d eb5b 093e
00000060: 35fe 21be 36e4 c23d 7fe0 213e d388 d33d
00000070: 3817 d13d 17b5 313d e272 2d3c c56e 27be
00000080: 49b0 1f3e 6311 3ebc bd26 a4bd bfd5 0ebd
00000090: 98c4 013b fcc2 14be 11aa ea3d e954 6ebd
000000a0: 4403 133d 29fb 013d a39b babd cf3b 86bd
000000b0: 340b 183d 7692 95bd 7167 033e 6d15 903d
000000c0: b4aa f6bc 35f4 f33c 3552 17be 2f70 f5bd
000000d0: 7ebf 0a3e 53f4 b63d cc6c 033e b4b6 c53d
000000e0: e570 aebd 4ae0 26be ddf2 0fbe 4eeb 2cbe
000000f0: 8c44 963d 3de1 063e b659 913d 9413 99bc
00000100: 9ebb 27be 10b9 09be d8d3 36bd e5d3 b1bc
00000110: 8d64 1f3e e60c 16be d1f5 1bbe 76de 1a3d
00000120: acb4 023d c198 e73b e4dd 74bd 4a67 fabd
00000130: 1fec 86bd 5d64 843d 93d0 0a3e 9aed 0dbe
00000140: e9fc b73c 036f ef3d 8d81 9f3d 08b8 b7bd
00000150: 3c8d b3bd 5642 8c3c bbe5 193d 3b46 463d
00000160: b3e6 243e d9cc 9e3d e5e1 adbd 3790 1bbd
00000170: 922a 823d 0002 d03d 8d4e 29bc 2955 0bbe
00000180: 0081 603d 05e9 493d 1d58 71bd cba0 d73d
00000190: b296 14be 6d19 3bbd 1ba9 c13d f771 b0bd
000001a0: f4ed 123e 881e 183d a1bc 093e 8345 7fbd
000001b0: e7f3 eb3d 4ac0 153e 9bf1 a0bb 03ee c43b
000001c0: 49b7 bd3d 24d7 0e3e a9a1 b6bd 5802 1dbc
000001d0: 3a8a a9bd d582 df3c 2411 273e e088 0c3e
000001e0: fa06 1ebd 11b3 2abe 4567 67bd b31b 053e
000001f0: b901 01be 55d8 1a3e 9e79 6a3d 0e1d e23d
00000200: 12b7 c63d 179c 943d bb62 7c3d a27c 003e
00000210: a904 203e a5f8 27be b814 153d d7f3 e63d
00000220: 672e 683d 6aaf fdbd c896 563d b1aa fd3c
00000230: 9bea d4bd fe03 a03c d429 d73c 445c edbd
00000240: b1aa e63d 678f 903d 66ea 08be ce83 96bd
00000250: 9aa1 f43d 1b2c 423d 011a a13c 7091 e4bd
00000260: d44d 773b 2da1 f83d c264 8fbd a870 07be
00000270: ad8e c8bd 4589 27be 648e 443d 43d7 cc3d
00000280: da7e c33d 3a62 4dbd fd0b f8bb 4996 8ebd
00000290: c16a bebd 47f5 1b3d 30ba 1f3d 55e5 d9bd
000002a0: 4f02 613d c509 ecbd e5e2 04be d3ff b8bc
000002b0: abef 17be 8aec 803d 634e 223e 96ac 2b3e
000002c0: f0e6 86bd deac 173d 47f4 1dbe 5c2a 2c3e
000002d0: 9d8b 0c3e 0913 30bd 6e41 123d 1b9b 99bc
000002e0: 4f66 3b3d 9299 d63d 5169 023e 87cc d23c
000002f0: 12bf a73d 618a 623d 3f14 fabd 0daf 79bc
00000300: 5220 aabc a835 a73d 6024 033e 0afc 8dbd
00000310: f2d8 e4bd 5979 093e e588 c5bd 8eb3 e73d
00000320: 78d9 9dbd 5f6a 2bbe ae5f e83d 6c45 103d
00000330: 2d6b eb3a 1747 2c3e 6834 213e dfd1 e8bd
00000340: 5cd6 c03d 8445 efbd 44aa 8d3d 32a0 2cbe
00000350: 0dd0 5ebc 512e bdbd dc82 0abe eda2 4c3d
00000360: da9d beba 9f30 0f3c ec82 0cbe d889 143e
00000370: f9f6 4ebd 5d03 183e 67c0 53bd 384f b8bd
00000380: 27e1 aabd dc99 f03d b6d4 f43d b5d1 8f3d
00000390: aa4d fc3d b2f0 82bd 1bd6 02be b1c8 0e3e
000003a0: 190d 863d f191 8ebc 5ff5 543d b552 18be
000003b0: 5388 e3bc ea24 1dbe e97f 96bd 8abc 0c3e
000003c0: dd35 823d d39a 66bd 0d4e b9bd 8e36 0abe
000003d0: 7627 1b3c b49a 7bbd 968b f03d 3e6e 043e
000003e0: 9ced 313c bf4d d3bd ff73 89bb ae7b a43d
000003f0: 11f8 97bd 2c27 a93d 893f e93d 6b92 8d3d

actor.10.bias f4 [35]
-0.1271584 -0.039225478 -0.071535975 0.049118612 -0.16320154 0.15522301 0.02966353 0.072020404
0.11271234 0.15471256 -0.010256482 -0.042104613 -0.11835291 -0.053052835 0.09225835 -0.0013143473
0.063095436 0.13415284 -0.018720523 -0.059141293 -0.16562697 -0.14613311 0.08783539 0.15070687
-0.1285423 0.10256859 0.03201496 -0.052080754 0.08978634 -0.15594637 -0.116282284 0.09502115
0.03413158 -0.124076314 -0.042479925
00000000: d035 02be e5aa 20bd 7481 92bd 9930 493d
00000010: 4e1e 27be c8f2 1e3e ee00 f33c 6f7f 933d
00000020: bad5 e63d f86c 1e3e ce0a 28bc e375 2cbd
00000030: 0363 f2bd ee4d 59bd f2f1 bc3d 2d46 acba
00000040: 2e38 813d 5d5f 093e c85b 99bc 243e 72bd
00000050: 1e9a 29be eba3 15be 0ae3 b33d e752 1a3e
00000060: 98a0 03be 7b0f d23d 1e22 033d a152 55bd
00000070: e7e1 b73d 68b0 1fbe 6825 eebd 739a c23d
00000080: 8ecd 0b3d b91b febd 6eff 2dbd

actor.12.weight f4 [35, 35]
-0.07515321 -0.09687127 0.116322294 -0.04907409 0.011718099 0.1123486 -0.15488118 -0.15012224
-0.09342428 0.023013651 0.09450193 -0.08362922 0.16711718 -0.11585213 -0.0018100989 -0.027952407
-0.15093815 0.021131052 -0.11537695 0.013439698 0.113337845 -0.033702727 -0.11753361 -0.029384188
-0.1682068 0.053840704 0.029986534 -0.009529924 -0.054517243 0.14659868 -0.006465062 -0.04906732
-0.067506045 -0.123111024 -0.08217219 0.0264449 -0.15129218 -0.033943843 -0.15999594 -0.012132504
-0.01253889 -0.07293092 0.03295744 0.041601688 -0.08603814 -0.06938443 0.0013268807 0.04898132
0.16694248 -0.0047142045 0.07308428 0.1576343 -0.14718817 -0.029223049 0.14410661 0.012675548
0.16303957 0.07180181 -0.14775501 0.08427674 -0.026228108 -0.08997475 0.11498383 -0.1349395
0.16048543 -0.0107004605 -0.047349203 0.06421904 -0.12694453 -0.1680923 0.09469545 0.005597869
-0.14858115 0.020588318 0.08257977 0.12882079 0.15651295 0.11587248 0.039575003 -0.033883613
-0.1343516 0.021957487 0.043335255 -0.09051154 0.022016145 -0.1101164 0.031107416 -0.038079053
0.002957523 -0.09265741 0.16800031 -0.056643784 -0.1130458 0.0714911 0.012245143 0.14195776
0.0815634 -0.10671765 -0.018386064 -0.13012663 -0.104690365 0.15438613 0.15810151 0.049929235
0.11092543 -0.07858001 -0.100093246 -0.12029403 -0.09817912 -0.12984271 -0.044612247 -0.01542875
0.14247498 -0.049469344 0.1250358 -0.015177948 0.09625075 0.14257121 0.06853527 0.006287987
0.0038146658 0.097646534 -0.06303306 0.16582127 -0.053132005 -0.11290263 0.13501962 -0.09545089
0.15238313 0.105820715 -0.020335281 0.06656913 -0.05337596 0.032001663 0.066849634 -0.046697255
0.0966924 0.043922205 -0.1448865 0.15610528 -0.16114716 -0.15990557 -0.116537236 0.047120806
-0.100470774 -0.07108296 -0.10551073 0.00867661 -0.06829026 -0.117982775 -0.059960756 0.11627983
0.025989693 0.0096972305 -0.15390755 -0.12624992 -0.16291821 -0.08098431 0.018871546 0.08531546
-0.056345336 0.1648803 0.09743031 0.13897419 0.11658729 -0.13681377 0.017859632 -0.16068467
0.12662967 0.119063325 0.031892728 -0.10478244 0.11694056 -0.1499909 0.14592817 -0.09247306
-0.13714902 -0.14085242 0.09921551 -0.140561 -0.034191445 0.020374196 -0.12909621 0.11811047
0.111806385 -0.116357975 0.0133009255 -0.046900343 0.014576061 0.018893933 0.035816345 -0.13456155
-0.11475232 0.12467539 0.09719266 0.07974407 0.08498016 0.15293297 -0.06430436 0.15262832
-0.032872926 -0.1523163 -0.017654927 -0.02228434 0.16380787 -0.1508073 0.10536194 -0.007893156
0.10788146 -0.086890854 -0.04131072 -0.05989644 -0.10770899 0.099314384 0.168435 -0.083381966
0.02063391 -0.031287823 -0.055276796 0.008764827 0.017036261 -0.13656779 -0.1415204 -0.11043838
-0.043548625 0.019476954 -0.027528672 -0.07763609 -0.1299211 -0.14924009 0.13969302 -0.04101282
0.08503253 0.002408918 0.05501021 -0.025905263 -0.08387608 -0.04783865 -0.118307315 -0.11493236
0.14162566 0.04876267 -0.121037506 0.1383778 -0.1404149 0.08865021 -0.13038437 -0.16739899
0.0032453656 -0.04498234 0.081825905 -0.14281645 -0.04411212 0.1117399 -0.12162071 0.122633904
00000000: ede9 99bd 7264 c6bd 623a ee3d ea01 49bd
00000010: 45fd 3f3c 0617 e63d 2c99 1ebe a5b9 19be
00000020: 3b55 bfbd 2087 bc3c 3a8a c13d cc45 abbd
00000030: c420 2b3e e243 edbd d740 edba 72fc e4bc
00000040: 888f 1abe 071b ad3c c04a ecbd 2e32 5c3c
00000050: ac1d e83d df0b 0abd 76b5 f0bd 1cb7 f0bc
00000060: 673e 2cbe 1288 5c3d 52a6 f53c 6623 1cbc
00000070: 794d 5fbd f71d 163e dfd8 d3bb d0fa 48bd
00000080: 9c40 8abd a221 fcbd e549 a8bd faa2 d83c
00000090: 56ec 1abe b308 0bbd fad5 23be 69c7 46bc
000000a0: eb6f 4dbc ce5c 95bd 61fe 063d 8866 2a3d
000000b0: c434 b0bd 6d19 8ebd baea ad3a a3a0 483d
000000c0: f8f2 2a3e 9d79 9abb 36ad 953d e36a 213e
000000d0: 7fb8 16be 2d65 efbc af90 133e 1aad 4f3c
000000e0: d8f3 263e d40c 933d 174d 17be 4999 ac3d
000000f0: 54dc d6bc af44 b8bd a47c eb3d 952d 0abe
00000100: 4b56 243e fc50 2fbc 3df1 41bd 4685 833d
00000110: bffd 01be 6320 2cbe b0ef c13d 546e b73b
00000120: a825 18be d5a8 a83c 951f a93d 99e9 033e
00000130: ee44 203e 8d4e ed3d 6619 223d 8bc9 0abd
00000140: 7793 09be 30e0 b33c 4f80 313d 1d5e b9bd
00000150: 345b b43c b584 e1bd fbd4 fe3c c8f8 1bbd
00000160: 01d3 413b 2bc3 bdbd 4608 2c3e 5003 68bd
00000170: 8e84 e7bd ed69 923d da9f 483c 605d 113e
00000180: b60a a73d c98e dabd 5f9e 96bc ea3f 05be
00000190: e767 d6bd 6617 1e3e 5de5 213e 9982 4c3d
000001a0: df2c e33d 8eee a0bd b0fd ccbd b75c f6bd
000001b0: 2212 c9bd 7df5 04be 55bb 36bd dec8 7cbc
000001c0: f6e4 113e 5ea0 4abd 6209 003e eeac 78bc
000001d0: 1d1f c53d 30fe 113e 385c 8c3d 750b ce3b
000001e0: 79ff 793b e8fa c73d 7a17 81bd 0dcd 293e
000001f0: f2a0 59bd 7e39 e7bd 9542 0a3e c27b c3bd
00000200: 530a 1c3e 88b8 d83d 2d96 a6bc 6555 883d
00000210: c0a0 5abd 2d14 033d 76e8 883d 9f45 3fbd
00000220: aa06 c63d c5e7 333d 205d 14be 10da 1f3e
00000230: c303 25be 49be 23be 13ab eebd bf01 413d
00000240: 9fc3 cdbd f193 91bd 0216 d8bd 5728 0e3c
00000250: c4db 8bbd f4a0 f1bd 6999 75bd 1f24 ee3d
00000260: 56e8 d43c 22e1 1e3c f199 1dbe a947 01be
00000270: 08d4 26be 1adb a5bd 8098 9a3c dfb9 ae3d
00000280: 5eca 66bd 62d6 283e 8b89 c73d 404f 0e3e
00000290: 51c5 ee3d e918 0cbe 5d4e 923c 868a 24be
000002a0: 35ab 013e 79d7 f33d f3a1 023d 2d98 d6bd
000002b0: 887e ef3d 3797 19be 326e 153e 8462 bdbd
000002c0: cb70 0cbe 9e3b 10be 8031 cb3d 39ef 0fbe
000002d0: 540c 0cbd c9e7 a63c cc31 04be e7e3 f13d
000002e0: bffa e43d 174d eebd 20ec 593c 931a 40bd
000002f0: 6ed0 6e3c 73c7 9a3c 29b4 123d 81ca 09be
00000300: 4403 ebbd d055 ff3d f20c c73d dc50 a33d
00000310: 140a ae3d 769a 1c3e 01b2 83bd 994a 1c3e
00000320: c3a5 06bd cef8 1bbe 11a1 90bc a68d b6bc
00000330: 40bd 273e 3b6d 1abe 00c8 d73d 4c52 01bc
00000340: f4f0 dc3d d5f3 b1bd 6e35 29bd f855 75bd
00000350: 8896 dcbd 5765 cb3d 3a7a 2c3e 2ac4 aabd
00000360: 7208 a93c a927 00bd ec69 62bd 599a 0f3c
00000370: a18f 8b3c 6dd8 0bbe b9ea 10be 842d e2bd
00000380: 0b60 32bd 228e 9f3c cf83 e1bc acff 9ebd
00000390: 090a 05be 65d2 18be b00b 0f3e 0ffd 27bd
000003a0: 8925 ae3d f0de 1d3b 6352 613d 4637 d4bc
000003b0: 39c7 abbd 76f2 43bd 1b4b f2bd a861 ebbd
000003c0: 5106 113e 5ebb 473d 83e2 f7bd e9b2 0d3e
000003d0: ecc8 0fbe 3e8e b53d 7b83 05be a46a 2bbe
000003e0: 33b0 543b 673f 38bd 5794 a73d 7a3e 12be
000003f0: e9ae 34bd e4d7 e43d 4714 f9bd 7c27 fb3d

actor.12.bias f4 [35]
0.06699181 -0.013721578 0.07129029 0.04731017 -0.07336138 0.16424535 0.13650206 -0.060063895
0.12621273 -0.051767584 -0.07839539 0.076352924 0.04300108 -0.03549463 0.011116015 -0.026719365
-0.06715646 0.0008341112 -0.10539659 0.03764557 -0.12514569 0.1419065 0.006360996 -0.084129386
-0.08784993 0.092079155 0.0413136 0.13111179 -0.12489051 0.14328368 0.09217498 0.040025134
-0.031278946 -0.074758686 -0.024801658
00000000: 0133 893d 78d0 60bc a500 923d 4fc8 413d
00000010: 7e3e 96bd ef2f 283e 32c7 0b3e 8f05 76bd
00000020: e93d 013e 3f0a 54bd c38d a0bd ec5e 9c3d
00000030: e721 303d d162 11bd f21f 363c 92e2 dabc
00000040: 5389 89bd 41a8 5a3a 2bda d7bd 3e32 1a3d
00000050: 3126 00be f04f 113e e76f d03b 074c acbd
00000060: aaea b3bd ff93 bc3d 7338 293d 2b42 063e
00000070: 99c6 ffbd f5b8 123e 3cc6 bc3d 65f1 233d
00000080: 5a1e 00bd 151b 99bd d92c cbbc
