gigala/topology/topology_optimiz/HRL/preTrained/T0-h-v1/3level/HAC_T0-h-v1_level_1_actor.pth (torch, 9575 bytes, 6 tensors)

actor.0.weight f4 [4, 272]
00000000: 0fc8 863f deb1 673f 88c0 6e3f 9e56 753f
00000010: 5bf7 573f 462d 7c3f a025 683f 5c70 833f
00000020: 164e 733f 4a74 793f 5fd6 593f 24ee 6f3f
00000030: 280e 6f3f abd1 573f ccd2 713f 3d26 803f
00000040: 8a0f 793f 0c90 6c3f 2a8b 833f 062a 6f3f
00000050: 7c31 7e3f 61d7 813f b8a1 6e3f dab5 763f
00000060: 9115 6e3f 0cb9 6f3f be87 843f c486 7c3f
00000070: 2a04 7e3f f012 843f 32b1 6c3f 9c37 843f
00000080: e655 6d3f 4548 813f 8082 7a3f baaf 833f
00000090: f6fe 7a3f faf4 6b3f 387a 003c 9ef3 253d
000000a0: cc78 44bc 66ae 6abd 0833 0cbc 70bb 9c3b
000000b0: e005 753c 6004 9f3c d027 04bc 200b 50bb
000000c0: a0a4 50bc d079 be3c f039 633c 4c38 c93c
000000d0: c07d b5bb d8fe b8bb 3293 363d 800c f93b
000000e0: c10d 63bd c8d7 483c 68c0 653d 4896 40bc
000000f0: 085e 153d 10c8 32bd 94e8 17bc c20d 263d
00000100: c25c f8bc 2456 7dbc 807d 073a 782e 16bc
00000110: 7897 8bbc a459 2b3d 3c64 35bc 4e6f 86bc
00000120: 4e34 3a3d 6844 5d3c 6ab5 eabc 5809 153d
00000130: 3cc4 f3bc 6689 773d 2a39 4e3d e07d bd3b
00000140: bc6f 893c 2686 c8bc d9f7 3fbd b8ac 30bd
00000150: 60aa 9d3c b0fb f23c 80f2 41ba 2275 a2bc
00000160: 5eac a1bc 2e6f 09bd acfb 15bd 46da 233d
00000170: 0960 56bd 805b 353d 4219 093d 9c83 87bc
00000180: 90b9 00bc 5aaa a6bc 3abb 50bd 40e4 9f3b
00000190: 4205 3ebd 40c2 e33a 14da acbc a023 40bd
000001a0: 79ae 65bd b843 5d3d 6402 413d 542d 633d
000001b0: 309e b93c a493 dd3c 68ac f13c d8db 363d
000001c0: 3853 1b3c 4001 cd3b e61e 353d a860 df3c
000001d0: 9ce1 16bd f607 273d 0cc8 6f3d a64c bcbc
000001e0: b0e3 6bbd 2879 2dbc 8232 22bd 7f1d 0abf
000001f0: 1473 52bc fa2e fdbc 7cb5 1e3d d43f be3c
00000200: 384d 923c 4e53 5f3d af25 75bd 642c f03c
00000210: 4cfb e8bc aa92 5dbf e667 b2bc aee0 623d
00000220: f848 263f 49c5 2a3f 520f 1d3f a4cd 7e3f
00000230: 93e6 193f fdc5 2f3f 293c 343f 6c94 333f
00000240: 63b1 303f 7849 223f 3071 2c3f de29 2b3f
00000250: 2d67 183f e0a5 313f 84b6 1a3f 075b 733f
00000260: d5bf 7c3f 78f3 243f 40f8 4a3f f36c 7c3f
00000270: e68a 7a3f 6436 363f 827e 1c3f 944a 2a3f
00000280: ae4a 1c3f 9714 2a3f edc6 5f3f f3a5 423f
00000290: 5d18 2f3f d082 603f ecde 243f bfd0 203f
000002a0: f6fb 333f e0b1 253f 52e3 303f 4bd1 1d3f
000002b0: 4c66 293f 5a7c 323f e06d 5c3b e60b aebc
000002c0: e8ad 4d3f 5a89 293d 38f0 c33c 503b 853b
000002d0: 74c8 123d 3af9 4b3f ec95 3cbd 9c3f 60bc
000002e0: fcef 353d 8f34 70bd 5da9 f6bc a8e7 703c
000002f0: e02e bb3c a495 f83c 07bf 583f 252b 5bbd
00000300: eeac a1bc b4b8 183d 401e 2b3c a84d 083d
00000310: ae1b 3a3d a207 0e3d 2a6d cebc 799b 4c3f
00000320: 78d4 2dbc 2059 f4ba 4fb0 523f 242b 3ebc
00000330: 9830 053c aa48 1c3d 22c2 2abd 7838 fc3c
00000340: a199 75bd b818 553f 2ae8 453f 4409 633f
00000350: 7828 53bd e4c7 0abd 4c12 243d 3060 033d
00000360: 3053 433d 981a 883c 7c0c 463f 6920 2ebd
00000370: 200a 2a3d 5dd6 71bd eeab 5f3d 5d6c 513f
00000380: c889 353c a05c 2abb 785e 7abc 28a5 73bc
00000390: 9017 943c a47b 2ebc 90ff 273c a50e 613f
000003a0: 90e4 b23b e700 43bd c94c 483f 84e8 1d3d
000003b0: 58a7 ad3c 1896 3e3c 294e 4c3f ba62 4bbd
000003c0: bea6 553d 6260 69bd 2568 f7bc 4c1e c23c
000003d0: b0a6 563d 32c3 abbc 4217 71bd d024 673c
000003e0: 78b3 533f 3eae 513f 1707 5dbd 883b 2e3d
000003f0: 8087 103c f8c3 8f3c 2843 153d 78d2 573d
1.0529803 0.9050578 0.9326253 0.9583529 0.8436181 0.9850658 0.9068241 1.0268664
0.95041025 0.9744307 0.8509273 0.9372275 0.93380976 0.843043 0.94462276 1.0011669
0.97289336 0.924073 1.0276845 0.934235 0.9929426 1.0143853 0.93215513 0.96371233
0.9300166 0.93641734 1.0353925 0.98643136 0.99225104 1.0318279 0.9245788 1.0329471
0.92709196 1.010018 0.9785538 1.0288002 0.9804529 0.9217068 0.007841639 0.040515535
-0.011991691 -0.057295226 -0.008557089 0.0047830865 0.014955014 0.019411266 -0.008066133 -0.0031744912
-0.012734562 0.023251444 0.013868794 0.024562977 -0.005538672 -0.005645614 0.04457397 0.007600367
-0.05543304 0.0122584775 0.056091696 -0.01175458 0.03646663 -0.043647826 -0.00927176 0.040540464
-0.030317668 -0.015462432 0.0005168542 -0.009166352 -0.01704 0.041833535 -0.011071261 -0.016410496
0.045460038 0.013505079 -0.028650958 0.036385864 -0.029756658 0.060433768 0.050347485 0.0057828277
0.016776912 -0.02447803 -0.046867225 -0.043133467 0.01924628 0.02966103 -0.0007398501 -0.019831244
-0.019735511 -0.033553295 -0.036616966 0.040003084 -0.05233768 0.044276714 0.033471353 -0.016542248
-0.007856742 -0.020344902 -0.050959803 0.0048795044 -0.046391733 0.0017376617 -0.021100082 -0.046908975
-0.056074593 0.05401966 0.04712142 0.05546315 0.022658437 0.02704794 0.029501155 0.044643253
0.00948029 0.0062562525 0.04421892 0.027267769 -0.03683625 0.040779077 0.05854039 -0.022985768
-0.057590187 -0.010587968 -0.03959895 -0.5395126 -0.01284482 -0.03090619 0.038747296 0.023223795
0.017859086 0.054522805 -0.05985039 0.029318042 -0.02844014 -0.86551917 -0.021778058 0.055390052
0.6495509 0.66707283 0.613515 0.9953253 0.60117453 0.6866148 0.704043 0.7014835
0.6902067 0.63393354 0.6736021 0.6686076 0.59532434 0.6939373 0.60434747 0.9506077
0.9873021 0.64434004 0.7928505 0.98603743 0.9786819 0.71176744 0.61130536 0.6652005
0.6105145 0.6643767 0.8741291 0.7603447 0.6839655 0.87699604 0.6440265 0.6281852
0.70306337 0.6472454 0.69096863 0.6164748 0.6617172 0.69720995 0.0033634827 -0.021245908
0.80343485 0.041390754 0.023918256 0.0040659085 0.0358357 0.79677165 -0.046041414 -0.013687041
0.04441832 -0.058643874 -0.030110056 0.014703669 0.0228495 0.030344792 0.84666485 -0.053507943
-0.01973578 0.03728552 0.010444224 0.033277184 0.045436554 0.034675248 -0.025198538 0.7992473
-0.0106097385 -0.0018642284 0.82300276 -0.011606965 0.008129261 0.038155235 -0.041689046 0.030788645
-0.059960965 0.8324084 0.7730738 0.88686013 -0.051552266 -0.033882037 0.04005651 0.032074153
0.047686756 0.016614243 0.773628 -0.042511377 0.041513562 -0.059042323 0.054607324 0.81805974
0.011080213 -0.002599515 -0.015281312 -0.014870919 0.018077642 -0.010649595 0.010253802 0.8791297
0.0054593757 -0.047608282 0.78242165 0.038551822 0.02119796 0.011632465 0.7980676 -0.0496547
0.05216097 -0.056976683 -0.030201027 0.023696087 0.05240506 -0.0209671 -0.05886007 0.014107898
0.8269572 0.819065 -0.05396184 0.042537242 0.008821368 0.0175495 0.036441 0.052690953

actor.0.bias f4 [4]
00000000: 8b28 713f 311b 0ebf 8e57 24bf 43ee df3e
0.9420249 -0.5551024 -0.641961 0.43736467

actor.2.weight f4 [4, 4]
00000000: de2c 63bf 8d1a 43be 42fb 14bf 3a8d 6bbf
00000010: b584 a33f 4390 4abe c645 88be 0061 1f3f
00000020: eaaf 3c3f e64e 173f 82a6 b03e 39c2 5abf
00000030: 4344 733f 3258 e33e 54d5 303e 8c70 103f
-0.88740337 -0.19053097 -0.5819589 -0.9201237 1.2774874 -0.19781594 -0.26615733 0.62257385
0.73705924 0.59104764 0.34502035 -0.8545261 0.95026034 0.44403225 0.17268878 0.5642173

actor.2.bias f4 [4]
00000000: d923 03be edec bd3e 9091 3f3f 0161 c93e
-0.12806644 0.37094823 0.74831486 0.3933182

actor.4.weight f4 [136, 4]
00000000: 1930 4e3f 609c 1d3f d317 a33f 8e89 0f3f
00000010: d50e 023e 5dce 213f e320 873f 58e8 6d3f
00000020: fbd8 413e 790f a23f ec33 ff3e c826 083f
00000030: 1dbd 003e f188 2f3f 6382 ac3f 5c45 f93e
00000040: e2f2 723f 37c5 703f 6d3e 113f afd2 293f
00000050: b72b 463f 11cf 803f 1551 343f 2072 373f
00000060: 1459 dd3e d53e 5f3f 644d 493f 95ac 233f
00000070: 661d 7f3f de75 af3f e6b3 853f 1606 b63f
00000080: 5547 ec3d 8094 45bf f8ec 033f 04ce a8be
00000090: cb26 263f 66d2 b33d aabc 323f 99df 8cbe
000000a0: fba9 da3e d71f 803f 8c29 5b3f d67f a53f
000000b0: c5f3 f73e 9a30 70be 88a6 8b3f f3a2 f1be
000000c0: 696a 813f 5e72 95be d39b 973e 651f 65bf
000000d0: 1adb 4b3f c882 ad3d 3acb 693f 132a 2ebe
000000e0: 7707 443e cbce 593f b936 513f 3a08 253f
000000f0: c9bc 8d3e 4dea 73be 4861 a13f 5724 c63e
00000100: 2d81 b83e feb6 583f 26c4 703f 7f0c 2d3f
00000110: 353f e63d d4ef 223f 25e9 a23f e008 3f3f
00000120: ace3 7a3f 124b 843f 9db8 483f 2e39 033f
00000130: 537a 713f 6297 5c3f dba1 b13e 5a31 713f
00000140: c780 bd3e 0a41 a63f 18d9 3f3f 5c5a be3e
00000150: fd87 b83e b249 723f 5c27 323f 4e3b 4c3f
00000160: df6d 123f 16d2 03bf a99f 2c3f 560f bcbe
00000170: 7d3a cd3e 75ac 5a3f 3d3d 873f 69c2 9e3f
00000180: 1939 773f 0fa8 b53f dee4 8b3e f26b 243f
00000190: 6c6e 6f3e 3ac9 0d3e 467a 8c3f 7af4 9d3f
000001a0: 10ff ff3d 7fa7 d2be eb7a 71bf f82c bcbe
000001b0: 81f5 343f 6f36 2c3f 2ec8 9a3f 8c44 0a3f
000001c0: 3356 c93e 6130 89be 9d4e af3f 0da7 133e
000001d0: f44e ac3e 03a8 1dbf b6ce 363f 5f55 c8be
000001e0: 7099 573f df17 493f 1a97 9c3f e73c 113f
000001f0: 0c52 003f 929c ab3e 80e8 0b3f 497c 3b3f
00000200: fead 703e 7ae4 873f 6a21 b53e 5a1a 7f3f
00000210: b315 3e3f 842b abbe 7f6f 803d 2e29 65bf
00000220: 6e39 d03e 4c5e b0bd 6d5f 763f 0e3c 46bf
00000230: cf18 b23e cc7d 463f a432 173f d06a 133f
00000240: a1c1 883f 356d ecbe 0f57 8e3f 0b84 02bb
00000250: ff58 9b3e 347d c1be 7269 aa3e 2d41 0dbf
00000260: 1a4e 6dbf 95f5 113f 08f5 91be 2435 603f
00000270: b87b f23e b1af 503f 6dc2 883f 5392 953e
00000280: 03b0 14bf e205 b5bf ab97 d53e 5851 8ebe
00000290: ac63 47bf e4d5 88bf 1945 a9bf 1bbd 39be
000002a0: 959b 473f 44a7 e23e 6200 273e 82fc 8c3f
000002b0: bc6e f53d cd0d 423f cf12 153f e16b d73e
000002c0: b349 34bf a0d5 12bf 62ab ef3d b476 60bf
000002d0: 396f 4d3e f57f 04bf 5206 cebe e75d c5be
000002e0: db60 19bf 01f5 71bf d907 96bf 4a5a 2bbf
000002f0: bcce ec3d 33a7 153f 9a42 143f 30fa a73e
00000300: 9ab5 1f3f cae3 893f fd5b 20bf 9791 883f
00000310: 7697 fb3e 0b1e a03f 3230 dcbe b757 923e
00000320: 4ef9 6dbf 7656 15bf ce35 4abf c5e0 4cbf
00000330: 64af 27bf 13e5 93bf 906a 00bf 74b0 40bf
00000340: 1131 27bf 901c 8dbf 5a25 723e 6f5e 23bf
00000350: bc2d 213f 1808 04bf 3b67 8b3f 1af1 5d3f
00000360: 2dfd 95be 5460 f63e 7c31 c5be 8025 673f
00000370: 31a8 bcbe aee0 28bf 84ce 57bf b76b 6ebf
00000380: e45a 1ebf b68f 013f fbe1 333e 5163 0b3f
00000390: 19c7 b43e 25d0 4abe 2462 9b3f 0e7d 353f
000003a0: 5d7e 263f b3a4 bb3f d7e7 2d3f 35b1 993f
000003b0: 005a 2e3f 8f1f 423f bbf2 52be 0ea9 573f
000003c0: dea7 28bf b33f 45bf 32d9 5fbf 510c 38bf
000003d0: 009a 89be 6d90 e1be c513 ccbe 8a13 89bf
000003e0: 754d 163f 2885 223f 0c13 9b3f ec35 e33e
000003f0: d4bd 7fbf 0fcf 44bf 670a 4dbf ffb9 86be
0.8054214 0.61566734 1.2741646 0.56069267 0.1270097 0.6320551 1.0556911 0.92932653
0.18930428 1.2660972 0.498443 0.53184175 0.12572141 0.6856833 1.3477291 0.4868573
0.9490186 0.94050926 0.5673588 0.663371 0.77410454 1.0063192 0.7043622 0.71658516
0.43232024 0.8720525 0.78633714 0.63935214 0.99654233 1.3707845 1.0445526 1.4220607
0.11537043 -0.7717972 0.5153346 -0.32969677 0.64902943 0.08780365 0.6981913 -0.2751434
0.4270781 1.0009717 0.8561027 1.2929637 0.4842817 -0.2345604 1.0910196 -0.47194633
1.0110599 -0.29188818 0.29611072 -0.8950103 0.796312 0.0847221 0.91325724 -0.17008238
0.19143473 0.85081166 0.81724125 0.6446568 0.27683094 -0.23819847 1.2607813 0.386996
0.36036053 0.84654224 0.940493 0.6759719 0.112425245 0.636472 1.27274 0.7462292
0.9800365 1.033541 0.784067 0.51259124 0.94327277 0.8616849 0.34693798 0.9421593
0.37012312 1.2988598 0.74940634 0.37178314 0.3604125 0.946437 0.6959131 0.7977799
0.571989 -0.5149244 0.6743112 -0.3673045 0.40083686 0.854194 1.0565563 1.2403079
0.965715 1.4191912 0.2732305 0.6422721 0.23381966 0.13846293 1.0974815 1.2340233
0.12499821 -0.41143414 -0.9432818 -0.36753058 0.7068711 0.6727056 1.209234 0.54010844
0.39323577 -0.26794723 1.3695866 0.14419194 0.33653986 -0.6158449 0.71409166 -0.39127633
0.842185 0.7855205 1.2233613 0.56733555 0.50125194 0.3351789 0.5465164 0.7323652
0.23503873 1.06166 0.35377055 0.99649584 0.7425186 -0.33431637 0.06271266 -0.8951596
0.40668815 -0.08611736 0.9623936 -0.77435386 0.34784552 0.775357 0.59061646 0.5758486
1.0684091 -0.46177068 1.1120318 -0.001991513 0.30341336 -0.37790835 0.33283573 -0.55177575
-0.926973 0.57015353 -0.28507257 0.87581086 0.47360015 0.81518084 1.0684334 0.292132
-0.5808107 -1.414242 0.41717276 -0.27796435 -0.7788646 -1.0690274 -1.3224212 -0.18138544
0.77971774 0.4426824 0.1630874 1.1014559 0.119840115 0.7580231 0.58231825 0.42074493
-0.70424956 -0.57357216 0.117026106 -0.87681127 0.2006196 -0.51757747 -0.40239197 -0.38548204
-0.59913415 -0.9451447 -1.1721145 -0.66934645 0.11562869 0.5845825 0.57914126 0.32808065
0.62386477 1.0772641 -0.6264036 1.066943 0.49138993 1.2509168 -0.4300552 0.28582546
-0.92958534 -0.58335054 -0.7898835 -0.8003047 -0.65502 -1.1554283 -0.501626 -0.75269246
-0.65309244 -1.1024342 0.23647061 -0.6381597 0.6296041 -0.5157485 1.0890878 0.86696017
-0.2929472 0.48120368 -0.38514316 0.90291595 -0.3684707 -0.65967834 -0.8429949 -0.9313311
-0.6185744 0.5060991 0.17566673 0.5444842 0.3530815 -0.19805963 1.2139325 0.70893943
0.65036565 1.4659637 0.67931885 1.2007204 0.6810608 0.75829405 -0.20600407 0.8424233
-0.65881145 -0.7705032 -0.8744079 -0.71893793 -0.26875305 -0.440555 -0.39858833 -1.0709088
0.5871194 0.6348443 1.2115188 0.44377077 -0.9989903 -0.76878446 -0.80094 -0.2631378

actor.4.bias f4 [136]
00000000: 7837 573f 4b78 953f 1e02 073f 2d76 a73f
00000010: 1289 783e 2a6c 963f 3c31 683f d6b9 5d3f
00000020: d0ba 62be 4da8 553e daec c03e f6bb f63e
00000030: 4eb5 47bc 3b58 ef3e 64d3 2b3f 17f9 893e
00000040: f012 763f 4c60 af3e b25c 533f 2494 873f
00000050: 3a34 763f 965e 633f 1aa7 80be f5de 813f
00000060: 2647 a03f be6d 983e 2d90 e43e f812 613f
00000070: 836a 5a3f 58b0 213f 13ee b53e c732 183f
00000080: bdc9 213f 6893 d5bb 3d7d e03e 66c7 2e3f
00000090: e2a9 473f 1b38 e03e aa3e 4e3f 819c 163f
000000a0: 97f4 b5bf 7cc4 7bbf a630 4d3f 644c 4d3f
000000b0: e5f4 6dbf db83 c5be eda0 93bf 98f7 0d3f
000000c0: f124 3f3f ea10 473f 3b64 0ebf 0b04 9cbf
000000d0: 0545 85bf 702b 5dbf e68d 8bbf 454e 60bf
000000e0: b145 8fbf 093e 3a3f d2a2 513f c5eb 9a3f
000000f0: 1d51 2ebf 38e9 29bf 2c74 8b3f 4133 94bf
00000100: 8a12 043f dce3 603f c35d bdbf 9215 7cbf
00000110: a8af 1b3f 9182 debe 6fe3 20bf e08b 1cbf
00000120: 0126 6cbf d290 84be 7402 a7bf 3844 143f
00000130: 9a32 983d d387 b43f 5a6d 86be ad24 b0bf
00000140: 8abb 833f 0b33 9c3f 9e0f 12bf 1f16 533f
00000150: 0549 893f 4866 973f 48d8 893f 4997 c63f
00000160: bc48 c3be dcdb 833f 5248 af3e 023c 1c3f
00000170: 9b9b 72bf b6d9 403f 3f09 203f d90e 193f
00000180: 573a ab3e ae0d 383f e02d 843f ed1b 243e
00000190: 339a 87bf d37f 9a3f bde7 633f 13ef 6a3f
000001a0: dd13 ae3f e905 f43e 19c9 47bf 1f20 823f
000001b0: afd9 233f 0897 40bf 9e8e 653e cb66 6fbf
000001c0: 705b 433f 156e b0bf 51f5 2ebf 4b95 a03f
000001d0: 9428 933f dc34 a4be 88e3 b73f e0f9 613f
000001e0: a9b6 a3bf e016 a1be 15f6 863f 8e9d 9dbf
000001f0: c179 8cbf a722 de3e 23a9 32bf b81d 963c
00000200: 89f0 a8bf 7731 b6bf 6281 483f 62c8 0cbe
00000210: 73ba 87bf 937a 89bf 9df5 993f a7e1 283f
0.84069014 1.1677336 0.52737606 1.3082939 0.24271038 1.1751759 0.90700126 0.8661169
-0.22141576 0.20864983 0.37680703 0.48190278 -0.0121892225 0.46747002 0.6711943 0.26947853
0.96122646 0.34253156 0.82563317 1.0592084 0.9617344 0.888162 -0.25127488 1.0146166
1.2521713 0.29771227 0.44641247 0.8791957 0.85318774 0.63159704 0.355332 0.5945248
0.63198453 -0.0065178163 0.4384555 0.6827301 0.77993596 0.43792805 0.8056437 0.58832556
-1.4215268 -0.98346686 0.80152357 0.8019469 -0.92951804 -0.3857716 -1.1533486 0.55455923
0.74665743 0.77760184 -0.5562169 -1.2188734 -1.0411688 -0.86394405 -1.0902679 -0.8761943
-1.1193143 0.7275091 0.8188907 1.2103201 -0.6809252 -0.6637149 1.0894828 -1.1578141
0.5159079 0.87847686 -1.4794239 -0.98470414 0.60814905 -0.4345899 -0.62847036 -0.6115093
-0.9224549 -0.2589174 -1.3047624 0.57916594 0.074315265 1.410395 -0.26255304 -1.3761193
1.0291607 1.2203077 -0.5705508 0.8245563 1.0725409 1.1828089 1.0769129 1.5514919
-0.3814143 1.0301471 0.34234864 0.61029065 -0.94768685 0.753322 0.6251411 0.5978828
0.33442947 0.71895874 1.03265 0.16026278 -1.0593933 1.2070259 0.8902548 0.9177105
1.3599812 0.4766076 -0.78041226 1.0166053 0.64004034 -0.75230455 0.22417685 -0.93516225
0.763114 -1.3783594 -0.68343073 1.2545561 1.1496758 -0.32071579 1.4366312 0.88271904
-1.2790118 -0.31462765 1.0543848 -1.2313707 -1.0974656 0.43385813 -0.6978933 0.018324718
-1.3198406 -1.4233845 0.7832242 -0.13748315 -1.0603775 -1.0740532 1.202808 0.6596932
